DR_Info_CFR/Jobs/Models/netD.pth (torch, 179819 bytes, 5 tensors)

hidden1.weight f4 [200, 19]
00000000: 5a06 4e3b f963 35bd 03f2 babd f7e6 f7bd
00000010: 13df 603d 1666 08bd e78c d6bd 52b9 38be
00000020: fb1d 15be 5a2b 093e a203 3b3d 527e ccbc
00000030: e6cc 12be d275 68bd 723f 12bd b39a 0fbe
00000040: ff81 bbbd 9b2d b7be 52eb fc3d c8c6 0dbc
00000050: 4790 4a3d ff71 f4bd eeb9 4a3d 9045 ff3d
00000060: ac92 54bd 2b10 9fbc 91ab 6e3e 771b f13c
00000070: 4976 bfbd ec19 283e 6618 e63c 6a57 af3b
00000080: 1b7c cb3d 5322 c03d 9898 383d f868 ca3d
00000090: df71 b0bc 21f5 84bd 247c 87bd 6849 c0bd
000000a0: c7c7 903d 7352 003d 9015 c93c b0f8 29bd
000000b0: 618b 22bd 7135 a43d 4a86 02bd fb6f e73d
000000c0: 40a7 d23d 2559 48be c30a 92bd b0af 8d3c
000000d0: 76cd f2bc 9437 2cbd 8c54 a73c d3f7 06bf
000000e0: 835c 383d 83a7 7b3d fbbb 70bd f934 b53d
000000f0: e77d 293d 1cb0 163d 28c1 ac3d c24e 08be
00000100: f172 693c c07c 6dbd 94fd febd 9f57 f2bd
00000110: cbb9 8fbb ee27 e7bd 0270 8b3c 0fea e4bc
00000120: 9b13 05be 1ca7 acbd 1df8 2e3d 364a a33d
00000130: 3c9d 853d 24fb 55be ffc2 e83d 803b 683e
00000140: f02f a5bd 1d76 7a3d d0f1 2c3d 0d8c 12bc
00000150: 8cab 24be aa9b 59be c073 1aba 0e30 9abd
00000160: 8d73 353d 27b0 b23c be5a f03c 453e bbbc
00000170: 4b0c 163e ca64 4f3e 023b 1abe d2be 153e
00000180: a1d5 38be c213 1b3e 4a81 b03c d35d 15bd
00000190: a87c ad3a 4fa3 913d d81f 923d 9cd5 ffbd
000001a0: b098 3fbe e3ce 26be 7062 753e 4e65 61bd
000001b0: 53fa 21be 2038 193d 3b99 b43d 6853 df3b
000001c0: c368 9cbd 0119 463d a6ac d93d 3e5b 1ebd
000001d0: b8e8 9cbb bc0e 91bc b1e1 853d 83ee 34bd
000001e0: deb4 6a3e b677 0b3b cccf acbd 6868 6c3d
000001f0: 2f6d e73c 13f1 e13c 6876 39be 261d e33b
00000200: 0ae1 d23b a78c 803d 7517 0735 b606 113d
00000210: 1dc0 973d fa54 3fbd b017 4dbd 3d1d a93d
00000220: 8237 40bd 718f 083c 10e1 663d 033b da3d
00000230: b942 44be ab75 cbbc c2c8 59be 70cd 7a3d
00000240: 0264 ac3d dd18 adbd 2dd5 ac3d d33f ac3b
00000250: 1b72 85bd f199 40bc bb1e a6bd fb0d 5b3e
00000260: 511d b6bd 6e4d 7ebc d8a0 59bd e34e b5bd
00000270: 3de6 3fbc d1e8 38bd 545f f4bd 09c8 af3d
00000280: 2d6e e73d 3db5 c7bc f1b1 87bc 4ee1 713d
00000290: 7dcd 8d3c 02e7 87bc c5d0 563c 888c 833d
000002a0: 14bb e73d 73be c43e 8e1d 97bd 024d f4bc
000002b0: ff63 973d 912c 14be 1ad6 09bd d253 e73d
000002c0: a4d2 943d cce1 493c 7ecc c73a 0d42 5f3d
000002d0: 0289 f43d 7fdd 0bbd d42b 013e edab bebd
000002e0: da44 49bd cca5 28bd 14ea 8abd d3a3 e63a
000002f0: 5577 0cbe 5ca6 8f3d a19b 903d 04e1 133e
00000300: 0532 90bd 6b4a b53d 5111 2ebd d138 08be
00000310: f68f 943d 801d e93d 359d 9bbd 3515 763d
00000320: 76fa 303e 15f0 27bd 42bb 813e 7339 a33c
00000330: 9c39 0abe 565a f63d 9793 fb37 ecb1 703d
00000340: a6b9 153e 2df2 4f3d 8cce 413e 8ca9 023d
00000350: c286 e1bb 2558 903d b02b 18bd ae60 483e
00000360: 07b4 673d b478 923d cbab 9d3b 234b 3bbd
00000370: 8a4d 023d 7446 01bb 9283 853c 0d60 013c
00000380: da23 a03d 21c6 6b35 f148 ff3b 7c3c 03bd
00000390: dfa6 a03d 1ee3 413e cc6f b9bd f55a 663d
000003a0: 9c8f 113d c101 ce3c ed14 283e d756 41bd
000003b0: cb95 353d a353 193e 2e99 febd 98c3 69bc
000003c0: 013c bd3d b911 d0bd 6e58 2cbd ea3a d7bc
000003d0: e8dd 7b39 34e6 403b b39c 5fbb a65e 0abd
000003e0: ccb2 a13d d6aa 9abd 0cae 683e 819e 023e
000003f0: 641c d03d 70d1 463d 392e 7f3d 667b adbc
0.0031436891 -0.044284794 -0.09128191 -0.121046 0.05490024 -0.03330048 -0.10476094 -0.18039444
-0.14562218 0.13395444 0.04565776 -0.024962578 -0.14335975 -0.056752987 -0.035705037 -0.14023857
-0.09155654 -0.35776982 0.12349571 -0.00865335 0.049454 -0.119358055 0.049493723 0.1246444
-0.05189769 -0.01941689 0.23307635 0.029432042 -0.09348733 0.16416138 0.028087806 0.0053509967
0.099357806 0.09381547 0.0450674 0.098833025 -0.021538673 -0.06492067 -0.06615475 -0.09389001
0.070693545 0.03132863 0.024546415 -0.041496933 -0.039683703 0.08018006 -0.03186635 0.113006555
0.10285807 -0.19565256 -0.07130959 0.017295688 -0.029638987 -0.04204519 0.020426057 -0.527219
0.0450101 0.06143905 -0.058773022 0.08847994 0.041379835 0.036789045 0.08435279 -0.13311294
0.014248596 -0.0579803 -0.1245071 -0.11833119 -0.004386162 -0.11286913 0.017021183 -0.02794364
-0.1299576 -0.08430311 0.042717088 0.07973139 0.06524131 -0.20896584 0.113653176 0.22678947
-0.08065784 0.061147798 0.042222798 -0.0089445235 -0.16081065 -0.21250787 -0.0005891882 -0.07528697
0.04429965 0.021812512 0.029340144 -0.02285684 0.14653127 0.20253292 -0.15061572 0.14623573
-0.18050243 0.15144256 0.021546025 -0.03646643 0.0013236003 0.07111227 0.0713498 -0.12491915
-0.1871059 -0.16289859 0.23963332 -0.055028252 -0.15818147 0.03740704 0.08818289 0.0068153627
-0.07637169 0.04836369 0.10628633 -0.038661234 -0.0047884844 -0.017707221 0.06537188 -0.044172775
0.22920558 0.002128107 -0.084380716 0.057716757 0.028250305 0.027580773 -0.18111575 0.006930965
0.006435518 0.06276827 5.0325554e-07 0.03540679 0.074096896 -0.0467119 -0.05007142 0.0825753
-0.046927936 0.00833498 0.05636698 0.10655787 -0.19166078 -0.024836382 -0.2126799 0.061231077
0.084175125 -0.08452008 0.084390976 0.005256632 -0.065159045 -0.0117554525 -0.0811133 0.21392052
-0.088923104 -0.01552139 -0.05313191 -0.08852937 -0.011712608 -0.045143906 -0.11932245 0.085830756
0.11300311 -0.024378413 -0.016564341 0.059052758 0.017309899 -0.016589645 0.013111298 0.064232886
0.11314979 0.3842655 -0.07378684 -0.029821876 0.073921196 -0.14470126 -0.03365145 0.11295284
0.07266739 0.012321901 0.0015243439 0.05450635 0.11940195 -0.034146782 0.12614375 -0.09310136
-0.049137928 -0.04117374 -0.06782928 0.0017596431 -0.13717397 0.070141524 0.07060934 0.14441305
-0.070407905 0.08852085 -0.042496983 -0.13302924 0.07254021 0.1138258 -0.07598344 0.06007882
0.17283043 -0.041000444 0.2533818 0.019924855 -0.13498539 0.12028949 2.9990259e-05 0.05876343
0.146216 0.050768066 0.18926448 0.031899974 -0.0068825195 0.07048062 -0.03715104 0.1956813
0.05656817 0.071519285 0.004811739 -0.045725953 0.03181223 -0.0019725831 0.01629809 0.007896435
0.07819338 8.783264e-07 0.0077906777 -0.032040104 0.07844328 0.18934295 -0.09054527 0.056239087
0.035537347 0.02514732 0.16414233 -0.047201958 0.044332307 0.14973311 -0.124315605 -0.014267825
0.092399605 -0.1015963 -0.04207652 -0.02627321 0.00024019892 0.0029434087 -0.00341205 -0.03378167
0.07895431 -0.075521156 0.22722644 0.12755777 0.10161665 0.04853958 0.06229994 -0.021177005

hidden1.bias f4 [200]
00000000: b69d 3f3d 8062 063d 0332 103e a367 3f3d
00000010: 3636 debc 99d7 433d abee 513c 3ef8 81bb
00000020: eb1c 32bd c1d6 403d b18d de3b 0fa0 cf3c
00000030: 7476 173d 453a e43c d17b c0bc 8fde 863c
00000040: 938e 0e3e eb70 5d3d fbe6 48bd 0e28 733d
00000050: 04cd bb3d 805a 043e 0307 ba3d 6eee b23c
00000060: 2a92 ca3b e85a 433c 87b0 c43d 8285 95bd
00000070: 5ddf c23d 387b 403b aafb a43d efec 653d
00000080: 8862 4b3d 99f3 263d aa70 313d 13e2 e3bc
00000090: c80c 903d 88e1 9d3d e841 7b3d 5cee fe3b
000000a0: 44c5 8fbd 782f a03d 44a4 22bd 6512 0dbc
000000b0: cb81 eb3d f6c3 123b cfb2 1e3d 348d 8b3c
000000c0: 031d c43c 6ab3 133e f36c 953d 6146 af3c
000000d0: bb39 1e3d 6dbd 313d 01ff 84bd 1b62 41bd
000000e0: f0f6 223d 056b 1a3d 8515 14bc a280 7bbd
000000f0: 4a7a 1a3d a4ad 33bd 68f5 833d b7de 3d3d
00000100: ff5d f4bc 4a68 2cbd 94c1 743c 8397 87bc
00000110: 7937 603d 1e41 bdbc 45c8 a33d 30fe a33c
00000120: ec5d 1c3d aec9 913c 0aa2 bb3b 8c62 4e3c
00000130: 1d75 973d 8f9c 913d bf83 0ebd a7bb 843b
00000140: c607 853d e2b4 abbb c66e bb3b 64d2 fb3b
00000150: 07c6 233d c5d0 fb3c 4dea cb3d c11e 6cbd
00000160: 97b2 083e fb9e 66bd 3988 923d c9f1 92bc
00000170: 6491 223c 75f2 193e c0f1 5f3d 8164 643d
00000180: 2ecd 223d e861 973d 4aa2 c0bc ed4f ea3c
00000190: 91ec 91bc 2388 d83c 3e42 b5bc 25ed 133d
000001a0: ab30 983c f168 7a3d 9963 3a3c e55b 1f3e
000001b0: 01af 9d3c 9bdf ca3c 3539 cf3c 02a9 563c
000001c0: 0d39 1e3d 3aa3 e63c 05db babc 79de e63c
000001d0: e49c 6b3c c9ea 043d 5280 aa3d b304 37bd
000001e0: 84d0 a6bb 98e7 5e3d 34d1 8abd 594f 5bbc
000001f0: 53df 9ebd e9c2 ab3b daa4 a43d 7533 933d
00000200: 3492 5bbd 3b71 2a3d 5416 043c 1a7d b83b
00000210: 9fd4 003b 4e1c 2abd 64f0 563d 6eb5 6d3d
00000220: a553 c83c 1866 8a3c e51b dbbc b09f cbbc
00000230: 5d6a 3e3d f242 adbc 356a 49bd 2a70 d73d
00000240: 5a96 8c3d ff20 c8bc be52 9f3d 206e c53c
00000250: 1391 9e3b 784a 363d 27e2 78bb 07bb 233e
00000260: 76ec adbc 3699 d03c 10b5 503b 6000 b33d
00000270: 89d3 53bc d759 6dbc 2c1d d43d 7467 e03d
00000280: b09b ef3c d3cb fb3d cdd2 8a3d 825d 3ebc
00000290: 0e60 04bd 216b 4f3d c1af 04bd c779 0b3d
000002a0: 18da 8cbd fa8b f93c 2a01 603d d46e 6e3d
000002b0: 7089 1c3d edf6 803c 6211 733d ec4d afbc
000002c0: ffed d43d 0854 a53b fc12 0a3a ccc7 33bd
000002d0: 6bbb b63d aead 8ebd e279 adbc 1249 abb9
000002e0: eb7a aabc 5c2f 41bd ce89 10bd 8ded 823d
000002f0: 3838 b4bc de7a c33c 6f57 383d 1b7f ac3c
00000300: 7390 4b3d 71e8 0fbc e20f 1a3e 9b47 bbbc
00000310: bdd5 5a3d 76e3 cf3c 4434 363d 71ee 563d
0.046781264 0.03280878 0.14081578 0.046729695 -0.02712546 0.04781303 0.0128132505 -0.0039663604
-0.04348461 0.047079805 0.0067917933 0.025344877 0.0369782 0.027859816 -0.02349654 0.016463546
0.13921575 0.054062765 -0.049048405 0.05936437 0.09169963 0.12925148 0.09083369 0.021842208
0.006181975 0.011923529 0.096039824 -0.07300855 0.095152594 0.002937032 0.080558136 0.05613416
0.049654514 0.040759657 0.043320335 -0.027817762 0.07033688 0.07709032 0.06134215 0.0077798795
-0.07020047 0.07821554 -0.039707437 -0.008610343 0.114993654 0.0022394634 0.038744744 0.017035104
0.023939615 0.1442391 0.07296171 0.021395864 0.038629275 0.04339354 -0.06493951 -0.0472127
0.03978628 0.037699718 -0.009038334 -0.06140197 0.03771428 -0.04386677 0.06443292 0.046354976
-0.029829977 -0.042091645 0.014938731 -0.016551739 0.054740403 -0.02310234 0.07997183 0.020018667
0.03817551 0.017796364 0.0057261037 0.012596738 0.073953845 0.07109939 -0.03479361 0.00405069
0.06495623 -0.005240069 0.0057199923 0.0076849926 0.039983775 0.030739198 0.09956799 -0.057646517
0.13349377 -0.05630396 0.07154889 -0.017937558 0.009922359 0.15033896 0.05467391 0.05575991
0.039746456 0.07391721 -0.023514885 0.028602565 -0.017812999 0.026432103 -0.022126313 0.03611483
0.018577894 0.061135236 0.011376285 0.15562399 0.019248487 0.024764827 0.025295833 0.013101818
0.038628627 0.028154004 -0.022809515 0.028182255 0.014380667 0.03245047 0.083252564 -0.044682216
-0.005090775 0.054420084 -0.067781836 -0.013385617 -0.077574395 0.005241741 0.080392554 0.07187549
-0.053606227 0.04161189 0.008061964 0.0056301476 0.0019657982 -0.0415309 0.052475348 0.058034353
0.024453947 0.016894385 -0.0267467 -0.024856418 0.046488155 -0.021150086 -0.049173553 0.105194405
0.06864615 -0.024429796 0.07779454 0.024100363 0.0048390715 0.044504613 -0.0037976594 0.15989314
-0.021230917 0.025463682 0.0031846203 0.08740306 -0.012928852 -0.0144867515 0.103571266 0.10957232
0.029249042 0.12294736 0.06778488 -0.011618974 -0.032318167 0.050639275 -0.032394174 0.034051683
-0.068775356 0.030462254 0.05468861 0.058211163 0.038217008 0.015742743 0.05934275 -0.02139946
0.10396957 0.0050454177 0.0005267111 -0.043891713 0.08922466 -0.069667205 -0.021176282 -0.00032670103
-0.020810565 -0.047164306 -0.03528767 0.063929655 -0.021999463 0.023862299 0.04500526 0.021056702
0.049698304 -0.008783446 0.15045121 -0.022861293 0.053426493 0.025377017 0.044483438 0.05247349

hidden2.weight f4 [200, 200]
00000000: f80c 1e3e def3 29bd 5d96 62be 82e1 863d
00000010: 085d 84bc aacb 44bd c4b3 343d d4b6 cd3b
00000020: 6c5b 88be c055 f5bc 06c5 15bd 3c5c 963d
00000030: f2ad 5ebc ea55 dbbc 3dd3 873d 5c3b 79bd
00000040: af51 35be 46a0 9e3d 5959 14be 7294 813d
00000050: 08e9 e1bd a6b4 c13e aad6 273d 2fda 37bb
00000060: 87ab cc3b 8894 513d 665a 1c3d 4802 03bd
00000070: d8df 9e3d 91c5 923c 441a 8c3d 7fbe b4ba
00000080: 4940 383e b4d4 65bc 350a 5ebd 4ceb 533d
00000090: ea2e 4b3e aaf8 843d 338a a7bb bcc2 73bd
000000a0: 6d52 9cbd fa41 c2bc 8cb6 d73c 42c8 933d
000000b0: 87df 67bd 2045 443d 9b56 8fbc cae5 9cbd
000000c0: 27fb 44bc ee5a 7ebe 03fc 1c3d 3e83 0b3d
000000d0: 420b f33d b342 873d 46b6 4c3d 47cf 5c3d
000000e0: 8d6d b9bd e518 bd39 20db febc dcec 1bbd
000000f0: f4f0 69bd 9c19 02bd 20cb 863d 9cb5 dcbc
00000100: 3b6c aabd 8331 83bd 7338 b93d 06f7 293b
00000110: 6b54 1ebd 3ef0 3b3d a70a 1fbd a03e bfba
00000120: f6ca 613c 8c98 963d 8936 32bc 43d9 4cbd
00000130: b57e 19bd c53d 2b3e d784 9e3c a9c7 dd3c
00000140: 694d 233d 9296 f83c 686f 8ebc 46d9 3d3d
00000150: b433 823c 0f53 813d 287b 30be 4e1f 1cbc
00000160: 8e27 3abe 1e79 2e3d 1b92 ad3d bae1 8bbb
00000170: 1705 a6bc e05b a0be 6edb d23d bc91 113e
00000180: b322 c8bc f38d 98bd 27ed 6dbd 8d66 223c
00000190: e57a 48be a111 b83c 5fff 82ba 4649 9e3d
000001a0: 7f5a 483d b7ba 193e 61f2 853c 7827 8ebe
000001b0: e325 b1bc ac5c 86bc 07c0 7ebd 0860 3d3d
000001c0: a597 62bd c54c 5bbd 910f 8abc a421 88bc
000001d0: 70d4 1c3b 0b58 163e 1cbf b23d 868f 093d
000001e0: 9da5 f2bc 28a6 8b3b fd0e 1dbc e23c c93d
000001f0: 7428 23be 0df0 dbbd d210 eab9 bd9f 643d
00000200: 26e4 cdbb 9ce0 9abc 4438 83bd 6f39 b7bc
00000210: 3341 66bd 7b73 fdbd 2630 903d 3203 0ebe
00000220: 486a 54bc fef6 76bd a23b d1bc 1016 2fbd
00000230: 73d1 423d 266d d43d 657f f4bc 74e0 adbd
00000240: 06fb ba3d 77ce e3bd e3e1 d83c 5d99 9fbc
00000250: de24 70bc 623e 3cbd f46f cc3c e6cb 60be
00000260: 196c 8d3d b1b6 bb3d 1514 a33d 1c0d f23d
00000270: 0e48 98bb cb10 95bd 6eb9 cd3d 1df0 8d3d
00000280: 6463 043c 59ef 973d 8857 c83c 647f 83bd
00000290: 11f3 1c3d 6299 1fbd b279 01be f9d4 c63d
000002a0: c768 6ebe ec23 a63d 34eb 3e3e 6b1c 093d
000002b0: e7b3 6b3d da8c d4bc 18f6 1b3d f9d9 b6bd
000002c0: 37fd 2e3e 536c 2c3d c9b1 973b 1115 fc3a
000002d0: 8d89 4d3d efa6 7bbe 5834 d6bc 058d 6b3d
000002e0: 1dbe 153d 2ecc 15be 4223 27be f15b 0abd
000002f0: 237d 17be 97e1 8b3d 046d fe3c 846a ddbc
00000300: 5ec0 c63d a120 dc3a ed3f 00be f476 913c
00000310: e0c7 1c3d b014 df3d 7bc0 28bd 19d2 e63d
00000320: b6e2 2bbe 6fd5 243d c599 87bc e59b eb3d
00000330: ee89 58bc 002a fabc 40b0 263d acfc 53bc
00000340: e008 683e a5ca f03b a77d 9d3d 2cbc 93bd
00000350: cf5c 753c 033c eabb 2580 3d3d 6288 813d
00000360: 1f76 b6bc 87b3 acbd 49dc 663e e6b4 abbd
00000370: 647c 23bd 9c16 adbe 04ff cbbd d5d3 29bc
00000380: c7c8 ecbd e244 173d 0032 13be 82aa da3c
00000390: 83b8 66be c6aa d03c e2a7 00be 5596 88be
000003a0: 6399 04be a15b 753d dae8 5d3a be95 ef3d
000003b0: 75f0 14be cbf0 b33c 0ca0 123d e2f5 84bc
000003c0: 06d2 813d 7f84 1e3d d841 093e 7adc bbbc
000003d0: 4639 113c d8cd 783d 8a93 343d 8bcd fb3d
000003e0: 7c78 c33d e82e 20bd 9c08 22be 7d85 703d
000003f0: c51b e03c aac2 acbd 43cd 41bd 39da 183d
0.15434635 -0.041492335 -0.22127672 0.06585981 -0.016157642 -0.04804579 0.04411675 0.0062778983
-0.2663225 -0.029948115 -0.03656485 0.07341811 -0.0135912765 -0.026774365 0.066320874 -0.060847625
-0.17706941 0.077454135 -0.14487208 0.06327142 -0.11030775 0.37833136 0.040976204 -0.0028053632
0.0062460336 0.05116704 0.03817215 -0.031984597 0.077575386 0.017916473 0.06840947 -0.0013789682
0.17993273 -0.014027763 -0.054208953 0.05173807 0.19842115 0.064927414 -0.00511291 -0.059511885
-0.07632909 -0.0237131 0.026332162 0.072159305 -0.056609657 0.047917485 -0.017497351 -0.07661016
-0.01202277 -0.24839374 0.038326275 0.03406071 0.11867382 0.06604519 0.049978517 0.053908613
-0.09054098 0.00036067437 -0.031110346 -0.038067684 -0.057114556 -0.031762704 0.06581712 -0.026942067
-0.083214246 -0.06405928 0.0904397 0.002593459 -0.038654726 0.04588341 -0.03882852 -0.0014590807
0.0137813 0.07353315 -0.01087726 -0.050011884 -0.037474353 0.16722782 0.019350452 0.027072744
0.039868746 0.030345235 -0.017387107 0.046349786 0.015893795 0.0631467 -0.1723448 -0.009528948
-0.18179151 0.042595975 0.08475133 -0.004268852 -0.020266099 -0.31320095 0.10295759 0.1421575
-0.024430608 -0.0744895 -0.058087494 0.009912145 -0.1957813 0.022469344 -0.0009994319 0.077288195
0.04891443 0.15012632 0.016350927 -0.27764487 -0.021624511 -0.016401611 -0.06219485 0.04623416
-0.0553204 -0.05354001 -0.016853126 -0.016617604 0.0023930334 0.14682023 0.087278575 0.03358414
-0.029619986 0.0042617507 -0.009586093 0.098260656 -0.159334 -0.107391454 -0.0004464449 0.0558164
-0.006283301 -0.01890593 -0.06407216 -0.022366254 -0.056214523 -0.12375542 0.070404336 -0.13868406
-0.012964793 -0.060294144 -0.02554113 -0.04274565 0.047563028 0.10372381 -0.029845903 -0.08490077
0.0912991 -0.111233644 0.026474899 -0.019482309 -0.014657227 -0.04595793 0.024955727 -0.21952781
0.069053836 0.09165705 0.07962815 0.11818907 -0.0046472615 -0.07278594 0.100451335 0.069305636
0.008080337 0.07418699 0.0244558 -0.06420782 0.038317744 -0.038964637 -0.1264408 0.0970859
-0.23282157 0.0811232 0.1864441 0.033474367 0.057544615 -0.02594607 0.03807649 -0.08928294
0.17088781 0.042095494 0.004629348 0.0019232352 0.050180007 -0.24575399 -0.026148006 0.057507534
0.03655826 -0.1462867 -0.16322044 -0.03377909 -0.1479383 0.06830137 0.031057842 -0.02702833
0.0970466 0.0016794392 -0.12524386 0.017756917 0.038276553 0.10892618 -0.04119919 0.11270542
-0.16785702 0.04024261 -0.016552815 0.11504344 -0.013216479 -0.030537605 0.04069543 -0.01293866
0.22659636 0.007348376 0.07689982 -0.07213625 0.014975741 -0.0071482672 0.046264786 0.06324841
-0.022273121 -0.084326796 0.2254497 -0.08384113 -0.03991355 -0.33806312 -0.0996075 -0.010365446
-0.11561733 0.036930926 -0.14374542 0.026692633 -0.22531323 0.025472056 -0.12564042 -0.26677194
-0.12949137 0.059901837 0.00084651785 0.11698483 -0.14544852 0.021965405 0.035797164 -0.016230527
0.06338887 0.038700577 0.13404024 -0.02293228 0.008863753 0.060743183 0.044086017 0.122950636
0.09544465 -0.039107233 -0.15823597 0.058721054 0.027356992 -0.08435567 -0.047314893 0.03731749

hidden2.bias f4 [200]
00000000: cda6 4f3d 4eac 24bd c076 a03c 2a16 85bc
00000010: b4db 013d 5ffc 10bc 5d6e 36bc e64f c73c
00000020: 70ef c2bc 717c 8abc ec7a e3bb 778f d83c
00000030: b988 0abc a39b 84bc 4428 923b 0687 a03c
00000040: a344 23bc feb8 9f3d 3175 09bc 75d5 9dba
00000050: 2e32 8c3d 9f57 17bc 8e94 003d b262 00bc
00000060: 1590 39bc 0f8e 2cbc 7bd7 f4bb c389 81bc
00000070: b935 37bb dfb3 52bc 9b96 623d e6ab 1d3d
00000080: efe5 36bc e640 063d 71ed 453d 7ea2 a03d
00000090: b5eb 113d b213 043c 101c 423a 13d7 543b
000000a0: 2a50 163d 9f70 44bb 77a0 4abc df66 5dbc
000000b0: 2be6 e6bb b880 523d 79e3 603d 53e6 303d
000000c0: 9dbc bfb9 940d 5b3d 0402 44bc de01 953d
000000d0: b522 66bc 164d 173d 989e f93c 2a6c f83c
000000e0: 0299 9bbc 2f07 aa3c 7f3a 483d a543 f1bb
000000f0: fb26 103d c8f9 afbb 69d6 febb 140d 043d
00000100: 9f76 4bbc 78e1 a4bb bb4e 863c 8b29 86bc
00000110: 3390 54bc 8ebd 853d d971 11bb edf1 923d
00000120: fc8a 9bbb 13f2 7ebb 731a b0bc a0f0 fdbb
00000130: fb4d 0fbd d3f8 c03d 8a83 ecb8 ef8d 4cbc
00000140: 467c 863d 0b43 4a3d 1a6f ecbc 08ce 4bbc
00000150: e25e 1a3d 31bf afbb 7805 083d 2571 423d
00000160: a513 1ebd 1c60 acbc f655 473d 658f ce3c
00000170: ff32 813a 63e2 e0bb d188 0e3b df1f 3cbd
00000180: a71b b5bb 32f4 153d 3661 a6bc 3b59 3d3d
00000190: 3952 773c 576e efbc 7ef4 e2bb 3b1d 473d
000001a0: 0498 133d 63cd b73d 132c b0bc e7df 4ebc
000001b0: 43fe 093d bfb7 113d 73bc d4bb c644 32bd
000001c0: 7121 d33c 52c7 35bc a2a4 593d 282e 313c
000001d0: 10fc 313d 3a84 253c 18e8 febb 94b4 153d
000001e0: 4c53 33bc ff4b 86bc 4c37 743c aab0 053d
000001f0: 60d8 90bc 0355 f6bb 3aca 043d 49ea 2dbc
00000200: 8829 2fbc 60f1 02bc 1fbe 123d 5f9f 273d
00000210: bb4a 15bd 0325 a03c d05d 73bc a52d 2cbd
00000220: 478a 9fbb e34a d6ba ffcd 213b 42f5 00bd
00000230: e88e 473d fa2f 0abc c106 b4bb 3978 6a3d
00000240: bea4 423d e31d d63c db5e 43bc fec4 4dbd
00000250: 46c3 533d 7452 31bd eb56 833d 4402 28bc
00000260: 3333 b4bc bfce 84bc d44e 22bc 2f1a 7cbc
00000270: 1a97 0abd 0a64 94bc 0f78 493d 63b5 e73b
00000280: aa91 133d a9f6 00bc 0da5 323d e7d3 47bc
00000290: fbc2 abbb 74e9 85bc 696c a0bb 9c3d 64bb
000002a0: bdb6 4b3b 554a 6e93 d625 953c c46c 2dbd
000002b0: fc25 aebc 7c81 ef3b 7d63 703d bfe8 8cbb
000002c0: 4b07 36bc fecf a6bc 32c1 bdbc c07e 9cb0
000002d0: 6876 16bd 31a2 aebb ef9e f9bb 94c2 ddba
000002e0: 6f41 49bb bb63 43bc ba09 4dbb de04 2b3d
000002f0: a6b3 9e3c c57e d43c 8fa9 a5bb 8715 6d3c
00000300: 5976 d33c db43 07bd f28e ab3c 3322 503c
00000310: 7b22 45bb c1f9 8c3d a373 1bbb a167 3bbc
0.050696183 -0.040203385 0.019587874 -0.01624592 0.031703666 -0.008849232 -0.011134711 0.02433009
-0.023795813 -0.016905041 -0.0069421437 0.026435597 -0.008455449 -0.016187495 0.0044603664 0.019595634
-0.009965095 0.07798956 -0.008389757 -0.0012041765 0.068455085 -0.009237199 0.031391673 -0.007836031
-0.011325856 -0.010531916 -0.0074719763 -0.01581276 -0.0027955605 -0.012860267 0.05531941 0.038494013
-0.011163219 0.032776736 0.048322145 0.07843493 0.03562518 0.008061336 0.00074046943 0.0032476827
0.036697544 -0.0029974354 -0.012367359 -0.013513296 -0.007046481 0.051392287 0.054904435 0.043188404
-0.00036570887 0.053479746 -0.011963371 0.07275747 -0.014046361 0.03693875 0.030471131 0.030325014
-0.018993858 0.020755379 0.04888391 -0.0073628 0.035193425 -0.0053703524 -0.0077770245 0.032239035
-0.012418418 -0.005031761 0.016394963 -0.016377231 -0.012973833 0.06530295 -0.0022193103 0.0717505
-0.004746793 -0.0038901612 -0.021496987 -0.007749632 -0.034986477 0.094224595 -0.00011277858 -0.0124850115
0.06566672 0.049380343 -0.028861571 -0.012439258 0.037688144 -0.005363368 0.03320834 0.047471184
-0.038592953 -0.021041922 0.048665963 0.02521486 0.0009857117 -0.006862925 0.002174903 -0.045928832
-0.005526978 0.036609836 -0.020310026 0.046227675 0.015095287 -0.029227419 -0.0069261184 0.04861186
0.036033645 0.08974721 -0.021505391 -0.012626625 0.03368975 0.035575625 -0.0064921915 -0.04352262
0.025772782 -0.011094885 0.05313552 0.010814227 0.043453276 0.010102326 -0.0077791326 0.036549166
-0.0109451525 -0.01639366 0.014905762 0.032639183 -0.0176813 -0.0075174584 0.03241942 -0.01061494
-0.010691054 -0.007992119 0.035825845 0.040923472 -0.03644822 0.019548899 -0.01485391 -0.042035718
-0.004868779 -0.0016349222 0.0024689434 -0.031483896 0.04872027 -0.00843429 -0.005493969 0.05724356
0.04752039 0.026137298 -0.011924471 -0.050236695 0.0516999 -0.043291524 0.06413063 -0.010254446
-0.02199707 -0.016211865 -0.009906489 -0.015387102 -0.033835508 -0.018114109 0.049186762 0.0070711835
0.036027588 -0.007871308 0.043614436 -0.012196518 -0.0052417493 -0.01634667 -0.004895736 -0.003482676
0.0031084262 -3.0076472e-27 0.018206518 -0.042340055 -0.021258347 0.007309137 0.05868863 -0.0043002064
-0.011110137 -0.02036285 -0.023163412 -1.1386518e-09 -0.036734015 -0.0053293933 -0.0076178233 -0.0016918951
-0.0030709167 -0.011925633 -0.0031286315 0.04175269 0.019372772 0.025939355 -0.0050556134 0.014470465
0.025813268 -0.033023696 0.020942185 0.012703466 -0.0030080366 0.06883574 -0.0023720048 -0.011438281

out.weight f4 [1, 200]
00000000: 20a8 503e a89c debe 7f25 653e 2633 58be
00000010: b397 073e 9298 99be 01f0 213d 8a05 8a3e
00000020: 2e32 d9be b672 85be f0f0 783d 4e2d 1e3e
00000030: a663 a9be 7684 43be 0181 7c3e 436c ec3e
00000040: 0dde 5fbe 67d8 9c3e 98c8 65be 9b6b 813e
00000050: 2a3b b63e ee95 88be b4be 5f3e 52d1 1e3d
00000060: c21c a5be b94e 88be eff5 12be a079 3abe
00000070: abc7 3cbe bfb0 9cbe 0039 4a3e cc45 b73e
00000080: e259 9abe 843d 913e 912d 583e 3118 9d3e
00000090: 643b 8d3e 71cf ca3e 0f5a 0f3e 35fc bb3d
000000a0: 3706 683e d14a 9bbe c981 9abe 4af6 7fbe
000000b0: 2e67 4f3e c34c 773e ce7b bb3e 10e2 013e
000000c0: 1a2c e7be ee24 3a3e 3215 57be 155c a23e
000000d0: 675b 08be aef0 873e 07ef 783e 3c97 e23d
000000e0: 7c53 75be 3073 943e 4688 6b3e b0b7 87be
000000f0: 4ec1 2e3e f660 94be d86f 8bbe 2175 313e
00000100: 4f2e 9fbe ad1b 97be 78d8 a53e d546 2cbe
00000110: 300c 15be d000 be3e 75f3 113e a033 973e
00000120: 1e4f 843d c97a 64be 27d5 58be b849 adbe
00000130: 1521 81be ea90 f5be 6147 e43e 27c8 87be
00000140: 0a4f b23e a607 e13e 1ee0 c1be 0810 34be
00000150: e0ed c13e 85f6 9abe 95e7 c23e 2397 8a3e
00000160: 76ec cbbe 377c 5cbe 2802 413e c36f d73d
00000170: 7467 97be d596 9cbe 2e5b e13d c3f7 a5be
00000180: c916 b5be 01e3 8e3e b780 b7bd 4896 d03e
00000190: cb00 383e 7953 b6be e5ee 9fbe 03fb debe
000001a0: d990 583e 7bc2 da3e 5534 1fbe f241 4bbe
000001b0: cc6d 5c3e 8877 513e ec48 3e3d a38e 99be
000001c0: 1f72 bcbe 260f 74be 029c 1c3e 94a2 c43e
000001d0: 07b5 953e 94dd a93e 224f 423d dbd5 403e
000001e0: 874e 873d 6fac 33be 325a 683d 265a 243e
000001f0: 00d4 25be 417c 97be 8ec9 703e bf46 6dbe
00000200: 3bf6 99be bcc5 5a3d b223 a73e 48b5 f5be
00000210: 28f2 bbbe e4c5 6d3e edd3 32be a483 19be
00000220: 6693 81be a8cd 7abe 7038 b83e 453b ecbe
00000230: 0829 8b3e a601 aebe a0f8 8dbe 7154 9e3e
00000240: 60d2 533e 1601 f53d f115 da3d 4565 abbe
00000250: 3132 aa3e 1587 f1be 6d1e 8c3e 69b2 52be
00000260: 59e9 e1be 9f75 55be e192 89be b6c3 46be
00000270: 5a0e 82be 0a60 a9be 0a78 023f 0f77 af3e
00000280: 7219 9b3e 182e 773d c882 a93e a0e1 6cbe
00000290: e26a 66be 50aa 62be 23dd 943c 0e13 8b3d
000002a0: 1138 313d 05a4 0031 d08d cb3e fb71 8fbe
000002b0: 5098 3bbe 79ea de3e 5d38 933e ce67 843c
000002c0: 0676 97be adfd f2bd 1a6c 02be d6e7 4f15
000002d0: 8c6f b8be c7c8 aabe 4294 aa3d 613e 263b
000002e0: cd9b c0be 7063 a9be 44ef 093c 4eb3 603e
000002f0: a9c8 ea3d 550b 7b3e b25c febe 1a3f 9b3e
00000300: d22c f43e 5a36 ffbe c3ed 853e 682a 833e
00000310: 60c6 52be cebf 823e f785 75be 0839 50be
0.20376635 -0.43478894 0.22377585 -0.21113262 0.13241462 -0.29999214 0.039535526 0.2695735
-0.42421097 -0.2606408 0.06077665 0.1544697 -0.33083838 -0.19093499 0.24658586 0.46176347
-0.2186205 0.30633852 -0.22439802 0.2527741 0.35592014 -0.26676887 0.21850091 0.038773842
-0.32248503 -0.2662256 -0.14351629 -0.18210459 -0.18435542 -0.30603597 0.19748306 0.35795438
-0.301467 0.28367245 0.21111132 0.3068252 0.27584374 0.3961139 0.13999198 0.09178964
0.22658621 -0.30330518 -0.30177143 -0.24996296 0.20254204 0.24150376 0.36617893 0.12683892
-0.45150834 0.1817815 -0.21004179 0.31710878 -0.13316117 0.26550812 0.24309932 0.11064002
-0.23957628 0.2899413 0.23001203 -0.2650733 0.17065927 -0.28980225 -0.27233768 0.17329837
-0.31090018 -0.29513302 0.32391715 -0.16823895 -0.1455543 0.37109995 0.14253028 0.29531574
0.06460403 -0.22312464 -0.21175061 -0.33845305 -0.25220552 -0.47962123 0.44585708 -0.26519892
0.34825927 0.43951148 -0.378663 -0.1758424 0.37876797 -0.30266204 0.38067308 0.27068433
-0.39828843 -0.21531759 0.18848479 0.10519364 -0.29571116 -0.30583826 0.11003719 -0.3241559
-0.35368946 0.27907565 -0.08960097 0.40739655 0.17969052 -0.3561056 -0.3123695 -0.43550882
0.21149005 0.42726502 -0.15547307 -0.19849375 0.21526259 0.20455754 0.046456262 -0.29991636
-0.36805817 -0.23833904 0.15293887 0.38405287 0.29239675 0.33176863 0.04743875 0.1883158
0.06606775 -0.17546247 0.056726642 0.16050014 -0.16194153 -0.29586986 0.23514387 -0.23171519
-0.3007067 0.05341123 0.3264442 -0.4798987 -0.36708188 0.2322002 -0.17463656 -0.14991623
-0.2530777 -0.24492514 0.35980558 -0.4613897 0.27179742 -0.33985633 -0.27728748 0.309238
0.2068572 0.11963098 0.10648716 -0.334757 0.33241418 -0.47173372 0.27366963 -0.2057587
-0.44123343 -0.2084565 -0.26869872 -0.19410595 -0.25401574 -0.33081084 0.50964415 0.34270522
0.3029285 0.060346693 0.3310759 -0.23132944 -0.2250171 -0.22135282 0.018171852 0.06790744
0.04326636 1.8719686e-09 0.39756632 -0.28016648 -0.18319821 0.43538263 0.2875394 0.01616278
-0.29582232 -0.11864791 -0.1273655 4.1986203e-26 -0.36022604 -0.33356306 0.08329059 0.002536677
-0.37618867 -0.33083677 0.008418862 0.219434 0.11464054 0.24516042 -0.49680096 0.3032158
0.47690445 -0.49846154 0.2615796 0.2561829 -0.20583487 0.2553696 -0.23976885 -0.20334256
