DR_Info_CFR/Jobs/Models/netG.pth (torch, 648743 bytes, 10 tensors)

shared1.weight f4 [200, 200]
0	0xbcf0f63d	-0.02941429
1	0xbaa0d241	-0.0012269692
2	0xbb178747	-0.0023121403
3	0xbe090cb6	-0.13383755
4	0x3dcc35ef	0.099712245
5	0x3dc84f80	0.097807884
6	0xbd2d2083	-0.042267334
7	0xbdbde4f6	-0.092721865
8	0xbd762dd4	-0.0601023
9	0x3d4417df	0.047874328
10	0xbcb43b7c	-0.02200102
11	0x3dc23b3e	0.09483956
12	0xbc991f8a	-0.018691797
13	0x3d6c6419	0.057712648
14	0xbeba3963	-0.36371908
15	0xbbba8580	-0.005692184
16	0x3d00112a	0.03126637
17	0x3ae29d4a	0.0017289307
18	0x3cb5f693	0.022212302
19	0xbd978d1a	-0.0739996
20	0x3d8f425b	0.06995078
21	0xbd96da52	-0.0736586
22	0x3caff375	0.021478394
23	0x3d12705e	0.035751693
24	0x3d88e1c0	0.066836834
25	0xbdde5bf6	-0.10857384
26	0x3d5ef020	0.05442822
27	0xbda1f51d	-0.0790808
28	0x3c834d7d	0.01602816
29	0xbd96889a	-0.073502734
30	0x3dbfa24f	0.0935713
31	0x3cfa1df6	0.030531865
32	0xbcbf7548	-0.023371354
33	0x3a8b212d	0.0010614746
34	0xbb8590a4	-0.0040760804
35	0xbd3ca0e0	-0.04605186
36	0x3d9ef74d	0.07762013
37	0xbc8bd8e1	-0.01707119
38	0x3a5e45d4	0.0008479033
39	0x3c53a8ae	0.012918634
40	0xbc758023	-0.014984163
41	0xbd37fc63	-0.04491843
42	0x3d58553c	0.05281566
43	0xbbc4464f	-0.0059898268
44	0x3c415fe6	0.011802649
45	0xbdafc0e3	-0.08581712
46	0x3d9da825	0.07698087
47	0x3da764a7	0.08173495
48	0xbcf2b8c8	-0.029629126
49	0xbc8c8a58	-0.017155811
50	0x3db13dbb	0.08654352
51	0x3dbda737	0.09260409
52	0xbd899215	-0.06717316
53	0x3d91c02d	0.07116733
54	0x3dceb9ae	0.10094009
55	0x3c0605f2	0.008180128
56	0xbd051b80	-0.03249693
57	0x3d418324	0.047244206
58	0xbd470d09	-0.048596416
59	0x3c802e4f	0.015647082
60	0x3ce2e3f7	0.027696593
61	0xbe005964	-0.125341
62	0x3d81ce18	0.063381374
63	0x3c6a573b	0.014303024
64	0x3cf548df	0.029941974
65	0xbd217b9d	-0.039424527
66	0x3d9dd60e	0.07706843
67	0xbd598cf9	-0.053112958
68	0xbba9173b	-0.00516024
69	0x3c5e6e65	0.013576125
70	0x3c97601a	0.018478442
71	0xbcca1f01	-0.024672987
72	0x3df0d581	0.11759473
73	0x3dc937a3	0.09825065
74	0xbd2db73c	-0.042411074
75	0xbc025414	-0.007954616
76	0x3a1b4dc3	0.0005924368
77	0x3c85d07b	0.016334763
78	0x3cb83625	0.022486756
79	0x3d8a1d1e	0.06743835
80	0xbc7601a3	-0.015015039
81	0x3d73c963	0.05951823
82	0xbc4c9bc8	-0.012488313
83	0x3b8587b8	0.004075017
84	0x3d8f8f9f	0.070098154
85	0x3c7081b1	0.014679358
86	0xbce0dad6	-0.0274481
87	0xbc4995b3	-0.0123037575
88	0xbc7a0df6	-0.015262118
89	0x3d0856aa	0.033285774
90	0x3bd666fd	0.006543039
91	0x3c8ec599	0.017428206
92	0xbd9dea18	-0.077106655
93	0x3d2b74db	0.04185949
94	0x3bdda14d	0.0067636133
95	0xbd3119ec	-0.04323761
96	0xbd92a47e	-0.07160281
97	0xbd294390	-0.0413242
98	0x3d2bcd06	0.041943572
99	0xbd0143fc	-0.031558976
100	0xbd581a32	-0.052759357
101	0xbc877f03	-0.016540056
102	0x3d6c5ba4	0.057704583
103	0x3dc1294c	0.09431705
104	0xbd84817a	-0.06470008
105	0xbd32c532	-0.04364509
106	0x3d809d51	0.06280006
107	0x3b9c013e	0.0047608903
108	0xbd55461f	-0.052068826
109	0x3d8d6e92	0.06905855
110	0xbd3b540d	-0.045734454
111	0x3bb2466a	0.005440523
112	0x3d94b249	0.07260568
113	0x3d8d5f75	0.069029726
114	0x3cdecf8a	0.027198572
115	0x3c17038a	0.009217152
116	0x3d8861a3	0.06659248
117	0x3d3dbc2f	0.046322044
118	0xbd1095fa	-0.03529928
119	0x3db5d052	0.088776246
120	0x3d41e554	0.047337845
121	0x3e2c071b	0.16799586
122	0xbce4b1cd	-0.027916813
123	0xbd1bbfca	-0.0380247
124	0xbdb29137	-0.08719104
125	0xbd3f4253	-0.04669411
126	0xbccf5694	-0.025309838
127	0x3d6f6c2b	0.058452766
128	0x3d87baa5	0.066273965
129	0xbd8eae7c	-0.06966874
130	0x3d903add	0.07042477
131	0xbccb27e7	-0.0247993
132	0xbe06bcec	-0.13158005
133	0x3b0611c0	0.0020457357
134	0x3d348e5e	0.044081084
135	0xbce2558f	-0.027628688
136	0x3d2b2551	0.041783635
137	0x3ca9f1ef	0.020745246
138	0x3d34b592	0.04411847
139	0xbbe4a5f0	-0.006977789
140	0x3b56490e	0.0032697353
141	0x3da0692a	0.078325585
142	0xbbe4e0ca	-0.0069848048
143	0x3cbacb2a	0.022801954
144	0x3c4ad0f5	0.012378921
145	0xbde089bb	-0.1096377
146	0xbd721146	-0.059098504
147	0xbc86dc8f	-0.016462592
148	0x3cb29f9c	0.021804623
149	0x3d4b487c	0.049629673
150	0x393fea1d	0.00018302393
151	0x3cdf4702	0.027255539
152	0x3ce6e78a	0.028186578
153	0xba7f1f54	-0.0009732146
154	0x3cf66ee5	0.030082176
155	0xbe0d25a4	-0.1378389
156	0xbd44b1b7	-0.048021045
157	0xbc4db972	-0.012556421
158	0x3ccb3c13	0.024808919
159	0x3d6d158a	0.05788187
160	0x3c5dd29b	0.013538982
161	0xb9f941b7	-0.00047541942
162	0xbd7faffa	-0.062423684
163	0xbe08215e	-0.13293979
164	0x3dc3aa3e	0.095539555
165	0x3cc25edd	0.023726875
166	0xbe14ef4f	-0.14544414
167	0xbce734c9	-0.028223412
168	0x3d37b738	0.044852465
169	0x3daa6b04	0.08321193
170	0x3d4651f8	0.048418015
171	0x3d0f03d8	0.034915775
172	0x3cf1b481	0.029505016
173	0x3c244140	0.010025322
174	0xbb1d5d83	-0.0024012036
175	0xbcb8d968	-0.022564605
176	0xbabbddcd	-0.001433307
177	0x3df90795	0.12159649
178	0x3d66d3f9	0.056354497
179	0x3db57c7f	0.08861636
180	0x3c639bab	0.013892095
181	0x3cac0daf	0.021002619
182	0x3d005c05	0.031337757
183	0x3daafdd3	0.083491944
184	0x3d02c139	0.031922553
185	0x3c976d8e	0.018484857
186	0x3cf70002	0.03015137
187	0x3ca75c44	0.020429738
188	0x3d0aeebc	0.03391908
189	0x3e25bea6	0.16186008
190	0xbcd0038e	-0.02539232
191	0x3dc27c00	0.094963074
192	0x3d231c25	0.039821763
193	0x3d1c6fd4	0.038192585
194	0xbd1f4c37	-0.038891044
195	0xbcd2f104	-0.02574969
196	0x3d1c8350	0.038211167
197	0x3d618f57	0.05506834
198	0xbc55d34e	-0.013050867
199	0xbc16b343	-0.009198013
200	0xbd1b7909	-0.037957225
201	0xbcce7c24	-0.02520568
202	0x3d63cea0	0.055616975
203	0xbeea6344	-0.4577886
204	0x3d26d1f5	0.040727574
205	0x3cdddebc	0.027083747
206	0xbd120beb	-0.035655897
207	0xbcbed953	-0.023296988
208	0xbca31d33	-0.019911384
209	0x3d1e4616	0.038641058
210	0xbd6cf3f5	-0.057849843
211	0xbcf53c62	-0.02993602
212	0xbcab5cd3	-0.020918285
213	0xbc8fe985	-0.017567405
214	0x3d4969fa	0.049173333
215	0x3ce16338	0.027513131
216	0xbb48dd31	-0.0030649418
217	0x3ce3087e	0.02771401
218	0x3c901170	0.01758644
219	0x3d1d611d	0.038422693
220	0xbd87778e	-0.066146
221	0xbd931f37	-0.07183688
222	0xbc25258a	-0.010079751
223	0x3cdd97d9	0.027049946
224	0xbd882689	-0.06647975
225	0xbd12cec5	-0.035841722
226	0xbc8625c4	-0.01637543
227	0x3c99b545	0.018763194
228	0x3ce2a331	0.027665706
229	0x3cb958b5	0.022625307
230	0x3d639bd0	0.055568516
231	0x3bf9fb1a	0.0076288106
232	0x3b8a1de7	0.0042149904
233	0xbd8500dc	-0.064943045
234	0xbc9dfd9b	-0.019285968
235	0xbd71a6b8	-0.058996886
236	0x3d77ad5d	0.060468066
237	0xbd59a1a4	-0.05313267
238	0x3d5be03f	0.053680655
239	0xbbff85c4	-0.0077979285
240	0xbca7cd07	-0.020483507
241	0x3d17771f	0.036978837
242	0x3b7c9381	0.0038540068
243	0x3d9ebd45	0.07750944
244	0x3cd6ad4f	0.026205687
245	0x391bebb1	0.00014869754
246	0x3ca68836	0.020328622
247	0xbce4c678	-0.027926669
248	0x3ca2e4db	0.019884517
249	0xbcf21aa1	-0.029553713
250	0x3d13d57b	0.036092263
251	0x3c9bb172	0.019005511
252	0xbc369952	-0.011144953
253	0x3d899593	0.06717982
254	0xbd775b12	-0.060389586
255	0x3d346e4b	0.044050496

shared1.bias f4 [200]
0	0x3cec634a	0.028855938
1	0x3de34f5d	0.11099122
2	0x3e35ce85	0.17754562
3	0x3e27b2fe	0.16376874
4	0x3dcf980a	0.10136421
5	0x3dd00de0	0.101588964
6	0x3c3b48e0	0.011430949
7	0x3d78e490	0.06076485
8	0x3de43f6a	0.11144908
9	0x3e24b033	0.1608284
10	0x3d30c90c	0.043160483
11	0xb845c124	-4.7148336e-05
12	0x3d8f5610	0.06998837
13	0x3d8193c7	0.063270144
14	0xbcae29e9	-0.021260219
15	0x3deac2fc	0.114629716
16	0x3c9a50c6	0.018837344
17	0x3d037e1f	0.0321027
18	0x3d8c8bd8	0.068626106
19	0x3d9b4550	0.0758158
20	0x3c0c991d	0.008581427
21	0x3da50db2	0.08059253
22	0x3d61a557	0.05508932
23	0x3c02e61b	0.007989432
24	0x3dfbbba2	0.122916475
25	0x3d9247be	0.0714259
26	0x3e250068	0.16113436
27	0x3dd4b19c	0.10385439
28	0xbc970e2f	-0.01843938
29	0x3c2c7f11	0.010528342
30	0x3d26ac05	0.040691394
31	0xbd3a6c25	-0.04551329
32	0x3ccb903f	0.024849055
33	0x3e0b72b3	0.13617973
34	0x3e244610	0.16042352
35	0x3d1dd714	0.038535193
36	0x3ddbbc5d	0.10729287
37	0xbc3bec28	-0.011469878
38	0x3d514ed4	0.051100567
39	0xbd79a5cb	-0.060949128
40	0x3d8f6146	0.07000975
41	0x3e0613ec	0.13093537
42	0x3dd9fb2f	0.106436126
43	0x3d61e087	0.055145767
44	0x3e202905	0.15640648
45	0x3d6d0e2a	0.057874836
46	0x3d8fccc4	0.07021478
47	0x3dbeab19	0.09309978
48	0x3e089f26	0.1334196
49	0x3d8c8f3d	0.06863258
50	0x3bc616dd	0.006045206
51	0x3cc4af0a	0.024009246
52	0x3cc68bb8	0.024236545
53	0xbd3ebedb	-0.046568733
54	0x3dc43ee7	0.0958231
55	0x3e1fc604	0.1560288
56	0x3b479889	0.0030455908
57	0x3e331c27	0.17491208
58	0x3db0e837	0.086380415
59	0x3ce63bbb	0.028104654
60	0x3cd7cfaa	0.02634414
61	0xbbbd953c	-0.0057856124
62	0x3daf447c	0.08557984
63	0x3dade8d2	0.084916726
64	0x3c176bce	0.009242011
65	0x3cb3e1de	0.021958288
66	0x3d776326	0.06039729
67	0x3e16342a	0.14668337
68	0x3e0b4ead	0.13604231
69	0x3cf0023c	0.02929794
70	0x3daa370f	0.08311283
71	0x3cfc6a44	0.03081239
72	0x3de104e5	0.10987262
73	0x3d9fcc20	0.07802606
74	0x3bce1960	0.006289646
75	0x3e4aaa80	0.19791603
76	0x3daf6141	0.085634716
77	0x3d01c9f7	0.03168675
78	0xbc8a005c	-0.016845874
79	0x3b0c20fb	0.0021381963
80	0xbd7ec4c9	-0.062199388
81	0x3b7d0ec5	0.003861354
82	0x3daa1588	0.08304888
83	0x3d9c0ac5	0.076192416
84	0x3b44183c	0.0029921671
85	0x3d770afc	0.06031321
86	0x3dc7270b	0.09724244
87	0x3da9d833	0.0829319
88	0xbb0c7898	-0.0021434184
89	0x3d85b28e	0.06528197
90	0x3d23d467	0.039997485
91	0x3d4d6f2b	0.050154846
92	0x3e2ec940	0.17068958
93	0x3c57126b	0.01312695
94	0x3d843013	0.06454482
95	0x3d257d14	0.040402487
96	0x3d315ab9	0.04329941
97	0x3dd23db8	0.10265678
98	0x3cf8e490	0.030382425
99	0x3e04f3e9	0.1298367
100	0x3d910c81	0.07082463
101	0x3d2defdc	0.042465076
102	0x3df67b51	0.120352395
103	0x3da9bc9e	0.08287929
104	0x3d260deb	0.040540617
105	0x3e3dc9d2	0.1853402
106	0x3d943daa	0.07238324
107	0x3d11d1e9	0.035600577
108	0x3ae4928a	0.0017438692
109	0x3da8e807	0.08247381
110	0x3d416f64	0.04722537
111	0x3da1d77f	0.07902431
112	0x3d9c9bb7	0.07646888
113	0x3d2142a8	0.03937021
114	0x3db46d5c	0.08809921
115	0x3db1bb72	0.086783305
116	0x3d0f7bc1	0.03503013
117	0x3d92d191	0.07168878
118	0x3e2c036b	0.16798179
119	0x3ccc45b0	0.024935573
120	0x3d60d4ce	0.054890446
121	0x3dd2ed51	0.10299171
122	0x3cb13834	0.021633245
123	0x3ddeca3a	0.108784154
124	0x3e21119c	0.15729374
125	0x3d95b57a	0.073100045
126	0x3d0ad5e5	0.033895392
127	0x3e031790	0.12801957
128	0x3d127356	0.035754524
129	0x3daf76e9	0.08567602
130	0x3e1fc4f6	0.15602478
131	0x3dc68d45	0.09694914
132	0xbc9808bd	-0.018558854
133	0xbcde4a71	-0.027135106
134	0x3e0f4c48	0.13993943
135	0x3e0b20e2	0.13586763
136	0x3de9f977	0.11424535
137	0x3dd4c857	0.10389774
138	0x3d40bcb7	0.047054972
139	0x3dfb8356	0.1228091
140	0x3d4c7014	0.049911574
141	0x3dde7d0e	0.10863696
142	0x3c84f8d6	0.016231935
143	0x3d54f0fb	0.05198763
144	0x3e07e56e	0.13271114
145	0x3e16dfee	0.1473386
146	0x3d9529ad	0.0728334
147	0xbb9f9e5f	-0.004871174
148	0x3d880626	0.06641798
149	0x3d5a8d83	0.053357612
150	0x3c9c3857	0.019069834
151	0x3e135f57	0.14391838
152	0x3e2efcf9	0.17088689
153	0x3d436989	0.047708068
154	0xbb5ace2f	-0.0033387055
155	0x3db2936c	0.08719525
156	0x3ceaac97	0.02864675
157	0x3df0f242	0.11764957
158	0xbb8b6275	-0.0042536804
159	0x3d077a93	0.03307588
160	0x3d038c5c	0.03211628
161	0x3e11dc6e	0.14244244
162	0x3e3696c0	0.17830944
163	0x3df0b4dc	0.11753246
164	0x3d93ec5d	0.07222817
165	0x3dea1dbd	0.114314534
166	0x3da59405	0.08084873
167	0x3e0de40d	0.13856526
168	0x3e1a7af9	0.15085973
169	0xbc9cf962	-0.019161884
170	0x3d1c0acc	0.038096234
171	0x3d8a90b3	0.067658804
172	0x3e183215	0.14862855
173	0x3e1c6676	0.15273461
174	0x3d971295	0.07376591
175	0x3beaf3d1	0.0071701785
176	0x3cd95b73	0.026532864
177	0x3daa6379	0.08319754
178	0x3e1c920c	0.15290087
179	0x3db594e5	0.0886629
180	0x3caaa4e6	0.020830583
181	0x3d6170d0	0.055039227
182	0x3ce3103e	0.027717706
183	0x3d065b1b	0.03280173
184	0x3d7ce086	0.06173756
185	0x3deddb68	0.11614114
186	0x3deb6d0e	0.1149541
187	0x3d86d263	0.06583097
188	0x3ddb62e6	0.10712223
189	0x3df57753	0.1198565
190	0x3d8b03ae	0.06787811
191	0x3d8022a1	0.06256605
192	0x3e1ccc58	0.15312326
193	0x3cd64b30	0.0261589
194	0x3d166e3c	0.03672622
195	0x3dee88b6	0.11647169
196	0x3cdea31f	0.027177392
197	0x3dde6ebd	0.108609654
198	0x398131b2	0.00024641823
199	0x3c99a12d	0.018753612

shared2.weight f4 [200, 200]
0	0xbd931c75	-0.07183162
1	0xbda278fe	-0.07933234
2	0xbdec972a	-0.1155227
3	0xbd5b46eb	-0.05353443
4	0x3c704263	0.014664265
5	0xbda3ad03	-0.07991984
6	0x3a5c6b50	0.0008408325
7	0xbcb55e72	-0.022139762
8	0xbd43132a	-0.0476257
9	0xbcf700d9	-0.030151771
10	0x3d3b40ee	0.04571622
11	0x3e0f6f70	0.14007354
12	0x3c725fe6	0.014793372
13	0xbcf67992	-0.030087266
14	0xbd3e6d30	-0.046490848
15	0xbdcf009d	-0.10107539
16	0xbcf7e470	-0.030260295
17	0xbd01c4b0	-0.031681716
18	0xbdaed7ee	-0.08537279
19	0x3c817f07	0.015807642
20	0xbd292ec5	-0.04130437
21	0xbdc29adf	-0.095021956
22	0x3d187792	0.037223406
23	0xbdcb0611	-0.099132665
24	0xbcfd5144	-0.03092254
25	0xbdf61fc0	-0.120177746
26	0xbcacd9c5	-0.021099934
27	0xbd8097b1	-0.06278933
28	0xbcfb9a85	-0.03071333
29	0xbc708753	-0.014680701
30	0x3ded17d1	0.11576808
31	0x3d7ea332	0.062167354
32	0x3e35a4dc	0.1773867
33	0x3cbeb753	0.023280775
34	0x3d1ca169	0.03823987
35	0x3dbbe5d3	0.09174695
36	0xb7bd2500	-2.2547785e-05
37	0x3d6f9874	0.058495
38	0xbd3a141f	-0.045429345
39	0x3cd5f7dc	0.026119165
40	0x3b335072	0.0027361182
41	0xbd87ff38	-0.06640476
42	0xbd6746f3	-0.056464147
43	0xb98ce9f4	-0.0002687719
44	0x3c87b9a6	0.016568016
45	0x3cdfcb91	0.027318748
46	0x3cee0723	0.029056137
47	0x3da7cb7c	0.081931084
48	0x3caaebeb	0.020864448
49	0x3d5e6786	0.054297946
50	0x3c919930	0.01777324
51	0xbcda00a3	-0.026611632
52	0x3d772bae	0.06034439
53	0xbbb950a9	-0.0056553674
54	0x3d3bbb8c	0.045833156
55	0xbe12338e	-0.14277479
56	0x3cf44fbb	0.029823175
57	0x3abd26aa	0.0014431078
58	0xbd14810a	-0.036255874
59	0x3ca04ad0	0.019566923
60	0x3da15ff3	0.07879629
61	0xbd3f651c	-0.046727285
62	0xbc28823a	-0.010284955
63	0x3c330a27	0.0109277135
64	0xbd6f7013	-0.05845649
65	0xbdbccece	-0.09219132
66	0x3c585238	0.013203196
67	0x3e202cf4	0.15642148
68	0x3a15a5fd	0.0005708633
69	0x3d4cbf5a	0.049987175
70	0xbc88e655	-0.016711393
71	0xbdbc9805	-0.09208683
72	0xbda07b3f	-0.07836007
73	0xbc24e0f5	-0.0100634
74	0x3dc2775f	0.094954245
75	0xbcae83bc	-0.02130305
76	0xbd4ebfc7	-0.050475862
77	0x3cc51f02	0.024062637
78	0x3da7952f	0.081827514
79	0x3e057894	0.13034278
80	0x3d9c6936	0.07637255
81	0x3dcd0a8d	0.10011778
82	0x3be87c67	0.007094908
83	0xbdfa1bc0	-0.12212324
84	0xbd7d0de5	-0.06178083
85	0xbdd806f4	-0.10548201
86	0x3cb82d03	0.0224824
87	0xbcb9b364	-0.022668548
88	0x3cd75e02	0.026289944
89	0xbe41b9e0	-0.18918562
90	0xbcabff48	-0.020995751
91	0xbd8178ba	-0.06321855
92	0x3c9f1aa3	0.019421881
93	0xbcd2558d	-0.02567556
94	0x3d3b8ea6	0.045790337
95	0xbd6beee8	-0.057600886
96	0xbd34d81c	-0.04415141
97	0x3d12d330	0.035845935
98	0xbd835317	-0.064123325
99	0xbd12e06d	-0.03585856
100	0x3da920c0	0.082582
101	0xbd58ce93	-0.05293138
102	0x3c819c34	0.015821554
103	0x3c0e8592	0.008698838
104	0xbceb1c01	-0.028699877
105	0x3d7bf05b	0.061508518
106	0xbd5a834b	-0.053347867
107	0xbdbbea5a	-0.091755584
108	0x3d465fd1	0.04843122
109	0xbe040a1d	-0.12894483
110	0xbd6de359	-0.058078144
111	0x3c9b1405	0.018930444
112	0x3d67cd9e	0.056592576
113	0xbcd2aeaf	-0.025718061
114	0xbd36f903	-0.04467107
115	0xbb836a43	-0.00401047
116	0xbd8c7637	-0.06858485
117	0x3c5997c6	0.0132808145
118	0xbdba2a7a	-0.09090133
119	0xbd777ec8	-0.060423642
120	0xbd9d5798	-0.07682723
121	0xbc85f664	-0.01635284
122	0xbd2b9dc9	-0.041898523
123	0x3c859181	0.016304733
124	0xbd458b12	-0.04822833
125	0x3d149c2f	0.03628176
126	0x3c54de54	0.01299246
127	0xbe1b17a7	-0.15145741
128	0xbd3991f4	-0.045305207
129	0xbe0fb305	-0.14033134
130	0xbdd2665b	-0.10273429
131	0xbdabd776	-0.08390705
132	0x3d70782e	0.058708362
133	0x3d5ff96b	0.054681223
134	0xbda685bd	-0.08130977
135	0xbc8feefc	-0.017570011
136	0xbdab0784	-0.08351043
137	0xbc9c1811	-0.019054445
138	0x3b7249a4	0.0036970163
139	0xbd9843d5	-0.07434813
140	0xbb9e0d5d	-0.0048233704
141	0x3d90222a	0.07037766
142	0xbd5fcf25	-0.054640908
143	0xbd93d9aa	-0.072192505
144	0x3e0ec7a6	0.13943347
145	0x3c77d30c	0.015126001
146	0xbd59eb53	-0.05320294
147	0xbad7ffbc	-0.0016479413
148	0xbc4dde11	-0.012565152
149	0xbd89c425	-0.06726865
150	0xbe0c1c70	-0.13682723
151	0xbdc0e1e8	-0.09418088
152	0xbd2dda08	-0.04244426
153	0xbd96ecda	-0.073693946
154	0xbc0d6456	-0.008629879
155	0xbddc1ee4	-0.107480794
156	0xbe11428e	-0.14185545
157	0x3d2cb56e	0.042165212
158	0x3b8f0adf	0.0043653096
159	0xbc9ad36d	-0.018899644
160	0x3e12281f	0.14273117
161	0x3cb48dc8	0.022040263
162	0xbd5adf20	-0.053435445
163	0xbca07cf5	-0.019590834
164	0xbdcb8813	-0.099380635
165	0xbdbc9a5f	-0.092091314
166	0xbbf8f392	-0.007597395
167	0x3d650d73	0.05592103
168	0x3e4387ac	0.19094723
169	0x3c2fa550	0.010720566
170	0xbdb4ac80	-0.08821964
171	0x3c1cec95	0.00957789
172	0x3cb62273	0.022233224
173	0xbda45325	-0.08023671
174	0xbe38edf8	-0.18059528
175	0xbd085413	-0.033283304
176	0xbdb73347	-0.08945327
177	0x3ccf7d47	0.025328292
178	0xbdf54b77	-0.119772844
179	0x3d2f41fa	0.04278753
180	0x3d217dea	0.03942672
181	0xbbd516c3	-0.0065029575
182	0xbd00ba23	-0.031427514
183	0xbb9645ee	-0.004585973
184	0x3c1c77a8	0.009550013
185	0x3b15acaf	0.0022838523
186	0xbd8f2b70	-0.06990707
187	0xbd337c51	-0.04381973
188	0x3d4ffa85	0.050776023
189	0x3da1771e	0.07884048
190	0xbcc4e82c	-0.02403649
191	0x3d7f56f8	0.0623388
192	0xbdd5f56d	-0.10447202
193	0xbd6e0984	-0.058114544
194	0xbd4b0210	-0.049562514
195	0x3cae61ae	0.021286812
196	0x3bae99b4	0.0053283814
197	0x3d121b79	0.03567073
198	0xbcfcd5f4	-0.03086374
199	0xbc152105	-0.009102111
200	0xbd9bcc05	-0.07607273
201	0x3ca049c7	0.01956643
202	0x3dd4a40b	0.10382851
203	0x3cf5074e	0.02991071
204	0xbd3f0159	-0.046632145
205	0xbc882ee1	-0.016623916
206	0xbd2b6174	-0.041840985
207	0xbce78df8	-0.028265938
208	0x3dbe5862	0.092942014
209	0xbd9dbc1f	-0.07701897
210	0xbde104d9	-0.10987253
211	0x3d59b2d8	0.053149074
212	0x3db7bcf3	0.08971586
213	0xbcbfe5fa	-0.023425091
214	0x3dc18482	0.09449102
215	0xbd9a979e	-0.0754845
216	0xbd0a2b4a	-0.03373269
217	0xbd3f124f	-0.04664832
218	0x3db0e1cc	0.08636817
219	0x3d8ef3bf	0.06980085
220	0x3c0740be	0.008255182
221	0xbd261906	-0.040551208
222	0x3cd81fde	0.026382383
223	0x3e07e76e	0.13271877
224	0xbd09e8bf	-0.03366923
225	0xbd29720d	-0.041368533
226	0x3d404fe2	0.046951182
227	0x3bc613dd	0.0060448484
228	0xbda9d494	-0.08292499
229	0x3de09313	0.10965552
230	0xbccd379a	-0.025050927
231	0xbc1a35ed	-0.009412271
232	0xbd00f839	-0.031486724
233	0xbd540331	-0.051760856
234	0x3d0af41f	0.03392422
235	0xbddead6d	-0.10872922
236	0xbceff8ab	-0.029293379
237	0xbd2c7404	-0.04210283
238	0x3c2b80db	0.010467733
239	0xbdd85988	-0.10563952
240	0x3d0072e1	0.031359557
241	0x3d903420	0.07041192
242	0x3d3fae10	0.04679686
243	0x3cd9386a	0.026516158
244	0x3c6f24d5	0.014596184
245	0xbd876648	-0.066113055
246	0xbe088f74	-0.13335973
247	0xbd503c4c	-0.050838754
248	0xbd8442e1	-0.06458069
249	0xb5fef520	-1.8995815e-06
250	0xbd98d610	-0.07462704
251	0x3cb316d2	0.021861468
252	0x3cf6939d	0.030099684
253	0xbc9850e3	-0.018593257
254	0xbd1c223a	-0.03811858
255	0xbbf7721e	-0.0075514456

shared2.bias f4 [200]
0	0xbd57a877	-0.052650895
1	0xbbdb9cb4	-0.00670203
2	0xbd2fdaf3	-0.042933416
3	0xbd2f3bab	-0.042781513
4	0xbb9cb195	-0.0047819116
5	0xbc5b4088	-0.013382085
6	0xbd63a03b	-0.05557273
7	0xbd091aa1	-0.03347266
8	0xbc8d75f0	-0.017268151
9	0xbd07ba0a	-0.033136405
10	0xbcef19c0	-0.029187083
11	0xbd2aff8d	-0.04174762
12	0xbd031b05	-0.03200819
13	0xbd21d97b	-0.039514046
14	0xbcee16e3	-0.029063648
15	0xbcde3c30	-0.027128309
16	0xbd484bdd	-0.048900474
17	0xbc99417a	-0.01870798
18	0x3d13685a	0.03598819
19	0xbcf8b69c	-0.030360512
20	0xbc81d84e	-0.015850212
21	0xbd31647b	-0.043308716
22	0xbd18a81f	-0.037269708
23	0x3d48e398	0.049045175
24	0x3cabb02d	0.02095803
25	0xbd0ad0c3	-0.033890497
26	0x3c47db04	0.0121982135
27	0x3da6be9a	0.08141823
28	0xbcb5199a	-0.022106934
29	0xbcf162be	-0.02946603
30	0xbc57322f	-0.013134523
31	0xbd39632d	-0.045260597
32	0xbd09d00c	-0.033645675
33	0xbd164c04	-0.036693588
34	0x3c73cc70	0.014880285
35	0x3dd520eb	0.10406669
36	0xbd0cd647	-0.03438404
37	0xbb4b1dd5	-0.0030993123
38	0xbd53fc29	-0.05175415
39	0x3cc902ec	0.024537526
40	0xbd0acef8	-0.033888787
41	0xbc9eb843	-0.019374972
42	0xbd28fdad	-0.04125755
43	0xbced063e	-0.02893364
44	0x3cdc3d59	0.026884722
45	0xbcca71a4	-0.024712391
46	0xbce26530	-0.02763614
47	0xbc8cf1a7	-0.017205073
48	0xbc892eff	-0.016746042
49	0x3d90b9bc	0.07066676
50	0xbc9cc043	-0.019134646
51	0x3dc1a883	0.09455969
52	0xbd839e0b	-0.06426629
53	0xbd4eaf8f	-0.050460394
54	0xbcea1d82	-0.028578524
55	0xbcabe45d	-0.020982916
56	0xbc26f07d	-0.010189173
57	0xbce7cd52	-0.028296147
58	0xbd283949	-0.041070256
59	0xbd159991	-0.036523405
60	0x3d8e3f63	0.06945684
61	0xbd040e90	-0.03224045
62	0xbcd9691d	-0.02653938
63	0xbce2ebae	-0.027700271
64	0xbd3d08e9	-0.046151076
65	0xbd62c102	-0.055359848
66	0xbd823965	-0.063586034
67	0xbd291d49	-0.041287694
68	0x3bef18ab	0.007296642
69	0x3ca1f98a	0.01977231
70	0xbd2fd789	-0.04293016
71	0xbd81d6e5	-0.06339816
72	0xbd1129fd	-0.035440434
73	0xbd1bf021	-0.0380708
74	0xbc5d9bba	-0.013525898
75	0xbd06419d	-0.032777417
76	0x3b09d81e	0.0021033357
77	0xbd2f7eb2	-0.042845435
78	0xbc1f1680	-0.009709954
79	0xbd3f4b91	-0.046702925
80	0xbc26f78c	-0.010190856
81	0xbc0abc5a	-0.008467758
82	0xbd0e7dc8	-0.034787923
83	0xbd80972c	-0.06278834
84	0xbd430f8f	-0.04762226
85	0x3d42cd59	0.047559116
86	0xbc393d3d	-0.011306104
87	0xbc2cdae2	-0.010550233
88	0x3dbdac47	0.09261375
89	0x3d027995	0.03185423
90	0xbcc5538b	-0.024087688
91	0xba6c6a90	-0.00090185646
92	0xbcbebaee	-0.023282494
93	0xbd8d98da	-0.0691392
94	0xbd09463b	-0.033514243
95	0xbc8102b9	-0.015748369
96	0xbb4a5e6c	-0.0030879034
97	0xbc43cb3d	-0.011950311
98	0xbd7835b2	-0.060598083
99	0x3cdbb5e7	0.026820136
100	0xbc6d9726	-0.014501369
101	0xbd7045ca	-0.058660306
102	0xbc98e238	-0.018662557
103	0xbce63502	-0.028101448
104	0x3b8eef47	0.00436202
105	0xbcde871c	-0.027164035
106	0xbd858307	-0.06519132
107	0xbc980360	-0.018556297
108	0xbd23abc9	-0.03995875
109	0xbc03cd49	-0.008044549
110	0xbd073f75	-0.0330195
111	0x3dc567fc	0.09638974
112	0xbb76532c	-0.0037586195
113	0x3d774a9c	0.060373887
114	0xbc3beb35	-0.011469652
115	0x3d7e32a1	0.062060002
116	0xbd21d17e	-0.039506428
117	0xbd85176d	-0.06498609
118	0xbd0c89fe	-0.034311287
119	0x39da048e	0.00041583594
120	0x3d8f49be	0.06996487
121	0xbd1878c4	-0.037224546
122	0xbc856765	-0.016284654
123	0x3d01cbf5	0.03168865
124	0xbce136e6	-0.027491998
125	0xbd01ca9d	-0.031687368
126	0x3d2db28b	0.0424066
127	0xbcad6d3d	-0.021170253
128	0xbc9a9071	-0.018867703
129	0xbd2e92be	-0.042620413
130	0xbd194c14	-0.03742607
131	0xbc6328c3	-0.013864699
132	0xbd0b981f	-0.03408062
133	0xbcdac985	-0.02670742
134	0xbd01d1bc	-0.03169416
135	0xbc764223	-0.015030417
136	0xbc2f5048	-0.010700293
137	0xbccd0da3	-0.025030917
138	0xbc8fab35	-0.017537693
139	0xbd4bf3b5	-0.049792964
140	0xbd05caf1	-0.032664243
141	0xbc3a16fd	-0.01135802
142	0xbd061ef1	-0.03274435
143	0xbd32325a	-0.04350505
144	0xbc52a358	-0.012856327
145	0xbd3f93f9	-0.046771977
146	0x3da92aa9	0.0826009
147	0xbd0f86ff	-0.03504085
148	0xbce4c519	-0.027926015
149	0xbcaf5eb4	-0.021407463
150	0xbcb86b00	-0.02251196
151	0x3d69d081	0.05708361
152	0xbc3da92c	-0.011575978
153	0xbcdae7b6	-0.026721817
154	0xbcda0785	-0.026614914
155	0xbd38db6f	-0.045131143
156	0x3d44f897	0.048088636
157	0xbc926f96	-0.017875474
158	0xbd418741	-0.04724813
159	0x3ce05d48	0.02738823
160	0xbd3cdac0	-0.046107054
161	0xbd082317	-0.03323659
162	0xbc4f2f49	-0.012645551
163	0xbcb26a80	-0.021779299
164	0xbc6cb01a	-0.014446283
165	0xbce39756	-0.027782124
166	0x3d472739	0.04862139
167	0xbcd8265a	-0.026385475
168	0xbc2fdaee	-0.010733349
169	0xbc853e22	-0.016264979
170	0x3dbaabd9	0.091148086
171	0xbcc99a02	-0.02460957
172	0xbcc1e6ef	-0.023669688
173	0x3c52c284	0.012863759
174	0x3b80469e	0.003914668
175	0xbd067d40	-0.03283429
176	0xbc877f7f	-0.016540287
177	0xbd1033c1	-0.035205606
178	0x3db11e5a	0.08648367
179	0xbd098235	-0.03357144
180	0xbd3844a8	-0.04498735
181	0xbca4ae30	-0.02010259
182	0x3d9e3a4b	0.07725962
183	0xbd521a41	-0.05129457
184	0xbc16dc94	-0.009207863
185	0xbc9ae23b	-0.018906703
186	0xbbec3d39	-0.0072094467
187	0xbc4c5e52	-0.01247366
188	0xbda3c179	-0.07995886
189	0xbd8d343d	-0.06894729
190	0xbc77e224	-0.0151296
191	0xbcc95740	-0.024577737
192	0x3cb32e57	0.021872682
193	0xbc1da045	-0.009620731
194	0xbd51dc41	-0.05123544
195	0x3d98a2b7	0.074529104
196	0xbcce89d8	-0.025212213
197	0xbcbafa27	-0.02282436
198	0x3bf04168	0.007332016
199	0x3da21ed2	0.07916035

hidden_y0.weight f4 [200, 200]
0	0xbd496fad	-0.049178768
1	0xbdcf681a	-0.10127278
2	0x3d5c850c	0.05383782
3	0xbcbbb5b8	-0.022913799
4	0x3e21e091	0.15808322
5	0xbd0e409c	-0.034729585
6	0xbdbd0139	-0.09228749
7	0x3c6ddea1	0.014518411
8	0xbd8a24b2	-0.0674528
9	0xbc4de548	-0.012566872
10	0x3c3936c6	0.011304563
11	0xbd65df9d	-0.056121457
12	0x3d0a5526	0.03377261
13	0x3deda55c	0.116038054
14	0x3c4802b6	0.012207678
15	0xbd045f7a	-0.032317616
16	0xbdbe5d86	-0.09295182
17	0xbe0c6570	-0.1371057
18	0xbca46816	-0.020069163
19	0xbc5bdb1b	-0.013418938
20	0xbdccbca6	-0.09996919
21	0xbdb0ba16	-0.08629243
22	0xbdf3b872	-0.119004145
23	0x3d451dc6	0.048124097
24	0xbcd79d93	-0.026320254
25	0xbd2883d2	-0.04114134
26	0xbda75093	-0.08169665
27	0xbe1501be	-0.14551446
28	0x3d5bef57	0.05369505
29	0xbca0bc7d	-0.019621128
30	0x3e0fb630	0.14034343
31	0xbd877bcf	-0.066154115
32	0x3d93bf1e	0.07214187
33	0xbd35b476	-0.044361554
34	0xbcfa5e79	-0.030562626
35	0xbdec20b9	-0.11529679
36	0x3c929284	0.01789213
37	0xbc7ceefe	-0.01543784
38	0x3c98fe4c	0.018675946
39	0x3db7a988	0.089678824
40	0xbd3bfc87	-0.045895126
41	0x39adf0da	0.0003317658
42	0xbcffdd39	-0.031233417
43	0x3d6ae488	0.05734685
44	0xbd9e7071	-0.0773629
45	0xbbaac2e0	-0.005211219
46	0xbcd8af66	-0.026450824
47	0x3cc6ab23	0.024251526
48	0x3c8bbfdf	0.017059265
49	0xbd49b164	-0.04924144
50	0xbd744ca0	-0.059643388
51	0x3e429491	0.19001986
52	0x3da519ba	0.080615476
53	0x3c561390	0.0130661875
54	0x3c08cb72	0.008349286
55	0x3d49647c	0.049168095
56	0x3cc4fd4d	0.024046564
57	0xbdb0d28a	-0.08633907
58	0x3cce9a0e	0.025219943
59	0x3d39c6bd	0.045355547
60	0xbd9272e6	-0.071508214
61	0x3dbdc71b	0.09266492
62	0xbd5ce658	-0.05393061
63	0x3d552e72	0.052046247
64	0x3d07fa12	0.03319747
65	0xbdec38bf	-0.11534261
66	0x3d92a5e8	0.0716055
67	0x3c46c42f	0.012131735
68	0xbd3fc875	-0.04682203
69	0x3d2859bf	0.041101214
70	0xbc1db068	-0.009624578
71	0xbbfd63d1	-0.0077328463
72	0x3b9909b4	0.004670346
73	0x3dc54b1e	0.09633468
74	0xbd0cb0c6	-0.03434827
75	0x3d6fa028	0.058502346
76	0xbdee3bb9	-0.11632485
77	0xbda1b927	-0.07896643
78	0xbdf7c2ec	-0.12097725
79	0xbe1566e2	-0.14590028
80	0x3cb0651b	0.021532586
81	0xbd2f64d5	-0.04282077
82	0x3d3744f3	0.04474349
83	0x3d333a63	0.043756854
84	0x3d6e525c	0.058184013
85	0x3d89161b	0.066936694
86	0x3d118699	0.035528753
87	0xbd09ef03	-0.033675205
88	0xbd1d0e63	-0.0383438
89	0x3d30b758	0.0431436
90	0x3ccda031	0.0251008
91	0xbdc71cf8	-0.09722322
92	0xbcbd39f9	-0.023098933
93	0x3cf6a0c3	0.030105954
94	0xba6f70e5	-0.0009133949
95	0xbcd45639	-0.02592002
96	0xbcf74eb0	-0.030188888
97	0xbd329161	-0.043595675
98	0x3d58be5a	0.05291591
99	0xbd5fcc2c	-0.054638073
100	0xbc674f60	-0.014118046
101	0x3c997737	0.018733604
102	0xbc840e44	-0.016120084
103	0xbd72b16d	-0.059251238
104	0xbc0a0a36	-0.008425286
105	0x3d962b12	0.07332434
106	0x3d295818	0.04134378
107	0x3e112188	0.14172947
108	0xbd510a01	-0.05103493
109	0x3de5bc59	0.11217565
110	0x3cc8301d	0.024437005
111	0x3df8e740	0.121534824
112	0xbda15eeb	-0.07879432
113	0xbd3359dd	-0.043786872
114	0xbda8ff8f	-0.08251869
115	0xbd09e695	-0.033667166
116	0x3dfe313d	0.12411735
117	0x3c5282fc	0.012848612
118	0x3d1e6cfb	0.03867815
119	0xbd843c8c	-0.06456861
120	0xbd6df801	-0.058097843
121	0x3c9cd92c	0.019146524
122	0x3d022ed9	0.03178296
123	0xbd445031	-0.04792804
124	0x3dd1f664	0.102520734
125	0xbcd96e7c	-0.02654194
126	0x3d8ad895	0.06779591
127	0x3cbc67b2	0.022998665
128	0x3dcf0e47	0.10110145
129	0x3d8ce6e8	0.06879979
130	0x3d8f28a0	0.069901705
131	0xbd4fb649	-0.05071095
132	0xbd8e0924	-0.06935337
133	0xbd586fd0	-0.052841008
134	0x3cedf490	0.02904728
135	0xbccc5626	-0.024943423
136	0xbe09eb6c	-0.13468713
137	0xbd845939	-0.0646233
138	0xbd40fdb3	-0.047116946
139	0x3aa70031	0.0012741146
140	0x3da3c553	0.07996621
141	0x3c85ec19	0.016347932
142	0xbb2c520d	-0.0026294023
143	0x3c294c4a	0.01033313
144	0xbe1ab6f2	-0.1510885
145	0xbd8842a9	-0.066533394
146	0xbd0e86d0	-0.034796536
147	0xbe2d13c8	-0.16902077
148	0x3c1dc9a5	0.009630595
149	0xbc6626a6	-0.0140473
150	0xbde647c4	-0.11244157
151	0xbd79a28f	-0.060946044
152	0x3d3c397a	0.04595325
153	0xbc740a9e	-0.014895109
154	0xbd6184e8	-0.05505839
155	0xbdc2c639	-0.09510464
156	0x3d2dca17	0.042429056
157	0x3d38a8af	0.045082744
158	0xbcd2e1db	-0.025742462
159	0xbd752d1c	-0.059857473
160	0x3d3326e5	0.043738265
161	0xbcb774b6	-0.02239452
162	0x3c059f9d	0.008155731
163	0xbd916a3a	-0.07100339
164	0x3d37f73c	0.044913515
165	0xbd04d04c	-0.03242521
166	0x3cff7e98	0.031188294
167	0xbda9cf5c	-0.08291504
168	0xbcfd0cc7	-0.030889882
169	0x3a4e9c51	0.00078815693
170	0xbc2a7264	-0.010403249
171	0x3e0bb367	0.13642655
172	0x3d3015a9	0.042989407
173	0xbe3b823e	-0.18311402
174	0xbc803c59	-0.015653776
175	0x3ccc3d63	0.024931615
176	0x3d1e905f	0.0387119
177	0x3c00258a	0.00782145
178	0xbd854ecd	-0.06509171
179	0x3e238bae	0.15971252
180	0xbc304c77	-0.010760418
181	0xbbfb4b5e	-0.0076688966
182	0x3cf093c5	0.029367337
183	0xbc36606e	-0.011131389
184	0xbd3fdbc5	-0.046840448
185	0xbcdf036e	-0.027223315
186	0xbbb87166	-0.0056287525
187	0xbd3a3935	-0.045464713
188	0x3c814109	0.015778081
189	0xbd802727	-0.06257468
190	0x3bac3942	0.005255849
191	0x3dd966c6	0.106153056
192	0x3ddeea76	0.108845636
193	0x3d76e16b	0.06027357
194	0x3ccc1589	0.024912613
195	0x3bd43120	0.0064755827
196	0x3da341e3	0.07971551
197	0x3cd93c1b	0.026517918
198	0xbdc6c69e	-0.09705852
199	0x3cba97f4	0.022777535
200	0xbc2d75f5	-0.010587205
201	0x3e5b690e	0.21426794
202	0xbdf37ec5	-0.11889414
203	0xbd2925a0	-0.041295648
204	0xbd90ed42	-0.07076503
205	0x3db192c5	0.08670572
206	0x3c28edb5	0.01031058
207	0xbd875565	-0.066080846
208	0x3c22eb84	0.009943847
209	0x3a0d534b	0.0005391135
210	0x3d3e8a3f	0.04651856
211	0xbc274d96	-0.010211369
212	0xbca83044	-0.020530827
213	0xbcb4d02c	-0.02207192
214	0x3d10ea2e	0.03537958
215	0xbd349e9a	-0.044096567
216	0x3d89b69c	0.06724283
217	0xbd830917	-0.06398218
218	0x3d8a3756	0.06748836
219	0x3cf25e29	0.029585915
220	0x3d976e6f	0.073941104
221	0xbdde2283	-0.10846426
222	0x3d5db57f	0.054128166
223	0x3aa0e98f	0.0012276637
224	0x3b525943	0.003209666
225	0x3d3676e6	0.044546984
226	0x3d3a20aa	0.045441307
227	0xbd327a6c	-0.04357378
228	0xbdfb16b5	-0.122601904
229	0xbd747a85	-0.059687156
230	0xbd6b3c49	-0.05743054
231	0x3d1f27f3	0.038856458
232	0x3c56c93c	0.013109501
233	0x3da80104	0.08203319
234	0xbd2ed691	-0.042685095
235	0xbd12b947	-0.035821225
236	0xbd940ea8	-0.07229358
237	0x3c0d09d8	0.008608304
238	0xbb36ba93	-0.0027882203
239	0xbc909522	-0.017649237
240	0x3d15369c	0.036429033
241	0x3df7b9ae	0.120959625
242	0x3d968078	0.07348722
243	0xbdeb7687	-0.11497217
244	0x3b55ce90	0.0032624342
245	0x3d8eb035	0.069672026
246	0x3dbc93fe	0.09207915
247	0xbcb68936	-0.022282224
248	0x3de083ba	0.10962625
249	0xbd551e6c	-0.052030966
250	0x3c41cef5	0.011829128
251	0xbd9b16c5	-0.07572702
252	0x3d040c01	0.03223801
253	0xbc7c2ad8	-0.015391074
254	0xbc8278a2	-0.015926663
255	0xbd64dc0f	-0.055873927

hidden_y0.bias f4 [200]
0	0xbc0e2be7	-0.008677459
1	0x3d805604	0.06266406
2	0x3d7c2442	0.061558016
3	0xbd62ba36	-0.055353366
4	0x3d73c962	0.059518225
5	0xbd073b0e	-0.033015303
6	0x3d81f293	0.063450955
7	0xbd0a34a3	-0.033741605
8	0xbcda5cc3	-0.02665556
9	0xbd45ff53	-0.0483392
10	0x3d5ff790	0.054679453
11	0x3d6ec704	0.058295265
12	0xbd590496	-0.05298289
13	0x3d87a28a	0.06622799
14	0xbd4b825e	-0.049684875
15	0x3d71a59f	0.05899584
16	0x3d66f4d4	0.05638583
17	0xbd66e1c4	-0.05636765
18	0x3d66d162	0.056352027
19	0xbd505a5e	-0.05086743
20	0xbb82e3dd	-0.0039944486
21	0xbd5ee6ec	-0.054419443
22	0x3d79d905	0.06099798
23	0xbd60f5c6	-0.054921888
24	0x3cd39af1	0.025830718
25	0xbb97d7f7	-0.0046338993
26	0x3d6a3817	0.057182398
27	0x3c78d73c	0.015188035
28	0xbc419da3	-0.011817369
29	0x3d6fa0a3	0.058502804
30	0xbd4e1fe4	-0.050323382
31	0xbd456988	-0.048196346
32	0xbd561633	-0.052267265
33	0xbc0022d7	-0.0078208065
34	0x3d85996b	0.06523403
35	0x3d80d26f	0.06290137
36	0x3b0d9072	0.0021600989
37	0x3d7202df	0.05908477
38	0x3d8bd52b	0.06827768
39	0x3d0ee211	0.034883562
40	0xbc3e2efa	-0.01160788
41	0xbba31300	-0.00497663
42	0x3d298bd6	0.041393124
43	0x3b1858c4	0.0023246268
44	0xbbdc33e9	-0.0067200554
45	0xbc47d3b9	-0.012196475
46	0x3c597439	0.013272339
47	0xba624301	-0.00086312
48	0xbd07117d	-0.032975662
49	0xbc570ab1	-0.013125108
50	0xbd5cffdc	-0.053954944
51	0x3d5cf223	0.053941857
52	0x3d896579	0.067088075
53	0xbd80d4ad	-0.06290565
54	0xbd710af8	-0.05884835
55	0xbc70c86c	-0.014696222
56	0xbc1a366a	-0.009412387
57	0xbce49f61	-0.027908029
58	0x3d65e9c5	0.056131143
59	0xbd548960	-0.051888824
60	0xbc824532	-0.015902136
61	0xbcd862b0	-0.026414245
62	0x3d696761	0.056983355
63	0xbc4a54b3	-0.012349295
64	0xba03e74c	-0.00050317193
65	0xbd68afc0	-0.056808233
66	0x3bd4f106	0.006498459
67	0x3d738e26	0.059461735
68	0xbc774060	-0.015091032
69	0x3a8e6f34	0.0010866881
70	0xbd5bde2b	-0.053678673
71	0x3b2ee360	0.002668582
72	0xbcd3d99f	-0.025860606
73	0xbd4f9d66	-0.050687216
74	0x3d59bd9f	0.053159352
75	0xbad02ff8	-0.0015883436
76	0xbd3628bf	-0.044472452
77	0x3d70c213	0.058778834
78	0x3d62c78d	0.055366088
79	0x3c556eb0	0.013026878
80	0x3d030c19	0.03199396
81	0x3d5c64ed	0.053807188
82	0x3d6b2187	0.05740502
83	0xbc7acbfe	-0.015307425
84	0xbd0e4a9e	-0.03473913
85	0x3d7114ea	0.058857836
86	0xbc2e109e	-0.010624079
87	0x3d698687	0.05701306
88	0xbd34a98d	-0.04410701
89	0xbc23030a	-0.009949455
90	0x3d6ea106	0.058259033
91	0xbc18f284	-0.009335164
92	0x3d6a292d	0.057168175
93	0x3d1d5aa9	0.03841654
94	0xbd552951	-0.052041356
95	0x3d3fbaad	0.046808887
96	0xbc5c2c10	-0.01343824
97	0xbb87a711	-0.004139789
98	0x3d62f6cd	0.05541115
99	0x3c070ac8	0.008242317
100	0x3c59f6a3	0.013303432
101	0x3d7591c3	0.059953462
102	0xbc8b8bc0	-0.017034411
103	0x3d8bc1af	0.068240516
104	0xbc2019a6	-0.00977174
105	0xbd546ba1	-0.051860455
106	0x3d693ea3	0.0569445
107	0x3d842316	0.064520046
108	0xbc385c13	-0.011252421
109	0x3d81894c	0.063250154
110	0xbc1dc430	-0.009629294
111	0xbd30be8e	-0.043150477
112	0x3a0f3c69	0.0005464019
113	0xbd54c67e	-0.05194711
114	0xbcafc3d0	-0.021455675
115	0xbd54db3d	-0.051966894
116	0xbcb39883	-0.02192331
117	0x38d55d5b	0.0001017402
118	0xbc8eb684	-0.017421015
119	0xbc067fd7	-0.00820919
120	0xbc35cfa1	-0.011096866
121	0x3b56bf48	0.003276782
122	0x3d3e3a0b	0.046442073
123	0x3d787ade	0.06066405
124	0xbd5708a5	-0.05249848
125	0xbc59b233	-0.013287115
126	0xbcaba101	-0.020950796
127	0x3c3ff084	0.011715058
128	0xbc44bfdf	-0.012008636
129	0x3d744955	0.059640247
130	0x3d6242b0	0.05523938
131	0x3b45d135	0.0030184512
132	0x3d91a56b	0.07111629
133	0x3d5f3256	0.054491363
134	0xbc0bd345	-0.008534257
135	0xbce4cfb9	-0.027931081
136	0xbbddf5d2	-0.006773689
137	0xbca2e44a	-0.019884247
138	0x3d687a42	0.05675722
139	0xbd543206	-0.05180552
140	0xbc9844a6	-0.018587422
141	0xbd1f27aa	-0.038856186
142	0xbba102b5	-0.004913653
143	0xbd51e73e	-0.05124592
144	0xbd5f3de2	-0.054502375
145	0xbc6e7f7d	-0.014556763
146	0xbcc88fe6	-0.024482679
147	0x3d6caa4d	0.0577796
148	0xbd52ebf1	-0.051494543
149	0xbd915919	-0.07097072
150	0x3d6a244c	0.05716352
151	0xbc722313	-0.01477887
152	0x3d81a14a	0.063295916
153	0xbd13107b	-0.03590439
154	0xbd08d02f	-0.033401664
155	0x3d6732e5	0.05644502
156	0xbbf89a40	-0.0075867474
157	0x3d6783f3	0.05652232
158	0x3d68c581	0.05682898
159	0x3d6bd516	0.05757626
160	0xbcfc85ea	-0.030825574
161	0x3d743614	0.059621885
162	0xbbac7549	-0.005263005
163	0xbcbd87e8	-0.023136094
164	0xbd6787ef	-0.05652612
165	0x3d6dbc80	0.058041096
166	0xbd5c0d65	-0.05372371
167	0xbd6f96b4	-0.05849333
168	0xbd4302c6	-0.047610067
169	0xbc04744d	-0.008084369
170	0x3c4edd4a	0.012626002
171	0xbd4823f3	-0.04886241
172	0xbbc47f54	-0.005996624
173	0xbbc55ad7	-0.006022792
174	0xbca970fd	-0.02068376
175	0xbd5cba5d	-0.053888667
176	0xbbf2716b	-0.0073987744
177	0x3c00edb9	0.0078691775
178	0x3d7cece4	0.061749354
179	0xbd48663b	-0.04892562
180	0xbc8efdd5	-0.01745502
181	0xbceb7425	-0.028741905
182	0x3d7f6826	0.062355183
183	0x3d7c1e40	0.061552286
184	0xbd2b9cfa	-0.04189775
185	0xbd711d0d	-0.058865596
186	0xbcb1cd14	-0.021704234
187	0xbad7717d	-0.001643702
188	0xbd5671e0	-0.052354693
189	0xbd60d868	-0.05489388
190	0xbd621946	-0.055199884
191	0x3d804128	0.062624276
192	0xb6ce3e65	-6.146542e-06
193	0xbcd7774b	-0.026302
194	0xbd47024a	-0.048586167
195	0xbd540e4b	-0.051771443
196	0xbc7c6201	-0.015404225
197	0xbc53f374	-0.012936462
198	0xbbda7728	-0.0066670366
199	0xbd4ae252	-0.049532242

out_y0.weight f4 [1, 200]
0	0x3d33c4d3	0.043888878
1	0x3d559833	0.0521471
2	0x3ddfffc8	0.10937458
3	0xbd1cd926	-0.038293026
4	0x3cee3ec6	0.029082667
5	0xbdafcf7e	-0.08584498
6	0x3e00ef26	0.12591228
7	0xbc2e85ca	-0.010652015
8	0xbe213b79	-0.15745343
9	0xbcab5fa6	-0.020919632
10	0x3de646e0	0.11243987
11	0x3e219c01	0.15782167
12	0xbcefabca	-0.02925672
13	0x3d58354b	0.0527852
14	0xbc283525	-0.010266577
15	0x3dfcbdea	0.12340911
16	0x3d94c4f2	0.07264127
17	0xbc4b0b66	-0.012392854
18	0x3dda7178	0.10666174
19	0xbd38467c	-0.044989094
20	0x3d559db7	0.05215236
21	0xbd02a964	-0.031899825
22	0x3c0d9598	0.008641623
23	0xbd8c53a7	-0.06851893
24	0x3ae07c28	0.0017126845
25	0xbd65cfdf	-0.056106444
26	0x3d165aa7	0.036707547
27	0x3cab7c65	0.02093334
28	0x3de61718	0.112348735
29	0x3c7bdd12	0.0153725315
30	0xbe0b6fad	-0.1361682
31	0xbdb867b6	-0.09004156
32	0xbd8435a6	-0.06455545
33	0x3d374b45	0.044749517
34	0x3d870645	0.06592993
35	0x3dca10f6	0.09866516
36	0x3d7b316e	0.061326437
37	0x3d761bf8	0.060085267
38	0x3c83968f	0.016063003
39	0xba05f46b	-0.00051099685
40	0x3e5db374	0.21650487
41	0x3e64cac1	0.2234297
42	0x3be1005d	0.0068664984
43	0x3c54cd3b	0.012988384
44	0xbd7c98da	-0.061669208
45	0x3cfb79af	0.030697672
46	0x3c2eac10	0.01066114
47	0xb9838847	-0.00025087802
48	0xbccac922	-0.02475411
49	0xbe738ca6	-0.23784122
50	0xbc2785df	-0.010224788
51	0x3d8dc8cd	0.06923065
52	0x3d41d57c	0.047322735
53	0xbbe77814	-0.007063875
54	0xbc7f7d8c	-0.015593898
55	0xbcafe211	-0.021470102
56	0xbc902413	-0.017595327
57	0xbda5b1ec	-0.080905765
58	0x3d3ae753	0.045630764
59	0xbe21aee5	-0.15789373
60	0xbd116435	-0.035495955
61	0xbc05e1b8	-0.008171491
62	0x3d9c8e98	0.07644385
63	0x3b77002e	0.0037689316
64	0xbb8b39c6	-0.0042488305
65	0xbb9e4898	-0.004830431
66	0x3d35acde	0.044354312
67	0x3c433f1c	0.011916902
68	0xbdc7604d	-0.09735165
69	0x3c6faea2	0.014629038
70	0xbd488a6e	-0.04896014
71	0x3c941997	0.018078608
72	0xbd66d661	-0.05635679
73	0xbd1a9f03	-0.0377493
74	0x3c62c1c7	0.013840145
75	0x3db79e30	0.08965719
76	0xbb606777	-0.0034241357
77	0x3d7f5144	0.06233336
78	0x3da3e592	0.080027714
79	0xb9bc6353	-0.00035932157
80	0x3bc97209	0.0061476273
81	0x3c5fb7f9	0.013654702
82	0x3d20e478	0.039280385
83	0xbaff248a	-0.0019465846
84	0xbd742e0f	-0.059614237
85	0x3d0d58d1	0.03450853
86	0xbd059b47	-0.032618787
87	0x3c9bf5e0	0.01903814
88	0xbbe0bee7	-0.006858695
89	0x3d8b27ff	0.06794738
90	0x3e106ec1	0.1410475
91	0x3d91aa8e	0.07112609
92	0x3d8ac400	0.06775665
93	0x3bb17417	0.0054154503
94	0xbd1a0de8	-0.03761092
95	0x3b047c59	0.0020215719
96	0xbd5b701f	-0.053573724
97	0x3dec6a39	0.11543698
98	0x3c2e45f3	0.010636794
99	0x3a194b51	0.000584771
100	0x3bc7e49f	0.006100252
101	0x3d7f1485	0.06227543
102	0xbe09b199	-0.13446654
103	0x3d36fca0	0.044674516
104	0xbdb54285	-0.08850578
105	0xbc81d663	-0.015849298
106	0x3d60bbd2	0.05486662
107	0x3c4da1d6	0.012550792
108	0xbc882ef4	-0.016623951
109	0x3d55c882	0.052193172
110	0xbe3a0a5c	-0.18168014
111	0xbb8eabe8	-0.004353989
112	0x3c36d8e7	0.011160112
113	0xbd83a018	-0.0642702
114	0xbbffd734	-0.0078076366
115	0xbd99a6e0	-0.07502532
116	0xbdd6d048	-0.10488945
117	0x3dbe1792	0.092818394
118	0xbd95ad30	-0.073084235
119	0x3d8d3b16	0.068960354
120	0x3ddb8680	0.10719013
121	0x3cba87d3	0.022769844
122	0x3c23e8a7	0.010004199
123	0x3d715700	0.05892086
124	0xbd66bb54	-0.056330994
125	0xbe18e23e	-0.14930055
126	0xbb7c8d1d	-0.0038536259
127	0x3b090547	0.0020907687
128	0xbe459826	-0.19296321
129	0x3c7669cb	0.015039871
130	0x3d3ee02c	0.046600506
131	0x3c93fe86	0.018065702
132	0x3daabf04	0.083372146
133	0x3c22c03c	0.009933528
134	0xbe5a25cf	-0.21303485
135	0xbc945dda	-0.018111158
136	0x3d3453cb	0.044025224
137	0xbdcd5e76	-0.100277826
138	0x3d2180ab	0.039429348
139	0xbe15ed26	-0.14641246
140	0xbcf0b585	-0.02938343
141	0xbbbe6ded	-0.005811444
142	0x3d16da11	0.036829058
143	0xbce9b996	-0.028530877
144	0xbd3a5bd4	-0.04549773
145	0xbd05b679	-0.032644723
146	0xbdf52bce	-0.11971246
147	0x3dca9aca	0.09892805
148	0xbd2619ec	-0.040552065
149	0xbc161dc3	-0.009162369
150	0x3d497318	0.049182028
151	0xbd841796	-0.06449811
152	0x3d9ef45e	0.07761453
153	0xbc3e29c9	-0.011606642
154	0xbbb7be42	-0.0056073973
155	0x3d4a0ca9	0.04932848
156	0xbe875649	-0.26433018
157	0x3de352ca	0.11099775
158	0x3e2a6566	0.16640243
159	0x3bd96c8b	0.006635254
160	0xbd38a046	-0.045074724
161	0x3ce29528	0.027659014
162	0x3dc67d7a	0.096919015
163	0xbce0fe55	-0.027465025
164	0xbcb9f4fa	-0.022699822
165	0x3e038333	0.12843017
166	0xbdec4dcf	-0.11538278
167	0xbca7bae0	-0.020474851
168	0xbde210ac	-0.11038336
169	0xbc849755	-0.016185442
170	0x3b5550d7	0.0032549405
171	0xbcca9871	-0.024730893
172	0x3dcaf119	0.09909267
173	0xbd53ad2e	-0.05167883
174	0xbe4744bc	-0.19459814
175	0xbe1371bd	-0.14398856
176	0xbd9a08c2	-0.07521202
177	0x3c30acb3	0.010783362
178	0x3d85c682	0.06532003
179	0xbcf950b2	-0.030433986
180	0xbb978690	-0.0046241954
181	0xbd6bda63	-0.057581317
182	0x3b29cd5b	0.0025909755
183	0x3e0cd408	0.13752759
184	0xbbf4bf58	-0.007469099
185	0xbbff52cf	-0.007791854
186	0xbddd6e8f	-0.10812103
187	0x3c618580	0.013764739
188	0xbda83d40	-0.082148075
189	0xbd2374b5	-0.039906222
190	0xbd5b3771	-0.05351967
191	0x3d90ec1c	0.07076284
192	0x3dffc764	0.124892026
193	0xbce3d9d3	-0.027813828
194	0xbb75de7d	-0.0037516647
195	0xbd262e06	-0.040571235
196	0xbd9e7b9c	-0.0773842
197	0xbd98347b	-0.07431885
198	0xbe5fd1d4	-0.21857387
199	0xbc88c606	-0.016695987

hidden_y1.weight f4 [200, 200]
0	0xbd2c1b23	-0.042018067
1	0x3d2a4987	0.041574027
2	0x3c7fb621	0.015607388
3	0x3c11e962	0.00890574
4	0xbd635d28	-0.055508763
5	0xbdbb1bbd	-0.0913615
6	0xbdc8cf76	-0.09805195
7	0xb9719851	-0.00023040293
8	0xbb6bd389	-0.003598424
9	0x3b6dc78b	0.0036282267
10	0x3cbd0759	0.023074793
11	0x3d4a6350	0.049411118
12	0x3e6ab470	0.22920394
13	0xbc237b69	-0.009978154
14	0x3b8d7921	0.004317418
15	0x3ce4b041	0.027916076
16	0x3d5065f3	0.050878476
17	0xbc4190e3	-0.011814329
18	0xbd5008ea	-0.05078975
19	0xbb097bb6	-0.0020978278
20	0xbd8a53b8	-0.06754249
21	0xbd92a590	-0.07160485
22	0x3e447a4b	0.19187276
23	0xbdc2b4fc	-0.09507176
24	0x3daec7d9	0.08534212
25	0x3dae9373	0.085242175
26	0xbd919b7d	-0.07109735
27	0x3d43d968	0.047814757
28	0x3d0e8511	0.03479487
29	0x3db41a7d	0.08794115
30	0xbd32f5ca	-0.043691434
31	0xbe49266e	-0.19643566
32	0x3d8887cd	0.06666527
33	0x3ba3cf62	0.004999087
34	0xbd159bfe	-0.03652572
35	0xbc553e76	-0.01301538
36	0x3e18fe90	0.14940858
37	0x3cd33f99	0.025787162
38	0xbb4afda8	-0.0030973945
39	0x3c8d89d5	0.017277637
40	0xbdade526	-0.08490972
41	0x3d5eb81d	0.054374803
42	0xbcc5042f	-0.024049846
43	0xbd7d5d8d	-0.061856795
44	0xbc434de4	-0.011920426
45	0x3e118aae	0.14213058
46	0x3d5e3439	0.054249022
47	0xbd439272	-0.047747083
48	0x3da94813	0.082657
49	0x3dd0e604	0.10200122
50	0xbd4cb828	-0.049980313
51	0xbd03dacb	-0.03219108
52	0x3dcdbc19	0.100456424
53	0x3d78f2f9	0.06077859
54	0x3db6409b	0.08899041
55	0xbd866ba4	-0.065634996
56	0xbd95d7b8	-0.07316536
57	0x3d333b26	0.04375758
58	0x3d45b3de	0.048267238
59	0x3b1122fb	0.0022146094
60	0x3c25a8d2	0.010111051
61	0xbd525d9e	-0.05135881
62	0xbd562790	-0.052283823
63	0xbd3cd192	-0.0460983
64	0xbd1d582f	-0.038414177
65	0x3e0476c6	0.12935933
66	0x3d8b5b96	0.06804578
67	0x3e55b737	0.20870672
68	0x3cf4bd48	0.029875413
69	0xbc2e1d1c	-0.010627057
70	0xbc827b7d	-0.015928024
71	0xbd45fe99	-0.048338506
72	0xbd59c5e4	-0.05316724
73	0x3d0d8304	0.034548774
74	0x3cca76f9	0.024714934
75	0x3c5ba374	0.0134056695
76	0x3d1ef354	0.038806275
77	0xbe00132a	-0.1250731
78	0x3d6831a8	0.05668798
79	0x3c8077d9	0.015682148
80	0x3d369603	0.044576656
81	0xbd94f36c	-0.072729915
82	0xbdce3348	-0.10068375
83	0xbc545d41	-0.012961687
84	0xbdfd8f9e	-0.123809084
85	0x3d525f35	0.051360328
86	0x3d01c9ff	0.03168678
87	0xbd886f61	-0.06661869
88	0xbd7eec2c	-0.06223695
89	0x3bc83617	0.0061099636
90	0xbb9c9a1d	-0.004779114
91	0xbd94b560	-0.07261157
92	0xbd186f35	-0.03721543
93	0x3e45127c	0.19245332
94	0x3d2eea49	0.0427039
95	0x3ac22295	0.0014811332
96	0x3d025142	0.031815775
97	0xbd80a1da	-0.06280871
98	0xbd8dd20b	-0.06924828
99	0xbdecab6d	-0.115561344
100	0xbd9622c3	-0.07330849
101	0xbc259f80	-0.010108829
102	0xbd102160	-0.03518808
103	0xbda55885	-0.080735244
104	0x3d87d2cb	0.066320024
105	0x3d50a92d	0.05094259
106	0x3d2443f4	0.040103868
107	0xbb3b59a0	-0.0028587356
108	0x3e283d70	0.16429687
109	0xbcb1285d	-0.021625692
110	0x3dbd387a	0.09239288
111	0x3a92febe	0.0011214835
112	0xbc8972ca	-0.016778369
113	0x3d4a17bc	0.04933904
114	0xbd29b7b4	-0.04143496
115	0x3c049fa3	0.008094701
116	0xbdce20a9	-0.10064823
117	0x3dd8e2dd	0.10590146
118	0xbd42357d	-0.04741429
119	0x3d327c55	0.043575604
120	0xbdd5abdf	-0.104331724
121	0x3da3445d	0.07972024
122	0x3cee8ada	0.029118944
123	0xba811dff	-0.0009850858
124	0x3d14f4cf	0.03636628
125	0x3cbba804	0.022907265
126	0x3d5ab9bc	0.053399786
127	0x3dea3d1a	0.114374354
128	0x3c57d03a	0.013172204
129	0xbd68a96e	-0.056802206
130	0x3d6e1719	0.058127496
131	0x3da644e7	0.08118611
132	0xbd4f791d	-0.050652612
133	0x3de64122	0.11242892
134	0x3cbd7d6c	0.023131095
135	0x3ccce0a2	0.025009457
136	0xbdfed807	-0.12443548
137	0x3e16c035	0.14721759
138	0xba20539d	-0.0006115975
139	0x3c29178f	0.010320558
140	0x3dbd4057	0.092407875
141	0x3d0379ff	0.032098766
142	0x3d6864f4	0.0567369
143	0x3d985bdb	0.07439395
144	0x3d3470fc	0.044053063
145	0xbda0f05e	-0.078583464
146	0x3db902ab	0.09033712
147	0xbcb71cf9	-0.022352682
148	0xbc68b556	-0.01420339
149	0xbe1565fc	-0.14589685
150	0xbd2c40fc	-0.04205416
151	0x3db4eba6	0.08834009
152	0x3c43d866	0.011953449
153	0xbde5cfc2	-0.11221267
154	0xbc5f357a	-0.01362359
155	0x3d205f80	0.039153576
156	0x3d45f478	0.048328847
157	0xbd41f42c	-0.047352
158	0x3bd4efa0	0.006498292
159	0x3bcdf4a5	0.0062852674
160	0x3d949c7d	0.0725641
161	0xbdbce1f9	-0.09222788
162	0xbd0c37a2	-0.034232743
163	0x3e42068c	0.1894781
164	0xbcc10550	-0.023562104
165	0xbb495264	-0.0030719275
166	0xbd2a5524	-0.041585103
167	0x3d9765a8	0.07392436
168	0x3c8c54aa	0.017130215
169	0x3d0d25d1	0.034459893
170	0x3dcbf9bc	0.099597424
171	0xbd19ca08	-0.037546188
172	0xbca0ef0f	-0.019645242
173	0x3d61df10	0.05514437
174	0x3dce5a28	0.1007579
175	0xbdc12d30	-0.09432447
176	0x3e077960	0.13229895
177	0xbd7255bd	-0.059163798
178	0x3da15bc8	0.07878834
179	0xbdaf4ab9	-0.08559174
180	0xbe089e07	-0.13341533
181	0x3d25420b	0.040346187
182	0xbdd8427b	-0.10559555
183	0xbddbda61	-0.10735012
184	0x3d336e30	0.043806255
185	0x3e06b009	0.1315309
186	0x3d11d59b	0.0356041
187	0xbaafe741	-0.001342036
188	0x3d9f0626	0.077648446
189	0x3d5ba267	0.053621676
190	0x3d85432a	0.06506951
191	0xbcdf836f	-0.027284352
192	0xbca2182c	-0.019786917
193	0xbcb6759c	-0.022272877
194	0x3d66e0b7	0.05636665
195	0x3d39306d	0.045212198
196	0x3d8b5572	0.06803407
197	0x3dad5819	0.08464069
198	0x3d82da90	0.06389344
199	0xbc0bf164	-0.008541439
200	0x3b289311	0.0025722424
201	0x3ce72d9a	0.028219987
202	0x3da7c90d	0.08192644
203	0x3d931d5d	0.07183335
204	0x3cb879a7	0.022518946
205	0xbe58c322	-0.21168187
206	0x3c05f122	0.008175166
207	0xbe03b1ac	-0.12860745
208	0x3daba256	0.083805725
209	0x3bebdff8	0.00719833
210	0xbc8ccf9c	-0.01718884
211	0xbd384b11	-0.044993464
212	0x3d48a9eb	0.04899017
213	0x3c5920ee	0.01325248
214	0xbcd98b73	-0.026555752
215	0xbddba51b	-0.10724851
216	0x3d6c8066	0.057739638
217	0x3cc865e6	0.024462651
218	0x3d83ba5b	0.06432029
219	0x3cd2839f	0.025697527
220	0x3d9a5680	0.0753603
221	0xbdd634c1	-0.10459281
222	0xbd718799	-0.058967207
223	0x3db90a31	0.09035147
224	0x3e1b2194	0.15149528
225	0x3d56e241	0.052461866
226	0xbc253dac	-0.0100855045
227	0x3dfcc48a	0.12342174
228	0x3cfeebb5	0.031118253
229	0xbd485b26	-0.04891505
230	0x3db8e819	0.09028644
231	0x3db87efe	0.09008597
232	0xbcc3da3c	-0.023907773
233	0xbd08ab42	-0.03336645
234	0xbdcb912c	-0.09939799
235	0x3cba2d42	0.022726659
236	0x3d4f6987	0.050637748
237	0x3d6cdb1e	0.057826154
238	0xbd9f2e87	-0.07772546
239	0x3e12a4ac	0.1432063
240	0xbd9884ab	-0.074471794
241	0x3cf968f8	0.03044556
242	0x3e0fe762	0.1405311
243	0x3dabf6a4	0.08396652
244	0x3d28ebce	0.041240506
245	0xbb685382	-0.0035450165
246	0xbd8b48d1	-0.06800998
247	0xbd04cccd	-0.032421876
248	0xbd81c556	-0.06336467
249	0xbe15464d	-0.14577599
250	0x3c078014	0.008270282
251	0xbd516e79	-0.051130746
252	0xbc1e2600	-0.009652615
253	0xbc8d4eb6	-0.017249446
254	0xbdec174b	-0.1152788
255	0x3dc1a5b0	0.094554305
