DR_Info_CFR/Jobs/Models/netQ0.pth (torch, 8831 bytes, 8 tensors)

hidden1.weight f4 [30, 1]
-0.049321778 -0.11382903 -4.782512e-37 -0.5205496 -0.24615127 0.51997167 0.78544265 -0.44594714
-0.96869004 -0.2080522 0.075486556 -0.09638372 0.85419333 0.54115427 -1.1054628 0.88896793
0.54510266 -0.84790725 0.22197823 -0.22129287 0.2831943 0.34503955 0.53441685 -0.18113104
0.7118532 -0.15744036 -0.64882827 0.4663593 0.5499887 0.8420859
00000000: a205 4abd 321f e9bd 8ebd 2283 bd42 05bf
00000010: 140f 7cbe dd1c 053f c512 493f 2f53 e4be
00000020: 12fc 77bf a30b 55be b298 9a3d d464 c5bd
00000030: 6aac 5a3f 1689 0a3f ce7f 8dbf 6793 633f
00000040: d98b 0b3f 7310 59bf 434e 633e 999a 62be
00000050: d8fe 903e 06a9 b03e 8bcf 083f 6a7a 39be
00000060: 033c 363f 0c38 21be 9c19 26bf a5c6 ee3e
00000070: 0fcc 0c3f f192 573f

hidden1.bias f4 [30]
0.09828006 0.005350063 -6.370907e-37 0.2546091 0.55502605 0.57719636 -0.4879655 1.042904
0.23227258 0.36250684 0.61407274 0.24479325 -0.13283975 -0.13131945 0.14140303 1.0756056
0.50554186 0.28290874 0.45803759 0.4042614 1.2744396 0.9487839 0.5852377 0.20914243
0.20342442 0.8413474 0.37823611 -0.15519531 0.75059676 0.17504773
00000000: 0e47 c93d 954f af3b 6dca 5883 205c 823e
00000010: 3016 0e3f 24c3 133f 9dd6 f9be e17d 853f
00000020: ddd8 6d3e 7f9a b93e df33 1d3f 15ab 7a3e
00000030: 2507 08be 9b78 06be f5cb 103e 72ad 893f
00000040: 316b 013f 6ad9 903e e783 ea3e 5afb ce3e
00000050: d620 a33f 80e3 723f 23d2 153f 6f29 563e
00000060: 7e4e 503e 8b62 573f 2aa8 c13e 85eb 1ebe
00000070: 1c27 403f b63f 333e

hidden2.weight f4 [30, 30]
0.03110335 -0.0777716 4.4192523e-37 -0.08916683 0.13542795 0.09737479 0.23744155 -0.0057117417
-0.010771283 0.2513939 -0.06091835 -0.14015737 0.14149252 0.25993815 -0.073185466 0.26362458
-0.003939027 -0.026914125 0.13458994 0.16394158 0.10016696 -0.061385944 0.01648773 0.11266154
0.2236083 -0.1378332 -0.19897436 0.31094068 0.09804429 0.16479625 0.025868922 -0.08395673
4.416168e-37 0.005641405 0.030888304 0.094163015 0.11603796 0.09759147 -0.036477093 0.23727924
-0.04507484 -0.17102486 0.22089404 0.25676113 -0.013086111 -0.10996093 0.17565459 0.07451861
0.15574896 0.049710806 -0.024264516 -0.08714328 0.09004782 0.11809877 0.23435916 -0.15291764
-0.04563195 0.059756346 0.16895688 0.24673106 0.051631317 0.09494838 -4.3740377e-37 0.1522135
0.13478069 0.1839055 -0.03737259 0.22227035 0.13213654 0.29488724 -0.08573198 0.057604853
-0.023022074 0.050732896 0.21624379 0.2042106 0.14428705 0.29614645 0.010387528 0.276739
0.05002333 0.08470919 0.10065806 0.3565797 -0.010936506 0.29386592 0.46122217 -0.056645315
-0.016226029 -0.1473055 0.011710403 -0.08149046 4.504855e-37 -0.046903297 -0.14428931 0.13050976
0.16822258 -0.056194883 -0.15859245 0.0040694103 0.059433967 -0.14918338 0.1001822 0.1768413
0.023414569 -0.19425498 0.1351121 -0.01988236 0.14710058 0.27484554 0.09655572 -0.009144719
0.04050542 0.027292559 0.09711893 0.07140182 0.11666379 0.31180736 0.040662114 -0.039913706
0.03093025 -0.052687127 5.096748e-37 -0.22497265 -0.062048025 0.077094674 0.31065312 -0.041259944
-0.09499008 0.21712083 0.05920358 -0.031929262 0.25156525 0.15269999 -0.12847273 0.120189436
0.22004166 -0.060356367 0.12037988 -0.007441129 0.061275035 0.035645615 0.19649209 0.13073137
0.27321663 0.1783997 -0.080324106 0.2964423 0.051221807 0.15027411 6.1206367e-37 5.8311347e-37
-6.0927444e-37 6.5233233e-37 -6.539266e-37 -6.417863e-37 -6.2552017e-37 -6.117837e-37 -6.2580877e-37 -6.1181736e-37
-6.1404944e-37 -6.192977e-37 -6.4829574e-37 -5.516692e-37 6.1064157e-37 6.1465435e-37 5.7808943e-37 6.452014e-37
6.5095394e-37 6.2406376e-37 -6.346839e-37 -6.167323e-37 -6.147021e-37 -6.481878e-37 6.035279e-37 6.489291e-37
-6.128296e-37 -6.1905443e-37 6.215212e-37 -6.270274e-37 0.039022747 -0.0808548 4.385728e-37 -0.120925866
-0.090361275 -0.044736132 0.18790351 0.15185623 -0.24037717 0.16169642 0.009737373 -0.025106506
0.26067787 0.2557207 -0.09549025 -0.045108084 0.022655176 -0.19515719 0.009117434 0.310973
0.20226224 0.069928125 0.10233619 0.21582748 -0.021598224 -0.13445333 -0.08908739 0.14195208
0.1517177 0.15539531 -4.974547e-37 5.8676815e-37 6.1513344e-37 6.341162e-37 -5.2678267e-37 -6.181228e-37
-5.107505e-37 -5.6048665e-37 5.859631e-37 5.594548e-37 -5.8176966e-37 -5.3967e-37 -5.6126376e-37 -5.8011626e-37
5.307731e-37 -5.6215095e-37 -5.652787e-37 4.903743e-37 -5.486076e-37 -5.425572e-37 -4.9495557e-37 -6.0949053e-37
-5.6796873e-37 5.663564e-37 -5.8481046e-37 -5.1896755e-37 5.1652875e-37 -5.3549412e-37 -5.812132e-37 -4.434301e-37
0.018528627 -0.076097846 4.2617957e-37 0.072059266 0.1520502 0.06179829 0.0037841382 -0.02841279
-0.14396201 0.03734917 0.123100005 0.050036527 -0.085169315 -4.1534975e-05 -0.08089315 0.09927299
00000000: 74cc fe3c b746 9fbd 1e61 1603 199d b6bd
00000010: a0ad 0a3e 6f6c c73d e123 733e 9029 bbbb
00000020: 097a 30bc b4b6 803e 8585 79bd 6a85 0fbe
00000030: 6ae3 103e 9d16 853e 43e2 95bd cdf9 863e
00000040: f412 81bb 037b dcbc f2d1 093e 4de0 273e
00000050: 5624 cd3d d46f 7bbd 4711 873c 18bb e63d
00000060: 93f9 643e 2524 0dbe efbf 4bbe 9e33 9f3e
00000070: 72cb c83d 59c0 283e 10eb d33c 82f1 abbd
00000080: 4046 1603 89db b83b 7809 fd3c 8ad8 c03d
00000090: 4fa5 ed3d 09de c73d 0169 15bd 54f9 723e
000000a0: 65a0 38bd 2421 2fbe 0c32 623e 3276 833e
000000b0: 2167 56bc 3233 e1bd ccde 333e 379d 983d
000000c0: a87c 1f3e 8f9d 4b3d 61c6 c6bc 2d78 b2bd
000000d0: fe6a b83d c5dd f13d d9fb 6f3e 7196 1cbe
000000e0: 91e8 3abd 12c3 743d 0803 2d3e 11a7 7c3e
000000f0: 5c7b 533d 4c74 c23d 3ed7 1483 dbdd 1b3e
00000100: f303 0a3e b951 3c3e 0014 19bd d79a 633e
00000110: cd4e 073e 76fb 963e 4094 afbd 11f3 6b3d
00000120: ca98 bcbc 4ccd 4f3d 036f 5d3e 951c 513e
00000130: fcbf 133e 82a0 973e 7330 2a3c bcb0 8d3e
00000140: 43e5 4c3d 037c ad3d d025 ce3d 9d91 b63e
00000150: 082f 33bc 9875 963e 5025 ec3e eb04 68bd
00000160: 73ec 84bc 41d7 16be fddc 3f3c 78e4 a6bd
00000170: d24a 1903 ac1d 40bd 94c0 13be 5aa4 053e
00000180: 8a42 2c3e 9b2c 66bd 0f66 22be b058 853b
00000190: 0871 733d 87c3 18be 532c cd3d e315 353e
000001a0: e9cf bf3c c7ea 46be d45a 0a3e 55e0 a2bc
000001b0: 89a1 163e 8eb8 8c3e 01bf c53d bbd3 15bc
000001c0: 03e9 253d a594 df3c 4ae6 c63d 1e3b 923d
000001d0: 6ded ee3d 37a5 9f3e 518d 263d 8e7c 23bd
000001e0: 7061 fd3c 75ce 57bd f06e 2d03 3b5f 66be
000001f0: 1226 7ebd d0e3 9d3d ed0d 9f3e 3000 29bd
00000200: 298a c2bd ec54 5e3e 747f 723d 42c8 02bd
00000210: 29cd 803e 635d 1c3e 5b8e 03be e125 f63d
00000220: 9a52 613e 3d38 77bd ba89 f63d b7d4 f3bb
00000230: 88fb 7a3d 2301 123d 3935 493e 72de 053e
00000240: 0de3 8b3e 69ae 363e f780 a4bd 49c7 973e
00000250: f5cd 513d 75e1 193e 4446 5003 596c 4603
00000260: 4a53 4f83 29fa 5d03 0a85 5e83 7963 5a83
00000270: 7eda 5483 e02d 5083 a2f3 5483 cf30 5083
00000280: 40f3 5083 70bc 5283 869a 5c83 2ab9 3b83
00000290: 62ca 4f03 f227 5103 b1b6 4403 f88c 5b03
000002a0: 1682 5d03 9f5b 5403 c4f8 5783 f6dc 5183
000002b0: 1b2c 5183 1f91 5c83 b25e 4d03 b3d1 5c03
000002c0: fd88 5083 3fa7 5283 227e 5303 ca5d 5583
000002d0: 51d6 1f3d 3497 a5bd 143d 1503 fba7 f7bd
000002e0: 550f b9bd 3c3d 37bd c769 403e 3380 1b3e
000002f0: 6f25 76be bf93 253e 8189 1f3c 29ac cdbc
00000300: 9277 853e d3ed 823e 6490 c3bd 41c3 38bd
00000310: 5997 b93c 49d7 47be 4a61 153c da37 9f3e
00000320: d51d 4f3e 7a36 8f3d a395 d13d e101 5d3e
00000330: c2ee b0bc 22ae 09be 7373 b6bd e35b 113e
00000340: e25b 1b3e f31f 1f3e 6b46 2983 b7aa 4703
00000350: ae51 5103 50c7 5703 3e41 3383 1756 5283
00000360: a5cc 2d83 46b9 3e83 9664 4703 635f 3e03
00000370: 49f7 4583 e3a3 3783 f8fc 3e83 4167 4583
00000380: dc9c 3403 414a 3f83 b85a 4083 a0dd 2603
00000390: 76ae 3a83 669f 3883 b66c 2883 1d66 4f83
000003a0: 0e45 4183 9ab8 4003 2d00 4783 7398 3083
000003b0: 00c4 2f03 1e38 3683 cfc6 4583 36e4 1683
000003c0: 59c9 973c 30d9 9bbd 7a05 1103 cf93 933d
000003d0: 0cb3 1b3e 3420 7d3d 4eff 773b f0c1 e8bc
000003e0: c76a 13be 71fb 183d db1b fc3d 1af3 4c3d
000003f0: 406d aebd d735 2eb8 4fab a5bd a34f cb3d

hidden2.bias f4 [30]
0.025341598 0.17315872 0.14866719 0.030700566 -0.11151711 6.374864e-37 0.12036719 -4.428358e-37
-0.08463935 -6.3814684e-37 0.08244257 0.316412 0.14509444 3.2257233e-10 0.15518884 -5.320843e-37
6.472887e-37 0.112279095 -6.4031102e-37 0.036249015 -6.389606e-37 0.09012556 -5.0988153e-37 -0.10837961
0.05642071 -6.139662e-37 0.12100836 0.045853354 -5.5360137e-37 6.3457386e-37
00000000: 2f99 cf3c 8550 313e 363c 183e c17f fb3c
00000010: 1563 e4bd e6ec 5803 1383 f63d 70b0 1683
00000020: 6557 adbd 6e26 5983 a6d7 a83d c100 a23e
00000030: a393 143e 0556 b12f d3e9 1e3e 140f 3583
00000040: cc42 5c03 95f2 e53d f5e2 5983 d979 143d
00000050: 526d 5983 c093 b83d f280 2d83 21f6 ddbd
00000060: 6719 673d 00ec 5083 3bd3 f73d bad0 3b3d
00000070: 7b61 3c83 2eef 5703

out_mu0.weight f4 [8, 30]
0.092918314 -0.12824367 0.11017186 0.06955705 -0.12611057 6.083019e-37 -0.05579385 5.1408174e-37
-0.018537128 6.2130735e-37 -0.0015281059 -0.17917979 -0.043839492 6.177138e-37 -0.0027924408 -5.3562385e-37
6.3480654e-37 0.11898863 -6.312132e-37 0.14094734 6.3945863e-37 -0.024852702 -6.4333267e-37 0.054256022
-0.003600459 5.8074526e-37 -0.008229772 -6.436907e-37 -6.398944e-37 -6.1222465e-37 -0.04808333 -0.09843205
0.056323923 -0.028499542 -0.013720301 6.2619845e-37 0.01070019 -5.5163986e-37 0.21100104 6.1148037e-37
-0.007175308 -0.049467072 0.02014792 6.1690006e-37 -0.00076384336 4.8998654e-37 -6.3940805e-37 -0.07007444
6.1130105e-37 -0.14892912 6.157837e-37 0.07183519 5.412628e-37 0.16067974 0.0093453685 -6.3784474e-37
-0.08305837 -6.5478946e-37 6.0667027e-37 -6.147035e-37 -0.08687099 0.19685058 0.070201196 0.042142667
-0.15026118 6.2558237e-37 0.15310605 -5.277984e-37 -0.024830874 -6.307372e-37 0.0070635052 -0.06281987
-0.02675797 -6.4335433e-37 0.030764038 -5.58881e-37 -5.671047e-37 0.2388057 -5.9152705e-37 0.08728425
-4.558342e-37 -0.081573755 5.2271397e-37 -0.085350275 -0.004359955 6.3124092e-37 -0.11269568 -6.262083e-37
-5.835037e-37 5.8526833e-37 -0.036922537 0.16907713 -0.21479973 -0.1437615 -0.1622639 -6.4924745e-37
0.13189742 -5.472463e-37 -0.048773415 6.332332e-37 -0.031592708 0.119488865 0.022832194 6.4042488e-37
-0.033360735 -5.0183507e-37 -6.4463034e-37 0.15637319 -6.0436326e-37 0.0737102 -5.9040655e-37 0.0110196415
-5.586741e-37 0.011496407 0.0044901636 6.0605755e-37 0.012774582 6.181428e-37 6.3495345e-37 6.0902664e-37
-0.028553229 0.2610156 -0.029876636 0.015108158 -0.17077918 -6.447937e-37 -0.009686908 -5.4872243e-37
0.06956701 -6.006403e-37 -0.03894951 0.026258761 -0.0022089798 6.2163685e-37 0.06148512 -4.446005e-37
6.291971e-37 0.0025654784 -6.496623e-37 0.106801786 6.010539e-37 -0.06836209 6.1548428e-37 -0.06399545
0.00092206703 -5.665663e-37 0.002463995 -6.5527465e-37 -5.680464e-37 -6.293158e-37 -0.122565955 0.19562222
0.13474658 0.074759014 -0.10121407 -6.0851612e-37 -0.08280427 -5.786527e-37 0.0029242598 6.1879703e-37
0.0022898912 0.02290961 -0.065930165 -6.4970273e-37 0.056636132 4.5565823e-37 -6.1219295e-37 0.1302679
-6.2306057e-37 0.04413654 5.3801274e-37 -0.12051057 -4.6754173e-37 0.033580348 0.0009931794 -6.3609516e-37
-0.15787949 -6.26566e-37 -5.098573e-37 6.192033e-37 0.30448642 0.22352464 -0.21057966 0.17229135
0.32517338 -5.97123e-37 0.21437643 5.2144984e-37 0.15688062 -6.504341e-37 -0.44661522 -0.24510573
-0.025678251 -5.0774976e-05 0.2334158 4.406264e-37 -6.3292405e-37 0.2331863 6.272549e-37 -0.30483586
-5.9872304e-37 -0.38981968 5.906241e-37 0.42236483 0.0016186993 -6.2062966e-37 0.30510172 -0.0005901381
-5.035541e-37 -6.176395e-37 0.124191366 -0.13083194 -0.15473932 -0.06353444 0.07533063 6.350176e-37
-0.04882827 -5.7907814e-37 0.108567454 6.5264877e-37 0.03963685 0.120074056 -0.0039549856 6.361084e-37
-0.11623957 -5.4254366e-37 -6.1349775e-37 0.0717207 5.95505e-37 -0.08983621 5.2292105e-37 0.07512338
5.226738e-37 -0.057355642 -0.002455931 6.1497227e-37 0.13231467 -6.1766783e-37 -5.970548e-37 6.4575035e-37
00000000: f54b be3d 4f52 03be c9a1 e13d ed73 8e3d
00000010: 2123 01be 92fe 4e03 1888 64bd d6ee 2e03
00000020: 2ddb 97bc 816b 5303 ba4a c8ba e87a 37be
00000030: 0a91 33bd 7632 5203 6201 37bb 6b43 3683
00000040: 7303 5803 50b0 f33d 6dca 5683 8054 103e
00000050: b498 5903 e597 cbbc 2eea 5a83 903b 5e3d
00000060: aef5 6bbb 0c9e 4503 2ad6 06bc 5e09 5b83
00000070: aabe 5983 4a54 5083 07f3 44bd be96 c9bd
00000080: eab3 663d df77 e9bc 1dcb 60bc 9415 5503
00000090: da4f 2f3c 9cb6 3b83 a810 583e 7413 5003
000000a0: d91e ebbb fc9d 4abd 400d a53c 93eb 5103
000000b0: a93c 48ba d9bb 2603 4c94 5983 3083 8fbd
000000c0: d503 5003 e080 18be 538a 5103 541e 933d
000000d0: a42e 3803 3b89 243e 511d 193c 1d0c 5983
000000e0: 821a aabd 35d0 5e83 6f70 4e03 3a2c 5183
000000f0: 6be9 b1bd 3393 493e a5c5 8f3d ca9d 2c3d
00000100: 11de 19be e9df 5403 d5c7 1c3e ba99 3383
00000110: 1e6a cbbc f6a0 5683 fa74 e73b b4a7 80bd
00000120: 8833 dbbc 11ec 5a83 dd04 fc3c 672d 3e83
00000130: c9f9 4083 7b89 743e 4649 4983 16c2 b23d
00000140: c21c 1b83 2410 a7bd cfde 3103 20cc aebd
00000150: f4dd 8ebb d7cc 5603 fecc e6bd 7016 5583
00000160: 578e 4683 1028 4703 163c 17bd 8e22 2d3e
00000170: 76f4 5bbe 3736 13be 8228 26be 6eed 5c83
00000180: 1e10 073e e037 3a83 a2c6 47bd 647a 5703
00000190: 5b67 01bd 94b6 f43d 950a bb3c e0ec 5903
000001a0: 44a5 08bd 00c4 2a83 395b 5b83 4b20 203e
000001b0: 77a7 4d83 60f5 963d aae7 4883 ba8b 343c
000001c0: 611b 3e83 6d5b 3c3c 3922 933b 0f3b 4e03
000001d0: 7b4c 513c d557 5203 3f10 5803 b43d 4f03
000001e0: 76e8 e9bc d6a3 853e d9bf f4bc 3588 773c
000001f0: bde0 2ebe 7469 5b83 d6b5 1ebc 77b8 3a83
00000200: 2679 8e3d 2663 4c83 8589 1fbd 9d1c d73c
00000210: 88c4 10bb 3588 5303 d2d7 7b3d 2a4a 1783
00000220: cc1a 5603 9621 283b 9111 5d83 e5ba da3d
00000230: 2e87 4c03 6c01 8cbd 3e70 5103 0c10 83bd
00000240: dfb6 713a e3ca 4083 fa7a 213b 79fa 5e83
00000250: d24b 4183 2325 5683 dc03 fbbd 3151 483e
00000260: 02fb 093e 411b 993d 5349 cfbd 3b11 4f83
00000270: 4995 a9bd c2e7 4483 f0a4 3f3b d390 5203
00000280: 0012 163b efac bb3c 6506 87bd 1715 5d83
00000290: 4afb 673d 6e0d 1b03 8751 5083 f364 053e
000002a0: 3b04 5483 84c8 343d 8513 3703 3fce f6bd
000002b0: a118 1f83 8c8b 093d 922d 823a b473 5883
000002c0: 29ab 21be 9935 5583 d67e 2d83 37b4 5203
000002d0: a5e5 9b3e a5e3 643e 32a2 57be 256d 303e
000002e0: 207d a63e c030 4b83 7f85 5b3e b070 3103
000002f0: 50a5 203e cd54 5d83 c0aa e4be fffc 7abe
00000300: 325b d2bc 37f7 54b8 8d04 6f3e f9ef 1503
00000310: 765f 5783 64c8 6e3e 9c71 5503 7213 9cbe
00000320: 22bc 4b83 7296 c7be 9efa 4803 3440 d83e
00000330: 892a d43a 7830 5383 4b36 9c3e 7fb3 1aba
00000340: c059 2b83 fd2b 5283 0b58 fe3d cff8 05be
00000350: fc73 1ebe 581e 82bd f246 9a3d d615 5803
00000360: 2700 48bd d20c 4583 9d58 de3d ba15 5e03
00000370: 405a 223d 63e9 f53d d398 81bb db74 5803
00000380: 030f eebd 389e 3883 31c3 5083 4de2 923d
00000390: cda3 4a03 0cfc b7bd d9f0 3103 49da 993d
000003a0: 4fdb 3103 c0ed 6abd aff3 20bb a443 5103
000003b0: 7f7d 073e 752e 5283 cf2a 4b83 cabc 5b03

out_mu0.bias f4 [8]
0.07193462 0.16659302 -0.040430214 -0.20362654 -0.070109986 0.1064054 -0.19064313 -0.054150477
00000000: 7552 933d 5c97 2a3e 279a 25bd 7a83 50be
00000010: d395 8fbd 13eb d93d f437 43be e4cc 5dbd

out_var0.weight f4 [8, 30]
0.060780887 0.08083107 0.072433576 -0.096822664 -0.052048996 5.5950005e-37 -0.007087724 5.3036595e-37
0.11583515 -5.422726e-37 -0.0027039193 0.025555614 -0.023408486 -6.1687365e-37 0.05647135 5.4621825e-37
6.163138e-37 -0.15529183 -6.3473946e-37 0.08377943 -6.20501e-37 -0.06550111 5.105849e-37 0.06371201
0.0016280347 -6.2933144e-37 -0.15769641 -6.4304506e-37 -5.6199566e-37 -5.969232e-37 -0.1366086 -0.09004346
-0.042903874 0.16898762 0.02611657 -5.746067e-37 -0.072024636 -5.591553e-37 0.115911946 -5.631922e-37
-0.054246686 0.062368784 0.02235787 6.412047e-37 -0.097847596 -5.2927586e-37 6.5255483e-37 0.056471318
6.3871354e-37 0.073892035 -6.372906e-37 -0.117283516 5.443052e-37 0.02009212 8.257702e-05 -6.365628e-37
0.12770456 -6.2191133e-37 6.335638e-37 6.47398e-37 -0.1197138 0.17445122 -0.0124784345 -0.002456111
-0.07936719 -6.3608574e-37 0.17552 -6.1987337e-37 -0.12458131 6.345447e-37 0.025421798 0.06718609
-0.0330034 -6.1371043e-37 0.017114157 -5.179949e-37 -6.3533424e-37 -0.1186624 -6.3861875e-37 -0.07661332
-5.352525e-37 0.11479629 -5.742142e-37 0.06107566 0.00015546115 5.0116348e-37 0.06286197 6.508044e-37
-6.2340814e-37 6.3180857e-37 0.01341108 0.037833467 -0.05787598 -0.0060234554 0.064361975 -6.2429595e-37
-0.15910104 -5.9724758e-37 -0.12155015 -6.092617e-37 -0.059428997 -0.07351081 0.027042497 6.4048286e-37
0.15291047 -4.3917685e-37 -6.5221386e-37 0.1326709 -6.2969954e-37 0.15231834 -5.8954357e-37 0.0075346758
-5.0287207e-37 -0.14242698 0.003179485 -6.340572e-37 -0.03496719 -6.430491e-37 -6.199164e-37 6.4983797e-37
0.13540214 -0.040695887 -0.13288051 0.083741054 -0.20706403 5.856991e-37 0.08236562 -5.372807e-37
0.11288351 -6.0721424e-37 0.06402679 -0.06125535 -0.04735876 6.366969e-37 0.03811214 4.378955e-37
6.1588435e-37 0.08712033 -5.9825337e-37 0.07083296 -5.917696e-37 0.1346913 -5.731049e-37 -0.06178803
0.003426924 -6.488994e-37 0.11488161 6.3031024e-37 5.3410412e-37 -6.092472e-37 0.14917348 -0.074480884
0.04262778 0.050605673 0.04330734 -6.2112673e-37 0.017675322 -5.6777574e-37 0.16722699 -6.384559e-37
-0.003495775 0.074499935 -0.009546595 -6.198779e-37 -0.030038964 -5.5895226e-37 6.376666e-37 -0.16626365
6.4756827e-37 -0.09258427 -6.028613e-37 0.005008893 -5.3294475e-37 -0.010921912 0.0043096254 6.3403397e-37
-0.13215414 -5.408206e-37 6.3908515e-37 6.3291966e-37 -0.47198546 -0.32330242 -0.38459498 -0.102983415
-0.4664166 6.1595354e-37 -0.4106902 -6.1834427e-37 -0.13178419 6.1000383e-37 -1.118658 -0.5850461
-0.4880591 -6.496637e-37 -0.11620174 -4.997928e-37 6.3539805e-37 -0.25233462 6.3818477e-37 -0.5530623
-6.500501e-37 -0.60542333 -5.6842603e-37 -0.2667919 0.0045578787 -6.3715324e-37 -0.04407273 6.1540648e-37
5.8594046e-37 5.7349057e-37 -0.027240764 -0.1647504 0.09655135 0.12994604 -0.062068973 -6.2038353e-37
0.08581858 -4.692394e-37 0.13938701 6.435579e-37 -0.06115287 -0.20136143 0.0044831764 -6.4742904e-37
-0.12197092 -4.352426e-37 4.77196e-37 -0.053539466 6.2228436e-37 0.08626057 4.9981926e-37 0.016670713
-5.606447e-37 0.13311659 0.007476153 -6.163292e-37 -0.033403523 -6.525264e-37 -6.158459e-37 6.3660675e-37
00000000: 61f5 783d c38a a53d 0e58 943d f64a c6bd
00000010: 5431 55bd 5463 3e03 2340 e8bb 6479 3403
00000020: fb3a ed3d 9b86 3883 3d34 31bb 025a d13c
00000030: 27c3 bfbc 46e9 5183 814e 673d 52de 3903
00000040: 81b8 5103 d204 1fbe 9bfd 5783 8d94 ab3d
00000050: 4325 5383 7225 86bd 38be 2d03 717b 823d
00000060: c863 d53a 8026 5683 2b7b 21be 20d1 5a83
00000070: ba3c 3f83 581f 4b83 20e3 0bbe b568 b8bd
00000080: f9bb 2fbd 170b 2d3e 6bf2 d53c 4e87 4383
00000090: a781 93bd 4c45 3e83 3e63 ed3d f6a4 3f83
000000a0: c631 5ebd 6976 7f3d da27 b73c cf30 5a03
000000b0: 5264 c8bd 6e1a 3483 8b0d 5e03 784e 673d
000000c0: cc57 5903 b554 973d d7db 5883 5732 f0bd
000000d0: ac37 3903 3b98 a43c 332d ad38 719c 5883
000000e0: fcc4 023e 1ea0 5383 3197 5703 524c 5c03
000000f0: 822c f5bd 57a3 323e 5972 4cbc b4f6 20bb
00000100: 448b a2bd e272 5883 84bb 333e 96ee 5283
00000110: 7c24 ffbd a4ec 5703 6041 d03c dc98 893d
00000120: 932e 07bd b8d5 5083 fd32 8c3c b843 3083
00000130: 6b31 5883 4605 f3bd 8a4f 5983 72e7 9cbd
00000140: 1223 3683 511a eb3d 1d65 4383 792a 7a3d
00000150: 4903 2339 7f89 2a03 c7bd 803d 0f75 5d03
00000160: 8222 5483 4afe 5603 26ba 5b3c 44f7 1a3d
00000170: 5d0f 6dbd 6860 c5bb 36d0 833d d96f 5483
00000180: 62eb 22be 9a3b 4b83 49ef f8bd 2e52 4f83
00000190: d26b 73bd d68c 96bd 3a88 dd3c edf1 5903
000001a0: 9094 1c3e b371 1583 d7ef 5d83 e1da 073e
000001b0: 9146 5683 57f9 1b3e 7d9c 4883 71e5 f63b
000001c0: 561e 2b83 61d8 11be e85e 503b 2cc2 5783
000001d0: c239 0fbd 7ad1 5a83 56f2 5283 df20 5d03
000001e0: dca6 0a3e bbb0 26bd d411 08be 6e80 ab3d
000001f0: 9808 54be 964d 4703 4eaf a83d c0d3 3683
00000200: 782f e73d d29f 4e83 7a20 833d e4e6 7abd
00000210: 42fb 41bd 1fa8 5803 7a1b 1c3d 1402 1503
00000220: 1893 5103 256c b23d 3893 4b83 df10 913d
00000230: 675e 4983 84ec 093e 7a04 4383 7215 7dbd
00000240: 3f96 603b 1ccf 5c83 0d47 eb3d c47b 5603
00000250: 08bf 3503 eb50 4f83 efc0 183e 6f89 98bd
00000260: 789a 2e3d e547 4f3d 0a63 313d c55b 5383
00000270: d6cb 903c 3e34 4183 8d3d 2b3e 5a41 5983
00000280: 5f19 65bb 6c93 983d 5269 1cbc fbee 5283
00000290: 4614 f6bc 9c33 3e83 98fc 5803 0541 2abe
000002a0: 275b 5c03 d29c bdbd a024 4d83 a421 a43b
000002b0: 095a 3583 d2f1 32bc c237 8d3b 26c0 5703
000002c0: 6a53 07be 1e08 3883 2b78 5903 145f 5703
000002d0: 14a8 f1be e587 a5be a2e9 c4be f8e8 d2bd
000002e0: 28ce eebe 1f99 5103 fc45 d2be 6269 5283
000002f0: 6ff2 06be d492 4f03 2f30 8fbf 95c5 15bf
00000300: e2e2 f9be b111 5d83 2efb edbd 1812 2a83
00000310: fa36 5803 0132 81be bc29 5903 7e95 0dbf
00000320: 5a33 5d83 06fd 1abf e46c 4183 f398 88be
00000330: 425a 953b e0cf 5883 9b85 34bd 7769 5103
00000340: 9d62 4703 1326 4303 0628 dfbc 54b4 28be
00000350: b7bc c53d 9310 053e 093c 7ebd 071b 5383
00000360: a7c1 af3d 84ac 1f83 78bb 0e3e cdfd 5a03
00000370: 6f7b 7abd b131 4ebe 9ce7 923b 064f 5c83
00000380: e4cb f9bd fa1a 1483 a261 2203 334c 5bbd
00000390: 9dc0 5303 62a9 b03d 6614 2a03 0591 883c
000003a0: 0bc7 3e83 b74f 083e 84fa f43b d8b9 5183
000003b0: 22d2 08bd 110b 5e83 be8f 5183 45a0 5803

out_var0.bias f4 [8]
-0.17059585 0.06904545 -0.13446754 -0.13983165 -0.14332977 -0.10028634 -0.4351889 0.034955602
00000000: aeb0 2ebe b367 8d3d dcb1 09be 0730 0fbe
00000010: 0ac5 12be ed62 cdbd 14d1 debe 9b2d 0f3d
