DR_Info_CFR/Jobs/Models/netQ0.pth (torch, 206143 bytes, 8 tensors)

hidden1.weight f4 [200, 2]
00000000: 2ea2 9c3d 7db3 203d 36d6 963e 4d3f f8bc
00000010: cd29 0a3c 04ab 223e 0d30 013e b04f f5bd
00000020: 7c11 073e 8d67 25bb 7f43 873d d8c9 3c3d
00000030: bb01 64be d42a 63bd 41b2 2cbd ae45 7bbc
00000040: 07a7 963d 9ee0 4f3e 2198 543d b09f 9e3c
00000050: 1667 8e3d 1444 8e3d c636 46bd e65c fa3c
00000060: 3b1a 1ebd a2c7 4d3a c7b8 d13d 7669 aa3d
00000070: b937 173e 6b7e 52bd 4698 7a3e e677 533b
00000080: fbfe f63d d255 58be 9d48 7dbd 4696 843d
00000090: 7b9e f63b 2508 af3d e451 82bc 78d0 ebbc
000000a0: 3c2d b33b 763a bf3d 59fb 7c3e 751c ff3d
000000b0: d8cd bbbb 4fda 263b 6593 583e 8b89 293d
000000c0: 4012 acbd afad 243d 214e ac3d 85ff 773d
000000d0: 8948 95bd 92ba 1e3e 5554 4d3d e310 58bc
000000e0: 9470 44bd 3ff7 a23c 9197 2dbc e0f2 4a3d
000000f0: 9317 c1bd 63ac ef3d 7618 3c3e 5d3c f4bd
00000100: 7db5 f5bc 3e02 053d deb4 ee3c a563 19bd
00000110: 0bcd 483e 9a81 1b3e 242d 4cbd 030e c73d
00000120: 4c2e e2bd bbc2 063d f7e1 10bd 1d74 203e
00000130: 7ac6 7d3c b9e3 1bbd dc23 913e 854e 24be
00000140: 6b59 b13c d07b a73d 52f2 08bd 99d3 babd
00000150: 757f 933d 2777 d33d 5f03 4b3d aec9 5b3d
00000160: bb63 4e3d 547b 16bd d9dd 6e3d 3cfd 95bd
00000170: e23e 49bd 8559 72bc e46b 503e efca b13d
00000180: ab3f 9fbd 22d1 2d3e 0c79 a8bd 79df ffbd
00000190: 14d9 e33d 008b d13d 312d ab3d 0d37 a83e
000001a0: bfec 313d b439 63bc a733 b43c 2550 423c
000001b0: 1b33 30bd 3619 183d 146e 253e 2de0 ad3d
000001c0: f43a c53d b9ed 5abd 4fba cabc 8425 febd
000001d0: e2d7 363e 4740 8ebd ea5b 46be b461 edbd
000001e0: 0f96 8f3d e28f 343d 1299 34bc 333a 27be
000001f0: 3c60 afbc 3de2 c8bc 731f c53e cec9 663e
00000200: 5efc 00bc c2db 7ebe e881 513c 8a96 afbc
00000210: 9716 c83c de2f 813e ee76 e83d 96a2 c33d
00000220: c5e7 533e a379 60be 30b6 e43c f7e3 fcbc
00000230: de18 5e3d f6b7 d7bc b314 753d 1ffb 18be
00000240: 37a4 d83d 5a49 da3d d23c 12bd d52c 35bb
00000250: 40da 783e 95f8 993d 438b 0a3e 4a2b 8ebc
00000260: 71b7 113d 579e debd 1965 5f3d e6cf babc
00000270: 40d1 73bd f2a5 fc3c 607b f53d 3d7e 983d
00000280: f6ce 083d 54ef b23d ed42 3bbd fe04 5f3c
00000290: dafd 0d3e f071 95bb a3d5 2ebd 7b5c 3e3c
000002a0: 61b6 073e 78fe 53be 2521 8bbd e93a 793d
000002b0: 9158 373e 8994 0a3d 5e42 193e b2f4 073c
000002c0: 350e 863b cce1 1c3d 6a9e 0abd 97a3 7d3d
000002d0: 2998 43bc 7fc0 aabc 7dcf d63d 6fd5 5c3d
000002e0: 463c cf3d e32d 44bd 021a 403e 2efb cf3d
000002f0: 2797 e5bc 37f7 333d b774 febc 55a5 953c
00000300: 7f44 f73c 2ede 023d f521 73bc 91ca 683e
00000310: 47f1 ae3d b668 0ebe 3ef6 efbd 8553 4b3d
00000320: a27e 1cbc 6018 49be 163c d7bc 4cd4 033b
00000330: 598b a1bd bfd9 fc3d 2b08 db3d 8410 80bd
00000340: e19e f8bd 420b 053e 0808 b9bc d351 1f3d
00000350: 964e 383e c98c 0f3e ca7c 32be 4985 2dbd
00000360: 740a 373e d4fb d6ba 85f5 c73b 12b1 f3bd
00000370: c51c 573c 73b6 eb3d 0a05 093e dddb d8bd
00000380: eda2 1d3e 07f8 26bd 461f a4bd bd45 e93d
00000390: a133 28bc a819 ecbd e193 3ebd c25b d83d
000003a0: c860 bcbd 07c8 74be e8cb 4abc 3152 7cbc
000003b0: 4dfa cdbc 3946 003d 21a3 34bd 0e82 543e
000003c0: 3ec2 953d 9a62 d33c 7663 923d fe1a e3bc
000003d0: f140 57bd 12da cd3d 4a9c 173e 630a 65be
000003e0: dae2 b23d bf5c b23d 337c 253d 538b 1bbd
000003f0: a4f9 01bd 19da 433b 110c 0d3e 15d7 43bd
0.07648121 0.039233673 0.29460305 -0.030303622 0.008432818 0.1588555 0.12615986 -0.1197809
0.13190264 -0.0025238723 0.06604671 0.04609093 -0.22266285 -0.055460766 -0.042162184 -0.015336437
0.07356077 0.20300528 0.051902894 0.019363254 0.06953256 0.069465786 -0.04839208 0.030561876
-0.038599234 0.0007849877 0.102403216 0.08320896 0.1476735 -0.051390093 0.2447215 0.003226751
0.120603524 -0.21126488 -0.061836828 0.06473975 0.0075262166 0.08546475 -0.01590819 -0.02878593
0.005468039 0.093373224 0.24705257 0.124565996 -0.0057313256 0.0025459712 0.21149977 0.041390937
-0.084019184 0.0402047 0.084133394 0.060546417 -0.072892256 0.15500858 0.050129253 -0.01318762
-0.047958925 0.019893287 -0.010595218 0.04954803 -0.094283246 0.11702802 0.18368706 -0.11925576
-0.029993767 0.03247284 0.029138979 -0.037448544 0.19609468 0.15186158 -0.049847737 0.097194694
-0.11043987 0.032900553 -0.035371747 0.15669294 0.015489215 -0.03805897 0.2834767 -0.16045578
0.021649083 0.08177912 -0.03343422 -0.0912239 0.07202045 0.10325461 0.04956376 0.053659134
0.05038808 -0.03673871 0.05831704 -0.07323691 -0.049132235 -0.014791851 0.20353657 0.08681285
-0.077758156 0.16974309 -0.08226213 -0.12493796 0.11125389 0.1023159 0.08358229 0.328545
0.04343867 -0.013868738 0.021997286 0.011859928 -0.043017488 0.037133418 0.16155273 0.08490024
0.09630385 -0.053449366 -0.024747042 -0.12409499 0.1785579 -0.06945854 -0.19371 -0.11590901
0.07011043 0.04408253 -0.011022823 -0.16330795 -0.021408193 -0.024521941 0.38500556 0.2253792
-0.007872669 -0.24888518 0.01278732 -0.021434087 0.024424834 0.25231832 0.11350809 0.09552495
0.20693882 -0.219214 0.027918905 -0.03087042 0.054222934 -0.026332837 0.059834193 -0.14939545
0.105781965 0.10658522 -0.035702534 -0.002764513 0.24302006 0.075181164 0.13529687 -0.017354626
0.035575334 -0.10870045 0.054539774 -0.022804212 -0.05952573 0.030840848 0.119864225 0.07445953
0.0334005 0.087370545 -0.045718122 0.01361203 0.13866368 -0.0045607015 -0.04268421 0.011618729
0.13253166 -0.20702541 -0.06793431 0.060847197 0.17904879 0.03383306 0.14966723 0.008298086
0.004091049 0.038301274 -0.03384248 0.06192359 -0.011938133 -0.020843742 0.10488794 0.053914484
0.10118918 -0.047895323 0.18759921 0.101553306 -0.028026177 0.043936934 -0.031061513 0.018267313
0.030184029 0.03195017 -0.014839639 0.22733523 0.08542114 -0.13907132 -0.11716889 0.049640197
-0.009551676 -0.19638205 -0.026273768 0.0020115552 -0.078879066 0.12346219 0.10694917 -0.0625315
-0.12139679 0.12992576 -0.022586837 0.038896393 0.17998728 0.14018549 -0.17430416 -0.04236344
0.17875081 -0.0016401955 0.0061022663 -0.11899008 0.013129418 0.11509409 0.13380828 -0.105888106
0.15394183 -0.04076388 -0.080137774 0.11390255 -0.010266216 -0.11528331 -0.046527747 0.105643764
-0.09198147 -0.2390443 -0.012377717 -0.015400455 -0.025143767 0.03131697 -0.044100884 0.20752737
0.073124394 0.025803853 0.07147877 -0.027722832 -0.052552167 0.10051359 0.14805713 -0.22367243
0.08734675 0.08709096 0.04040165 -0.037974667 -0.031732216 0.0029884635 0.13774134 -0.04781254

hidden1.bias f4 [200]
00000000: 52ec 4c3c a65f 583d cd3b 493d fc76 513b
00000010: 194d 9e3c d2e0 be3c e5f2 7c3d 969a ea3d
00000020: 7aa2 e63a 1896 4f3c ac84 4f3d 319a 8f3d
00000030: 0404 c43d 2eaa 793a 1fd7 6d3c d1a3 ff3c
00000040: 271e 14bc e73f 643d 35e7 12bb 8894 e33d
00000050: 0dba cdbc 6233 853c ea55 bc3d f3d2 1c3d
00000060: 8d85 cd3d ffcb 653d 4c49 edbc ac62 5a3b
00000070: 076e c93d fa95 bf3d 0795 08bb 13d7 8e3d
00000080: ec48 dc3d 876e c93d f1bb acba aebe 163d
00000090: 80bd 8c3d eae1 1a3c ec3b e53d f473 2b3d
000000a0: 4d18 433c 7773 9a3d 51f2 b13c f76e 943d
000000b0: a111 e63d 02f0 0a3a 228f 093e 8199 73bc
000000c0: 7008 693c e99f 12bc fc55 50bc d2f8 3c3d
000000d0: 8a4e 2a3d 32ba 893d 478e b5bc c923 823d
000000e0: ed77 cd3d 9a28 563b 0dfc aa3d f913 263b
000000f0: 2311 993d 53b7 a63c 0054 e83d 884e 023a
00000100: 4011 063c e741 8f3d 9259 49bb caf2 363d
00000110: 495c 37bc 39ea c73d 8d9a 723d 3003 c5bc
00000120: 0b4a 0f3d a76a 8f3d 024f c93c eaed 753d
00000130: fa89 ca3b d689 8d3d d176 dd3d 59ae 79bc
00000140: 5589 9fbc 8f76 c93d 5756 a93d eb35 c83d
00000150: e9bb 953c ce6e 1e3d fc98 e0bb e93e 233c
00000160: d94d 8f3d 58fd 393c bddd d03d dc8d c5bc
00000170: 978a d33d a423 db3d 8cee 143d 81bd b83d
00000180: 6e58 653d 8844 1f3d d614 dabc 57ae a63d
00000190: 0b67 b1bc dea5 9b3d 89c9 623c 723c c33d
000001a0: 32af f43a d89d d33c e969 b3bc aec4 d9bb
000001b0: 4c32 813c 88d7 163d a672 ec3d 8763 5f3d
000001c0: 0915 0d3d 413c 79bb cc0d 1ebc d44d ccbb
000001d0: 9c4c 673b 30fe 9f3d b4dd 933d 35f6 2d3d
000001e0: 5aea 8d3c 1195 8f3d dc79 1d3d 1bfb 21bd
000001f0: 1d1f d5bc 1a8a 923d 8c1d 983d 58a9 7d3d
00000200: 7cba 4a3d 96f0 db3c 58d7 81bc de2f a23b
00000210: d35f 863b f502 743c 7d8e 693c f9bf debb
00000220: d7f6 183d 1e11 be3d 76af 52bc 8f23 5d3c
00000230: c2c5 d43d 4f0e 0e3d c054 cabc 58e3 95bc
00000240: 89bc 873d 9553 1a3d e5c0 613c 3d76 ee3c
00000250: 203f 963b 8ec1 c63d bab9 223d 11a7 25bc
00000260: 3695 dd3c 551b 653d a81e bf3d c657 a33c
00000270: b067 373d a653 a4bc 62aa 6b3c 1b2d b83d
00000280: 4868 a13d 284b a93d 0e73 ba3c 7159 cf3d
00000290: 1e8f a1bb 4fb0 ffbb 956d db3d baab 68bc
000002a0: 304a eebb 2519 fb3c 5b18 773d fda9 e93d
000002b0: 951a 7e3d 39b1 80bc d937 ddbb 8bce 4e3d
000002c0: b1a7 603d 9f0c 643c 05e9 913d a841 8b3d
000002d0: d673 3e3d c3f0 e93c 813f b53d 87ec 083d
000002e0: ff15 843c 7b02 b93c 7bca 843c 54b4 a8bc
000002f0: f644 b6bb 0843 103b cea7 553d 6af0 b4bc
00000300: 18cf e4bc 42c1 903a f849 863d e8f9 cb3d
00000310: 98bb f43d b96f bd3d b10a a83d e6ee b3bc
0.012507515 0.052825592 0.049129296 0.003196179 0.019323872 0.023300562 0.06175508 0.11455266
0.0017596029 0.0126700625 0.050663635 0.070118316 0.095710784 0.0009523955 0.014516621 0.031206043
-0.009040392 0.055725005 -0.0022415642 0.111123145 -0.02511313 0.016259853 0.09196074 0.038287114
0.100352384 0.05610275 -0.028965615 0.0033322973 0.09835439 0.09354778 -0.002084078 0.06974616
0.10756096 0.098355345 -0.001317857 0.03680294 0.06872082 0.009453276 0.1119307 0.04185863
0.011907649 0.075415544 0.02172199 0.07247727 0.11233831 0.0005300046 0.13433507 -0.014868141
0.014223203 -0.008949258 -0.012715813 0.04613573 0.041578807 0.06724967 -0.02216257 0.06354482
0.1003264 0.003267801 0.08348856 0.0025341494 0.07473972 0.020351088 0.11344147 0.00049708085
0.008182824 0.06994992 -0.0030723554 0.044665135 -0.011191436 0.09761471 0.059229422 -0.024049371
0.034982722 0.07002764 0.024573807 0.060041346 0.006180999 0.06911056 0.10813678 -0.015239322
-0.019474665 0.098370664 0.08268421 0.09775909 0.01827808 0.03867989 -0.0068541747 0.009963729
0.0699727 0.011351906 0.10198543 -0.024115495 0.10329168 0.10700157 0.03636031 0.0902052
0.055992536 0.038883716 -0.026621263 0.081387214 -0.02165558 0.07599996 0.013841995 0.095330134
0.0018667935 0.025832102 -0.021901088 -0.0066457605 0.015771054 0.03682664 0.11545305 0.054538276
0.03444389 -0.00380303 -0.009646844 -0.006234864 0.0035293465 0.07812154 0.07220021 0.04247113
0.017323662 0.07010854 0.038446292 -0.039546113 -0.026015813 0.07155247 0.074275106 0.061929077
0.04949425 0.026848119 -0.015849754 0.004949554 0.0041007786 0.014893283 0.014255163 -0.0067977873
0.03734478 0.092806086 -0.012859216 0.013497247 0.10389282 0.034681614 -0.024698615 -0.018296883
0.06627757 0.037677366 0.0137789 0.029109115 0.004585162 0.097048864 0.039727904 -0.0101106325
0.027048688 0.05593427 0.09332019 0.019939315 0.04477662 -0.020059418 0.014383884 0.08992978
0.07881218 0.08266288 0.02275994 0.101244815 -0.004930391 -0.007803 0.107142605 -0.014201099
-0.0072720274 0.030651638 0.06032596 0.11409376 0.06203707 -0.015709506 -0.0067510423 0.050489943
0.054847423 0.013919025 0.07124523 0.06799632 0.04649719 0.028557187 0.08850003 0.033428695
0.01612377 0.02258419 0.016209831 -0.0205938 -0.00556242 0.002201261 0.052161984 -0.022087295
-0.027930781 0.0011043923 0.06557077 0.09959775 0.11949843 0.09249825 0.08205164 -0.021964502

hidden2.weight f4 [200, 200]
00000000: 6bfa 153e f32b 393d 3ec5 c13d 5e1f 153c
00000010: 80d0 a93d 5740 4fbd c4c5 213d b1ae 103e
00000020: 7b65 1bbc ebfb 47bc d6dc d43c 8739 febc
00000030: 8ec5 503c 52f8 81bd 0437 bfbb e2de e43d
00000040: 94ce 8f3d e4bd b4bc ebcb a5bc 4236 7d3d
00000050: d0b1 30bd 2eb5 5a3d 6ff8 683d 4adc 333e
00000060: 8a1e ce3d 461a 4fbd e837 903d 9e0d 58bd
00000070: 5196 143d d6e1 933d 32e0 8e3b f7d8 69bd
00000080: 8a8b c3bc 282f d23c 9585 4cbd a914 0c3e
00000090: 267e 383d d3b6 7d3d f0cc f43d 5c9d 2f3e
000000a0: 412a cc3d d5c6 c63d df11 1b3e 0324 cdbc
000000b0: 95d3 01bc 8af1 813d 29d9 843d ae86 a73d
000000c0: c128 af3d d1b8 20be aead 033e bdaf 9a3c
000000d0: 4776 debc 6383 e8bb 6cf1 76bd 59be 14bd
000000e0: 9b19 5d3d 4937 edbd 4b28 b13d 58c3 1ebc
000000f0: 56ab 47bd bb88 ebbc e192 b53d 5047 433c
00000100: f0af efbd ce1a bd3d 37b1 3cbd 62cb e43d
00000110: f5a8 87bd c06c 82bc 2416 a43b 86e0 97bb
00000120: b034 fa3d 66b3 903d a6ee 243e 8cb0 ea3b
00000130: 035c 2fbc d6c8 343d a0fc b53d ba57 ce3d
00000140: 9f00 fb3c 4216 bbbd 0c59 2dbd c83b 5a3b
00000150: 1354 c1bd 12b3 aa3d 263f a03d ce90 57bc
00000160: ecc7 c9bc 86c1 e5bb 93fc 363d bae6 92bd
00000170: 2e33 163e 3836 c13d 0a32 cdbd ac6d 273e
00000180: f202 d13c 21fa f13d 5a7a dcbd d192 3c3d
00000190: b098 87bd 8f9b b33d ee50 e8bd 0761 133d
000001a0: bf3f 45bd 1c7d aebd bcb4 c5bd ab60 56bd
000001b0: 2b61 163e 7b36 debb dd81 ab3d 9ffa fdbc
000001c0: 825f 953c f430 1fbe c765 1fbd fa38 12be
000001d0: b2a4 4e3d 3065 69ba 1469 503e 4b1d 9a3d
000001e0: c888 d33d 119b 9c3d 0139 173e 1b6c 36bc
000001f0: 5122 9b3d 6eaa 203c c0a2 c8bd 3191 4c3c
00000200: bfcb ebbb d3d4 f23c 1677 cebd c14f 99bd
00000210: cc84 7dbc 964e 86bd 9c96 cfba f5ca 29bd
00000220: e32e 9bbd a954 d73d 1dea 8bbd 02a6 793d
00000230: ece6 8e3e 7339 4cbc 0e80 15bd 0a42 b2bb
00000240: c69d 903d 7a3b 2bbd 91fb 1abd c0c5 183d
00000250: aa21 2dbd 853d f43d 9684 60bd 9b97 003c
00000260: aa7a 923d e3c7 d83c ba8d 9c3d fa1f 5f3d
00000270: 4cb8 20be be12 dcbc 5b41 833d ba61 cb3d
00000280: 6f0c e23c 1945 093e cf3a 103e 1d3f 963c
00000290: 6627 163c ed20 463d 3d6a 423e c1ff 7a3d
000002a0: 9bee 443c dfe4 8cbd a746 2d3d 7254 acbd
000002b0: fc98 143c 8ae5 c83d 00ce 32be 6ea5 41bd
000002c0: 1479 4ebd f48e 813d 27b1 093e 98b4 003e
000002d0: d79d 19bd cf66 8e3d 98ed b43d 16f6 283d
000002e0: a73a 42bd e7b1 933d bf22 48bd eaec b53c
000002f0: 3f45 dfbd f23f b5bd 36eb 8ebd 2c7a 96ba
00000300: 00d1 81bd 768d 8b3d ea00 bcbd 89f3 c93d
00000310: edf7 3c3e 8f5d 8abd 6429 15bd 5bd4 9a3d
00000320: ab36 2a3d 02d7 18bc c23b 93bd c290 043e
00000330: 4fdd f33d fbc7 8d3d 00ec 30bd 6442 92bd
00000340: bcad e93d 94fa 083e 5e3e 94bd 446b a93b
00000350: 5c9a 80bd 173f b3bd 9d9f 8d3c 3434 a43d
00000360: d3ed 5e3d 5b28 b13c 61df 813d 37ac 953c
00000370: d76d 70bd 8387 5a3d ff68 d4bc 8456 79bb
00000380: c239 debb 4317 543c 7556 9bbd 99e0 923d
00000390: db01 22bd 5887 0e3d 5b54 0b3d ad02 ecba
000003a0: 0f56 813b 6fee 033d 88be 5c3d d270 be3c
000003b0: d4ca c9bd 5112 fabd f792 e9bd 81e2 2d3d
000003c0: ff9c 7dbd 89eb 1a3c 73a6 98bd a6cf 70bd
000003d0: aa36 dc3d 7acc 4cbd c83f 6fbd 9636 debc
000003e0: bf35 9e3c dfe3 11be ab2e 4b3d b7f5 89bd
000003f0: d59e edba 6383 c0bc f841 2fbd 263e 6abd
0.14646308 0.04520793 0.09461449 0.009101717 0.08291721 -0.05059847 0.039495245 0.1412914
-0.009484644 -0.012206058 0.025984209 -0.03103329 0.012742413 -0.063461915 -0.005835416 0.11175324
0.070218235 -0.022063203 -0.020238837 0.061819322 -0.043138325 0.053395443 0.05687755 0.17564502
0.100644186 -0.050562166 0.07041913 -0.05274736 0.036276165 0.07220809 0.0043602223 -0.05709168
-0.023870248 0.025657251 -0.04993208 0.13679756 0.04504218 0.061941933 0.11953151 0.17149872
0.09968997 0.09705893 0.15143536 -0.025041586 -0.00792398 0.06344898 0.064867325 0.08179985
0.08552695 -0.15695502 0.12859222 0.018882627 -0.027156008 -0.0070957406 -0.06028883 -0.036314342
0.053979497 -0.115828104 0.086502634 -0.009690128 -0.048747383 -0.028751722 0.088659056 0.011918858
-0.11703479 0.09233628 -0.046067443 0.11171605 -0.06624023 -0.015920997 0.005007522 -0.0046349196
0.122170806 0.070654675 0.16106662 0.0071621593 -0.01070309 0.044136845 0.08886075 0.10075326
0.030639945 -0.09135105 -0.04232125 0.0033299793 -0.09439864 0.08334936 0.078245446 -0.013157083
-0.024631463 -0.007011595 0.044674467 -0.07172914 0.14667961 0.094341695 -0.1001931 0.1635043
0.0255141 0.118152864 -0.10765524 0.046038453 -0.0662092 0.08769905 -0.11343561 0.035981204
-0.048156496 -0.085199565 -0.09653613 -0.052338284 0.14685504 -0.006781397 0.08374379 -0.031003295
0.018234018 -0.15546018 -0.03891542 -0.14279547 0.050450034 -0.0008903323 0.20352584 0.075251184
0.10328823 0.07646764 0.14767839 -0.011134173 0.07574905 0.009806259 -0.09796667 0.012485788
-0.0071959193 0.029642498 -0.100813076 -0.07485915 -0.015473556 -0.06557958 -0.0015837732 -0.04145332
-0.07577302 0.105141945 -0.06831763 0.060949333 0.27910554 -0.012464869 -0.036499076 -0.0054400014
0.07061343 -0.04180477 -0.03783757 0.037297964 -0.042268433 0.119257964 -0.054813944 0.007848646
0.071523026 0.0264625 0.0764422 0.054473855 -0.15695304 -0.026864406 0.0640895 0.09930749
0.02759382 0.13405265 0.14084934 0.018340642 0.009164667 0.048371244 0.18985839 0.061279062
0.012019779 -0.06879591 0.042303707 -0.08414544 0.009069677 0.09809406 -0.17461395 -0.047276907
-0.050408438 0.06326094 0.13446485 0.12568891 -0.037504043 0.06953203 0.0883438 0.04125031
-0.047419216 0.072116666 -0.04886126 0.022207696 -0.109018795 -0.08850087 -0.06978457 -0.0011480502
-0.06338692 0.06814091 -0.09179862 0.09860904 0.18453951 -0.06756126 -0.036416426 0.07560035
0.04155604 -0.009328606 -0.07189132 0.12945846 0.11907446 0.06922909 -0.043193817 -0.07141569
0.1141009 0.13376838 -0.07238458 0.0051702578 -0.06279442 -0.08752268 0.017288024 0.080177695
0.054426026 0.021625688 0.06341434 0.018270595 -0.0586985 0.05335189 -0.025928972 -0.0038045952
-0.0067817876 0.012944999 -0.0758485 0.07171745 -0.03955255 0.034797043 0.034015995 -0.0018006169
0.0039470266 0.03220981 0.053892642 0.023247156 -0.098531395 -0.12210525 -0.114049844 0.04245234
-0.0619173 0.00945557 -0.07453623 -0.05879178 0.10752614 -0.04999969 -0.058410436 -0.027125638
0.019312738 -0.14247082 0.049605053 -0.067363195 -0.0018129001 -0.02350015 -0.042787522 -0.057188176

hidden2.bias f4 [200]
00000000: 9065 363d e2af ba3a 74bf 1abc 8e36 263d
00000010: 20a8 703d df9e 1ebb 4dff 1bbc 0c42 a53d
00000020: 6fae 8a3d 437e f63c 09eb 3e3d 857b e4ba
00000030: 71b9 743c 06b3 4fbc 7dd2 54bc 6870 a03c
00000040: e32f 303d 980f 0f83 c996 01bc 5097 3283
00000050: b845 abbb 1a05 5d3b 7257 243d dafe 183d
00000060: 1e48 7bbc d83f 64bb e32e 1fbd d784 00bc
00000070: 3c02 733d f99e dabb 7259 10bc 6e7c 1d3d
00000080: 528b ba3c 3434 303d 82a0 973d 717a e23c
00000090: 5c49 fe3b 823a 103d 24f9 8bbc b374 52bc
000000a0: e428 5d38 e3ec 6c3b b944 c93c 6bdd 503d
000000b0: 57f6 173d 419e 473d 318e b2bc 2405 92bc
000000c0: f071 b73c b641 deb8 d2b2 d63c 366f 333d
000000d0: 1b0b 94bb 0e51 023d 29ef bb3c 103f 243d
000000e0: 3b30 5cbb 624e 443b 6de8 833c 71b5 073d
000000f0: a3c1 643d b90b 9e3b a428 243c 45e8 043d
00000100: d46c 5abc b2e6 143c 85be 723c db29 0a3d
00000110: 672e af3c 86b8 2f3d 6ea7 153d 703d 9abc
00000120: 8e9a 03bc b65e 8dbb 1406 95bc 9087 073d
00000130: adcb e43c 0c48 543d 71ea 133d 127d b33c
00000140: d3c4 923c 705f fe3c b144 22bc 8bac b73c
00000150: 0ea7 d53c 6d04 5e3c 5c7d 303d 3bf8 72bb
00000160: ae5d 44bc af28 653c 94a5 003d 6e5f 37bc
00000170: 0443 fbbb eec5 70bc 5774 8c3d b26f c3bb
00000180: 2f9d c33a c3b5 8e3c d053 933c d727 4a3a
00000190: 9cf0 273d 8c54 863d 5202 10bc 4cc8 313d
000001a0: ef9b c93c a10c 893c 576b 4abb 883c 58bc
000001b0: a8d4 4ebc eeb2 33bc 2b77 80b4 ff67 053d
000001c0: 09b9 bf3d 90c6 52bc a8b4 51bb f606 ddbb
000001d0: ddec 353d 7401 6a3c 638d 443d 98c9 473d
000001e0: 2fa8 d9bb 89cc a23c 0983 31bc 0417 1f3d
000001f0: 6986 4c3d 8c74 b53c cdc6 e93c 5b15 51bc
00000200: 947a 5d3d ea08 893c c43d 173d 3401 963b
00000210: 486a a73c d5ca 1a3d 2fe7 b53c c63f 2a3d
00000220: 66ba 8b3c 6cd5 0f3d fe29 9c3d 57bb 8b3b
00000230: 5840 a53c 7efc ce3c 3637 5bbc 24a7 1c3c
00000240: d32d cb3c f130 493d 4aa9 203b 670e 853c
00000250: d4c4 49bb c344 e93b b49d 08b7 22b7 d9ba
00000260: f8f2 453d c69e 983d 70a2 a8bc 2257 11bc
00000270: 7074 e33c 23de 4fbb 50a5 fb3c 310e cd3b
00000280: 7964 9b3d db76 0f3d 48d0 f83c 927d 2f3c
00000290: db9a 443d 540b 1fbc fa62 76a3 5d76 dabc
000002a0: 2072 ac3c 73bc bbbb 3ef5 133d ea77 d1bb
000002b0: 28da db3c 56b3 3a3b d3b8 c73c 6e34 0ebc
000002c0: e47f afbb abe5 8ebb aebf e5bb c0ee c23c
000002d0: 1444 b6bc 88df ae3c 567d f13c b65e babb
000002e0: d931 7c3c bef3 0c3c b87d a6bb a908 4dbc
000002f0: 2765 cabc 495e 133d 9d13 0c3d 6839 20bc
00000300: ca8a b63c 0f3d 093d 7637 9f3c 5e33 883d
00000310: 4a09 d03c 38d3 3f3d 4441 8a3d caec 9c3d
0.04453045 0.0014243091 -0.00944506 0.04057937 0.058754086 -0.0024203581 -0.009521318 0.08069238
0.06771552 0.030089503 0.046610866 -0.0017431831 0.014936791 -0.01267696 -0.012989637 0.01958485
0.04301442 -4.2041824e-37 -0.007909485 -5.2483197e-37 -0.005226817 0.0033724965 0.040122457 0.03735242
-0.015337018 -0.0034828093 -0.038863074 -0.0078441715 0.059328303 -0.006671783 -0.008810388 0.038448744
0.022771511 0.043018535 0.07403661 0.027646275 0.00776021 0.035212047 -0.017086573 -0.012845206
5.272859e-05 0.0036151938 0.024568902 0.05099241 0.037100162 0.048734907 -0.021796318 -0.017824717
0.022393197 -0.000105980245 0.026208315 0.04380723 -0.0045179254 0.03181558 0.022941189 0.040099204
-0.0033598084 0.0029953946 0.01610204 0.03313202 0.05584873 0.004823175 0.010019455 0.032448072
-0.013331611 0.009088205 0.014815931 0.033731323 0.021384431 0.042900585 0.036536627 -0.018828124
-0.008032454 -0.004314269 -0.018191375 0.033088267 0.027929151 0.05182652 0.036112253 0.021910224
0.017916119 0.031051368 -0.009904073 0.022421142 0.026080634 0.01355086 0.043088302 -0.0037074226
-0.011985226 0.0139867505 0.031407908 -0.011192186 -0.007667901 -0.014695628 0.068581276 -0.005964243
0.0014924164 0.017420655 0.0179843 0.0007711625 0.041000947 0.06559095 -0.008789616 0.04340391
0.024610488 0.016729655 -0.0030886733 -0.0131980255 -0.012623943 -0.010967953 -2.3928564e-07 0.03256988
0.093614645 -0.012864724 -0.0031998549 -0.0067452146 0.044415344 0.014282573 0.0479864 0.04877624
-0.0066423635 0.01987292 -0.010834464 0.03884031 0.04993287 0.0221503 0.028537178 -0.012761439
0.054071978 0.016727883 0.03692414 0.00457778 0.020436421 0.037791092 0.022204963 0.041564725
0.017056655 0.035115644 0.07625197 0.004264276 0.020172283 0.025266882 -0.0133798625 0.009561334
0.024802124 0.04911894 0.0024514967 0.01624222 -0.0030787485 0.0071187927 -8.14295e-06 -0.0016610364
0.048327416 0.07452159 -0.020585269 -0.008870872 0.027765483 -0.0031718097 0.030718476 0.0062577953
0.07587523 0.03502546 0.030372754 0.010711091 0.047999244 -0.009707291 -1.3356646e-17 -0.026667768
0.021050513 -0.005729252 0.036122553 -0.0063924687 0.026837423 0.002848824 0.024380123 -0.008679492
-0.005355822 -0.0043608746 -0.0070113754 0.023795485 -0.022249259 0.021346822 0.02947871 -0.00568756
0.015392744 0.008603035 -0.005080905 -0.012514272 -0.024706436 0.03597859 0.034198392 -0.009779312
0.022282977 0.033505496 0.019435626 0.066504225 0.025395054 0.046832293 0.0675073 0.076623514

out_mu0.weight f4 [25, 200]
00000000: ad5d 2a3d f92d fc3d 257c be3b 7b04 fa3d
00000010: 4ee9 873c 278d 763c 518c c1bc 05f1 24be
00000020: 53f3 3bbd d276 873d 81b7 f7bd 033f 5c0b
00000030: bb74 1e3e 4513 0135 e366 553c 89b0 913d
00000040: c0a1 52bd de8d 5c03 5512 9a3b ca00 3403
00000050: 785c a1bd 62cc 253d 9836 e63b 3fab a1bd
00000060: 71d4 fbbd 4e7e 6b3d d813 133c 0056 5b3c
00000070: dea6 5e3d 13bb 86bd cc1a be3c 99f5 343d
00000080: 5800 50bc 08c0 5abd 7156 7dbb de28 e8bd
00000090: 0835 a4bc dca6 a33d 3a55 9a3d 328d 9fbd
000000a0: ff07 933d 3165 033d d1c1 173e 7446 09bd
000000b0: 817e db3d 39fa 94bd c379 28be 54ae e03d
000000c0: d3fa fdbc 1c39 5383 91c0 abbd 550e 573e
000000d0: 73ae 823d 9918 8cbd 49b0 ea3c 6458 40be
000000e0: cd61 f13c b197 6d3e 8996 c6bd 2cf0 77bd
000000f0: 9392 09bc c932 8cbd f85e f2bd c734 eebb
00000100: a9aa 9fbc 7f7a a6bd 3fb0 c8bd 981d 843d
00000110: e5cc 63bd ce35 153e 53f0 a9bd 70fe aabd
00000120: 52f6 39a8 e7ba eabc 2679 eeb8 877f 23bd
00000130: efb4 18bd 75ca 8dbd 1b7d ebbc 264c 8b3d
00000140: 3a5a 21bd cc75 e13d 60d5 0dbe 02ae e1bc
00000150: 324d 97bd fe4b 76bb 8037 bd3d 09e5 b2bb
00000160: ccfc 0d3e 75b8 adbd 2e5d 0fbd e659 813c
00000170: 0ec3 a3b5 14f5 873c 47e5 32be 799d 853d
00000180: 51fc 8abd 42c5 98bc 2b8e acbd e4c8 0d3e
00000190: ce35 5d3c 2f75 78ba 2d27 7eb9 08f4 ba3d
000001a0: f809 de3d d733 b63d a455 27bb 5e5a c83d
000001b0: fdde 94bd cfd0 f6ba b0ca 5c03 c578 2bbd
000001c0: 3a3e 113e 9c81 2cbe 60e9 9abb 2b4c d23b
000001d0: 3533 6d3d fe51 a03d 556e bbbd 2e79 bfbd
000001e0: 8688 1abb f107 a63d 1fed ae3d 7118 403e
000001f0: 4142 0abe ea44 1e3d f21a 553d 59ee bdb9
00000200: e402 0b3d b422 89bc 0c2e 28bc e344 253d
00000210: d02e 193e 08d2 58bc 48b6 223c a3ce 833d
00000220: 7c88 91bb a2bf f7bd e79e 82bc d379 37be
00000230: 0187 69bd 08a5 673c af42 8eb7 1484 04be
00000240: 74bd 9c3d b061 07be 16d1 963d e725 f33d
00000250: 8c6a ca3c 1d95 1cbc 3937 5903 43eb 463d
00000260: b9b2 88bd 02da 5c3d 2a8e fabd 6998 2bbd
00000270: 9097 9cbd 8e4a 8bbe 01c3 4b3d 197e 8e3d
00000280: 1c0f 9a3a 5f4c b1bc e5f8 d73c 7188 bb3d
00000290: 6c02 55be 830b 1bbe 713c 4f83 8029 56bc
000002a0: d7a1 5abd 0f9f 49bd 3bcb fa3d 59dd e73d
000002b0: 46fd f5bc d767 6d3e ea08 5e3d a38b b73d
000002c0: 9f5d 243a a890 2f3d 653a 21be 8bae 923d
000002d0: adbb a63d 836c c8bd 2576 39bd d583 03be
000002e0: a946 5cbd a6a2 95bc dafe 13bd 2345 b43d
000002f0: 1b1b 99bd 3834 8bbd 6d66 58be 045d 5783
00000300: a716 2b3c 76bd af3c 2228 70bd 250e c13b
00000310: 3975 fa3d 14ab 01be 8fb7 713e 5d69 023d
00000320: e745 b13d baf5 07bd 0879 243d a2e8 b43d
00000330: a261 4bbc 5e13 07ba 1be1 92bb 9b38 a53b
00000340: 9f71 abbd 31e9 1f3e 8cc3 873d 0d95 5218
00000350: bd14 2cbe 87ee d7b3 dfde 88bd 9631 10be
00000360: 33e3 3cbd 9df5 3a83 ffb3 923b 580e 1f03
00000370: e6a8 393e 9892 d7bc 1430 63bc fe58 783b
00000380: c86e 493c 6449 2e3e 954a a03d a245 bdbd
00000390: b4ff 6e3c d058 1bbe 8d55 f4bb a03f b4bd
000003a0: 4bb8 ac3a d4bd 21be a08c bc3c 778d 1b3e
000003b0: d844 b43c 648b 82bd f9b2 b1bd bf74 bbbd
000003c0: d2fc ccbb 5042 f9bc 87f3 6e3d da06 f43c
000003d0: 292a c73d 17e5 bc3d 0ec0 983d 81dc 833e
000003e0: 2373 24be 5743 5303 8062 4a3c 042f f03b
000003f0: d7c2 e9bc 1a80 4abd 369d 72be 19de b9bc
0.041593242 0.12313456 0.005813139 0.12207886 0.01659074 0.015048302 -0.023626478 -0.16107567
-0.04588635 0.0661446 -0.120955475 4.2417864e-32 0.15474217 4.8084286e-07 0.013025018 0.071137495
-0.051423788 6.4815045e-37 0.0047018924 5.289815e-37 -0.07878965 0.040478118 0.007025551 -0.07893991
-0.12296379 0.0574935 0.008976899 0.013387203 0.054358356 -0.0657865 0.023206137 0.044179533
-0.012695394 -0.05340579 -0.003865626 -0.1133592 -0.020044819 0.0799081 0.07535787 -0.07790603
0.071792595 0.032078926 0.14820029 -0.033514455 0.10717488 -0.07274289 -0.16452698 0.109707505
-0.031003391 -6.2072885e-37 -0.083863385 0.21001561 0.0638093 -0.06840629 0.028648512 -0.18783718
0.02946558 0.23202397 -0.09696681 -0.06053178 -0.008396762 -0.06845624 -0.1183452 -0.007269475
-0.019490557 -0.08128833 -0.09799241 0.06450957 -0.055615325 0.14571306 -0.08297791 -0.08349311
-1.0322975e-14 -0.028653575 -0.0001137129 -0.03991654 -0.037281927 -0.06923381 -0.028746178 0.068016335
-0.039392687 0.11008796 -0.13850927 -0.027548794 -0.07387771 -0.0037581916 0.092391014 -0.005459432
0.13865966 -0.08482448 -0.035000972 0.015789937 -1.2201215e-06 0.016596355 -0.17470275 0.06524176
-0.06786407 -0.018648747 -0.08425554 0.13846165 0.013501598 -0.0009477911 -0.00024237922 0.091285765
0.10841745 0.088966064 -0.0025533224 0.09782861 -0.07269094 -0.001883054 6.4884863e-37 -0.04186322
0.14183894 -0.16846317 -0.0047275275 0.0064177713 0.057910163 0.07828139 -0.091519035 -0.09349285
-0.002357991 0.081069835 0.08541321 0.18759324 -0.13501836 0.03863994 0.05202765 -0.00036226472
0.033938304 -0.01674018 -0.010264885 0.0403489 0.14959264 -0.013233669 0.009931155 0.06435897
-0.004441319 -0.12097098 -0.015944911 -0.17917566 -0.057013515 0.014138468 -1.6958771e-05 -0.12941009
0.07653323 -0.13220859 0.07364099 0.11872464 0.024709009 -0.009557036 6.383396e-37 0.048564207
-0.06674714 0.053918846 -0.12234147 -0.041893397 -0.07646096 -0.27205318 0.049746517 0.06957645
0.001175377 -0.021642862 0.0263638 0.091568835 -0.20801705 -0.1514111 -6.0901216e-37 -0.013071418
-0.053377 -0.049223956 0.122457944 0.113215156 -0.030027997 0.23184143 0.05420772 0.089621805
0.0006270054 0.042862564 -0.15744932 0.07162198 0.08141265 -0.09786322 -0.045278687 -0.12843259
-0.053778324 -0.018266033 -0.036131717 0.08802249 -0.07475873 -0.06797069 -0.21132822 -6.32896e-37
0.010442412 0.021452647 -0.058632024 0.0058915787 0.1222939 -0.12662917 0.23605178 0.031838764
0.08655911 -0.033193327 0.040154487 0.08833434 -0.012413414 -0.0005152727 -0.004482401 0.0050421483
-0.08371281 0.15616299 0.066290945 2.7217115e-24 -0.16804786 -1.00551055e-07 -0.06683134 -0.14081416
-0.04611511 -5.4942438e-37 0.0044770236 4.6742366e-37 0.18130836 -0.026315019 -0.013866443 0.003789484
0.012294479 0.17020184 0.078267254 -0.09241797 0.014587332 -0.15170598 -0.0074564875 -0.08801198
0.0013177482 -0.1579507 0.023016274 0.15190683 0.022005484 -0.06374243 -0.086767145 -0.09153127
-0.0062557245 -0.030427128 0.058337715 0.029788423 0.09724838 0.09223383 0.074585065 0.2575417
-0.16059546 6.208463e-37 0.012352586 0.0073298234 -0.02853529 -0.049438573 -0.23692784 -0.022688912

out_mu0.bias f4 [25]
00000000: 6245 f239 3621 05bc 645d dbbb 3057 29bc
00000010: d6f5 e4bb 81c2 ab3a 76ac 25bb 9934 cbbc
00000020: b80e 88bb 5bdb 2dba acae 8b3b 9d68 7dba
00000030: 133f 87bc eb09 99bc 85f4 f53b 9898 daba
00000040: 4e00 8ebb 2ece 68bc c5f6 d4ba dad3 63b9
00000050: 5b9e 02bc dfb9 543c 42ce 8fb9 08c7 1738
00000060: 953f a33a
0.0004620953 -0.008125594 -0.0066944826 -0.0103357285 -0.0069873137 0.0013104231 -0.0025279797 -0.024805354
-0.0041521452 -0.0006632113 0.004262766 -0.00096667727 -0.016509568 -0.018681487 0.0075059556 -0.0016677557
-0.0043335324 -0.014209313 -0.001624786 -0.00021727328 -0.007972325 0.012983768 -0.0002742876 3.6186568e-05
0.0012454862

out_var0.weight f4 [25, 200]
00000000: 774a ec3d 11e3 443e 8648 7c3c 4aa2 eebd
00000010: 7add ea3b 9cad 97bb 0fff adbd b87f a43b
00000020: 3686 5dbd f51e 9ebd e29e 783d 04fb 0294
00000030: e5d5 2f3d db75 4830 aea7 083e 2a39 a73b
00000040: bbdd 1e3c 3e11 1483 4238 eb3a 95c1 1203
00000050: 9bf4 193d c109 993b 03f3 96bd 9340 12bd
00000060: 64ac 683e 9748 b2bd 2e88 09be 5c9e 4d3d
00000070: 417f d33c 94bf 80bd a683 f5bb c8fe d73d
00000080: f240 033d 1417 293e 8a61 c73c f4ca 953d
00000090: 34f7 ef3d 8394 4b3e 77c6 3a3d 7459 52be
000000a0: 3df9 6bbd 8adc d63d db18 163b 5903 2b3d
000000b0: ba24 353d 1e7e 56bd ae87 c8bd 9d04 023d
000000c0: f995 753d cceb 5283 0d99 8abd 0d1c babd
000000d0: a459 0cbd 124b 8fbc f4ac 2a3c 82ce 00be
000000e0: c98d f43c 56fa 45bd 63cf 7c3d 5a30 f9bd
000000f0: 5c0f 403d 3bde e7bd e7ca c9bc 910e a2bd
00000100: 0e57 eebd ff03 a8bc 4375 9a3c 9a6d 85bd
00000110: ab39 183e 9042 ab3d fdfe 04be e34e 283e
00000120: 5077 8aa9 abbc 62bb 1c18 7d3d 41a5 1e3c
00000130: 1736 6e3d 27a5 d8bd 7e2a ab3d 4263 efbc
00000140: add3 06be 93cf 90bd 12d8 a43d 0c65 213e
00000150: 2198 89bb ba22 dbbc 39b3 2bbd be0c a4b3
00000160: 2e02 bcbd b49d a23d 2523 1ebd faa2 eabd
00000170: 2b89 80b1 3ce1 7bba 79d4 1bbe 9fd0 a13d
00000180: 68e0 243d 8e60 f4bd a7f0 7cbb 2c68 023d
00000190: 707c 61be a01c 393e 3904 8ab5 0a06 c2bd
000001a0: 53e9 343e 7e60 7dbd acc8 faba a767 3bbb
000001b0: 92cb 49bd 49de 4b3b dc19 5283 c67b 07be
000001c0: bd2d 10be e95f 53bd dd0f 02bb 212b bcb9
000001d0: 8d9a 61bd 02b4 98bc c855 a4bd bdfc 15be
000001e0: 1cb5 4fbb 883a 523d e20a 093e 8a11 3b3d
000001f0: de43 f63d 032f 7e3e 9c91 04bd 68a1 1237
00000200: 5443 bfbd 72f7 863e 6845 443c 7984 233d
00000210: 30d7 1cbe 3482 5e3e 30c2 9dbd 9dbf ccbc
00000220: 2ca1 ccbd 619a 0e3e 700c e63c 15ff 0dbe
00000230: c676 14be df8b 423d d81d bc35 be2d 35bd
00000240: e5e0 81be 081e 17bc bf78 913d 6c1d 2c3e
00000250: b983 a23c 3305 7ebd d84a 5d83 0a77 d2bd
00000260: 75da 7c3d b90b 8b3d ab74 d8bd 1f20 a13d
00000270: 479f 31bd 5172 1a3d 4e07 793d c623 a23d
00000280: 90d3 b93d b23f a73d e733 07bc d375 afbc
00000290: 3d5a 703e 6ccc d13d a6e8 4e03 8981 5abd
000002a0: b22c f63c b5b3 233e f29c 013d f6f3 ba3c
000002b0: 5eb2 50be cd46 96bc 3acd 8bbd 3401 53bd
000002c0: 322b 7eba 2875 48be 2937 6ebd edf8 9739
000002d0: 9156 8ebd 82fd 243c 9229 683d 9c26 503d
000002e0: a496 293d 109d f939 ea13 caba b28d 7b3d
000002f0: 6605 13be 17d8 353d 6e90 63bd e679 3e92
00000300: 0521 96bd f47b 04bc 5ffd 8bbd 6e9c 17be
00000310: 3075 bc3d 621d ec3c e7df d83c b6c2 9fbd
00000320: 425f 1fbd f51f e1bd 06f0 c63b 14b8 393c
00000330: c518 a0bd c191 d0bb eb69 f03d 4ddd b9bc
00000340: dc70 38bb d006 063e fcac 20bc 7c47 5c83
00000350: efc9 3f3d ea0a 4125 a51f b53c 7da1 5fbe
00000360: 0ff2 9c3d 45a5 2683 4cd5 8fbb a1f5 4a83
00000370: e684 9b3d 4db9 b7bd 04a0 cb3d 7766 093e
00000380: 4a06 cfbc 0c00 e43d cf98 b63d 0add e1bd
00000390: 89d5 b83d 1cb9 24be ff9d d1bb ee71 8c3d
000003a0: f764 c63c d2c6 4b3d 9641 4fbc 3a1a b7bc
000003b0: 763c dcbd 0ce4 bf3b d9a0 1f3e 14fc a13c
000003c0: 3868 3bbd 766b 0e3e 1d3d 343d 5038 a1bc
000003d0: 3e51 09be accb 4e3d 993d 2abc b702 6c3d
000003e0: ed4d 13bd 5831 4f83 6255 90bd c041 903d
000003f0: a6b9 343e 0c33 f43c 1ed1 30bd 51fd 343d
0.115376405 0.19227244 0.01539815 -0.11652048 0.0071675153 -0.00462885 -0.08495914 0.005020108
-0.05408307 -0.07720748 0.060698397 -6.612827e-27 0.042928595 7.292706e-10 0.13345215 0.00510325
0.009696419 -4.3513084e-37 0.0017945843 4.3127765e-37 0.03758679 0.004670352 -0.073705696 -0.035706114
0.22722012 -0.08705252 -0.13430855 0.05019985 0.025817515 -0.06286541 -0.0074925004 0.105466425
0.03204436 0.1651271 0.024338502 0.07314101 0.11717072 0.19880871 0.045599427 -0.20541936
-0.05761074 0.10491283 0.0022902999 0.04175124 0.04422448 -0.05236637 -0.09791504 0.03174268
0.05995748 -6.1984135e-37 -0.06767473 -0.090873815 -0.034265175 -0.017491851 0.010417212 -0.12578776
0.029852765 -0.048334442 0.061721217 -0.121674255 0.046889648 -0.11321684 -0.024632884 -0.079129346
-0.11637698 -0.020509718 0.018854743 -0.065150455 0.14865749 0.08362305 -0.12987895 0.16436343
-6.1491285e-14 -0.0034597318 0.06179057 0.009682954 0.058157053 -0.10578375 0.08357714 -0.029222135
-0.13166685 -0.07070842 0.08049025 0.15761203 -0.0041990434 -0.026749957 -0.041918967 -7.639163e-08
-0.09180103 0.07940236 -0.038607735 -0.114568666 -3.7408845e-09 -0.00096084527 -0.1521777 0.079011194
0.040253073 -0.11932479 -0.0038595588 0.031837627 -0.22020125 0.18077326 -1.028303e-06 -0.09473808
0.17667131 -0.0618596 -0.0019133291 -0.0028595717 -0.049266405 0.0031107834 -6.174314e-37 -0.1323081
-0.14079948 -0.05160514 -0.001984588 -0.00035890288 -0.05507903 -0.018640522 -0.08024174 -0.14647193
-0.0031693643 0.05132535 0.13383058 0.045671023 0.120246634 0.24822621 -0.032365426 8.7398585e-06
-0.09339014 0.2636066 0.011979438 0.039921258 -0.15316463 0.21729356 -0.07703054 -0.024993712
-0.099916786 0.13926078 0.028082103 -0.13866837 -0.14498433 0.047496673 1.4015777e-06 -0.044233076
-0.25366893 -0.009223469 0.071031086 0.16808099 0.0198382 -0.062016677 -6.503198e-37 -0.10276611
0.061731774 0.06789345 -0.10569128 0.07867455 -0.04336479 0.037706677 0.060797982 0.079169795
0.090735555 0.08166446 -0.008252121 -0.021418488 0.23471923 0.102440685 6.0805026e-37 -0.05334619
0.03005061 0.15986522 0.031643815 0.022821408 -0.20380542 -0.018344307 -0.06826253 -0.05151482
-0.00096957677 -0.19575942 -0.058158074 0.00028986429 -0.06950105 0.010070207 0.05668027 0.05081807
0.041403428 0.00047610002 -0.0015417312 0.061414428 -0.14357528 0.044395532 -0.05555766 -6.010368e-28
-0.07330517 -0.008086193 -0.06835436 -0.14805767 0.09202039 0.028822605 0.026473952 -0.0780081
-0.038909204 -0.109924234 0.0060710935 0.011335392 -0.078172244 -0.0063650315 0.11738952 -0.022688532
-0.0028143441 0.13088536 -0.009806868 -6.473425e-37 0.04682344 1.674378e-16 0.022109816 -0.21838947
0.076633565 -4.8972736e-37 -0.0043894406 -5.9644433e-37 0.07593708 -0.0897089 0.0994263 0.13417993
-0.025271554 0.111328214 0.08915865 -0.11028488 0.090251036 -0.16086239 -0.0063970084 0.06857668
0.024218066 0.049750157 -0.012649914 -0.022351373 -0.107537195 0.0058560427 0.15588702 0.01977352
-0.045753688 0.1390818 0.044003595 -0.019680172 -0.13409898 0.050487205 -0.010390663 0.057619777
-0.035962988 -6.0888477e-37 -0.070475355 0.07043791 0.17648944 0.029809497 -0.04316818 0.044186894

out_var0.bias f4 [25]
00000000: 0e6a 363b a6eb ccbb 2a0e 103c fd2b b13b
00000010: eef3 f13b 1dc2 5fba f442 7cba 7dc9 2abe
00000020: 942d 89b8 3f60 50bc 0431 153a fd77 913b
00000030: 63b3 9bbc e8a8 23be cd9c 91bb 013d 0fbb
00000040: a9b3 73bb 2e20 ac3b 347f 2bbc ca89 ab3b
00000050: 1c87 2f3c dabd 58bb 9c00 4eb7 d328 58bc
00000060: 5c32 763b
0.002783421 -0.0062536774 0.0087924395 0.005406855 0.007383815 -0.00085357 -0.0009623014 -0.16678424
-6.541159e-05 -0.012718259 0.0005691203 0.0044393525 -0.019006437 -0.15982401 -0.004443741 -0.002185643
-0.0037185943 0.0052528596 -0.010467339 0.0052349316 0.010713365 -0.0033072145 -1.2278699e-05 -0.013193327
0.0037566638
