DR_Info_CFR/Twins/Models/netG.pth (torch, 180391 bytes, 10 tensors)

shared1.weight f4 [100, 135]
00000000: ab43 033d 8dd2 b6bc f7ec 5e3d a45c 823d
00000010: f926 9e3c 623e 243e 9cc5 e43c d73f 243c
00000020: 6c8f 013d bd52 b7bc a901 aa3d 9c4b a33d
00000030: a7aa d3bc d001 46bd 8c3f 313e f6c3 6dbc
00000040: 8497 873d 714e 13be 041b 383d 7bb9 6bbd
00000050: f8eb b8bd a78c 003d 1d84 703d c6c5 bc3d
00000060: 9094 fc3d ecc6 18bd 1b0c e73d d9ba d5bd
00000070: 53d0 c1be dce3 d9bc 88bf 19bd 132c 783d
00000080: 8b07 d3bc 6045 433d e3f3 b2bc b1a0 be3d
00000090: b8d7 10bd 5406 f0bc eddf 433c ee08 69bd
000000a0: fd87 3e3b 63c3 e03d 23f2 19bd 8139 2ebd
000000b0: 5c56 e13c ace2 dfbd fd58 443c ecd2 cdbd
000000c0: f865 1cbe f3a1 123d 69ab 53bd 9741 963c
000000d0: 75d5 c5bb db2d 573b f0f3 d83c 6167 bf3b
000000e0: 5fab 0fbd 41be c23d bf02 533e 92f8 43bd
000000f0: b225 093d 68f8 84bd bf71 923d bc32 6c3d
00000100: a41b 0c3e b9b4 823d 76a0 c93d 45e3 81bd
00000110: 119f 713d 9e34 a93d 3fe8 ea3d d350 a5bd
00000120: 52ec 47be 3b49 4c3d 49da 313d 10f4 7d3d
00000130: ac28 a23c e7e6 1c3d 0d75 6ebd 768d 433d
00000140: eca0 56bd 9612 6c3d c8b2 c3bd 88a0 c5bd
00000150: 195f b93d c26d a1bd 791c a5bc 9aef edbd
00000160: 68b9 db3d 9de1 153d da28 3c3d 695c 0ebc
00000170: 926e 80bd 38ae 5b3d aae5 91bd e94e 1c3d
00000180: 517e 8bbd 7528 b23d 6184 0dbe c175 473c
00000190: b029 4cbd aadf 6b3c 87e5 85bd 895f 353c
000001a0: 7626 c03d 9ec4 953d 13e6 0fbd a102 e43d
000001b0: 6946 e0bb 36be 19bc 6005 2e3e 1750 3d3d
000001c0: 78ab 5cbd 99da bc3c c403 f439 a787 193e
000001d0: 6aa6 303c 2123 5abd 6ce2 5a3c 4ca6 d43d
000001e0: 731f 66bd c3b0 c7bc 2d80 68bd 0779 8d3d
000001f0: 2f98 ffbd 97b5 21bd a6e1 22bd 9b5d 12bd
00000200: 489f b3bd ccff 6bbc c793 33be b15f cf3d
00000210: f468 f73d c765 dfbc 9162 593d 5835 c7be
00000220: ca72 72bd 6673 873d 7d17 77bd b8db 0e3d
00000230: 50f3 d0bd 7d39 a63d 6a45 0f3e 5aa1 213d
00000240: 056c 213d 8eee b63d ffe8 b1bd 8577 52bd
00000250: 647a bd3d ed09 153d f5fa e23d 480b 163c
00000260: 9222 1dbd 5a73 763d 6a43 143e 5f01 b8ba
00000270: d473 1ebe 5f2f 01bd 1eda d9bd c928 01be
00000280: ffeb 263d ffaf 97bc 9e00 bcbc 55d7 81be
00000290: 7a06 91bc 8232 8f3b fdc7 3dbd 39f2 2fbd
000002a0: f172 c0bd 3df8 963d 8997 0c3b b49e 19bd
000002b0: 1653 95bc ca45 cd3c 8af0 8a3d 108d 03bc
000002c0: 885b d93d 3717 bf3d db3f ea3c 53e3 8cbb
000002d0: 2709 acbd 5c28 77bc a116 b53d 2a5d d9bc
000002e0: 0832 693d a9b8 3d3d d03f 2d3d 12a0 3ebc
000002f0: af7a 39bd d4b0 9f3c 774b 9abb 09f8 6fbc
00000300: 2f28 d93c 711f 8bbb 61b4 d03d 8991 75bc
00000310: adb3 aa3c 8da5 933d 097e 223c cb54 b6bd
00000320: ef26 eabd 9cbd d8bc 5137 ab3d 4234 e03b
00000330: 6feb d03c ed37 44bc 2249 dc3d 3a2f 0fbe
00000340: 0b53 3ebd eb6a 6ebd 343a 9c3b 701f 29bd
00000350: eb34 4abd 56f6 983c 2aec 953c 360c e0bd
00000360: ea38 383c 8ee7 67bd e58f 06bd a642 af3c
00000370: 874d 9c3d 8c94 f5bd e121 1c3d 79aa 003d
00000380: 9e4a c9bd b2d2 643d e89b 3fbd e157 3a3d
00000390: 6c9b 5e3d 3683 18be 9c8f 41bd 9a51 c33d
000003a0: 329a aa3d 94e6 5bbc 4e83 823d aeb4 933d
000003b0: 3419 25bd ab0d 853d 90eb 103d cc20 c8bc
000003c0: 59af c3bb 039c ce3d 8a5e 273b 6631 d13c
000003d0: 3980 093b c502 2a3d f610 29bd 23bd 9b3c
000003e0: 3214 ce3d ecbf 19bc 0a36 9e3c 7005 b93c
000003f0: df0a bf3d 1b79 26bd 44d1 54bd 25f4 0a3c
0.032046955 -0.022317195 0.054425206 0.06365326 0.019305693 0.16039422 0.027926259 0.010024986
0.03163092 -0.02237832 0.08301098 0.07973406 -0.02583821 -0.048341572 0.17309397 -0.014512053
0.06620696 -0.14385392 0.04494764 -0.057549935 -0.090293825 0.031384137 0.058719743 0.0921741
0.123330235 -0.03729908 0.11281606 -0.10436029 -0.3785425 -0.02659791 -0.037536174 0.060588907
-0.025760433 0.047673583 -0.02184481 0.09307993 -0.035361975 -0.029299892 0.011955244 -0.05689328
0.0029072755 0.10974767 -0.037584435 -0.04253531 0.027507 -0.10931906 0.011984107 -0.10049996
-0.15273273 0.035798978 -0.05167714 0.018341823 -0.006037409 0.0032833728 0.026483506 0.005841181
-0.03507554 0.09508944 0.20606516 -0.047844477 0.033483215 -0.06492692 0.071506016 0.05766557
0.13682419 0.06382126 0.098450586 -0.06342176 0.05898959 0.08261989 0.11470079 -0.080720566
-0.19523743 0.049874526 0.043421064 0.062000334 0.019794784 0.038306143 -0.058217097 0.04774233
-0.05239956 0.057634912 -0.09555584 -0.096497595 0.090513416 -0.07882263 -0.020155178 -0.11617966
0.10728723 0.036592115 0.045937397 -0.0086890245 -0.062710896 0.053632945 -0.07123883 0.038161192
-0.06811202 0.08699123 -0.1382003 0.012174071 -0.049844444 0.014396587 -0.065379195 0.011070141
0.09382336 0.073128924 -0.035131525 0.11133314 -0.006844331 -0.009383729 0.16994238 0.046218958
-0.053874463 0.023053454 0.00046542112 0.14993154 0.010781864 -0.053256158 0.013359647 0.10383281
-0.056182336 -0.024376279 -0.056762863 0.0690785 -0.124801986 -0.03947982 -0.039765976 -0.0357338
-0.08770615 -0.014404248 -0.17536841 0.101256736 0.12080565 -0.02727021 0.053072516 -0.38907886
-0.059191503 0.066138074 -0.060325135 0.03487751 -0.10202658 0.08116434 0.13991323 0.039460517
0.039409656 0.089322194 -0.086870186 -0.051383514 0.0925186 0.03638642 0.110830225 0.009157963
-0.038363047 0.0601686 0.14478841 -0.0014038495 -0.15473872 -0.031539317 -0.10637306 -0.12613215
0.040752407 -0.018516539 -0.022949513 -0.25359598 -0.017703284 0.0043700347 -0.0463333 -0.04295561
-0.09396923 0.073715664 0.0021452627 -0.037504867 -0.018228095 0.025057692 0.067841604 -0.008029237
0.10613161 0.093306 0.028594902 -0.00429956 -0.08400183 -0.015085306 0.08842207 -0.026533682
0.05693248 0.046318684 0.042297184 -0.011634843 -0.045283016 0.019493498 -0.004708703 -0.0146465385
0.026508419 -0.0042456915 0.101906545 -0.014988312 0.02083763 0.07209311 0.009917744 -0.08902892
-0.11433207 -0.0264576 0.0836016 0.006842167 0.025502888 -0.011976224 0.107561365 -0.13982859
-0.046465915 -0.058207434 0.0047676805 -0.041289747 -0.049366873 0.01867215 0.018301088 -0.10939829
0.011244038 -0.056617312 -0.032852072 0.021394085 0.07631975 -0.11991224 0.038118247 0.031412575
-0.09828685 0.055864997 -0.046779543 0.045493964 0.05434744 -0.14893803 -0.047256097 0.09537049
0.08330192 -0.013421673 0.06372701 0.07212196 -0.04030724 0.064967476 0.0353809 -0.024429701
-0.005971831 0.100883506 0.0025538527 0.02553625 0.0020980968 0.041506547 -0.04127594 0.019011086
0.10062446 -0.009384137 0.019312877 0.0225856 0.09328245 -0.04064284 -0.051957384 0.00848106

shared1.bias f4 [100]
00000000: cf63 993d 7d39 c63d 5ce2 923d 3f6d 22bd
00000010: e515 47bd 726c ac3c 4ec7 1e3d 85d6 123e
00000020: 4bb4 903d 2a9e 803d 4511 b13c 08b3 2dbc
00000030: fab6 133d c99c 233e bbba e53c 3048 3f3d
00000040: 6b31 963d 9351 9fbc 547b 4fbc c05f 873d
00000050: 108a cd3d bebf 303d 95c0 c6bb 7517 dc3c
00000060: e4fa aabc bef1 903c 0c21 d93c af82 a2bc
00000070: 0355 993c e1df 4e3d a93b db3c cd64 5abd
00000080: ba50 a13c cb33 b53d f5ed b2bc 31c4 0f3e
00000090: 9fca 3a3c 4123 9e3d 5bcf 813c 8a93 e83d
000000a0: d1de 1a3e c673 6dbc 793c b93d 4831 123e
000000b0: 4b07 533d bfe8 9a3a 1033 0e3d 0c0a fb3d
000000c0: f4ff a03d 5660 96bc 624e 5e3d ef7f c8bb
000000d0: 46e8 f03d 3893 f63a 633c 98bb 439c 1d3d
000000e0: e52f 07bc 0501 bf3d f3c3 f83c da25 9b3d
000000f0: bd6e cf3d 7efd 1a3d 9d07 643b d0f8 fc3c
00000100: 4202 1f3a 6ee3 733d 1dfa b6bc c21d e33c
00000110: 7bc4 853d c149 8d3d 3629 eebb 2110 f93c
00000120: f87f c83d cc8b ce3c 3666 a0bb f127 813d
00000130: 4ba6 eb3c 4b17 5f3d a633 0d3d f5c6 4abc
00000140: 5288 823d e619 bd3d 58d4 583d 9ddf 5f3d
00000150: ad2a cf3d b7fc 3d3c a109 db3c b44d 963d
00000160: e015 e43d f8e6 b03d dfcf 273e 0b86 c3bc
00000170: 342a 063d d6f4 313e b9e1 133c ccb2 9ebd
00000180: b4bd 49bc db9b 9b3d c717 d63d 88ab 173d
0.0748974 0.09678934 0.07172081 -0.039654966 -0.048604865 0.021047805 0.03876429 0.14339645
0.07065638 0.062801674 0.02161468 -0.010601766 0.036063172 0.15977778 0.028043142 0.046699703
0.073336445 -0.019448077 -0.012663681 0.0661006 0.10036099 0.04315161 -0.006065438 0.026866654
-0.020871587 0.017693397 0.026505016 -0.019837705 0.018717295 0.050506476 0.026761847 -0.053318787
0.019691814 0.08847769 -0.021841982 0.14039685 0.011400848 0.07721568 0.015845945 0.11356266
0.1512406 -0.014492935 0.09044737 0.14276612 0.051520627 0.0011818631 0.034716666 0.12257776
0.07861319 -0.018356483 0.05427397 -0.0061187665 0.11763053 0.0018812185 -0.0046458705 0.0384791
-0.008251165 0.09326366 0.030366873 0.07575579 0.101285435 0.037839405 0.0034794577 0.030880362
0.0006065705 0.059543066 -0.02233606 0.02772415 0.06531616 0.06898833 -0.0072680963 0.030403199
0.09790033 0.025213145 -0.004894997 0.06306446 0.028765818 0.054465573 0.034473084 -0.012376537
0.06373657 0.09233455 0.05293688 0.054656614 0.10115562 0.011595896 0.02673799 0.073390394
0.11136985 0.08637804 0.1638789 -0.023867628 0.03275509 0.17378554 0.009025984 -0.077489465
-0.012313295 0.075980864 0.10453754 0.03702882

shared2.weight f4 [100, 100]
00000000: 475f 12bd 3f51 97bd a3c9 23be 38d6 b13c
00000010: 82c9 29be 9828 b1bd cec2 52bd e35c 123d
00000020: 90b9 e5bd 1744 f5bc 7a23 2fbc a6d9 2ebd
00000030: 249c a4ba 933e 38bd 771d d2bd 6c03 2bbe
00000040: 0014 cfbc d489 a7bd 7f41 f4bc 7fc1 0bbc
00000050: 29f9 e7bc 0644 613d 9f79 e2ba 5386 1f3d
00000060: 74b6 30be 8b24 2fbc cafa 1bbe 3e3f 0f3b
00000070: c1d6 9dbd e29a a7bc ebbb 943d 477f 1cbd
00000080: fed4 983d e0b1 bebd af4a 03be 9e49 5f3d
00000090: f69c 49bd fad5 5cbd 2a60 a6bd e2d1 543c
000000a0: 0aba 01bd adb1 653e eecf 22be 7c46 f2bd
000000b0: 2484 f6bd 7c1b 49bd 5243 48bd ad12 ab3e
000000c0: 0725 193d 6821 34bc c57f 3ebd 5d0f 7c3d
000000d0: 82d0 6a3d 50ff 5cbc b9dc bcbd ce51 d4bd
000000e0: 37cb 74bd 35dc 2fbd 94c7 a5bd 7e9c 8abd
000000f0: c423 34bd f119 0f3e fa19 13be 6dc7 953c
00000100: 1292 f7bd 40e0 653d 35fd 95bd 3c1c 28bd
00000110: bd2a a1bd 5397 c5bb 3b7a c9bd 1f26 243d
00000120: 88be 4abc c08e 20be 6dd1 be3c cf18 adbd
00000130: 202e 163e 34d5 3d3e 21e8 513e 4315 babc
00000140: f1e6 4abc 62a8 02be 4df0 a1bc 7f60 273b
00000150: 0f60 683d 4450 7d3d e46d c03d cd53 29bd
00000160: f517 f63d 9bdc 1abe 71f6 cbbc 307d e3bc
00000170: 9b2b 783c d81c 923d 5103 f0bd 2d31 b1bd
00000180: 678f f9bd aedc 64bd ae32 c0bd 7882 4abe
00000190: a1ac 863d 424c c93d c541 073e 48d3 aabc
000001a0: 71df e73d 7395 ef3b a3e3 66bd 78b4 133e
000001b0: 44a7 7dbd 550d c73d 42c3 08bc 0309 30bd
000001c0: a91d 253e bf65 083e f9d9 9f3d c506 383e
000001d0: 73ec e03c 56cd 203e 345f 873b 1149 3b3c
000001e0: 2ae8 b6bd 15e7 fd3d d6c1 0d3e 56c6 a1bd
000001f0: b7c2 983d a208 0cbd f3e7 533d b411 03bd
00000200: 4127 693d d030 f33d dfad eb3d 4b6f 22bd
00000210: bf09 f23d 22e5 c2b9 34ea 4cbd 788a 753d
00000220: 2200 533d cbf0 1b3d d867 ffbc f1c4 71bc
00000230: 2b67 063d 1b3c b0bd c3b1 d9bb 78cf 1a3e
00000240: 8225 8f3d f7e6 54bd 8d36 f03d 5566 7e3d
00000250: ff43 3c3b 34d9 333e 4152 a33c cfb3 3cbd
00000260: b57c 93bd 18a6 c43c b6d1 bd3d cd54 1f3e
00000270: faa3 d83c 6cd6 713e bb34 703e d909 8e3d
00000280: b5fa 903d c1ba 0bbe 5012 313e 6992 013e
00000290: c5be a53d 4250 863d 8dc2 0bbd 8bd6 4c3d
000002a0: 3265 a43d 5648 8c3d de6a 023d 8e1a ca3d
000002b0: 73e9 b8bc 3d23 0d3e 669d 0fbd 9232 4f3c
000002c0: 5abb 76bb 4e4c c43d 11ae 01bc baf7 073c
000002d0: 514e 24bd efba d1bc b16e 2fbd 54bf 203d
000002e0: c00d bd3d 5279 ab3d c086 41bd 9c58 933d
000002f0: 2350 213e 18af 933d 93bb a1bd 0a6e 603d
00000300: fcfe c4bc 1f1d cbbd 0d97 f13d e6aa 8a3c
00000310: 1831 ee3c acf1 8b3d ba3e a93c 814e b8bd
00000320: 4c75 6e3c 86c7 01bd d59b 0a3e 1297 1cbe
00000330: 684e a8bd 3dec 8d3d 5da0 aebb ac04 083e
00000340: 0746 d13d ccbf 5abd c671 83bc 483b 11bd
00000350: 9fcb 26be 5bed 243d a827 11bd d444 523c
00000360: 53b4 033d fad1 9a3d dffa a03c 9cde 863c
00000370: de24 13be 4a97 c5bc b934 37bc 2004 b6bd
00000380: 9a89 283e a7aa 1c3d 09f1 d73d c6eb 013e
00000390: 4be4 013d bbab 6d3d 2128 b9bd 6b65 293e
000003a0: d901 d1bb aa42 10bd 6259 a6bd 481e efbd
000003b0: 1f26 c53d a78f 1cbe a457 a63c e4b4 50be
000003c0: 733f 283d 5c12 24bd 73a1 a5bc 0d75 0bbd
000003d0: a96e c0bd 46e8 0abe 88c3 0f3e 7ea7 b0bc
000003e0: 1ac5 733d 5fb5 9cbc a375 15be c995 8a3c
000003f0: 52fe e1ba 3f78 73bd e0d5 1ebd 44e9 6abd
-0.035735395 -0.07388543 -0.15994887 0.021708593 -0.16580775 -0.08650321 -0.05145531 0.035733115
-0.11217034 -0.029939694 -0.010689611 -0.042688034 -0.001255874 -0.04498155 -0.10259526 -0.16700524
-0.025278091 -0.081805855 -0.029816387 -0.00853002 -0.028317051 0.054996513 -0.0017278678 0.03894646
-0.172571 -0.010689865 -0.15232387 0.0021857764 -0.07706977 -0.020459596 0.07262405 -0.03820732
0.074625 -0.09311271 -0.12821458 0.054513566 -0.049221955 -0.053915 -0.081238106 0.012989493
-0.03167156 0.22431059 -0.15899631 -0.1182985 -0.120369226 -0.049098477 -0.048892327 0.33412686
0.037388828 -0.010994293 -0.04650857 0.06153809 0.057327755 -0.013488606 -0.09221787 -0.103671655
-0.059764113 -0.042934615 -0.08094707 -0.0676813 -0.04397942 0.1397474 -0.14365378 0.01828357
-0.120884076 0.056122065 -0.07323686 -0.04104255 -0.0786948 -0.006030002 -0.09837767 0.040075418
-0.012374528 -0.15679455 0.023293221 -0.084519975 0.14666033 0.18538362 0.20498706 -0.022715217
-0.012384162 -0.12759545 -0.019767905 0.0025539694 0.056732234 0.061844125 0.0939596 -0.041339684
0.12016288 -0.15123217 -0.024897786 -0.027769655 0.015147115 0.07134408 -0.117193826 -0.08651958
-0.12185555 -0.05587452 -0.093846664 -0.19776332 0.06575895 0.09828998 0.13208683 -0.0208527
0.11321915 0.007311517 -0.056369435 0.14424312 -0.061927095 0.0971934 -0.008347334 -0.042977344
0.16124596 0.13320063 0.07805247 0.17971332 0.027456498 0.1570333 0.004131222 0.011430995
-0.089310005 0.12397591 0.13843474 -0.07899158 0.07459014 -0.03418792 0.051734876 -0.031999305
0.0569222 0.118745446 0.11507773 -0.03965692 0.11818265 -0.0003717328 -0.05002804 0.059946507
0.0515138 0.038071435 -0.031177446 -0.014756427 0.032813232 -0.08605214 -0.0066435053 0.15118206
0.06989576 -0.051978078 0.11729155 0.06210931 0.0028727052 0.17563325 0.019936683 -0.046069916
-0.0720152 0.02400498 0.09268515 0.15559693 0.026445378 0.23616952 0.23457615 0.06935472
0.070790686 -0.1364546 0.17292142 0.12653507 0.08093027 0.06558277 -0.034121085 0.05000929
0.08027114 0.068497345 0.031840198 0.09868346 -0.022572255 0.13782974 -0.035062216 0.012646334
-0.0037648291 0.095848665 -0.007915036 0.008298809 -0.04011375 -0.025601832 -0.042830173 0.039244965
0.09231138 0.083727494 -0.04724765 0.07194635 0.15753226 0.07211131 -0.07897105 0.05479244
-0.024047367 -0.09917664 0.11796389 0.016927194 0.029076144 0.068332046 0.020659793 -0.089993484
0.014554333 -0.03168442 0.13536008 -0.15292004 -0.0821808 0.069298245 -0.0053291754 0.13283032
0.10218435 -0.053405568 -0.016045462 -0.035456926 -0.16288613 0.040265422 -0.03543821 0.012833793
0.032154392 0.07559581 0.019650875 0.01646357 -0.14369532 -0.024119992 -0.011182004 -0.088875055
0.16458741 0.038248684 0.10544021 0.12687597 0.031711858 0.058025103 -0.09040857 0.16542594
-0.006378394 -0.035219826 -0.08122517 -0.116756976 0.09626412 -0.15289174 0.020305462 -0.20381504
0.041076135 -0.04005657 -0.020218587 -0.034047175 -0.09396107 -0.13565168 0.14039433 -0.021564241
0.059514143 -0.019129453 -0.14595656 0.016917126 -0.0017241931 -0.059440847 -0.038778186 -0.057351366

shared2.bias f4 [100]
00000000: 7d99 debc f1bc 083d a158 d9bc 7f06 c3bc
00000010: 7c03 213b 95b9 05bd a660 f8bc ae02 333c
00000020: 3721 a03b 8884 82bd 8766 1abd 3fe2 35bd
00000030: 2f3a 77bd f04e 80bc 576b 4b3d f459 5bbc
00000040: 760f e9bb 0515 573d 01d9 16bc d16a 10bd
00000050: b533 13bd 2896 45bd 7f78 253d 5b91 5e3c
00000060: a94e d7bc 0a2c e2bc a875 2bbd 468e 38bc
00000070: d256 d9bc 2aef 123b 1213 cabc 45e2 c4bc
00000080: 26e6 ebbc 2744 cbbc 7b6a 443d 90d6 48bd
00000090: be95 ecbc e763 c5bc af00 5c3c 08c9 58bd
000000a0: 6f41 a6bc 0f46 523d 57c0 29bd 84e3 89bc
000000b0: 33d5 18bd 4a53 11bd 6e23 8fbc b732 333d
000000c0: d9c1 b0bb d920 b4bc 428d cd3c dd14 4fbd
000000d0: 6d65 333d e3c8 64bd 8366 b0bc c4ab edbc
000000e0: 1a44 d73b d1f6 f33a b369 2c3d bef4 c93a
000000f0: 56ab d7bc 7cc1 fd3a bc10 52bd 5ee6 b1bc
00000100: 62dc d53c c6f6 edbc 3dd3 afbc 35ec 2cbd
00000110: 3c0c b5ba a410 a8bc 544d dfbc 2993 1dbd
00000120: 63be 11bd 593d 2a3d 9945 17bc 3d8c 01bd
00000130: 3a47 f6bc 09b9 9e3b 9f25 2dbd 3a25 0dbd
00000140: ee08 2838 ff06 16bd b9a2 a83d 5fa6 13bd
00000150: 7bf2 92bc 5c1a 1cbd b096 edbc 7f8d 26bd
00000160: 4179 00bd 15c4 383d 11da edbc 5055 14bd
00000170: f0aa 26bd 4537 1ebc f22f 003a 7047 2f3c
00000180: a482 da3d 383f 93bc 031b 2bbb 05f1 17bd
-0.027172798 0.033383314 -0.02653152 -0.023806809 0.0024568727 -0.032647688 -0.030319523 0.010925932
0.004886772 -0.063729346 -0.037695434 -0.04440522 -0.060358223 -0.01566264 0.049662914 -0.013388146
-0.007112439 0.05251028 -0.009207011 -0.035258118 -0.035937984 -0.048238903 0.040398117 0.01358446
-0.026282625 -0.02760889 -0.041860253 -0.011264389 -0.026530657 0.0022420385 -0.024667297 -0.024033675
-0.028796267 -0.024812771 0.04795311 -0.049032748 -0.028879996 -0.024095489 0.013427897 -0.052926093
-0.020294873 0.051336344 -0.041443195 -0.01683212 -0.037312698 -0.03547982 -0.017472949 0.043749537
-0.005394202 -0.02198832 0.025091771 -0.050557006 0.0437979 -0.055855643 -0.021533256 -0.029012568
0.0065693976 0.0018612986 0.04209299 0.0015408022 -0.026326817 0.0019360031 -0.05128549 -0.021716293
0.026106063 -0.029048335 -0.021463031 -0.042217452 -0.001381285 -0.020515747 -0.027258553 -0.03847042
-0.035581958 0.041562412 -0.009232902 -0.031627882 -0.03006326 0.0048438353 -0.042272206 -0.03445933
4.0062638e-05 -0.036627766 0.08234162 -0.036047336 -0.01793789 -0.038111076 -0.029002517 -0.040662285
-0.031365637 0.045108873 -0.029034646 -0.036214173 -0.040690362 -0.009656732 0.0004889957 0.010698184
0.10669449 -0.017974481 -0.002610863 -0.03709509

hidden_y0.weight f4 [100, 100]
00000000: b719 28be 2754 55be 264c bfbd 8ded af3d
00000010: 8092 bc3c 6d17 d3bc e4be e1bd a75d 28bd
00000020: a221 193e d869 43bb 122e 83bd 451a 893e
00000030: 324b 913d b3a9 a73b af4e b7bd 5d05 72bd
00000040: 980f 68be e08c f6bc dfad 19bd 9623 3cbc
00000050: 1894 1a3e 96ef 1b3e db9e 7abd d0f4 f2bd
00000060: 41dd 2d3c b991 86be 4a98 62bd 075d cf3d
00000070: 1390 e8bd bde8 f73c c636 253d 4d6f 683e
00000080: 8322 c13d c1eb 68bd b38f 433d e5d1 38bd
00000090: 22c1 f43c 8207 0f3e df3d 803c 0241 a23d
000000a0: be2b 4bbd 11e9 053e f8c9 e7bd 1159 923d
000000b0: acf8 a13c 5fc8 64be 66be 49bc cf97 b5bd
000000c0: b93e c43c 6750 e73c 462d d3bc e842 29bd
000000d0: e4a3 edbd adb2 023d 6f09 61bd 0582 4c3e
000000e0: 95e4 c73c 7506 8cbe 6015 1ebc 2ea2 9e3b
000000f0: 4504 623d dc6b 0f3d c550 07bd aae8 b33d
00000100: c1d2 e63c 715a 70bd 8f02 7e3d c588 2c3e
00000110: 6d2c c13b a03f 3ebe 72ef 0b3e 1181 463d
00000120: 2903 b93d f9c9 01bd b18b 0b3e 3e3e 25be
00000130: ecca 04be 0adc 383d 873b 9e3d 5256 bfbd
00000140: a31a 60be addb b4bd 2df6 4c3d 5ce3 96bd
00000150: d7ed 8fbd e40e aabd 34d2 183d 7e4d d23d
00000160: 81ba 953c 32cc ffbd 4da8 17be 6c97 203e
00000170: aad6 ffbd f003 6f3d 4641 433d 7ec2 523d
00000180: 3e56 4dbe 917d 83bc 328b 8d3d 8815 79bd
00000190: 84e2 f53c 54dd bcbc 9620 d83d fe00 eb39
000001a0: 9594 cdbc 84b3 e4bb abef abbd d995 94bc
000001b0: e023 393d 3940 1d3e 6228 8d3d 67d7 9dbd
000001c0: ae93 bc3d acf0 923d faaa 6c3c 8171 e93c
000001d0: c32e 86bd 0f91 0d3e 92d6 3d3d 54d2 87bd
000001e0: e48b 41bd f8d2 12bd 0933 793e 024b 7dbd
000001f0: 4e85 813d d4d7 0abd 6123 08bd 0c65 323e
00000200: ae0e ddbd a3d2 a4bc b28b 1c3e fd07 143e
00000210: eb92 c53d 159d b13c 690c 89bd b85b c23c
00000220: d216 bc3d 2bd7 0abd 60b6 d53d 2da2 dc3d
00000230: 6660 80bd fe6d 483d 7d0e 913d f5ba a6bd
00000240: 8682 b4bd c88e f73d 51fc 1c3e 5109 4abd
00000250: f7c8 3c3d 625d ab3d 01c3 8f3d 1457 37be
00000260: 99cd 11be a4c6 7a3d 971b 9d3d 295c 0bbd
00000270: a465 35bd 6fa6 eabd 0e9f 08be 892a a73c
00000280: 0781 dd3d efab c0bd d45e 57bd 2f2b ccbc
00000290: 81b2 2fbe 1aeb d0bc e223 67bd da41 2c3c
000002a0: 05af 2b3c 74cc 0cbc 1fd1 9d3d 777f 873d
000002b0: 8147 6cbc c192 043e d704 2dbe 9df1 c93b
000002c0: 4c9b c1bd 25db 063d 226f 343d eec2 a2bd
000002d0: 08f6 0a3e 71c4 f43d f3f0 99bd 28fa eb3d
000002e0: 9402 55bd c4f0 ccbc 6c17 183d cce6 03bd
000002f0: 5aca 42bc df4b 8ebd 1f84 18bd 142c 54bc
00000300: bd94 943d f110 1e3c e69d 933d d399 bcb9
00000310: f582 e63d 4992 1f3e f3e6 d53c 9694 febd
00000320: bf2a cf3c 9b89 243e 5f98 7e3d 7660 b03d
00000330: 3c20 ed3c 6fef c7bd 1dfc 103b d88f c4bc
00000340: 80a7 3e3e f4fa 2fbc fc20 0e3e 9f4d c2bd
00000350: 0ca9 aa3a e2e0 013d fc91 853d af79 b1bd
00000360: 56c1 723d af86 87be d7f0 293e 3c12 0bbe
00000370: a748 0dbd 019c c9bc f38e ac3c 046f 943c
00000380: d966 f8bd 4d90 87bd 371a 5fbd e0b9 a2bd
00000390: 17d2 243e 4cce d93d 8f07 f3bc 3518 30be
000003a0: 7920 023d 59b9 b0bb ae1b 0a3d 2306 0cbe
000003b0: 4558 b1bd 729a 9f3d ef70 e53d 26aa 8c3d
000003c0: 35f2 01be d2d6 323d 0293 2e3d 1d97 cb3d
000003d0: 63d9 0d3d 6764 c3bb 82be 513c eff7 45bb
000003e0: c783 3b3e 95e5 32bd 87af 79bd 4d1b 84bd
000003f0: 39a0 2d3d 7e85 f4ba 366c 0d3d 5d4f f9bd
-0.1641606 -0.20832883 -0.09340696 0.08590231 0.023019075 -0.025768006 -0.110227376 -0.04110494
0.14954236 -0.0029817726 -0.064052716 0.26777855 0.070944205 0.0051166653 -0.089505546 -0.059087146
-0.22662199 -0.030096471 -0.037519332 -0.011483094 0.15095556 0.15228114 -0.061186653 -0.118631005
0.010611833 -0.26283053 -0.055321015 0.101251654 -0.11355605 0.030262345 0.04033544 0.22698708
0.09430411 -0.056865457 0.047744464 -0.045122046 0.02987725 0.13967708 0.015654502 0.079225555
-0.049602263 0.13077189 -0.11317819 0.07145894 0.019771896 -0.2234206 -0.012313461 -0.08866846
0.02395569 0.028236581 -0.025778424 -0.041323572 -0.11603525 0.03190868 -0.054940637 0.19971474
0.024400989 -0.27348676 -0.009648651 0.0048411107 0.055179853 0.035014972 -0.033036012 0.087846115
0.028176667 -0.05868 0.06201416 0.16849048 0.0058951885 -0.18578959 0.1366556 0.04846293
0.09033806 -0.031686757 0.13627507 -0.16137025 -0.12968034 0.04513172 0.07726198 -0.09342636
-0.21885161 -0.08830962 0.05003946 -0.07367584 -0.07027786 -0.083036214 0.03730984 0.10268687
0.018277409 -0.12490119 -0.14810295 0.15682763 -0.12492116 0.058353364 0.04766967 0.051455013
-0.2005243 -0.016051086 0.06911315 -0.06081155 0.030015238 -0.023054756 0.1055309 0.00044823432
-0.025095263 -0.0069794077 -0.083953224 -0.01813786 0.04520023 0.1535653 0.06892468 -0.077071
0.09207855 0.07174811 0.014445061 0.028496506 -0.06551888 0.13824867 0.04634721 -0.06631914
-0.04725255 -0.035845727 0.24335875 -0.06183911 0.06324254 -0.033897236 -0.033236865 0.17421359
-0.107938156 -0.02011997 0.15287665 0.14456172 0.09647163 0.021681348 -0.0669182 0.023725376
0.0918404 -0.033896606 0.10435176 0.1077312 -0.062683865 0.04893302 0.070828415 -0.08141128
-0.08813958 0.1208778 0.15330626 -0.04932529 0.046090093 0.08367421 0.07019616 -0.17904311
-0.14238586 0.061224595 0.07671278 -0.034023438 -0.044286385 -0.11457526 -0.13341925 0.020406025
0.10815626 -0.09407794 -0.05258067 -0.024922935 -0.17157938 -0.02550273 -0.056430705 0.010513747
0.01047874 -0.008593667 0.07705902 0.06616109 -0.014421345 0.12946607 -0.16896378 0.0061628358
-0.09453449 0.032923836 0.044051297 -0.07947336 0.13570416 0.11951531 -0.075166605 0.11522323
-0.05200441 -0.02501715 0.03713171 -0.032202527 -0.011889065 -0.06948065 -0.037235375 -0.012949962
0.07254932 0.009647594 0.07207851 -0.00035972762 0.11255447 0.15583147 0.026111102 -0.12430684
0.025288938 0.16068117 0.06215703 0.086121485 0.028946035 -0.09762465 0.0022122927 -0.023994371
0.18618584 -0.010740984 0.1387977 -0.09487461 0.0013020351 0.031708606 0.06521985 -0.086657874
0.05926641 -0.26469943 0.1659578 -0.13581175 -0.034493115 -0.024610521 0.021064257 0.018119343
-0.12128992 -0.0661932 -0.05446836 -0.07945609 0.16095768 0.10635051 -0.02966669 -0.17196734
0.03176925 -0.005393189 0.033717804 -0.13674216 -0.08659414 0.0779313 0.11203181 0.06868391
-0.12690051 0.0436619 0.042620666 0.09940932 0.034631144 -0.0059628966 0.012801768 -0.0030207594
0.18311988 -0.043675978 -0.06095841 -0.0645052 0.04238913 -0.0018655506 0.034527026 -0.121733405

hidden_y0.bias f4 [100]
00000000: f8c0 0dbd 3258 373d c893 2a3c 98a4 d9bc
00000010: 41fb 803d 75cf c33c a212 b8bc c412 383d
00000020: 1127 233c 7c44 5bbc ef1d 55bc b990 1f3d
00000030: d9ae 003d bf76 7fbc 03a6 e4bc b752 e8bc
00000040: 3946 1ebd ff2c 85bc 2712 09bd ec83 473d
00000050: f30a 93bc b2dc b03c 2e1f 12bd b96e e9bc
00000060: fc38 aaba c9cb 72bc 6fe3 323d 7fab 2f3d
00000070: 4424 2bbc a6db 79bc aec4 473d d9c0 0abd
00000080: ea82 24bd 9279 bbbc acca eebc d051 bebc
00000090: e0b0 163d 9138 34bd 43f1 29bd fdbd 573d
000000a0: f93f 5c3d ebfb 8ebc 8f76 bdbc 771a e5bc
000000b0: d432 00bd 5a44 a63b fac2 d1bc a8f2 293d
000000c0: d2eb 0f37 1e11 24bd 3125 4e3d c03b c83b
000000d0: e48f e0bc b0f7 7fbc ff50 babb 2eec 8fbc
000000e0: b8c7 223d 2758 c5bc 3044 1bbd 0084 91bc
000000f0: a764 193d 4799 90bc f68b 533d fbdc 73bc
00000100: 0957 8bbc aee1 113d 12cc 00bd a4d6 d7bc
00000110: 81c0 433d 01e9 02bb 9846 c1bc b40f 58bc
00000120: 6355 cf3c 7e84 193d f683 0abd 72c9 1c3d
00000130: 53b3 183d dcb9 8bbc c8a9 5f3d 6029 47bc
00000140: 6b42 1abd 3410 adbc 210e c7bc e1f9 a2bc
00000150: 1eb1 b7bc 1615 73bc f801 5abc 8015 e1bc
00000160: 9bdd 32bb 7995 33bd ba74 2bbd bfdf c3bb
00000170: e277 c5bc f854 56bc bf56 003d fbec 4dbc
00000180: a974 04bc d636 ebbc fbb0 41bc e0b8 1abd
-0.034607857 0.044761844 0.01041121 -0.026567742 0.06297923 0.023902634 -0.022469822 0.04493977
0.009958045 -0.013383027 -0.013007625 0.038956378 0.031416748 -0.015592276 -0.027911192 -0.028359754
-0.03864119 -0.016256807 -0.033464577 0.048709795 -0.017949557 0.02158961 -0.035674267 -0.02849518
-0.0012986953 -0.014819094 0.04367393 0.04288816 -0.010445658 -0.015250122 0.048771553 -0.03387532
-0.040163912 -0.022885118 -0.029149376 -0.02323237 0.036789775 -0.04399926 -0.04148985 0.05267142
0.053771947 -0.017454108 -0.023127822 -0.027966721 -0.031298473 0.005074066 -0.025605667 0.04149118
8.57837e-06 -0.040055387 0.050328437 0.0061106384 -0.027412362 -0.015623018 -0.005685925 -0.017568674
0.039741248 -0.024089886 -0.037906826 -0.017763138 0.037449505 -0.017651213 0.05164715 -0.014884229
-0.017009275 0.035615616 -0.031444617 -0.026347466 0.047791008 -0.0019975307 -0.023593232 -0.013187338
0.02530927 0.03747987 -0.033817254 0.03827805 0.037280392 -0.017056398 0.054605275 -0.012155861
-0.037660997 -0.02112589 -0.02429873 -0.019894542 -0.022423323 -0.01483657 -0.013306133 -0.027476072
-0.0027292732 -0.04384372 -0.041859366 -0.0059776003 -0.024105016 -0.013081782 0.031332728 -0.012568708
-0.008084455 -0.028712671 -0.011821981 -0.037773967

out_y0.weight f4 [1, 100]
00000000: 8a51 053e 7252 cb3c cf08 453b 138a a5bd
00000010: 93dc b83c 5d5b 153c a765 d7bd 55da 513d
00000020: a0fc 803c 0db8 053d 0bb5 353d f9b6 bd3d
00000030: 8095 6c3c 9571 d4bc c8c5 28be 5ce0 92bc
00000040: 57b1 05be 4a06 86bb 94f8 90bd c6f7 093e
00000050: 673a 7abd 29eb 333b bca5 97bc a577 17bd
00000060: 4fc7 853d a273 dfbd 0559 253d 9e04 7f3e
00000070: 7852 c03d 82a8 be3d 2ea2 6a3d 91e3 29be
00000080: b791 2dbe 3e03 bebc 8bcb b6bd fac6 993d
00000090: eaac 7a3c ff32 51be f545 98bc f596 413d
000000a0: 2e52 8d3d eda5 50be d395 f33e bc8e 48bd
000000b0: 15d7 57bd 5cb0 113e 49b9 f4bc 047e fb3c
000000c0: d6c9 dc3b 76f0 68be 2f5e fd3b 0247 b43a
000000d0: d3ca 3e3d 59bf 633e e880 073d 27b0 443e
000000e0: c88e f43c d77c 8abe 582f 96bd 90ab 803d
000000f0: 77d0 093d 9132 57bd b00f 9f3d f288 5f3e
00000100: 8556 0dbe 36b0 913d dfc5 b4ba 72eb 21bd
00000110: 96cb 993d 8792 dfbc 3a34 09be 98a2 873b
00000120: c09e 123b b9f5 813d 1b94 a0bd 2eda 8f3d
00000130: c0c7 143d b0dd cdbd e505 493d 9c13 52bc
00000140: da9b 96be e2ca 993d d63f 1ebc 37d1 50be
00000150: cd61 0bbe 7550 fdbb d0a8 22bd 98e6 34bd
00000160: 397b 343d f0ad 23be 975c c63d 64c5 88bd
00000170: c234 c6bc d1f5 323a 7d20 ed39 b993 c9bd
00000180: f077 363e e11f 07bd 2e52 23bd 9da0 78be
0.13019386 0.024819586 0.0030065065 -0.08082976 0.022566115 0.009116021 -0.105174355 0.05123361
0.015745461 0.032646228 0.04436211 0.09263415 0.01443994 -0.025933066 -0.16481698 -0.017929249
-0.13055931 -0.004090105 -0.070786625 0.13473424 -0.061090853 0.0027453399 -0.018511645 -0.036979336
0.06532156 -0.10910727 0.0403681 0.24904105 0.0939073 0.09309484 0.057283573 -0.16590716
-0.16950117 -0.023194905 -0.089255415 0.07508655 0.015300015 -0.2042961 -0.018588046 0.047263104
0.0690044 -0.20375796 0.47575244 -0.048964247 -0.052695353 0.14227432 -0.029873507 0.030699737
0.006737928 -0.22747979 0.007732175 0.0013754072 0.046580147 0.22240962 0.03308192 0.19207822
0.02985324 -0.2704837 -0.07333249 0.06282723 0.033646073 -0.05253846 0.07766664 0.21829584
-0.13802536 0.07113688 -0.001379188 -0.03953118 0.07509534 -0.02729155 -0.13398829 0.0041392557
0.0022372454 0.06345696 -0.07840749 0.07024036 0.03632331 -0.10052049 0.049077887 -0.012822058
-0.2941578 0.075094 -0.009658774 -0.20392309 -0.13611527 -0.0077305385 -0.039711773 -0.044165224
0.044062827 -0.1598432 0.09685629 -0.06678274 -0.024195079 0.00068267906 0.00045228368 -0.09842629
0.1781919 -0.032989386 -0.039873295 -0.24280019

hidden_y1.weight f4 [100, 100]
00000000: 28d8 5ebd 9dca dabd c0f9 72bd b2f7 4dbd
00000010: f7c4 8bbc 7a08 263e 9891 913e fcfa 723d
00000020: 16d1 3cbe 21be 8cbd 8aae edbd 424c 1a3d
00000030: 0004 873d d362 35bd 023e 89bd a071 25be
00000040: da1a fdba d79f 563d 0c7b 813d d8bc 00bd
00000050: f717 263d 9e83 053e 11a9 083e 65cc 5e3d
00000060: 3372 583d 599b 3cbd 0780 38bc 8353 383d
00000070: ac35 e33d 8904 7fbb 2c44 b23d 0bf9 373d
00000080: 644c 873c 5798 e13d be0e 603e 1166 a3bd
00000090: a086 25be 0f85 ccbb 05dc e9bd 1a3d a5bc
000000a0: 9862 863d 70e8 483d 3287 a6bc b0ff c33d
000000b0: b279 053e c5b3 5b3b 9e1f 4bbc e088 dfba
000000c0: 98b6 cbbd da48 de3d 2851 0b3e a83f 7dba
000000d0: 4a8e d23d aae3 1bbd ea00 1e3d 3532 b2bd
000000e0: 2b80 9c3c f07e 053e 2f21 413d ee24 623e
000000f0: 0670 f13c 72cb a73d ea90 febd ffd0 883d
00000100: beb8 3e3d ede2 ebbb 0946 98bd e087 de39
00000110: be7d 29bb b197 2ebd 2aff 23bb 13eb e5bd
00000120: af09 283c c920 fd3d fcbd f9bd 6952 02bd
00000130: 6b0c 34be 0c70 2cbe d7ca d0bd 11c5 333b
00000140: c7d2 cebd ba5f 83bd 9470 93bd fa05 263d
00000150: 8f9d 2a3e 5ead 05be 6ff4 863a 9a78 74bd
00000160: 0f90 d3ba ea14 c7bd 4233 92bd 5d18 47bd
00000170: c70f b13d 60c0 3bbd bd2d 7b3e 0a9c b7bd
00000180: 8e45 1f3e 9ba9 40bc 8d10 7dbc 6327 ab3d
00000190: 3a67 55be 49ac 9bbd 6ccb c73d 1d4a b3bd
000001a0: 7c84 82bd acba 793d 41da 023e ef8a 453d
000001b0: 2975 c43d 9c3c 813d 5c5c 3e3e 4887 20bd
000001c0: b477 28be c64b 04be 7624 e3bc 8b87 a2bd
000001d0: 0566 d4bd 0efa 05be c7e6 c33d 549c 443e
000001e0: cd50 d1bc 7aab b7bd 9e7e ccbd b65e 58bd
000001f0: 04a7 163e 3ad8 883d 6497 41bd 5738 673d
00000200: ec1e e53d ed88 bebd bd69 643d 55ca 86bd
00000210: 459d 8fba 0b8e c03c 2a40 90bd 6196 cdbc
00000220: 1307 b9bb b815 5d3c a5f5 af3d d639 d03d
00000230: 5573 773d dd2d a2bd 4e75 3ebd 87db 2f3d
00000240: 2e0f 1bba 0e29 1f3d d277 e33d 7040 233d
00000250: 4603 ffbc 9f4d dd3d d2b0 07bc ef95 f73b
00000260: 3c66 a4bd 9a0c 933d 0207 003d 375a 723d
00000270: d1a4 c7bd 4f7d b5bd 6122 54bd 0d4b 6c3b
00000280: e859 fa3d cbcf 833d a77a 80bd e795 c3bd
00000290: 68f5 003d 097e 61bd d847 273c 0b6f bb3d
000002a0: 956c f83c 7d28 29be b8a6 f1bc 20b2 213c
000002b0: e1cf 013d d7f6 86bd 4751 d7bd 0612 8d3d
000002c0: 46f1 d2bd 11d7 f7bd 3012 983d b54f f1bb
000002d0: 345d 893d caa2 873d 8e1f e7bd 2c4f 183e
000002e0: 10bb 54be 730c 053e ec4d 8b3d cb16 efbd
000002f0: a6f7 f5bc 87af 063d 24ad fbbd f3d6 633d
00000300: 2941 dabd c06a f73d 88a2 513e 7196 46bd
00000310: e11f 20bc b71c 0f3d f431 b5bd 884f 093d
00000320: f310 143b fcef 47be ae52 e1bd 2fc5 84ba
00000330: d593 35bd b693 0ebd f003 003d 9212 b73d
00000340: c6e3 cabd a60a 6fbd 2f71 983c cfd4 19be
00000350: 820c 503e b584 0fbe f2b6 453d 8be1 f2bd
00000360: 0559 47be 91f7 efbd 5de0 7e3d c9f1 80bd
00000370: 9f3b 6fbd 48dd 1bbd fe81 dbbd 289f 673d
00000380: f44d 953c 9f46 893d b84a c63d c1cc 1b3c
00000390: 07be 0bbd 6a11 4a3c 2d68 b13d d5b8 04bc
000003a0: 468c 6fbe 8b84 7b3d b5d7 6b3d 0b68 5bbd
000003b0: e2b2 2bbe aa1f 80bd cf17 1fbd 7dc1 dd3d
000003c0: fc36 063d 9d59 193e 3852 33bd 2359 b23a
000003d0: 338e 90bd 6b31 0abe 2600 08be 685c 1cbd
000003e0: 7873 a4bd 2880 a0bd d77b 15be f41b 26bd
000003f0: dbe2 0ebc 7a7d 64bb 8b27 86bd d462 093e
-0.05440536 -0.10683177 -0.05932021 -0.05028505 -0.017061694 0.16214171 0.28431392 0.05932139
-0.18439135 -0.06872202 -0.11605556 0.03767038 0.0659256 -0.0442837 -0.0670128 -0.16156626
-0.001931037 0.05239853 0.063222975 -0.031430095 0.0405502 0.13038489 0.13345744 0.054394145
0.052843284 -0.04604659 -0.011260993 0.045001518 0.110942215 -0.0038912615 0.08704409 0.04491524
0.016515918 0.11015385 0.21880624 -0.07978452 -0.16164637 -0.0062414478 -0.114189185 -0.020170737
0.06561774 0.049049795 -0.020328138 0.09570253 0.13034704 0.00335239 -0.012397675 -0.0017054342
-0.09946936 0.10853739 0.13605177 -0.00096606696 0.10281046 -0.038058914 0.03857509 -0.087009825
0.019104084 0.13036704 0.047150787 0.220844 0.029472362 0.08193101 -0.12429984 0.06680488
0.046562903 -0.0071986825 -0.07435233 0.00042444374 -0.0025862302 -0.042625133 -0.0025023916 -0.112264775
0.010256215 0.12359769 -0.1219444 -0.031816874 -0.17582862 -0.16839617 -0.10194939 0.0027430693
-0.10098796 -0.06414743 -0.07199207 0.040533043 0.16661666 -0.13054416 0.0010296236 -0.059685327
-0.0016140955 -0.09720786 -0.07138683 -0.04860722 0.086455874 -0.04583776 0.24529167 -0.08965309
0.15553877 -0.011759187 -0.015445841 0.08357122 -0.20840159 -0.0760122 0.097555965 -0.0875437
-0.06372926 0.06096904 0.1277857 0.0482282 0.09592659 0.063103884 0.1858992 -0.039191514
-0.16451913 -0.1291953 -0.027727347 -0.07936009 -0.10371021 -0.1308367 0.09565502 0.1920026
-0.025551224 -0.089682534 -0.09985088 -0.0528247 0.14712149 0.06681867 -0.047263518 0.056450214
0.111875385 -0.0930346 0.055764902 -0.065815605 -0.0010956904 0.023505231 -0.07043488 -0.02509612
-0.0056465953 0.013493948 0.08591775 0.10167281 0.060412724 -0.07918904 -0.04649859 0.042933967
-0.0005915043 0.038857512 0.11106838 0.039856374 -0.03112949 0.10805821 -0.008281903 0.0075557153
-0.08027312 0.07180138 0.031256683 0.059168067 -0.09748233 -0.08861791 -0.0517906 0.0036055476
0.122241795 0.06436118 -0.06273394 -0.09550076 0.031484038 -0.055051837 0.01021 0.09152039
0.030325213 -0.16519351 -0.029498443 0.009869128 0.03169239 -0.0659005 -0.10513549 0.06888203
-0.102999255 -0.121015675 0.07425344 -0.007364238 0.0670723 0.066228464 -0.112853155 0.14873952
-0.20774484 0.1299303 0.06801972 -0.11674269 -0.030025315 0.03288224 -0.12288883 0.055624913
-0.106569596 0.12080908 0.20472157 -0.048483316 -0.0097732255 0.034939494 -0.088474184 0.033523113
0.002259311 -0.1952514 -0.11002098 -0.0010129566 -0.044330437 -0.034808837 0.031253755 0.08939089
-0.099067256 -0.058359765 0.018608658 -0.15022586 0.20317271 -0.14015467 0.048270173 -0.11859425
-0.19467552 -0.117171414 0.06222569 -0.06296117 -0.05840647 -0.038052827 -0.107181534 0.056548268
0.018225648 0.06702923 0.0968222 0.009509266 -0.03411677 0.012333253 0.08662448 -0.008100708
-0.23393354 0.0614057 0.05757876 -0.05356602 -0.16767457 -0.062560394 -0.038841065 0.108279206
0.03276728 0.14975591 -0.04377958 0.0013606887 -0.07058372 -0.13495414 -0.13281307 -0.038174063
-0.080298364 -0.07836944 -0.14598022 -0.040554002 -0.008721079 -0.003486483 -0.06550511 0.13416606

hidden_y1.bias f4 [100]
00000000: 941c efbc 78ef 8abc 0734 31bd 46b9 203d
00000010: 0d9c 78bc bb6c f0bc 8ec8 09bd 6f7d f4bc
00000020: 1b40 483d ed07 6d3d 88a7 013d f558 c9bc
00000030: 8d45 08bd 42a7 e7bc 3cf2 babb fd9e e8bc
00000040: 26bd b4bc 819b 82bc 9c76 e7bc 48a1 43bd
00000050: 3499 e93a 8882 e8bc b70c 97bc e365 923a
00000060: bfd1 193d 1d1d c0bc 3e0b a3bc bcec 7b3b
00000070: 70a3 cbbb 9faf 87bc 0a7a f8bc ecad 59bc
00000080: 6974 12bd ca91 223d 49fa 6fbc 0e6a 213d
00000090: 437e eabc 39c4 f7bc e243 d6bc 50c9 e4bc
000000a0: a99f ec3c 5419 fdbc 9462 22bd b30a cd3a
000000b0: 139a f13c c0c1 0cbc c007 a6bc 05e2 d53c
000000c0: 0c58 eebc afc7 7cbc 1cbb c4bc 999c 23bc
000000d0: f786 33bd 6716 73bc 5bea dabc 07cc edbc
000000e0: cefb 063d 9512 063d 0366 f6bc 8b51 e1bc
000000f0: 258a 80bc 164f a1bc 1709 e93c 18ad dbbc
00000100: 4ce0 8dbc f4eb 153d e760 03bd c7ac 94bc
00000110: 65ec 703d 5bf7 09bd 25e6 4ebb 58ee fdbc
00000120: 5721 0c3d 72c8 8bbc 1623 08bc a27e a8bc
00000130: 01c2 4c3d 22be 1dba 9887 0abd a9d8 02bc
00000140: 7518 6dbc 4da7 0ebd 2505 9cbc 2c80 c43a
00000150: 005d e33c 4f7a 423c c096 8abc 1646 173d
00000160: 380a 373d b6d1 9abc bf45 7abb bf36 b8bc
00000170: 5f35 f73c 2029 c13c 04de d9bc 5d66 f4bb
00000180: 626a fa3c 623b 3dbd c7fb e23c 2c3d debc
-0.029188432 -0.01695989 -0.043262508 0.03923919 -0.015173924 -0.029348722 -0.03363853 -0.029844968
0.04888926 0.057868887 0.03165391 -0.02457855 -0.033269454 -0.028277997 -0.005705146 -0.028396124
-0.02206285 -0.01594329 -0.0282548 -0.04776123 0.0017822147 -0.028382555 -0.01843868 0.0011169281
0.037553545 -0.023451382 -0.019902822 0.0038440665 -0.0062145516 -0.016563235 -0.03033163 -0.013286095
-0.03575555 0.039689817 -0.014647075 0.039407782 -0.02862466 -0.030244933 -0.026155416 -0.027928025
0.028884726 -0.030895866 -0.039644793 0.0015643447 0.029492414 -0.0085911155 -0.020267367 0.026108751
-0.029094718 -0.015428468 -0.024015002 -0.009986066 -0.043829884 -0.014836884 -0.026723078 -0.029027952
0.032954983 0.032732565 -0.03007794 -0.027504703 -0.015690872 -0.019691031 0.028446717 -0.026815936
-0.017318867 0.036601976 -0.032074835 -0.018148793 0.058819193 -0.033683162 -0.0031570282 -0.03099744
0.034211483 -0.017063353 -0.008309146 -0.020568196 0.049989704 -0.00060174067 -0.03382072 -0.007986226
-0.014471163 -0.03482752 -0.019045422 0.0014991811 0.027754307 0.011869981 -0.016917586 0.036932074
0.04468748 -0.018898826 -0.0038188545 -0.022487042 0.030176817 0.02357918 -0.026595123 -0.0074584917
0.030568305 -0.04619921 0.027707947 -0.027128778

out_y1.weight f4 [1, 100]
00000000: 6ff4 84bc f697 433e 1f2c 87bd 40e2 173d
00000010: 34b8 56bd 35a4 70bd 927c 79be 01e3 213e
00000020: 1820 3a3e d2f9 453d da46 1b3e bfba 213e
00000030: c155 0abe bbfe 04bd 19e0 b8bb 9d1c 16be
00000040: 7c40 4abd e2c7 02bc 0031 02be aea8 68bd
00000050: 8ea1 f43b d11c 3c3e a31f e33d 6f9a f93c
00000060: 6e4e 0f3c 1f25 a2ba 59fe 09be afd7 d43b
00000070: aaac b5bc c402 723e 669a db3d e4c9 f53d
00000080: 096a 11be 0922 cd3d 1ab1 e93d 6c91 9a3d
00000090: 560d fbbd 8353 153d 03d9 5c39 ca9d 2e3d
000000a0: cb40 153d 777a 7dbd 8ff2 56be 68ba 71bd
000000b0: 5456 1e3d e847 253d a20f 18be f758 483b
000000c0: a5fc 7cbd 16b6 343e cf6d cfbd 938f 8d3d
000000d0: a218 3bbe 3984 e8bc 2b7f edbd 312d 22be
000000e0: 01e9 de3b 1dbc fd3b 86fc 48bd 4d40 a0bb
000000f0: 543b 66bd 569d c73d e5cd 7e3c 43a0 98be
00000100: bc45 b8bd 1ddf a33d f6d7 38bd 91b7 8b3d
00000110: 338d 4f3d 99f9 aabd 8e57 41bc a48d 47bc
00000120: 4547 d13d ad14 68be ee8d b6bd 474f 93be
00000130: 544f e83d 376e 09bd 8fbc 51bd a38d 043d
00000140: 3ce2 37bd d730 90bd 1043 3f3e ea35 34bd
00000150: 9d00 ba3d 8cde 6cbd a463 77bb b999 3e3e
00000160: 1c1d 953d b180 cf3b 4e42 513d 63ba 17be
00000170: cf84 863d e406 dc3b ee84 893e e1c1 53be
00000180: fe72 bd3d a0c1 dfbd 88be ae3d 0620 09be
-0.016229836 0.19100937 -0.06600212 0.037081003 -0.052421764 -0.05875035 -0.24363926 0.15809251
0.18176305 0.04833395 0.15163746 0.15793894 -0.13509275 -0.032469492 -0.005641949 -0.14659353
-0.049377903 -0.007982226 -0.12714005 -0.05680149 0.007465548 0.18370368 0.110900186 0.030469147
0.008746726 -0.0012370682 -0.13475932 0.006495438 -0.02217706 0.23633868 0.107228085 0.12001398
-0.14200605 0.10016257 0.114107326 0.07547268 -0.12258403 0.036456596 0.00021061678 0.042630948
0.036438745 -0.06188437 -0.20990966 -0.05901566 0.038656548 0.04035178 -0.14849713 0.0030570605
-0.061764378 0.17647585 -0.10128366 0.0691215 -0.18271115 -0.028383361 -0.11596521 -0.15837552
0.0068026786 0.007743372 -0.04906895 -0.0048904778 -0.056208923 0.09746806 0.015552019 -0.2980977
-0.08997676 0.0800154 -0.04512783 0.06822122 0.050671767 -0.08348388 -0.01180066 -0.012179766
0.10218672 -0.22664137 -0.0891379 -0.2877142 0.11343256 -0.033552375 -0.051205214 0.032361638
-0.04489349 -0.070405655 0.18677926 -0.04399673 0.09082148 -0.057829425 -0.00377486 0.18613328
0.07280943 0.00633248 0.051088624 -0.14817195 0.065683 0.0067146886 0.2685923 -0.20679428
0.09250449 -0.10925603 0.08532435 -0.13391122
