DR_Info_CFR/Twins/Models/Backup/adversarial_vae.pth (torch, 25835 bytes, 32 tensors)

encoder_shared.shared1.weight f4 [15, 30]
-1.3746201e-06 5.971663e-07 6.8903637e-07 6.5334973e-07 6.4465354e-07 8.283495e-07 3.8942738e-07 6.891151e-07
6.892477e-07 3.351156e-07 6.31594e-07 7.279552e-07 6.889274e-07 5.667557e-07 6.8827916e-07 7.9814623e-07
8.40634e-07 -8.7722304e-07 -9.4911917e-07 -1.3223302e-08 -0.008484937 -2.9007924e-07 -0.007504199 -0.006368644
-0.0006042824 7.20528e-07 -3.1898443e-07 1.0599645e-06 -0.0003635725 7.0482776e-07 6.799482e-35 -3.1838717e-38
-3.4418216e-38 -3.6087808e-38 -3.3890953e-38 -5.375778e-38 -3.1821818e-38 -3.9342138e-38 -3.7378297e-38 -3.3231647e-38
-3.4878706e-38 -3.482761e-38 -3.6773003e-38 -3.353388e-38 -3.6383339e-38 -6.424426e-38 -5.549147e-38 -2.2793966e-38
-1.4265622e-27 -3.7917242e-38 1.3454065e-06 1.1002009e-38 -2.5261468e-05 3.827445e-06 -4.716152e-08 4.153429e-39
-9.131155e-39 1.645274e-36 -4.390668e-10 2.423117e-39 -4.862346e-20 -9.557176e-28 -4.409445e-27 -3.7639893e-27
-2.446663e-27 -4.0521188e-23 -1.8745694e-27 -7.049095e-27 -3.504435e-27 -9.195542e-28 -3.0119168e-27 -3.2254404e-27
-6.545961e-27 -1.750742e-27 -4.521826e-27 -1.2352159e-25 -1.9239404e-23 -8.240876e-35 -1.287487e-15 -4.775486e-38
-0.00075974263 4.866908e-38 -0.0011609021 0.0005930907 -5.9178906e-06 -5.674121e-39 1.2007202e-38 -2.6190754e-21
-5.5062435e-07 6.359018e-39 -1.1442511e-15 -1.7502471e-21 -5.122339e-21 -4.838547e-21 -1.6579556e-21 -2.9053353e-17
-5.939085e-21 -1.0724631e-20 -3.697751e-21 -9.625217e-22 -3.5363554e-21 -7.162075e-21 -1.06308024e-20 -4.35825e-21
-5.1682515e-21 -8.731837e-20 -1.6942226e-17 -2.30133e-26 -2.604078e-11 -6.117959e-38 -3.1185675e-05 2.205747e-39
0.00033501358 -0.0014915172 -3.298423e-05 2.0510002e-32 5.4428896e-31 -1.1741661e-15 -6.0177376e-06 4.6859825e-32
7.572907e-39 -2.141222e-38 -1.7083017e-38 -1.9140127e-38 -1.778073e-38 1.9216652e-38 -1.7165407e-38 -1.756868e-38
-1.5681162e-38 -1.4198084e-38 -1.6511832e-38 -2.0965377e-38 -1.6320007e-38 -1.5761693e-38 -1.7164082e-38 1.5436844e-38
1.7123172e-38 -1.4557856e-38 -1.14790866e-32 3.9885814e-38 -1.9447369e-05 5.418861e-38 -4.480226e-06 -5.7504354e-07
-6.019516e-11 2.9747764e-38 -2.13117e-39 2.0947492e-38 -1.1385517e-12 -5.221773e-39 0.025362916 -0.0022687302
-0.009154498 -0.0048253415 0.0054147444 -0.006590138 -0.014019978 -0.005879341 -0.0066320603 -0.005870666
-0.003806189 -0.0028786627 -0.0065084854 -0.0050711916 -0.005250802 -0.010245267 -0.0024928052 -0.006073134
-0.006660508 0.001775294 -0.012401255 -0.0031734714 0.0637242 -0.019458983 0.04338847 -0.008181904
-0.0046885344 -0.014786363 -0.015302473 -0.002490815 -6.753799e-39 -2.105026e-39 -2.072188e-39 -6.14738e-40
2.774284e-39 -1.554248e-38 -4.38444e-40 -1.859729e-39 6.32688e-40 1.744528e-39 2.975385e-39 -2.914737e-39
-6.22503e-39 -3.854043e-39 -1.318301e-39 -7.225524e-39 -1.5377101e-38 3.964995e-39 9.1904e-39 -1.7513041e-38
-2.708982e-07 6.4110767e-38 -5.392904e-07 1.663244e-08 -4.1835296e-14 5.6172075e-38 -3.101707e-39 -1.7441034e-38
-8.845013e-19 2.1848557e-38 0.005655051 -0.006235044 -0.006399608 -0.0042602667 -0.0035990751 -0.007522809
-0.0070780003 -0.00769824 -0.00503669 -0.003038433 -0.004637879 -0.004795581 -0.0033111454 -0.003192523
-0.006360576 -0.0051617613 -0.0052181575 -0.0040283147 -0.014160317 -0.00044459003 -0.03333745 -0.0003742847
0.016592342 -0.020320928 0.02096763 0.004004468 -0.0013367158 -0.008738151 -0.030798215 -0.004133042
1.6246579e-38 7.683618e-39 1.7629386e-38 2.1839381e-38 -2.3509698e-38 -9.3105e-39 -5.368404e-39 -6.796708e-39
7.057795e-39 -1.8130955e-38 -1.9811986e-38 -7.272582e-39 -7.658393e-39 -6.402764e-39 -1.8117661e-38 4.113433e-39
00000000: 967f b8b5 f54c 2035 38f6 3835 da61 2f35
00000010: 410c 2d35 bf5b 5e35 7e12 d134 a1fb 3835
00000020: be04 3935 f0e9 b334 cf8a 2935 b368 4335
00000030: bbee 3835 2823 1835 2fc2 3835 3140 5635
00000040: eea7 6135 4f7a 6bb5 f9c6 7eb5 b22c 63b2
00000050: 6804 0bbc 30bc 9bb4 c9e5 f5bb 0fb0 d0bb
00000060: b568 1eba 4f6a 4135 e340 abb4 1a44 8e35
00000070: e09d beb9 6533 3d35 e0c2 b406 b258 2d81
00000080: fe63 3b81 107b 4481 1885 3881 b457 9281
00000090: 2441 2d81 f032 5681 be81 4b81 28ee 3481
000000a0: d2e5 3d81 9b9e 3d81 1636 4881 6893 3681
000000b0: f916 4681 b7e3 ae81 e90f 9781 4e34 f880
000000c0: 3d0c e292 ec70 4e81 d193 b435 20cd 7700
000000d0: 97e8 d3b7 816d 8036 a48e 4ab3 123a 2d00
000000e0: f26d 6380 e5f6 0b04 2961 f1af aa62 1a00
000000f0: 289e 659f 8370 9792 16ad ae93 631b 9593
00000100: 39d8 4193 cdf2 439a c984 1493 289f 0b94
00000110: 31d3 8a93 8db5 9192 eea0 6e93 b48b 7f93
00000120: f7a7 0194 44b5 0a93 c320 b393 8ee9 1896
00000130: 7512 ba99 7f14 db86 e38b b9a6 4800 8281
00000140: 7729 47ba 667d 8401 6929 98ba a579 1b3a
00000150: 4b92 c6b6 24c9 3d80 32bf 8200 49e4 459d
00000160: 9ece 13b5 5b3e 4500 6ae7 a4a6 b43e 049d
00000170: 3984 c19d 8ecb b69d 0d8b fa9c 25fc 05a4
00000180: 4e5f e09d 2295 4a9e 74b2 8b9d c173 919c
00000190: 8899 859d ab49 079e 68cf 489e 68a6 a49d
000001a0: 4340 c39d b72c ce9f b343 9ca3 a6e9 e394
000001b0: a00e e5ad f48b a681 5dcd 02b8 ba04 1800
000001c0: c3a4 af39 037f c3ba 8c58 0ab8 f0fc d40a
000001d0: c2a1 300d 1537 a9a6 f9eb c9b6 644f 730b
000001e0: 2f76 5200 8f28 e980 8004 ba80 e36a d080
000001f0: 719d c180 3540 d100 2cea ba80 554e bf80
00000200: b3c0 aa80 7b9a 9a80 45cc b380 f14a e480
00000210: 8ab5 b180 30a1 ab80 7ae6 ba80 a417 a800
00000220: 7074 ba00 6185 9e80 4b69 6e8a b628 5901
00000230: e822 a3b7 f383 9301 d954 96b6 b15c 1ab5
00000240: dd5e 84ae 55f6 2101 d634 1780 1619 e400
00000250: a63c a0ab 2edc 3880 e4c5 cf3c faae 14bb
00000260: bffc 15bc e61d 9ebb 2b6e b13b 16f2 d7bb
00000270: 0db4 65bc 7da7 c0bb c151 d9bb b75e c0bb
00000280: 4171 79bb f2a7 3cbb 2245 d5bb 3d2c a6bb
00000290: eb0e acbb c4db 27bc 555e 23bb 2401 c7bb
000002a0: 6440 dabb fbb0 e83a a22e 4bbc 04fa 4fbb
000002b0: d581 823d 7268 9fbc 1cb8 313d 650d 06bc
000002c0: 47a2 99bb 8042 72bc 39b7 7abc f13c 23bb
000002d0: d88a 4980 f5eb 1680 6b90 1680 a4b1 0680
000002e0: 9335 1e00 1c3e a980 34c6 0480 2b40 1480
000002f0: ade3 0600 09ff 1200 2a66 2000 1abd 1f80
00000300: dac8 4380 81f7 2980 e35a 0e80 d2ad 4e80
00000310: 1a71 a780 cb2c 2b00 1913 6400 3cb3 be80
00000320: f76f 91b4 af86 ae01 c1c3 10b5 1fdf 8e32
00000330: d068 3ca9 39ea 9801 4cc6 2180 82ea bd80
00000340: 8487 82a1 e3e8 ed00 024e b93b 574f ccbb
00000350: ceb3 d1bb b599 8bbb 76de 6bbb e581 f6bb
00000360: 92ee e7bb 8541 fcbb d10a a5bb 7220 47bb
00000370: 59f9 97bb 4024 9dbb cdff 58bb a639 51bb
00000380: 616c d0bb fe23 a9bb 14fd aabb f4ff 83bb
00000390: ad00 68bc dd17 e9b9 da8c 08bd a43b c4b9
000003a0: aaec 873c 1378 a6bc 4fc4 ab3c ea37 833b
000003b0: bd34 afba 762a 0fbc 8a4c fcbc 786e 87bb
000003c0: dae8 b000 cdaa 5300 8ef7 bf00 4fcf ed00
000003d0: 79ff ff80 e361 6580 ed74 3a80 7502 4a80
000003e0: 43da 4c00 ba6d c580 c2bb d780 0031 4f80
000003f0: 7c64 5380 4db8 4580 ab48 c580 94ca 2c00

encoder_shared.shared1.bias f4 [15]
-4.1077334e-07 8.009874e-39 5.0256045e-38 -5.526551e-38 4.2446833e-38 -0.0030409389 6.236074e-38 -0.0023708043
7.677885e-39 -0.01576756 0.0007244545 5.338669e-38 -1.1374345e-38 -6.0473685e-38 -2.0981226e-09
00000000: 4288 dcb4 4538 5700 5acf 8801 7072 9681
00000010: 401a 6701 7d4a 47bb 18c3 a901 7f5f 1bbb
00000020: d29a 5300 f82a 81bc 52e9 3d3a 1855 9101
00000030: 0cdb 7b80 02a0 a481 902e 10b1

encoder_shared.shared2.weight f4 [15, 15]
-1.7001419e-38 3.0333e-38 1.3980755e-38 5.100679e-38 6.792011e-39 -8.01406e-34 2.3266606e-38 -1.0066802e-38
1.6782105e-38 -3.0976898e-37 4.8521495e-38 -1.9861214e-38 -5.585723e-39 -5.2522836e-38 -1.4039946e-38 -9.760206e-39
-2.5059482e-38 -1.425728e-12 -5.971736e-13 -3.9749204e-38 -0.06803862 6.4278984e-20 0.031243028 7.2848914e-29
0.00089274667 0.0019762046 -3.608419e-39 -1.6469764e-38 -3.3717461e-31 4.749165e-22 0.014192748 1.6832159e-07
-0.00555231 -0.002491506 -7.245105e-08 -0.031196678 6.4151686e-06 -0.0038994586 -3.095211e-08 0.03679505
-0.025496705 -3.5045713e-07 2.4506426e-38 -0.0037703614 -0.0071441703 0.005992958 1.1835997e-11 0.002978192
0.0008069227 -8.094534e-12 0.096981876 -8.973498e-08 0.00036312916 -9.83274e-12 -0.1317912 0.06051179
-2.467737e-19 1.8836314e-38 -0.0002152698 -0.0035993014 1.8023839e-38 2.504412e-39 -1.6922548e-38 5.6334765e-38
-1.9241975e-38 -1.5230352e-20 -6.600089e-39 -2.3378177e-32 -1.673429e-38 4.739252e-33 5.8228486e-38 3.8673136e-38
1.9537224e-38 -1.446501e-38 -2.684936e-38 -1.9414092e-38 2.1993992e-38 -3.9790828e-38 1.440702e-38 5.564021e-38
-5.329889e-38 -3.919649e-39 -6.595525e-39 -2.9327226e-38 -3.8949783e-38 -2.47722e-39 -1.9558335e-38 2.4425215e-38
-2.712493e-39 -1.7327068e-38 -4.550565e-39 -1.4765363e-38 1.3358987e-38 -4.6758182e-38 2.4503307e-38 -8.3099366e-07
-1.7105066e-38 -6.6342934e-12 1.1336928e-38 -1.5990064e-09 4.76574e-38 -4.0440616e-38 -3.5664537e-38 4.0730993e-38
-3.4057135e-38 0.014635113 -4.410262e-38 9.870161e-15 -6.62589e-19 5.688044e-38 0.019959668 -4.7277837e-38
-0.030820759 4.285825e-39 -0.03636057 -5.1961408e-05 3.6203857e-38 -5.118546e-38 4.9823066e-38 2.657072e-39
-1.116362e-38 5.5065514e-38 -2.570755e-38 9.544255e-39 -3.5723728e-38 -2.1902703e-37 -1.9878503e-38 -8.949238e-38
1.1403785e-38 -1.0136368e-36 3.1223217e-38 -3.573376e-39 3.111772e-38 -1.9714593e-38 -2.83938e-39 3.349453e-38
2.967023e-38 5.9218514e-38 1.00781e-40 2.8461257e-38 -0.0068662446 -1.2779524e-38 -2.623886e-10 -6.401714e-39
0.0009553465 3.635054e-21 -8.313837e-39 6.697913e-38 5.5551866e-38 4.323996e-39 -6.88867e-38 8.08295e-18
2.3588092e-07 8.1585256e-08 -1.200586e-22 -0.016484642 2.0000785e-21 0.02255013 1.6888758e-34 -0.016850542
1.3000181e-07 3.9420432e-38 2.2613367e-38 -2.135007e-39 -2.1548917e-38 -1.3358032e-38 1.7687462e-38 3.6462732e-11
-2.0619684e-19 4.030931e-38 -0.0013574747 2.903394e-38 -0.00093492185 -7.644258e-39 -0.0009730834 0.00048683773
-2.6114105e-38 -1.388059e-39 -5.083857e-38 7.52329e-39 -9.899097e-05 3.8318926e-10 1.4508089e-07 0.00017859781
2.4488308e-29 0.04736491 1.5653568e-21 -0.030282987 1.3103112e-32 -0.060534414 0.039214246 3.7779255e-24
-5.855579e-39 2.3640746e-06 -1.2591286e-38 -2.1053388e-38 4.4573303e-38 1.9269712e-06 -6.679132e-09 -2.8273198e-38
-0.033936717 -3.123367e-38 0.02599512 1.4024603e-38 -0.00733485 -7.900093e-10 2.0189706e-38 -2.6157702e-38
4.4771576e-38 5.67449e-38 5.7218895e-38 5.271588e-39 -6.169159e-38 -5.7179306e-38 3.3770273e-38 -5.969192e-38
-5.5619845e-38 3.860433e-39 -6.733591e-38 -8.393527e-39 -2.647602e-38 5.618601e-38 3.303595e-39 -3.672801e-38
4.596195e-39
00000000: 0a21 b980 0826 2501 a83c 9800 8bda 8a01
00000010: 5df5 4900 0b28 8588 d559 fd00 269e 6d80
00000020: aebd b600 5ed1 d282 8c16 8401 fc44 d880
00000030: b9d2 3c80 13fb 8e81 a8e1 9880 7c47 6a80
00000040: d26f 0881 44a7 c8ab e516 28ab 4e6a 5881
00000050: d557 8bbd 43c6 971f 61f1 ff3c a6b1 b810
00000060: 3707 6a3a 3683 013b ce4a 2780 0057 b380
00000070: bed6 da8c e288 0f1c b388 683c e3bb 3434
00000080: 27f0 b5bb 8948 23bb 6396 9bb3 2d90 ffbc
00000090: e141 d736 0f8e 7fbb 34f0 04b3 68b6 163d
000000a0: 77de d0bc 7626 bcb4 f96c 0501 2b18 77bb
000000b0: a519 eabb 9360 c43b 9738 502d c52d 433b
000000c0: aa87 533a 8a66 0ead 6f9e c63d 54b4 c0b3
000000d0: 5f62 be39 b9fa 2cad 46f4 06be 36db 773d
000000e0: 63ab 91a0 fb1b cd00 0cba 61b9 42e2 6bbb
000000f0: 2143 c400 4845 1b00 2e45 b880 9a5b 9901
00000100: cc86 d180 bbd8 8f9e 5dde 4780 dbc5 f28a
00000110: 6438 b680 5fdc c409 5583 9e01 7c8e 5201
00000120: d5bd d400 9082 9d80 8c2e 1281 9766 d380
00000130: 4d7e ef00 52a4 5881 e9e0 9c00 9177 9701
00000140: e817 9181 63ae 2a80 a4d1 4780 30ac 1f81
00000150: 1310 5481 7bf9 1a80 aef8 d480 c8fb 0401
00000160: 5489 1d80 d1ac bc80 208d 3180 d3c7 a080
00000170: 6c77 9100 6593 7e81 a068 0501 7311 5fb5
00000180: f741 ba80 676c e9ac be72 7b00 09c4 dbb0
00000190: 5cbc 8101 fe2d 5c81 1c2d 4281 b8c2 5d01
000001a0: b86c 3981 1dc8 6f3c 151e 7081 15ce 3128
000001b0: cf8f 43a1 e2d7 9a01 7582 a33c d8b3 8081
000001c0: d17b fcbc 23ab 2e00 d2ee 14bd 23f1 59b8
000001d0: d01c 4501 0f57 8b81 9ca1 8701 d6ee 1c00
000001e0: a18f 7980 10e7 9501 18f7 0b81 80ed 6700
000001f0: 9c7f 4281 e40f 9582 2e75 d880 169f f381
00000200: 1d2d 7c00 1c76 ac83 d0fe 2901 1ee9 2680
00000210: c66b 2901 44ac d680 09eb 1e80 905c 3601
00000220: 448a 2101 4835 a101 f018 0100 34f5 1a01
00000230: 3cfe e0bb 1d28 8b80 ea3f 90af 60b5 4580
00000240: 3870 7a3a 1654 891d 9887 5a80 a455 b601
00000250: 003a 9701 8b15 2f00 0687 bb81 a71a 1523
00000260: 7446 7d34 f833 af33 5624 119b cd0a 87bc
00000270: 251f 171d 0dbb b83c 777d 6007 260a 8abc
00000280: a096 0b34 10a0 5601 de3c f600 883f 1780
00000290: 9da5 ea80 c274 9180 7399 c000 635d 202e
000002a0: 2c6f 73a0 fa76 5b01 4bed b1ba 6813 1e01
000002b0: 8b15 75ba 153d 5380 8616 7fba 413e ff39
000002c0: c02d 0e81 581d 0f80 5065 8a81 dfeb 5100
000002d0: 5f99 cfb8 18a9 d22f 88c7 1b34 fc45 3b39
000002e0: 4857 f80f b501 423d cf8c ec1c 0714 f8bc
000002f0: 0c12 880a eff2 77bd 1e9f 203d c326 9218
00000300: f9c2 3f80 7ea6 1e36 621b 8980 4840 e580
00000310: 1eae 7201 1d51 0136 447e e5b1 16ef 1981
00000320: 3a01 0bbd 620d 2a81 b8f3 d43c e3b6 9800
00000330: 2e59 f0bb f627 59b0 b0d8 db00 846a 0e81
00000340: 78c2 7301 6c79 9a01 c0c3 9b01 0b67 3900
00000350: c3f0 a781 29a8 9b81 e4dc 3701 327f a281
00000360: 6069 9781 5109 2a00 484e b781 bd65 5b80
00000370: 3026 1081 eff3 9801 14f9 2300 60f7 4781
00000380: 520c 3200

encoder_shared.shared2.bias f4 [15]
-4.318346e-34 0.030124605 0.3815662 0.15906404 -2.700271e-33 4.7338e-40 -4.3770164e-19 0.0020771117
-1.4150995e-35 -0.0013265152 0.0016379616 -0.0007616669 0.014885959 0.0010489232 -3.9543488e-38
00000000: 6d80 0f88 e0c7 f63c a55c c33e afe1 223e
00000010: 6a54 6089 9727 0500 cd2f 01a1 2720 083b
00000020: ac7a 9685 77de adba dfb0 d63a 9aaa 47ba
00000030: 3de4 733c 067c 893a 944b 5781

encoder_shared.shared3.weight f4 [15, 15]
-1.1306356e-38 1.65144e-38 -5.958076e-38 -3.0740867e-38 -4.322004e-39 -4.5996633e-38 7.23733e-40 -1.826695e-39
2.5409297e-38 -5.351466e-38 -5.087535e-38 1.7637196e-38 2.5853508e-38 -3.9501606e-38 -3.518454e-39 -2.6759413e-34
-0.022074943 0.14958265 0.079850644 2.4790654e-33 -5.026926e-38 -1.5593271e-35 -0.029563995 1.4822286e-36
-1.2600463e-08 -0.002185351 -6.064273e-05 -0.01020846 0.0014902212 -2.4372095e-38 1.3134715e-38 -5.0920115e-38
1.6654163e-38 1.4406466e-38 -1.6141613e-38 -1.3997133e-38 -5.252341e-38 6.9888674e-38 1.4861877e-38 7.4045e-41
-6.536117e-38 -4.9407923e-38 7.862672e-39 -4.0753408e-38 1.690118e-38 -9.1084445e-38 -0.009273169 -0.009708135
-0.05189169 5.758274e-35 -6.08226e-39 -3.5970048e-38 -0.046764445 -2.545961e-38 5.567069e-06 -6.550003e-05
-3.5071827e-38 -0.05714451 0.00055372814 4.155231e-38 3.395255e-39 4.6081913e-38 1.7049571e-32 3.825924e-32
6.740332e-38 -8.643957e-39 -3.1591677e-38 -4.9561584e-38 4.538289e-38 6.502182e-38 1.8168294e-38 -8.5146e-39
1.445521e-38 7.828158e-39 -1.4755069e-38 5.837888e-38 -2.3411415e-38 5.6274157e-26 -8.058823e-26 -2.6634853e-38
-5.1979547e-38 6.571409e-39 -3.446842e-26 1.9009959e-38 -6.945165e-38 -3.1963408e-38 -1.9777634e-38 8.255887e-26
-2.0919e-39 9.80328e-39 2.2060586e-38 3.526749e-07 -0.0025470965 -0.0025460762 3.4513533e-38 1.5441002e-38
-3.341676e-38 1.9121375e-38 -3.3775631e-38 2.3125842e-38 -3.4037318e-38 -1.3501659e-38 -2.0669245e-10 -6.407756e-11
1.4299645e-38 -3.454283e-34 -0.008468017 -0.09471267 -0.04892009 4.175208e-33 1.9106001e-38 -6.2596316e-38
-0.061234497 2.1039485e-36 2.0114663e-09 -0.0005995863 4.6678065e-12 0.049173027 0.002756262 4.0735396e-38
-2.7830852e-38 -1.2404157e-14 -3.8420944e-10 -2.6242383e-10 1.6619016e-38 -1.9551376e-38 2.9350746e-38 4.718682e-11
-6.5802756e-38 -6.592661e-38 6.979835e-38 3.138522e-39 -2.734186e-11 -4.266618e-39 1.2355038e-38 7.3455466e-34
0.082515046 0.043390553 0.06430696 7.351709e-33 -2.6043653e-38 5.759393e-38 -0.023321398 3.3666717e-36
1.8461495e-05 -0.016155506 -9.86643e-06 0.029855479 0.001420165 -1.2250489e-38 4.2959607e-34 -0.030300625
0.15139669 0.020248068 -1.4767185e-32 1.5152005e-38 6.4568646e-20 -0.013261353 -7.5641885e-37 -2.5531344e-05
-0.007225443 2.714206e-05 -0.010257108 0.00994386 -3.517852e-38 -1.6654602e-38 -1.2195936e-38 3.9969334e-38
-2.235172e-39 -2.922453e-39 -1.3082349e-38 4.36035e-40 1.352886e-39 -3.4745515e-38 -4.855286e-38 -1.8134124e-38
1.0225273e-38 -8.544409e-39 -3.6533832e-38 -3.366217e-39 -4.66072e-40 0.00053093 -0.032902986 -0.018206704
-3.251824e-38 -3.3680444e-38 -5.7082594e-38 3.3502808e-12 -4.4472157e-38 1.263062e-38 -5.3607503e-16 5.9524233e-38
0.01452254 -5.0599844e-11 -2.2031674e-38 7.5154937e-34 0.069033206 0.24974659 0.15243366 1.3835592e-32
-2.5743747e-38 4.087076e-38 0.027951801 1.0140149e-36 -2.1008715e-05 0.0070043476 6.270745e-06 -0.058245093
0.006840382 -2.862152e-39 7.6155283e-34 -0.009240456 0.13104315 0.06670484 1.8483522e-32 7.926494e-39
4.1404258e-38 -0.04647276 3.1304102e-36 -0.0024285312 0.016384993 -0.00017360078 -0.030998087 -0.0062494213
-3.0177355e-38
00000000: 851d 7b80 6ed3 b300 bb31 a281 845e 2781
00000010: fd0f 2f80 f36d 7a81 79e1 0700 15e4 1380
00000020: 6457 0a01 46ae 9181 f27e 8a81 540d c000
00000030: 88c2 0c01 3411 5781 0550 2680 c8d8 b187
00000040: 83d6 b4bc 322c 193e bc88 a33d e4f3 4d09
00000050: 90d8 8881 ecd0 a585 3130 f2bc 2930 fc03
00000060: 6c79 58b2 1b38 0fbb a35a 7eb8 6241 27bc
00000070: 8753 c33a beb1 0481 3e06 8f00 249e 8a81
00000080: 0859 b500 5edf 9c00 40c4 af80 506a 9880
00000090: 79fb 8e81 4c41 be01 ded4 a100 68ce 0000
000000a0: 16ee b181 4c80 8681 ee9d 5500 f6e1 5d81
000000b0: 9d09 b800 98f4 f781 7dee 17bc df0e 1fbc
000000c0: 618c 54bd c814 9906 de3a 4280 eed6 4381
000000d0: 138c 3fbd 849d 0a81 c2cc ba36 105d 89b8
000000e0: fef2 3e81 5d10 6abd 1128 113a 783b 6201
000000f0: 97f8 2400 d0e4 7a01 890d b10a 41a7 460b
00000100: 427d b701 d61f 5e80 5f00 2c81 62eb 8681
00000110: 8416 7701 9801 b101 d0d5 c500 3eb7 5c80
00000120: 3f67 9d00 b83d 5500 21ab a080 24ec 9e01
00000130: 80ed fe80 fc53 8b15 dc86 c795 9103 1181
00000140: 7580 8d81 6a8e 4700 eaad 2a95 0800 cf00
00000150: bc10 bd81 7d06 2e81 ff5b d780 e767 cc15
00000160: 5ec7 1680 8ebf 6a00 f037 f000 4557 bd34
00000170: 30ed 26bb 12dc 26bb d8e8 3b01 3b23 a800
00000180: 2af0 3581 9d36 d000 5ce4 3781 70d1 fb00
00000190: 1951 3981 2205 9380 c142 63af 76e8 8cae
000001a0: 98b5 9b00 9493 e587 70bd 0abc b7f8 c1bd
000001b0: 6f60 48bd 6d6e ad09 c20b d000 4467 aa81
000001c0: 06d1 7abd f1fb 3204 173a 0a31 8e2d 1dba
000001d0: dd3b a42c a869 493d 67a2 343b dbc8 5d01
000001e0: 8c86 1781 1474 5fa8 ac38 d3af df44 90af
000001f0: 0ef7 b400 48e5 d480 f8cc 1f01 a387 4f2e
00000200: d421 b381 2478 b381 5a02 be01 ec2c 2200
00000210: 6580 f0ad 9875 2e80 d288 8600 0019 7408
00000220: a6fd a83d 4bba 313d 5eb3 833d 64b0 180a
00000230: 8ecb 0d81 1cc9 9c01 840c bfbc cf33 8f04
00000240: c2dd 9a37 8d58 84bc ff87 25b7 7a93 f43c
00000250: d424 ba3a 6165 8580 fec1 0e08 0439 f8bc
00000260: bc07 1b3e 47df a53c e959 998a a0fd a400
00000270: 5a75 981f 2546 59bc b0b2 8083 252c d6b7
00000280: 69c3 ecbb 21af e337 6e0d 28bc 92eb 223c
00000290: b387 3f81 415a b580 4fcd 8480 1f9d 5901
000002a0: c056 1880 9cd2 1f80 4474 8e80 7dbf 0400
000002b0: 4cbb 0e00 2e2c 3d81 682c 8481 8f76 c580
000002c0: e757 6f00 560a 5d80 bbe8 4681 a5a7 2480
000002d0: 3813 0580 1c2e 0b3a 48c5 06bd 3a26 95bc
000002e0: d00b 3181 b05f 3781 c364 9b81 4bc1 6b2c
000002f0: 2421 7281 0889 8900 5b83 1aa6 560a a201
00000300: f3ef 6d3c 5c8a 5eae 58e7 ef80 c0be 7908
00000310: 4861 8d3d 92bd 7f3e 9217 1c3e 50ad 8f0a
00000320: 8c29 0c81 8685 5e01 2dfb e43c 9486 ac03
00000330: df3b b0b7 ba84 e53b 4a69 d236 6892 6ebd
00000340: 4825 e03b 842a 1f80 c011 7d08 4865 17bc
00000350: 2d30 063e 8c9c 883d a1f1 bf0a d74f 5600
00000360: 1d6d 6101 395a 3ebd 2627 8504 fe27 1fbb
00000370: d239 863c 9b08 36b9 b3ef fdbc f2c7 ccbb
00000380: 184d 2481

encoder_shared.shared3.bias f4 [15]
1.2746505e-38 0.30011404 -5.0769977e-15 0.010519366 -2.1523423e-09 -4.1500573e-26 0.00031232517 0.049857922
-5.245013e-10 0.051834386 0.25417414 -2.028821e-38 0.011480774 0.10889513 0.23904571
00000000: 12cc 8a00 8ca8 993e 0aeb b6a7 6b59 2c3c
00000010: 68e8 13b1 3a80 4d95 93bf a339 d237 4c3d
00000020: 7f2c 10b0 4b50 543d 1d23 823e 46eb dc80
00000030: db19 3c3c 6904 df3d 66c8 743e

encoder_x.out.weight f4 [15, 15]
4.4855564e-38 0.07625963 -2.2132612e-25 0.003846048 1.7226695e-38 -5.9261e-25 -0.0008267947 -0.01629554
3.9861667e-10 0.08863995 -0.10303879 6.3754674e-38 0.005342662 -0.20215748 0.2237575 -2.325237e-38
-4.240206e-07 5.910966e-38 2.3824366e-38 -1.521383e-38 1.6645136e-38 -3.778974e-39 2.0027185e-38 1.8126537e-38
8.8034335e-27 -3.22721e-08 1.20958e-39 2.5602928e-38 -6.3358135e-10 -2.2408836e-08 -1.8534212e-38 -4.6530612e-26
-1.265661e-39 -4.940688e-39 1.814021e-38 -4.6134708e-38 2.4380458e-38 -2.4797002e-38 7.729572e-39 -1.0652576e-38
-8.0152434e-33 3.468832e-39 -5.748348e-38 -6.392801e-38 1.9772687e-35 8.580843e-39 0.0728254 -5.461398e-15
0.007876152 -1.5126384e-38 -1.5474872e-25 -2.411026e-05 -0.005135592 5.980494e-10 0.10718871 0.025082195
-4.337312e-38 -0.0004985617 -0.13507856 0.13438828 -2.6202134e-38 0.009288793 1.1225237e-38 -0.041788284
-4.1144836e-38 5.418484e-25 0.00029854305 0.041353025 -3.5495404e-10 -0.04544153 0.16024168 -5.937768e-38
0.0090365205 0.19096994 -0.1006921 -2.389151e-38 -0.035466004 2.6045133e-38 0.06941337 1.6078157e-38
-1.4347714e-24 -0.00027711477 0.04420328 5.2395194e-10 -0.022799945 0.09465272 3.1535687e-38 -0.0018623252
0.14369304 -0.04256025 -1.3625002e-38 -7.0431e-25 -5.254828e-38 -2.8828588e-38 1.5182194e-38 -3.82355e-39
-5.021499e-38 -2.474946e-38 4.3125924e-38 2.5394987e-38 8.552827e-30 2.21461e-40 6.4721985e-38 1.7198878e-37
-2.2539364e-31 -4.784661e-39 -6.521881e-27 1.558029e-38 1.7431873e-38 1.6490325e-38 2.8291364e-38 -3.4935626e-38
2.4002805e-28 1.3397637e-38 -5.026551e-28 -5.6783075e-27 1.2720032e-38 -2.5864337e-38 -4.3893523e-27 -5.5538828e-27
-2.951006e-38 -5.960398e-06 7.449146e-39 -4.6570092e-38 1.4730012e-38 -1.9087319e-38 6.0764483e-38 -5.433723e-39
6.142084e-38 -1.8724067e-18 -1.3200444e-06 -4.6310874e-38 2.7062414e-38 -5.6235105e-08 -7.3210646e-07 4.8081297e-38
-6.664978e-21 1.9051116e-38 1.7961758e-28 -1.7442291e-38 1.7933e-38 4.5288038e-38 6.318828e-22 -1.838111e-39
8.823922e-21 -1.9981263e-20 -2.3075271e-38 6.507795e-38 -2.1251252e-20 -2.2949493e-20 -1.0989298e-38 -5.685485e-06
-5.96549e-38 -2.2583227e-10 -8.350678e-39 1.3596953e-38 1.1522095e-38 4.1969452e-07 -5.3112463e-38 3.755105e-06
-1.3775168e-05 -1.4216938e-38 5.275087e-38 -1.36616e-05 -1.5782402e-05 -3.26127e-38 -1.5112022e-38 3.86125e-39
2.6842814e-38 -5.196423e-38 -1.0446882e-38 2.1015957e-38 6.27825e-38 -2.450551e-38 -2.0178146e-38 -1.73383e-39
6.3881554e-38 -2.1575097e-38 4.9053686e-38 1.290909e-38 1.098136e-38 -2.8839116e-24 9.997148e-39 -1.6750772e-31
-4.4464254e-38 -1.5035787e-38 -1.1895389e-38 2.5440148e-26 1.9335251e-38 8.068802e-27 -2.4129614e-24 -4.502852e-38
4.065904e-38 -1.773646e-24 -2.2808558e-24 2.422734e-39 3.133933e-38 8.544207e-39 6.291327e-38 -5.887014e-38
-1.03342e-40 -4.5426599e-38 3.9471472e-38 1.0840776e-38 -2.2379035e-38 1.0715313e-38 -6.938248e-39 -1.5850647e-38
-3.2623052e-38 1.479796e-39 -1.0274985e-38 -2.0751133e-23 2.0926421e-38 -3.6530236e-34 2.500432e-38 -2.0553345e-38
-3.1139352e-38 6.9992985e-25 4.3234043e-38 -6.2852976e-25 -1.7735715e-23 -1.5675778e-38 1.2701156e-38 -1.3228333e-23
-1.714646e-23
00000000: 8837 7401 022e 9c3d 86fe 8896 fa0d 7c3b
00000010: 0495 bb00 6767 3797 41bd 58ba 397e 85bc
00000020: 4f24 db2f dd88 b53d 0006 d3bd 868e ad01
00000030: 7f11 af3b 5f02 4fbe b020 653e 2632 fd80
00000040: f3a4 e3b4 6ce9 a001 52b6 0101 f8a9 a580
00000050: de3f b500 3e26 2980 a513 da00 6961 c500
00000060: b65e 2e14 8d9b 0ab3 d12b 0d00 4665 0b01
00000070: 5328 2eb0 8d7d c0b2 d8d1 c980 8f68 6695
00000080: 26c8 0d80 a1cc 3580 8687 c500 662e 7b81
00000090: 66bd 0401 fa01 0781 e72a 5400 0cff 7380
000000a0: 5878 268a b1c5 2500 247c 9c81 5207 ae81
000000b0: 6042 d205 e66f 5d00 7c25 953d 81c4 c4a7
000000c0: fa0a 013c 34b6 a480 d491 3f96 6440 cab7
000000d0: 7848 a8bb fc63 2430 c185 db3d 2d79 cd3c
000000e0: 4e25 6c81 e9b1 02ba 0952 0abe 159d 093e
000000f0: 72a8 0e81 0630 183c 653b 7a00 312a 2bbd
00000100: 8803 6081 a7b1 2717 c585 9c39 ca61 293d
00000110: 5723 c3af e620 3abd 6516 243e 34a4 a181
00000120: ea0d 143c a08d 433e a937 cebd e813 0281
00000130: cd44 11bd 9ecd 0d01 9928 8e3d 5c13 af00
00000140: 2705 de97 b749 91b9 800e 353d d705 1030
00000150: f3c6 babc 49d9 c13d 55b2 2b01 4419 f4ba
00000160: 4524 133e a853 2ebd f65c 9480 30f9 5997
00000170: ce0c 8f81 30f5 1c81 c851 a500 80a2 2980
00000180: beb2 8881 b6bf 0681 c4cc 6a01 7243 0a01
00000190: d178 2d0f 5869 0200 a430 b001 5819 6a02
000001a0: f149 928c b019 3480 de2d 0194 82a7 a900
000001b0: f8d0 bd00 5190 b300 6808 1a01 2835 3e81
000001c0: c722 9811 29e3 9100 3a4c 1f92 e1f0 e093
000001d0: 4682 8a00 a0d1 0c81 52e1 ad93 1003 dc93
000001e0: 05ab 2081 6eff c7b6 301d 5100 3c8d 7d81
000001f0: 4865 a000 aed7 cf80 aa6a a501 022b 3b80
00000200: 1434 a701 c328 0aa2 612c b1b5 f023 7c81
00000210: 8057 1301 2787 71b3 f985 44b5 c6e3 8201
00000220: b6cb fb9d c372 cf00 3db1 6311 03ee bd80
00000230: e845 c300 5092 7601 90f9 3e1c e803 1480
00000240: dead 261e bbb7 bc9e 7844 fb80 b628 b101
00000250: 60b6 c89e 78c0 d89e b1a9 7780 f2c5 beb6
00000260: 6665 a281 224e 78af 4bee 5a80 c60e 9400
00000270: ea76 7d00 6052 e134 fc95 9081 3600 7c36
00000280: e51b 67b7 0acf 9a80 fe99 8f01 2034 65b7
00000290: 7364 84b7 788f 3181 2b8e a480 980b 2a00
000002a0: 6c25 1201 c875 8d81 a8c1 7180 f0d7 e400
000002b0: 04e9 aa01 b26b 0581 76b8 db80 36e1 1280
000002c0: f2e6 ad01 98ee ea80 6e89 8501 4a91 8c00
000002d0: 9093 7700 c121 5f98 fbdb 6c00 fd6f 598c
000002e0: 2016 7281 a8b9 a380 8187 8180 70f2 fb14
000002f0: d08a d200 b0d1 1f14 a0b1 3a98 9928 7581
00000300: 6e5e 5d01 ae3a 0998 0179 3098 9961 1a00
00000310: a7a0 2a01 c609 5d00 2644 ab01 8042 a081
00000320: 1320 0180 7053 7781 34e7 5601 ac0b 7600
00000330: a5af f380 efad 7400 038d 4b80 2899 ac80
00000340: e69d 3181 121d 1000 7ae2 6f80 51b1 c899
00000350: 59de e300 fac8 f287 f022 0801 5dce df80
00000360: ec89 2981 289e 5817 7663 6b01 4285 4297
00000370: 8187 ab99 b1b1 aa80 a84d 8a00 88df 7f99
00000380: 94d4 a599

encoder_x.out.bias f4 [15]
0.30531877 -0.00048136432 -1.14546775e-10 0.05925844 0.12255102 0.050462864 -9.099853e-09 -1.0296692e-26
-0.000897516 8.087156e-21 2.7582191e-06 -1.1989605e-18 -5.606599e-24 -5.7964853e-15 -3.4479712e-23
00000000: be52 9c3e a05f fcb9 1ae4 fbae fab8 723d
00000010: 07fc fa3d 26b2 4e3d 9455 1cb2 6ef2 4b94
00000020: 4747 6bba 16c3 181e d819 3936 72ef b0a1
00000030: 11e5 d898 24d7 d0a7 d1bb 269a

encoder_x.fc_mu.weight f4 [5, 15]
0.2622828 2.3283625e-18 6.2135877e-21 0.19310391 0.10966469 -0.042407084 -3.0371785e-38 2.6507178e-28
4.6702084e-05 -7.4083265e-21 2.0958076e-05 -1.1315468e-38 -6.391891e-23 -2.0860776e-15 -3.9285155e-25 0.08219003
1.2017463e-38 2.3804902e-26 0.041260764 -0.10565332 0.15125972 -2.8033845e-38 2.9048084e-28 4.100352e-06
-3.000847e-22 1.7999788e-05 2.5767782e-38 -3.8526345e-23 1.0187148e-10 -4.9685797e-24 0.20378181 1.0693102e-25
3.729769e-12 0.17048146 -0.0024797178 0.1736729 -1.9137592e-38 -1.838849e-29 -0.0003928239 3.4329377e-21
1.2578399e-05 -3.8976828e-38 -2.8593576e-23 -1.4678453e-11 3.1829265e-25 -0.027446784 -2.3033119e-38 1.3369363e-16
-0.104062065 0.10236756 0.014617763 -4.718861e-39 -7.178549e-29 -3.0476242e-14 -8.638634e-22 -1.9717381e-06
8.9648425e-24 1.5308718e-23 -5.7870685e-37 4.690625e-24 0.04429333 -3.3742602e-24 2.2371552e-36 -0.011152803
-0.039215453 0.07810389 1.7817384e-16 -4.3933983e-29 1.6920586e-11 7.131017e-23 3.7114887e-07 1.9818392e-38
-1.016122e-24 2.0177048e-14 4.546854e-24
00000000: ee49 863e 86cd 2b22 22be ea1d 08bd 453e
00000010: e297 e03d 0db3 2dbd 175c 2581 5b02 a811
00000020: fbe1 4338 78f0 0b9e 20cf af37 ec36 7b80
00000030: e48b 9a9a 5751 16a7 d029 f396 3f53 a83d
00000040: ccdb 8200 99c0 eb14 0c01 293d c560 d8bd
00000050: d4e3 1a3e 7aa1 1881 361d b811 c195 8936
00000060: dc63 b59b 40fe 9637 0c4b 0c01 4e4d 3a9a
00000070: 8b04 e02e 6e36 c098 2eac 503e cb5f 0416
00000080: c63a 832c b192 2e3e c382 22bb 4fd7 313e
00000090: d263 d080 407b ba8f eef3 cdb9 56b1 811d
000000a0: d007 5337 c535 5481 2245 0a9a f01c 81ad
000000b0: 7c03 c516 14d8 e0bc f7ce fa80 6523 1a25
000000c0: 7e1e d5bd 15a6 d13d 587f 6f3c 4462 3380
000000d0: 72ff b590 b740 09a9 198b 829c 3452 04b6
000000e0: c067 2d19 8d0e 9419 7aec 4483 b375 b518
000000f0: ec6c 353d 0e89 8298 ed50 3e04 3fba 36bc
00000100: 62a0 20bd eff4 9f3d a36b 4d25 92c5 5e90
00000110: c6d5 942d db6a ac1a 5042 c734 9dcd d700
00000120: bd3c 9d97 1bbd b528 dce5 af18

encoder_x.fc_mu.bias f4 [5]
-0.12469731 -0.024876123 -0.100390196 0.0003010383 -0.01268599
00000000: 4e61 ffbd 03c9 cbbc 6099 cdbd add4 9d39
00000010: e6d8 4fbc

encoder_x.fc_log_var.weight f4 [5, 15]
0.027843434 -2.145737e-39 -4.9216175e-38 -0.26813164 -0.020383231 0.06229389 -4.9194135e-38 -6.5275026e-29
-5.344361e-08 -4.8160955e-22 5.0603408e-06 -2.7229118e-38 5.8042516e-24 1.1575512e-12 9.0219695e-24 -0.20275736
-3.5774867e-38 6.47459e-39 0.10550784 -0.19976254 0.16657849 -5.037625e-39 1.3236413e-28 -1.8705785e-05
-9.896017e-22 3.4429092e-06 -1.5667437e-38 -1.2279756e-23 1.5919097e-13 -7.331157e-24 -0.15933183 -1.8276602e-38
-4.2276227e-38 0.05458959 -0.08098466 0.015839517 -1.7499893e-38 -9.1685725e-29 -7.268061e-07 4.2117342e-22
-1.0180975e-05 -2.495202e-39 5.5958897e-24 1.9042691e-21 8.52913e-24 -0.19391218 -6.2193353e-38 -6.539491e-38
0.055687264 -0.069580115 0.021696834 1.2648856e-38 -6.3611636e-29 -5.436401e-11 1.5780829e-21 -1.1771781e-05
5.4132944e-38 1.10343765e-23 -9.051273e-17 6.102354e-25 -0.063141 -4.2528083e-38 2.1391408e-38 0.13455766
-0.103319734 0.114738636 -6.722e-41 5.706569e-29 -1.3848935e-05 5.2071817e-22 1.5011345e-07 2.7849635e-38
-1.1349327e-23 -2.1250403e-22 -4.978519e-24
00000000: ea17 e43c 715d 1780 abfa 8581 8d48 89be
00000010: bcfa a6bc e127 7f3d 4feb 8581 ea7d a590
00000020: df89 65b3 bc8e 119c ffcb a936 da3f 1481
00000030: 868a e018 2de9 a22b a182 2e19 a09f 4fbe
00000040: e3c6 4281 8680 4600 7f14 d83d 8d8e 4cbe
00000050: 8d93 2a3e d9da 3680 9eca 2711 5eea 9cb7
00000060: 5d8b 959c bb0c 6736 719a aa80 6886 6d99
00000070: ac3b 332a 22ce 0d99 e227 23be bb03 c780
00000080: 762c 6681 5599 5f3d 49db a5bd e0c1 813c
00000090: 958e be80 7073 e890 bc19 43b5 6e95 fe1b
000000a0: f4ce 2ab7 9c2b 1b80 027b d818 ece1 0f1d
000000b0: 35fa 2419 ea90 46be 714e a981 9a05 b281
000000c0: 5418 643d 0580 8ebd 8fbd b13c ddbb 8900
000000d0: 5046 a190 6f18 6fae 2079 ee1c 6a7f 45b7
000000e0: 285d 9301 966f 5519 49b5 d0a4 d4db 3c17
000000f0: 1250 81bd 7f8b 6781 8bee e800 7cc9 093e
00000100: 4c99 d3bd 17fc ea3d 62bb 0080 c0ad 9010
00000110: b958 68b7 9e60 1d1c df2e 2134 baa0 1701
00000120: 2587 5b99 6873 809b dd98 c098

encoder_x.fc_log_var.bias f4 [5]
0.019255282 0.07782974 0.060022358 0.06867418 0.0152181415
00000000: 41bd 9d3c 3365 9f3d 01da 753d 0ca5 8c3d
00000010: 8355 793c

encoder_t.out.weight f4 [15, 15]
1.9207612e-38 -4.4294234e-35 -3.531554e-39 -6.692503e-38 -6.413965e-38 -1.3962522e-38 -1.687545e-39 4.6258992e-38
4.674739e-38 -3.4487284e-38 -2.4365778e-38 -4.240209e-38 1.8902597e-38 -1.2552607e-38 -2.1788568e-38 1.4935325e-38
-0.00070611073 -1.7421739e-20 0.014481794 -7.0415904e-38 2.34186e-25 0.00014529313 0.030849364 -2.3313568e-10
0.041312177 0.16603158 3.133258e-38 0.0022238335 0.032569923 -0.17898875 2.8803948e-38 1.2948343e-27
-1.4426916e-38 -6.729136e-39 -1.7386758e-38 -5.7858975e-38 -4.0744782e-38 -7.2636e-40 -1.5629523e-38 -3.0090704e-38
3.353324e-32 5.943e-38 4.2408123e-38 -1.1662284e-36 -2.9956234e-33 1.0451251e-38 -1.2418103e-36 -6.341203e-38
-3.8131265e-38 -1.305237e-39 -7.156485e-39 5.2139424e-38 3.1918788e-38 1.02352e-38 -5.4770614e-38 6.668873e-39
1.7209337e-38 -5.345585e-38 2.1483392e-38 -1.622324e-39 2.835231e-38 0.09456377 -5.425016e-38 -2.2970556e-34
7.190137e-39 -3.987849e-39 7.577029e-08 -0.00010393979 2.0703565e-38 -0.07566144 0.04114007 -8.189993e-39
-1.2080891e-13 0.13179494 0.076153964 1.1395397e-38 -0.0022770392 -1.8900131e-38 -1.4063991e-25 -5.5150186e-38
-8.182637e-39 -1.0090722e-27 3.082307e-26 -8.535316e-39 -5.1750535e-06 -0.0017371487 -2.0595e-39 6.013644e-39
-0.0008554994 -0.0015759739 5.3606875e-38 -1.8365585e-12 -2.8023794e-38 -3.256775e-39 2.2280361e-38 -6.171363e-39
-3.0226927e-38 -1.5912166e-38 4.3516147e-38 -1.6562437e-38 -3.218804e-13 4.125774e-39 -6.368689e-38 4.2620572e-16
-4.708642e-15 -1.2011395e-38 0.16547354 5.653936e-38 -2.6782519e-11 1.4484892e-38 2.7165522e-38 0.00035634523
0.00076201995 -3.83952e-39 0.13719118 0.33344272 -1.7125887e-38 3.1108307e-06 -0.0019355316 0.119720265
6.9053113e-38 -1.320155e-24 4.167358e-39 3.3362682e-28 -2.1553146e-38 -6.475043e-38 5.9993746e-38 1.0978414e-26
-8.948022e-39 -4.535786e-25 -2.7471894e-24 -6.66354e-40 2.614487e-39 -2.291931e-24 -3.04807e-24 -6.171003e-38
0.26323852 -1.2283665e-11 -0.0076189083 1.7111368e-38 2.85236e-26 0.00085828005 0.034777775 -4.8830445e-10
-0.11888699 0.11973381 4.745678e-38 0.00610197 -0.003970696 0.11369676 3.0370162e-38 0.017224237
-2.7675653e-11 0.0031451234 1.1276846e-38 -1.3488844e-26 0.0009790362 0.041425418 -4.6994597e-10 0.21585284
0.17688665 3.8872112e-38 0.0029517775 0.006694712 0.16182335 9.211262e-39 1.1383173e-38 1.6890844e-38
-6.375234e-39 -2.2969799e-38 2.7468547e-38 1.8674513e-38 -1.3905864e-38 3.139731e-38 -2.806766e-39 5.087218e-39
1.290414e-39 9.166859e-39 9.767478e-39 5.784371e-39 -4.6051656e-38 -2.05026e-38 -1.434218e-38 -1.8257742e-38
1.1859543e-38 -6.6625487e-38 -3.136098e-38 3.153974e-39 6.099768e-38 6.135857e-38 -8.935881e-39 6.551285e-39
-6.403574e-38 1.2899059e-38 -5.938264e-39 1.2871853e-38 -2.6972731e-20 1.4453357e-38 1.1725258e-24 1.9141964e-38
1.8636294e-38 3.5102067e-38 6.102979e-21 1.1676549e-38 2.335577e-19 5.4890186e-19 -2.3157033e-38 -2.001451e-38
8.6448196e-19 8.189757e-19 4.3312538e-38 -0.0032045045 -6.458849e-38 1.4259772e-38 -5.989898e-38 -5.821284e-38
-1.4937734e-24 1.1452132e-12 4.094511e-38 0.00468882 0.04804203 -4.3430937e-38 2.044153e-38 -0.025950186
-0.01809621
00000000: 0227 d100 3082 6b86 8974 2680 f02f b681
00000010: d09a ae81 d509 9880 3060 1280 a0db 7b01
00000020: 5a84 7e01 42c4 3b81 f0a8 0481 e3db 6681
00000030: c0d4 cd00 90af 8880 aa41 ed80 9ca1 a200
00000040: 4a1a 39ba 2e8b a49e 0c45 6d3c b9b0 bf81
00000050: 41f4 9016 d459 1839 ceb7 fc3c ee2a 80af
00000060: f536 293d 2f04 2a3e 3e97 2a01 bcbd 113b
00000070: 0a68 053d d448 37be d8d2 1c01 b82c cd12
00000080: 5f18 9d80 1846 4980 3553 bd80 d281 9d81
00000090: f0d5 5d81 cce8 0780 c030 aa80 52d4 2381
000000a0: 521d 2e0b aac8 a101 4ce4 6601 696c c683
000000b0: dddd 7889 d6cd 7100 7848 d383 bc9f ac81
000000c0: 3a9b 4f81 7836 0e80 5eed 4d80 e0ef 8d01
000000d0: 4cc8 2d01 9373 6f00 8c19 9581 1b9e 4800
000000e0: a164 bb00 4a85 9181 f5ee e900 61aa 1180
000000f0: 5a5d 1a01 a6aa c13d d8ae 9381 60aa 9887
00000100: 2d4b 4e00 806c 2b80 28b7 a233 40fa d9b8
00000110: 1e71 e100 63f4 9abd 7d82 283d 5e2e 5980
00000120: cc04 08aa 41f5 063e 9cf6 9b3d bb15 7c00
00000130: 613a 15bb e0cd cd80 911a 2e96 1222 9681
00000140: dd19 5980 d5e4 9f92 e2a0 1815 fdf0 5c80
00000150: 5fa5 adb6 0ab1 e3ba 0c6d 1680 987b 4100
00000160: 9843 60ba e990 ceba 8aee 9101 7f3c 01ac
00000170: 7893 1881 9076 2380 959c f200 4033 4380
00000180: 3092 2481 a544 ad80 a8ec 6c01 5659 b480
00000190: db33 b5aa fbec 2c00 495f ad81 ddb0 f525
000001a0: 8fa5 a9a7 e2ca 8280 e571 293e 2fea 9901
000001b0: df94 ebad fcb9 9d00 36e7 1301 d9d3 ba39
000001c0: 4bc2 473a 05cf 2980 d87b 0c3e 01b9 aa3e
000001d0: 017c ba80 aac3 5036 aab1 fdba e62f f53d
000001e0: fffa bb01 ba48 cc97 e660 2d00 0c76 d311
000001f0: 67b1 ea80 7744 b081 8a51 a301 2c73 5914
00000200: 726f 6180 3360 0c97 b18d 5498 8641 0780
00000210: 2078 1c00 5f54 3198 3fd5 6b98 9dfd a781
00000220: 33c7 863e b618 58ad 09a8 f9bb 8853 ba00
00000230: f53d 0d15 33fe 603a 2473 0e3d 5f39 06b0
00000240: 067b f3bd 0037 f53d 8c30 8101 09f3 c73b
00000250: 9d1c 82bb d9d9 e83d d459 2501 d819 8d3c
00000260: 0870 f3ad 6a1e 4e3b 42cb 7a00 4896 8594
00000270: 0153 803a b3ad 293d 822d 01b0 8708 5d3e
00000280: c621 353e d1a3 5301 9c72 413b 515f db3b
00000290: 05b5 253e 404d 6400 a8f3 7b00 cdec b700
000002a0: 8f6b 4580 741e fa80 918d 1501 f258 cb00
000002b0: e46b 9780 77f1 2a01 1f90 1e80 1865 3700
000002c0: 260d 0e00 79d1 6300 c15b 6a00 79fc 3e00
000002d0: a4ba 7a81 e840 df80 2a2c 9c80 28cf c680
000002e0: 9523 8100 305f b581 d4be 2a81 ff57 2200
000002f0: 2e0d a601 af08 a701 9a4d 6180 5156 4700
00000300: 6652 ae81 5475 8c00 77a9 4080 7d29 8c00
00000310: 10c0 fe9e 1462 9d00 8870 b517 0270 d000
00000320: 68ee ca00 241d 3f01 6490 e61d 7825 7f00
00000330: 3ede 8920 da01 2221 6328 fc80 50f0 d980
00000340: 6926 7f21 0eb8 7121 ded0 6b01 aa02 52bb
00000350: 9cd3 af81 7146 9b00 7f0f a381 6e78 9e81
00000360: 7626 e797 a72c a12b 27ed 5e01 aca4 993b
00000370: b8c7 443d e475 6c81 ab96 de00 7c95 d4bc
00000380: 813e 94bc

encoder_t.out.bias f4 [15]
-2.48654e-12 0.28349155 -2.8473919e-09 -2.8865714e-12 -0.118673325 -0.0059185396 -5.2042674e-07 -0.24189134
-5.2019586e-24 0.11690764 -0.0149884485 -1.0464977e-19 -4.7088328e-18 -5.152949e-18 -0.0112181
00000000: 86f9 2eac ce25 913e d9ab 43b1 d91f 4bac
00000010: 000b f3bd 4ff0 c1bb 74b3 0bb5 5db2 77be
00000020: b43d c998 466d ef3d 1c92 75bc e818 f79f
00000030: abb9 ada2 3a1c bea2 1fcc 37bc

encoder_t.fc_mu.weight f4 [1, 15]
-5.062286e-39 -0.09725418 1.6089526e-08 1.5976497e-05 0.039215922 -0.00018253751 -2.4693581e-17 0.13063586
-1.7352848e-25 -0.25359386 -0.23748358 2.2027071e-38 2.979638e-14 -6.489645e-18 -0.0035776033
00000000: 981f 3780 332d c7bd 3e35 8a32 4405 8637
00000010: e0a0 203d 8a67 3fb9 12c2 e3a3 68c5 053e
00000020: 5fd1 5696 0ed7 81be e52e 73be 83da ef00
00000030: e330 0629 f76c efa2 3976 6abb

encoder_t.fc_log_var.weight f4 [1, 15]
2.2478052e-38 0.14954253 -9.025952e-09 1.6017725e-14 0.0008585943 0.003620128 -1.3178963e-28 -0.039842896
-7.7699625e-26 0.10566036 0.14636813 -1.7773002e-38 -1.4869237e-32 5.3336933e-18 -0.0009689901
00000000: aac3 f400 ad21 193e 8f10 1bb2 5c46 9028
00000010: 4a13 613a ab3f 6d3b 2e10 2791 4e32 23bd
00000020: fd5f c095 7564 d83d 87e1 153e e687 c180
00000030: 3669 9a8a 4fc7 c422 d303 7eba

encoder_yf.out.weight f4 [15, 15]
-1.34633e-38 0.0021701436 -1.0351992e-38 3.395067e-39 3.240115e-38 3.0237274e-38 6.753601e-22 2.0452771e-19
-5.6826767e-38 0.0042040953 0.016040571 5.50118e-39 3.977207e-20 0.036220465 -0.012847177 5.7788697e-38
-0.17853227 -3.8047877e-38 -0.004768005 4.3305296e-38 1.5494753e-25 2.1709239e-08 -0.011800506 1.858548e-12
-0.1572737 -0.08332336 -2.008526e-38 0.00015414851 0.16675122 0.11906533 1.5570377e-38 -0.00267477
1.7011622e-38 1.0428423e-16 -1.8210187e-38 1.0161212e-38 1.5555859e-38 9.191395e-17 4.782648e-39 -2.8713996e-05
-0.0021279317 8.90561e-39 5.7660467e-38 -0.00130721 -0.0020436288 6.4000434e-38 0.14217442 -4.4848543e-38
-0.0038735133 6.062989e-38 -1.9011687e-25 -5.887664e-08 -0.0034831527 -2.6230875e-12 0.06696983 0.07587299
-1.0782711e-38 2.3251912e-05 0.10964454 0.074884914 -2.986974e-39 -0.04681623 5.034204e-39 0.00051215437
-2.2234694e-38 -7.557152e-39 2.8239047e-29 -0.0023421687 7.6439784e-28 -0.031050337 0.014500408 1.6139616e-38
-1.545379e-38 -0.078724734 -0.06597334 3.8220777e-38 -0.09808222 5.187317e-38 0.0026451065 4.5216023e-38
-6.5750994e-27 2.0350375e-09 -0.015453249 -6.472466e-11 -0.11604301 0.010916114 4.714458e-38 2.2462791e-05
0.11267414 0.10303243 2.1758847e-38 -1.3278054e-17 5.7993516e-38 3.8981186e-38 -2.6704388e-38 -1.1160336e-38
4.2506707e-38 1.7385296e-38 2.5548468e-38 -3.0896975e-38 -8.4511454e-22 -3.7227646e-38 -2.556122e-38 -6.5652968e-31
-4.688846e-23 1.1724838e-38 1.0939179e-38 -2.1428195e-38 -8.982732e-39 -3.319459e-39 3.156339e-38 2.410846e-38
2.2083503e-38 -3.301374e-39 -6.175406e-39 -3.1948324e-38 4.991047e-39 2.5645298e-38 7.0357806e-38 -3.9793317e-38
3.156426e-39 -9.9522e-39 -5.3074123e-38 2.4408806e-38 -1.695402e-39 1.9604779e-38 -6.490551e-39 -6.87172e-38
-6.555505e-39 -5.8807777e-38 -1.319181e-38 -1.2751436e-38 -3.3534796e-38 -1.8375982e-38 -3.686012e-38 1.3118044e-38
-1.6702762e-15 -2.110508e-38 -2.139172e-28 9.70807e-40 4.3964372e-38 5.490032e-38 3.331683e-28 -6.580232e-38
-1.2209215e-27 -1.5825968e-21 1.7526487e-38 5.5466924e-38 6.289212e-26 -3.5197682e-21 -1.8662657e-38 -3.3674654e-38
-2.7704164e-38 -9.07128e-39 -8.982423e-39 -5.179482e-39 4.3896072e-38 -3.9885248e-38 9.06503e-39 5.394703e-39
-2.1377214e-38 -2.0229369e-38 5.6563665e-38 1.650049e-39 -1.0559473e-38 -8.534414e-39 -2.617717e-39 1.0862632e-38
1.2085091e-38 -1.055012e-38 -2.066936e-39 6.8393387e-38 3.8759092e-38 -6.242412e-39 -6.0982514e-38 -7.26367e-40
6.991986e-39 -2.5133246e-38 4.663007e-39 -2.0196444e-38 2.9920755e-38 0.031156307 1.2054536e-38 -0.010016078
-4.551107e-38 -1.2468462e-25 3.2109879e-06 -0.020836012 2.812809e-11 0.05195359 -0.09901982 -3.4922336e-38
0.0012947868 -0.1536328 0.036350176 4.9380715e-38 0.16186155 3.5373608e-38 -0.0066603892 -2.4183654e-38
-1.2913559e-25 3.7302798e-06 -0.009692951 2.5214492e-12 0.14161664 0.15381272 -1.4418633e-38 0.00080150855
0.08996028 -0.20254678 3.6978033e-38 -1.2870404e-20 -1.4837182e-38 -2.7594481e-38 1.6310666e-38 -2.760456e-38
3.665965e-38 -4.098228e-38 1.626385e-39 -1.464753e-38 1.5137084e-27 -1.0601664e-38 -2.90821e-39 -8.3022094e-36
2.866339e-28
00000000: 349a 9280 f838 0e3b 24b9 7080 11f8 2400
00000010: 9d68 3001 9ca0 2401 751d 4c1c b576 7120
00000020: 7ab2 9a81 82c2 893b 8467 833c 0de7 3b00
00000030: 7bd1 3b1f e95b 143d f77c 52bc d850 9d01
00000040: 2ad1 36be 0027 4f81 ed3c 9cbb c6c6 6b01
00000050: d5d0 3f16 1f7b ba32 e956 41bc a0c8 022c
00000060: 5b0c 21be 70a5 aabd 88b5 da80 eda2 2139
00000070: d5c0 2a3e 86d8 f33d e08b a900 324b 2fbb
00000080: 7b3d b900 8b76 f024 984a c680 53a5 6e00
00000090: 6863 a900 6bf0 d324 1414 3400 d6de f0b7
000000a0: c574 0bbb 38f9 6000 7bf7 9c01 b056 abba
000000b0: 67ee 05bb cb39 ae01 2c96 113e bf2d 7481
000000c0: c5da 7dbb de0c a501 715a 6b96 8ddf 7cb3
000000d0: 9b45 64bb 5895 38ac 7a27 893d 4c63 9b3d
000000e0: d069 7580 1a0d c337 518d e03d 435d 993d
000000f0: 7886 2080 60c2 3fbd 50d1 3600 1942 063a
00000100: 481d f280 444a 5280 6130 0f10 127f 19bb
00000110: 523f 7212 475d febc 1f93 6d3c afbe af00
00000120: e146 a880 6f3a a1bd 081d 87bd fd17 5001
00000130: 55df c8bd 5336 8d01 8659 2d3b f02d 7601
00000140: b73b 0294 c2d8 0b31 a02f 7dbc bf54 8eae
00000150: f5a7 edbd 80d9 323c fa56 8001 7a6e bc37
00000160: b3c1 e63d ab02 d33d d0ee ec00 d6ef 74a3
00000170: 95df 9d01 d83b 5401 7c64 1181 7a86 7980
00000180: b46d 6701 224f bd00 5e19 0b01 1938 2881
00000190: 926b 7f9c c4af 4a81 242b 0b81 5a0e 558d
000001a0: 1abd 629a 14ac 7f00 fb1d 7700 1755 e980
000001b0: 34d0 6180 4d25 2480 f2d8 2b01 4a42 0301
000001c0: d277 f000 e3f2 2380 853e 4380 77f1 2d81
000001d0: 0259 3600 54a0 0b01 3c88 bf01 caa7 5881
000001e0: d55e 2200 af5e 6c80 447b 9081 e9e4 0401
000001f0: 1776 1280 267a d500 04ad 4680 e610 bb81
00000200: 1562 4780 0a17 a081 66a5 8f80 d1d9 8a80
00000210: af94 3681 c318 c880 82af 4881 c5d7 8e00
00000220: 51b6 f0a6 60d0 e580 0d96 8791 3792 0a00
00000230: 645d 6f01 f073 9501 a62b d311 8621 b381
00000240: 7676 c192 c027 ef9c b7d8 be00 cefe 9601
00000250: 9eb6 9b15 1cf9 849d e537 cb80 9e57 3781
00000260: f8d5 1681 0ac7 6280 57cf 6180 4a66 3880
00000270: 32fe 6e01 ec27 5981 9eb5 6200 3dbe 3a00
00000280: fac6 e880 4047 dc80 1ffb 9901 aaf7 1100
00000290: 84fb 7280 79ee 5c80 2181 1c80 9948 7600
000002a0: 5198 8300 71e1 7280 c781 1680 3c2f ba01
000002b0: 4a06 5301 4ef9 4380 9c02 a681 d1e8 0780
000002c0: d022 4c00 a2d6 0881 91c6 3200 78eb db80
000002d0: 72e7 2201 833b ff3c 2443 8300 7a1a 24bc
000002e0: 2cc9 7781 225a 1a96 5a7c 5736 49b0 aabc
000002f0: d46a f72d 4acd 543d e7ca cabd a222 3e81
00000300: d6b5 a93a eb51 1dbe ece3 143d 566d 8601
00000310: 09bf 253e 9d97 4001 653f dabb 18ab 0381
00000320: b4dc 1f96 b855 7a36 2fcf 1ebc 646e 312c
00000330: f403 113e 1581 1d3e 4801 9d80 541c 523a
00000340: 183d b83d 6c68 4fbe db53 4901 741d 739e
00000350: 0790 a180 183d 1681 809b b100 244b 1681
00000360: 1898 4701 f620 5f81 b3b5 1100 5b7f 9f80
00000370: 4fdb ef12 2071 7380 e8aa 1f80 8791 3085
00000380: 02ad b511

encoder_yf.out.bias f4 [15]
-0.053064577 0.1618413 -0.0058220397 -0.083093755 0.04990934 0.08696238 -1.583627e-07 -2.1073883e-15
1.417077e-38 -3.3192293e-06 -9.641761e-18 3.842251e-39 0.31012407 0.15955111 -2.1673172e-08
00000000: 3e5a 59bd bab9 253e cfc6 bebb 0f2d aabd
00000010: bc6d 4c3d 5519 b23d 680a 2ab4 74da 17a7
00000020: 574e 9a00 edbf 5eb6 eedb 31a3 a2d6 2900
00000030: 95c8 9e3e 5e61 233e cf2b bab2

encoder_yf.fc_mu.weight f4 [1, 15]
0.0013562739 -0.00045842482 -0.0027140854 0.029177044 -0.015125904 -0.06717761 1.4751889e-05 2.0760988e-38
-5.3892375e-38 -3.7217756e-09 1.5741799e-38 -2.1557985e-38 -0.05294355 -0.10658096 5.0032236e-07
00000000: 00c5 b13a bd58 f0b9 ccde 31bb b204 ef3c
00000010: a4d2 77bc 6a94 89bd e17e 7737 3011 e200
00000020: 81b5 9281 2bc2 7fb1 bb69 ab00 e4be ea80
00000030: 56db 58bd 1e47 dabd e44d 0635

encoder_yf.fc_log_var.weight f4 [1, 15]
-0.00018718219 -0.1628107 -0.005267538 -0.12764513 -0.006936184 -0.023336465 4.6695085e-38 -2.3267705e-38
5.52903e-38 1.3726127e-07 2.2848642e-38 -3.9968194e-38 -0.23714985 0.10371278 -4.0629673e-14
00000000: 5646 44b9 d9b7 26be 509b acbb 68b5 02be
00000010: ee48 e3bb 1d2c bfbc 733b 7e01 e55c fd80
00000020: b783 9601 1762 1334 b8cc f800 889b 5981
00000030: 69d7 72be 5e67 d43d d3fa 36a9
