DR_Info_CFR/Twins/Models/Backup/adversarial_vae.pth (torch, 25835 bytes, 32 tensors)

encoder_shared.shared1.weight f4 [15, 30]
000000 9d 78 88 3d 65 b9 35 3d 16 93 d3 bd 03 86 cd bd
       0.0666363 0.04436626 -0.10330789 -0.10035326
000010 61 71 dc 3c b3 d5 bb 3d 55 82 32 3d 42 d4 3b 3c
       0.026909532 0.09171619 0.043581326 0.01146418
000020 07 a8 b8 bd 31 e5 09 3e 16 79 aa bd 5c 3f e1 3d
       -0.09016424 0.13466336 -0.083238766 0.10998413
000030 78 23 02 bb 4b 58 57 bd d9 6f dd bd e7 fc 7b 3d
       -0.0019857567 -0.052574437 -0.10812349 0.061520483
000040 bc c6 27 3d b1 d0 fe 3c e2 b3 bf 3a c3 c7 5a 3d
       0.040961012 0.031105371 0.0014625753 0.053413164
000050 c6 f5 a1 3c a7 94 4d 3e 5e 69 c1 39 93 b7 64 3c
       0.019770514 0.20076238 0.00036890333 0.013959783
000060 e6 20 a6 3d 5a 9b 12 3e bc 4c d8 3b dc 60 4d 3d
       0.08111744 0.14317074 0.0066009443 0.0501412
000070 d6 7d 8a ba 96 e9 89 bb 76 31 21 bd dd ec dc bd
       -0.0010566066 -0.004208754 -0.03935381 -0.107873656
000080 9c 1a 33 bd c5 ac 10 bd d2 34 4a be 7b 44 d8 bd
       -0.04372655 -0.035321016 -0.19746712 -0.105599366
000090 7c c2 23 be 2c 69 ae bd de 49 72 3c 03 fa f7 3d
       -0.15992159 -0.08516154 0.014788119 0.12108233
0000a0 23 1e 29 be 56 23 44 be 81 22 97 3c 55 38 88 bd
       -0.16515402 -0.19154105 0.01844907 -0.066513695
0000b0 f3 14 2e 3c af b7 e4 bc 38 b0 5a 3d 91 18 0a 3e
       0.010625112 -0.027919618 0.05339071 0.13485934
0000c0 8b d2 f6 3d 4d 95 02 be 43 37 03 be f9 3d 8a bd
       0.12051877 -0.12752266 -0.1281405 -0.067501016
0000d0 e1 5b ef bd 53 55 a5 3d 83 be 9e bd bb a4 20 3d
       -0.116874464 0.08072915 -0.07751181 0.0392196
0000e0 40 6f b3 bd 08 5a a3 3c df 36 80 3d 53 71 55 3d
       -0.08761454 0.019940391 0.06260466 0.052110028
0000f0 5a c0 05 3e af 5a c1 bd 97 b2 46 3e 5f cf 09 be
       0.13061658 -0.09441125 0.19404064 -0.13458012
000100 a8 54 c4 bd d5 89 bb 3c 63 2e af bc 08 57 a8 3c
       -0.095864594 0.022892872 -0.021384424 0.020549312
000110 ed 68 a5 3d af 13 63 3d 38 cf 01 3e fb 5b d4 3d
       0.08076654 0.055438694 0.12676704 0.103691064
000120 1c 9f 23 3e 1d f6 1a be 01 bf 65 3c 83 f7 00 3e
       0.15978664 -0.15132947 0.01402259 0.12594418
000130 52 4c fc 3d fe 5b a1 bc b6 29 9e 3c e2 4a 8a 3d
       0.123192444 -0.019697186 0.019306999 0.06752564
000140 f4 86 ef 3c 04 18 2e 3e 4e 23 08 3e 4c 5a 30 bd
       0.029239155 0.17001349 0.13294718 -0.043054864
000150 bd ae fe 3d 3f 85 c9 3d 0b 7b 35 bd 3d c4 c1 bb
       0.124356724 0.09839868 -0.044306796 -0.005913286
000160 89 e3 4f 3d 08 96 ac bc 7b f1 9d 3c df a9 84 3d
       0.050754104 -0.021067634 0.019280186 0.06477713
000170 25 26 12 3e 5b 28 88 bc 4c d9 2f be 8f 5c d9 bd
       0.14272363 -0.016620805 -0.17172736 -0.10613357
000180 91 b9 fa bd fc 18 93 bd 68 96 16 39 63 ff 91 bd
       -0.12242425 -0.071825 0.00014361145 -0.07128789
000190 67 b8 3b bd 6c 8e 2f be 1e dc 3c bd 36 24 e3 3d
       -0.045830157 -0.17144173 -0.046108358 0.11090891
0001a0 2e 92 2d be 47 79 1b bd 09 6c 72 3d 9b 3f 44 3d
       -0.16950294 -0.037957456 0.05918506 0.04791222
0001b0 96 e1 2c 3e db 1f 67 bc 4b 00 1a be 13 44 ce 3d
       0.16882929 -0.014106716 -0.15039174 0.10071578
0001c0 44 2c 16 be a0 5a 02 3d 40 56 9c 3d 6a 16 b9 3b
       -0.14665323 0.031824708 0.076336384 0.005648424
0001d0 5b 5d 59 bd 16 1b 1d 3d b0 18 68 3d 55 68 5e 3d
       -0.053067546 0.03835591 0.05666417 0.054298718
0001e0 7b 0d e4 bd ab d6 c8 bd a3 b8 15 bc d4 27 ad 3d
       -0.11135384 -0.0980657 -0.009138259 0.08454862
0001f0 67 3c c4 3d b9 24 e7 bd 63 86 40 3d 90 48 3e be
       0.09581833 -0.11286301 0.04700316 -0.18582368
000200 07 34 7c bc 67 a0 e7 bd 5a 73 6a bd 79 29 46 be
       -0.015393264 -0.11309891 -0.057238914 -0.19351758
000210 de 2a f7 3d f7 ec fa bd 59 30 f7 3c 1a a7 4c be
       0.12068723 -0.12252229 0.030174421 -0.19985619
000220 4e 47 4d 3d 14 71 28 be d2 d4 66 3d 78 e6 d3 bd
       0.05011683 -0.16449386 0.056355305 -0.10346693
000230 7d 19 32 3d c3 2f 92 3c 4f 7c 56 3d bd a0 3b be
       0.04348134 0.01784504 0.052364644 -0.18323036
000240 9e 25 d1 3c 47 05 df bd 2c ea a5 bc 88 82 d0 3d
       0.025530633 -0.108896784 -0.020253263 0.10181147
000250 63 bf 52 bd 55 cb 9e 3d 2c 25 ab 3d 33 a4 72 3b
       -0.05145205 0.07753626 0.08356699 0.003702414
000260 90 87 85 3d 19 28 cc bb 0c 82 81 bc df 69 ec bd
       0.06519997 -0.006230366 -0.015809081 -0.11543631
000270 55 8e 1b 3e a3 81 d8 bc 3a 34 fa 3d 88 9f 22 3e
       0.15191014 -0.026429003 0.12216993 0.15881169
000280 14 96 ff 3d 74 f9 9f 3d f4 d6 8f bd ff 45 cd 3d
       0.12479797 0.07811251 -0.07023421 0.10023116
000290 f4 3b 54 3c 87 d5 1c 3e bd 90 05 3d 75 c6 28 be
       0.012953747 0.15315829 0.032608736 -0.16481955
0002a0 31 41 2c 3d 4b 1b 09 bc df d4 4e 3d 13 7b ed 3d
       0.04205436 -0.008368324 0.05049598 0.1159574
0002b0 d3 60 12 3e 9c 5f ae bd d9 13 28 3e f2 86 04 be
       0.14294748 -0.0851433 0.16413821 -0.12942103
0002c0 10 40 d2 bd ca 54 e9 ba b5 79 d3 3d 38 c8 78 3b
       -0.10266125 -0.0017801758 0.10325948 0.0037961137
0002d0 39 ab 0e 3e 95 fb 1e 3d ff 98 79 3c 2b f8 a5 3b
       0.13932504 0.038814146 0.015234231 0.0050649843
0002e0 f7 1f 16 bd 5b 8e 80 3d 21 9e 59 3d a9 c2 ab 3d
       -0.036651578 0.06277152 0.05312932 0.08386738
0002f0 06 2f 3c bc 46 c0 b7 b9 4e 19 76 bb 59 2f 15 3e
       -0.011485821 -0.00035047735 -0.0037551704 0.14568843
000300 22 13 c6 bd c1 d4 d3 bd 8a 3b 02 be d0 3b 44 bd
       -0.09671618 -0.10343314 -0.12718025 -0.047908604
000310 02 0b 1e 3e 90 d9 b8 3d 23 cd bb bd f2 fb ab bc
       0.15433887 0.09025872 -0.09169986 -0.02099416
000320 10 b2 ab bd 97 5e 1b 3d 30 8b 19 3e ff d0 a4 3d
       -0.08383572 0.037932005 0.14994502 0.08047675
000330 f0 07 c6 bc 23 55 f0 3d e5 6d d5 3d 5f b6 81 bd
       -0.024173707 0.117349885 0.10421351 -0.06333613
000340 55 c4 31 be f3 88 b5 3c f0 d1 06 bc 6f 84 f7 3d
       -0.17360051 0.022160029 -0.008228764 0.120858066
000350 e4 56 35 3e c2 fb 13 be 9d 64 bb 3c 67 88 ac bd
       0.17708927 -0.14451507 0.022875125 -0.08424454
000360 09 0e 07 3e a8 48 5e 3c 7f f8 e0 3d ca d4 43 3e
       0.13188948 0.013567127 0.10984897 0.19124141
000370 12 cd 04 be e9 35 1e 3d b2 d2 a9 3c 56 31 31 3e
       -0.12968853 0.03862563 0.02073035 0.17303976
000380 27 87 83 bd 2e 75 07 3e ea df 80 bc 3b 39 70 bd
       -0.06422263 0.13228294 -0.01573177 -0.05864833
000390 b3 f3 ae bd 8f 4e 24 3d b2 eb f0 3d fc ca 18 bc
       -0.08542576 0.04011398 0.11763705 -0.009325739
0003a0 36 e6 e8 3c b5 88 1f 3b b6 81 1a bd 80 c0 dc bc
       0.028430086 0.0024342958 -0.03772136 -0.02694726
0003b0 5a 9b ca 3d 0f b6 06 be ae 7d 5f 3d 1d 68 47 bd
       0.09892912 -0.13155387 0.054563217 -0.048683275
0003c0 ee 18 d7 3d 71 71 1a 3e f5 de b8 bd bc 99 50 3e
       0.10502802 0.15082337 -0.09026901 0.20371145
0003d0 1c f0 66 3d 94 a2 1a 3e 08 1a 69 3d e5 2f f0 bd
       0.05638133 0.15101081 0.05690959 -0.11727885
0003e0 fd 3f 0e 3e d8 86 b0 bd a9 4d 54 3e 0c 85 0e 3d
       0.13891597 -0.086194694 0.2073275 0.034794852
0003f0 fc d9 69 3d bb 8b e7 bd 05 c6 53 3e 5b 21 d6 bc
       0.05709265 -0.11305948 0.20681007 -0.026138952

encoder_shared.shared1.bias f4 [15]
000000 18 9d 3e be e5 6c 38 3d 40 b1 16 3e 9d 50 0e be
       -0.18614614 0.045025725 0.14716053 -0.13897939
000010 0f 27 0f be 91 76 f9 bd 9d 54 01 3c ad ce f6 bc
       -0.13979743 -0.12180818 0.007893709 -0.030127848
000020 d9 c7 17 3e 99 16 18 3e c3 fd 72 3d 03 0b 1d ba
       0.1482233 0.1485237 0.059324037 -0.00059907156
000030 44 54 71 3d 39 9d 90 bd f4 4a f5 bd
       0.058918253 -0.07061238 -0.11977187

encoder_shared.shared2.weight f4 [15, 15]
000000 28 62 a9 bd a7 52 0a 3e 40 19 fc 3c 8f 89 64 be
       -0.08270675 0.13508092 0.030773759 -0.223181
000010 45 3b f6 3d 3c c0 62 3e 80 fb 15 3e ea c2 5c 3d
       0.120230235 0.22143644 0.14646721 0.053896822
000020 70 43 70 bc 41 bb da 3d 5b ec 3a 3d f9 f7 ee bb
       -0.014664516 0.10680247 0.045635562 -0.0072927442
000030 f7 5e 0d 3e 61 f0 0c 3e 2a b1 80 be 62 f4 75 bc
       0.13805757 0.13763572 -0.25135165 -0.015011879
000040 f8 66 c6 bd 58 6d 9f bc fc 26 c0 bd dc 39 21 be
       -0.096876085 -0.019461319 -0.09382436 -0.15744728
000050 46 7e 1d 3e 8b 13 8b bd c4 d5 15 be 29 f4 44 3e
       0.153802 -0.06790837 -0.14632326 0.19233765
000060 b0 64 4c 3e 2e 64 66 3e d4 50 dc bb db ac 0f be
       0.19960284 0.22499153 -0.0067235027 -0.14030783
000070 e9 66 1d 3e 6a 29 18 3d 31 4a 00 bd 31 47 67 a4
       0.15371288 0.03714887 -0.031320754 -5.0150442e-17
000080 bf 90 57 bd 2b 25 09 80 bc 49 a3 3c e7 36 16 be
       -0.052628275 -8.39853e-40 0.01993262 -0.14669381
000090 b4 c7 3d bd ca 7d 3f 3e 9e c1 f9 bd b1 11 19 be
       -0.04633303 0.18700328 -0.12195133 -0.14948155
0000a0 99 c7 50 3b f8 e5 56 2e ec 83 37 80 e6 65 03 ba
       0.003185725 4.886222e-11 -5.098277e-39 -0.00050124375
0000b0 fa ff 90 01 5a 1e 8e 3d 5b c3 02 be 76 72 61 be
       5.3264554e-38 0.06939383 -0.12769835 -0.2201632
0000c0 4c ec 6f be 59 f3 9f bc fe 2a 21 3e 3f fe 9c bd
       -0.23429984 -0.019525217 0.15739056 -0.07665681
0000d0 74 10 3b 3d 3d d1 04 3e 95 f4 3b 3e e7 70 0c bc
       0.045669988 0.12970443 0.1835502 -0.00857184
0000e0 fe 57 39 3b 63 b3 03 bd ae 7f c3 3d 17 c5 45 3e
       0.0028281207 -0.0321535 0.09545837 0.19313465
0000f0 19 32 e1 bd 4c 44 2e 3e c3 ad 2e be 36 65 88 3e
       -0.109958835 0.1701824 -0.17058472 0.26639718
000100 b4 1b a6 3d 79 66 fc 3d 41 b2 75 3e 91 43 5f be
       0.08110753 0.123242326 0.2399378 -0.21803118
000110 42 fe b8 bc 05 7e 82 be e9 56 9f 3c b7 74 31 26
       -0.022582177 -0.2548677 0.019450622 6.156739e-16
000120 ad 5c b8 3d fb 54 02 3e 62 a4 e1 3d 41 21 2a bd
       0.090020515 0.1272773 0.11017682 -0.04153562
000130 05 cb 8c bd ce 1c 22 3e e8 2a 5f bd 80 ae 73 bc
       -0.068746604 0.158313 -0.054484278 -0.014873147
000140 39 1d 1b 3e de 21 0f 3e b1 c8 27 be a1 a5 85 bd
       0.15147866 0.13977763 -0.16385151 -0.06525732
000150 df 19 80 bd 6d 25 75 bc 42 f1 f3 3b 97 7a 69 3c
       -0.062549345 -0.014962536 0.0074445317 0.014250419
000160 08 23 1b be ff 29 22 be 18 cc 61 81 4b ae 8d bd
       -0.15150082 -0.15836333 -4.1472403e-38 -0.06918009
000170 92 2b 25 3e 8f 4c 11 be 63 ba 22 3e cf 69 56 be
       0.16129902 -0.14189361 0.15891413 -0.209388
000180 fa 99 e8 bd 59 02 93 bd b0 f6 98 ba 3e 26 f0 3d
       -0.11357494 -0.07178182 -0.0011670198 0.11726044
000190 72 41 f2 bc 50 18 be 00 78 67 86 81 59 ca 81 3d
       -0.029572222 1.7457466e-38 -4.9372296e-38 0.06337423
0001a0 b8 82 54 be af 76 47 3d dc 12 72 3e 39 7f 6e bd
       -0.2075299 0.04869717 0.23640007 -0.058226798
0001b0 47 81 89 bd 7b c1 72 bd c3 6d 7b 3e e0 9b 54 3e
       -0.06714111 -0.05926655 0.2455359 0.20762587
0001c0 f5 e4 30 3e 1e 1a f3 3d 0e 4d a1 bd 07 ed 3d 3e
       0.1727484 0.11870216 -0.07876025 0.1854745
0001d0 31 7b 80 3a 0f 94 12 3d ee b6 84 3e a4 b9 e9 bd
       0.0009802339 0.03578573 0.25920814 -0.11412361
0001e0 b9 89 c3 bd cf 5f 31 3e 7c bb 3b be 48 af 02 bd
       -0.09547753 0.17321704 -0.18333238 -0.031905442
0001f0 58 f3 87 3d 86 9e 3e 3d 19 14 85 3b 1c 78 21 be
       0.06638211 0.0465379 0.0040612337 -0.15768474
000200 bb aa a1 bd eb 8b 4f 3e fc b6 b4 bd da da bb 81
       -0.078938924 0.20268218 -0.08823964 -6.900699e-38
000210 7c 4d 95 3c 02 d3 19 3d 38 23 be 3d 7d 05 07 bf
       0.018225424 0.03755475 0.09284061 -0.5274275
000220 fe a3 52 3b e9 d8 15 be d8 ba 6e 3d 31 cc 5d 3c
       0.0032141204 -0.14633526 0.058283657 0.013537453
000230 01 eb 2d be b7 43 40 3e b5 99 21 3e a2 c1 92 3c
       -0.16984178 0.18775831 0.15781291 0.017914597
000240 2b 17 88 bd 8c 0e ac 3d 69 5b c7 b8 78 e2 75 bc
       -0.06645044 0.08401212 -9.506086e-05 -0.015007608
000250 bc 43 b9 3d 1c 2c 32 3e 21 df b6 bd bc ec e1 bc
       0.090461224 0.17399639 -0.08929277 -0.027578704
000260 9e 9d 41 3e d2 fd eb 3d 65 4f 28 be 80 fa f7 bd
       0.18907782 0.11523022 -0.16436537 -0.12108326
000270 49 54 04 3e e3 05 98 3d f3 24 51 be 6f 05 a0 bc
       0.12922777 0.07422998 -0.20424251 -0.019533841
000280 a1 18 34 3e b4 80 78 ba 56 7e 51 bd 0c fb b1 3d
       0.1758752 -0.00094796275 -0.051145874 0.086904615
000290 9f 91 55 3e 6a 99 b5 3d 5a 01 16 bd c7 22 04 3e
       0.20856331 0.08867152 -0.036622383 0.12903892
0002a0 4f 4b 7d bd 9f df 51 3e fd 59 2b 3e 3b db 45 3e
       -0.061839398 0.20495461 0.16733547 0.19321911
0002b0 4c 46 72 be 3c 3d d8 bd 3b c8 68 be e9 ee 38 3e
       -0.23659629 -0.105585545 -0.22732632 0.18059887
0002c0 97 de 79 3b 4e 4c fd 3d 6f 9d b8 bd e7 80 54 be
       0.0038127059 0.123680696 -0.09014403 -0.20752297
0002d0 e8 92 2d bd 2e a6 b6 bd 02 99 4e 3c 4c eb 86 3d
       -0.04237643 -0.08918415 0.012609722 0.06587848
0002e0 28 55 43 be c6 92 27 3e 32 2b d8 3d 3d 16 fe 3d
       -0.19075453 0.16364583 0.10555114 0.12406585
0002f0 37 93 43 3e af 7b 36 3d fb eb 02 be dc c6 c6 ba
       0.19099127 0.044551548 -0.12785332 -0.0015165466
000300 65 80 91 bd 82 37 b0 bd 46 5b c4 bc 5d a2 1b be
       -0.071045674 -0.08604337 -0.023969304 -0.15198655
000310 39 f7 44 bd 03 22 57 be 3e 59 40 3e db a7 26 3d
       -0.048087332 -0.21009068 0.18784043 0.040687423
000320 c7 ba 45 3e 74 e9 1d be 92 1b 1d be 10 c8 c2 bd
       0.19309531 -0.15421087 -0.15342548 -0.09510815
000330 05 51 55 3e 82 51 51 3d 31 64 cc b8 52 6d f2 3c
       0.20831688 0.051103123 -9.74614e-05 0.029593144
000340 29 9e b1 81 a9 6a 1c be 35 9f 7f bd 64 00 52 be
       -6.524648e-38 -0.15275063 -0.06240769 -0.20507962
000350 01 00 8d bd c2 49 88 bd fc f4 56 be 23 e6 14 3e
       -0.06884766 -0.06654693 -0.20991892 0.14540915
000360 e7 7d 17 bd 89 69 7d 3d 66 df 26 3e 8e 77 a1 3e
       -0.036985304 0.061868224 0.16296157 0.31536525
000370 4d e4 36 be 87 06 5e 3b 93 38 fd bd 7a cb ca 3d
       -0.17860527 0.0033878402 -0.12364306 0.09902091
000380 46 6b 13 3e
       0.1439639

encoder_shared.shared2.bias f4 [15]
000000 39 ba 89 3e d4 bf 44 3e ce b6 28 3e 79 20 0c be
       0.2689989 0.19213802 0.16475984 -0.13684262
000010 89 51 0d be 7a 40 84 3e d9 ad 94 bd 8d 87 c2 3d
       -0.13800634 0.25830442 -0.07259721 0.094985105
000020 a7 42 dd 3d 17 79 22 3e 95 cb 3f 3e e7 78 ec 3c
       0.108037286 0.15866505 0.18730004 0.028866244
000030 ee ff 24 3e ce 54 9d bd fb 9f 87 be
       0.16113254 -0.07682191 -0.26489243

encoder_shared.shared3.weight f4 [15, 15]
000000 37 87 9d 3b e9 7c 27 3e ba a1 ca 00 4f ae 23 3e
       0.0048073786 0.16356243 1.8608787e-38 0.15984462
000010 99 ea 86 be 0a fb 65 3e d5 bf 93 bc 7e f6 83 3d
       -0.2635086 0.22459045 -0.018035809 0.06443499
000020 8f 16 8f 3d a5 6f 12 3d 07 8c fe bd 44 b5 84 be
       0.069867246 0.035751004 -0.12429052 -0.25919545
000030 1d d6 66 be 71 11 7d 3e 42 09 bd bc 6b b5 9d bd
       -0.22542615 0.24713685 -0.023075704 -0.07700618
000040 87 26 3c bd 0e 89 8b 3d f7 7b 3a be bc ac 5d bd
       -0.04593518 0.068132505 -0.18211351 -0.05411981
000050 59 b0 2e 3e a5 35 db 3d 04 69 54 3e 64 e2 37 3e
       0.17059459 0.10703591 0.20743185 0.17957455
000060 39 17 2b 3e 59 a8 48 bc e3 d7 e1 bd a9 73 1c 3d
       0.16708077 -0.012247168 -0.11027505 0.03819624
000070 b1 0b 31 be c4 9c c6 3d bd 0c 59 be a6 e4 90 3d
       -0.17289616 0.096978694 -0.21196266 0.07074861
000080 34 eb 18 00 02 cc 07 be 3a 9c de 3d 10 ac 19 bd
       2.288427e-39 -0.13261417 0.108696416 -0.037517607
000090 19 38 1a be 3e 8e a0 3d 4c 52 76 3b 54 58 f8 3d
       -0.15060462 0.078396305 0.0037585674 0.12126222
0000a0 3b db 29 be 07 66 b3 3d f6 ec 7b be 69 54 5c 3e
       -0.16587536 0.087596945 -0.24602112 0.21516575
0000b0 c1 58 e8 bd 76 03 64 be 02 34 17 be 59 e0 5d 3e
       -0.113450535 -0.22266945 -0.14765933 0.21667613
0000c0 f7 9f 88 39 c2 cf 67 3d 2a 81 4a 3e 02 97 ea 3d
       0.00026059125 0.056594618 0.19775835 0.11454584
0000d0 e7 03 83 3e 97 46 06 3e e7 a9 a1 bd 73 fc 1c be
       0.25588915 0.13112865 -0.078937344 -0.15330677
0000e0 46 4b 21 3e b8 13 05 bc ae 4e 95 bc ea ce 3d 3e
       0.15751371 -0.008122377 -0.018225994 0.18535963
0000f0 f0 2f 19 bc 8e 87 63 bc 86 b4 39 09 30 53 e5 bb
       -0.009349808 -0.013887299 2.2353447e-33 -0.006998442
000100 ca ac 10 81 8e 0a 2e bc 5d d1 0f 81 d6 0c 18 bc
       -2.6572593e-38 -0.010622634 -2.6415163e-38 -0.009280404
000110 fa b8 c8 80 6a 6b 85 81 ba c9 47 ba 1b 50 3d bc
       -1.8433456e-38 -4.9010616e-38 -0.0007621307 -0.011554743
000120 b0 da 22 bc 94 b4 c9 00 a6 19 27 bc 54 6b 77 3d
       -0.0099398345 1.8523714e-38 -0.010198986 0.06040509
000130 b9 92 4d 3e 88 53 ec 3d f6 29 fa bd 3e 0e 08 be
       0.20075502 0.1153937 -0.12215035 -0.13286683
000140 d7 95 2a 3e 76 7b 2f 3e f7 5f 8e 3d a6 07 36 be
       0.16658722 0.1713694 0.069518976 -0.17776355
000150 3c d2 5e 3d 05 e3 4d 3e e4 9c cb bc 79 25 81 bd
       0.054399714 0.20106132 -0.024855085 -0.063059755
000160 f5 04 b3 bd 36 8f 48 3e 97 2b 43 3e 05 87 ef 3d
       -0.0874118 0.1958588 0.19059597 0.11695675
000170 9d 4b 21 3e a2 8d 26 be ec de 6f be a9 c8 6a 3e
       0.157515 -0.16264966 -0.23424882 0.22928108
000180 8e 82 15 3d 20 de 2e be 0d 01 5d 3e 85 09 36 3e
       0.03650146 -0.17076921 0.21582432 0.17777069
000190 84 18 c5 bd 52 5c 62 be 94 a1 ab 3d 7c a7 03 be
       -0.096238166 -0.2210553 0.08380428 -0.12856859
0001a0 78 cc 38 bd 08 b4 cd 3d 4f dd 1c 3e 8a c6 04 3d
       -0.04511687 0.10044104 0.15318798 0.032415904
0001b0 b3 a2 ba 3c 51 b6 6d 3d 21 e3 14 3e 70 9b 47 3d
       0.02278266 0.0580352 0.14539768 0.04873222
0001c0 54 79 ef bc c4 e3 42 be 69 fa f1 3d 62 71 31 bd
       -0.029232658 -0.19032198 0.1181534 -0.04332102
0001d0 20 62 23 be ec 32 bd 3d 19 4c dd 3d af 50 78 3e
       -0.159554 0.09238228 0.1080553 0.24249528
0001e0 40 12 64 3e ee 80 06 3e 68 f9 30 3e 21 94 21 be
       0.22272587 0.1313512 0.17282641 -0.15779163
0001f0 98 64 3e bd ae b5 10 be e6 bc 29 3e 21 6c 92 bd
       -0.046482652 -0.14131805 0.16575965 -0.0714953
000200 45 83 07 be 27 3b 82 3e 11 5c 4c 3e b6 97 24 3e
       -0.13233669 0.25435755 0.19956996 0.16073498
000210 ba 06 2e 3e 02 e2 b4 3d cd 4c 85 3e bd ba ab 3d
       0.16994753 0.0883217 0.26035157 0.08385227
000220 28 95 1d 3e 7f ff 59 be f4 9f 92 3b 97 bf 6e be
       0.1538893 -0.2128887 0.0044746343 -0.23315273
000230 08 71 79 be 47 db 52 3e 97 fa 59 3e 0f bc 49 bd
       -0.24359524 0.2059146 0.21286999 -0.049251612
000240 64 66 35 3d 70 37 c9 bd 21 d6 da ba 8b 55 cf 3d
       0.0442871 -0.09825027 -0.0016695895 0.10123738
000250 a0 ef 8c 3d da 0c 27 be 4a 2d 5b be 16 93 bc 3c
       0.06881642 -0.16313496 -0.21403995 0.023019355
000260 f0 68 96 01 cb 08 4d 3e 9e d6 e0 3d 19 55 34 3e
       5.5251876e-38 0.20022886 0.10978435 0.17610587
000270 ca ef 98 3d 0b 21 0e 3d 10 8a 96 3d 82 a4 4a bd
       0.07467611 0.03469948 0.07350552 -0.049473293
000280 f7 fc 34 be 34 b1 84 3e d5 49 75 be b2 ae 9e 3d
       -0.17674623 0.25916445 -0.23953946 0.07748164
000290 7e 0e 87 bd 61 a7 af bd 7a 0f 1d bc 77 07 b7 34
       -0.06594561 -0.08576847 -0.009586209 3.4091838e-07
0002a0 9b 5b 47 3e 6d 67 fb bd 69 89 30 3e 98 89 9a 3d
       0.19468538 -0.12275586 0.17239918 0.07545775
0002b0 e7 0a ff bc a0 5e 6e 3e f1 d7 3e be a7 20 82 be
       -0.031133128 0.23278284 -0.18637063 -0.25415537
0002c0 2c 8d 62 3e 0b ba 35 be 0e d3 51 3e b2 79 dd bd
       0.22124165 -0.17746751 0.20490667 -0.10814227
0002d0 df 5f 39 3e 11 e5 6d bd 29 99 06 3c f7 55 5b 3e
       0.18102978 -0.058079783 0.008215227 0.21419512
0002e0 be e2 78 3d d0 64 99 3d 64 f4 a8 bd f5 e0 07 be
       0.060763113 0.074899316 -0.08249739 -0.13269408
0002f0 17 45 4a 3e d2 fd 0d 3e 58 e0 08 3e 7e 74 cf 3d
       0.19752918 0.13866356 0.1336683 0.10129641
000300 a6 0d ed bd a3 4c 5d be 7f 9d 46 bd a4 bb aa 3d
       -0.11574869 -0.21611266 -0.048490044 0.08336571
000310 9a 2a 1b 3e 34 9c 31 bd d5 0f 12 3e ab ab 4a 3d
       0.1515297 -0.043361858 0.14263852 0.04948012
000320 fc c3 86 bd fe 9a 58 be 80 8b 33 bc 4e 3f 54 be
       -0.0658035 -0.21152875 -0.010958552 -0.20727274
000330 70 bd d3 3d 0c 03 36 3e 62 4c 27 3c d6 0e 5f 3e
       0.10338867 0.177746 0.010211082 0.21783003
000340 a5 43 d8 3d f3 32 bf 3c 04 58 93 3c 33 13 d1 3d
       0.10559777 0.023339724 0.017986305 0.1020874
000350 55 df 18 bd 6e fb ad bd 7f 83 56 be c1 3a 8a 3d
       -0.03732236 -0.08495222 -0.209486 0.06749488
000360 fd 7b 15 be 11 30 a0 3d 78 ad 44 3e ff d5 b0 bd
       -0.14598079 0.07821668 0.19206798 -0.086345665
000370 46 22 8b 3d c0 be 23 3c a2 d1 13 3d 6d a9 e0 bd
       0.067936465 0.009994209 0.036088593 -0.109698154
000380 63 78 92 bd
       -0.07151868

encoder_shared.shared3.bias f4 [15]
000000 fe 94 26 be 22 eb 9a bd b5 56 68 3e 8f 17 a2 bd
       -0.16267774 -0.07564379 0.22689326 -0.0791465
000010 7d 5e 0d bc 2f a0 0f 3e 9d e1 83 3e 22 65 03 be
       -0.008628485 0.14025949 0.25758067 -0.12831548
000020 35 e4 63 be 88 4e 01 be 15 cb f3 3d df b0 bd bd
       -0.22255023 -0.12627614 0.11903969 -0.09262251
000030 c2 d0 5f be f1 bf 93 bc 38 de 49 3d
       -0.21856979 -0.01803586 0.04928419

encoder_x.out.weight f4 [15, 15]
000000 5a 14 31 39 53 19 c9 bc 6a 55 17 be 24 12 80 be
       0.00016887617 -0.024548208 -0.14778677 -0.2501384
000010 31 ab ee bb d9 6a 4b 3e ed f6 78 bd db 5e af 3c
       -0.007283591 0.19864978 -0.06078236 0.021407535
000020 3e b7 05 be 1e dc 02 3e b1 49 d0 3d 00 c9 75 3d
       -0.13058183 0.1277928 0.101703055 0.06000614
000030 3f 6d 72 3e ca 08 9f 3d 62 9a 69 3e a3 02 14 3e
       0.23674487 0.07765348 0.22812799 0.14454131
000040 fe 89 ec 3b 7c a9 ac bc 6b de 53 bd 85 da f8 00
       0.0072185984 -0.02107691 -0.051725786 2.2853593e-38
000050 c0 d5 20 be 11 d4 41 be cf ab f4 bd d7 ff 6d 3d
       -0.15706539 -0.18928553 -0.119468324 0.058105316
000060 99 30 5e bd eb b0 1d 3e ad 9a 36 3d d1 08 3f 3e
       -0.054245565 0.1539952 0.044581104 0.18655707
000070 d7 b0 44 3e 9b 72 67 bd aa fb 59 3e 40 0d 05 be
       0.19208084 -0.05650578 0.21287408 -0.12993336
000080 9a 12 1c 3e 33 96 74 bd d9 ed a0 bb 0a a4 62 3e
       0.15241471 -0.059713554 -0.004911166 0.22132888
000090 41 3b 3a 3d 28 cb 00 be 60 d5 28 be de 8a 2e 3e
       0.045466665 -0.12577498 -0.16487646 0.17045161
0000a0 e2 02 4e bd ae 20 3e 3a 86 59 5e bd e9 23 1d 3e
       -0.050295718 0.00072527945 -0.054284595 0.1534573
0000b0 da 97 96 3c 68 81 4c be f4 c4 3b be f0 a8 0a 3e
       0.018382955 -0.1997124 -0.1833685 0.13541007
0000c0 b1 f4 e2 3d 80 66 6e 80 11 8f 83 be a0 e1 5f be
       0.110818274 -1.0138675e-38 -0.25695089 -0.21863413
0000d0 8e c1 49 3d 2e c2 84 3d b4 3e 4a 3e 36 ae c2 3c
       0.049256854 0.06482349 0.19750482 0.02376471
0000e0 2a bf 8d bd e0 ac 4b be 17 5a d1 3d ea 50 79 be
       -0.06921227 -0.19890165 0.102222614 -0.24347273
0000f0 0b e6 56 00 d3 97 80 bb 45 2f 4c 80 7c 58 24 bb
       7.980377e-39 -0.003924349 -6.996455e-39 -0.0025077155
000100 9e fb ae 81 67 4e fd bb 7b 6c f5 ba 7a 04 b0 bb
       -6.427856e-38 -0.0077302936 -0.0018724346 -0.0053716274
000110 9e 71 07 bc 1f 69 16 bb bb ac b3 80 f9 3c 51 80
       -0.008266835 -0.002295084 -1.6500518e-38 -7.460548e-39
000120 c0 29 29 81 35 bc e1 bb 4f a9 23 bb 5f f0 1e be
       -3.1070352e-38 -0.006888891 -0.0024972742 -0.15521382
000130 f8 f7 24 3e a4 14 60 01 92 cc 54 bd e5 4f b4 01
       0.16110218 4.115711e-38 -0.051952906 6.62362e-38
000140 bd 6c 05 3e 45 e1 26 3e 0f e5 3e be fb a5 5f be
       0.13029762 0.16296871 -0.18642066 -0.2184066
000150 aa 55 f8 bd 63 64 e0 3b 48 dd 02 be 3f 23 88 be
       -0.12125714 0.0068479045 -0.12779725 -0.2658939
000160 e6 95 5d 3d 03 ac 40 3e bb 96 15 3c cc 03 0d bd
       0.054098032 0.18815617 0.009130175 -0.03442745
000170 4e 3f e4 3d 9b 9b 2c be 54 7e 54 01 93 c1 bd 3c
       0.11144887 -0.16856234 3.9028886e-38 0.023163592
000180 f1 b8 19 be 98 99 11 be 4e eb e3 3d 50 5f 00 be
       -0.15011956 -0.14218748 0.11128865 -0.12536359
000190 44 04 36 be 69 a3 34 be b0 d1 6e 3e 1c b9 4f 3d
       -0.17775065 -0.17640461 0.23322177 0.050713643
0001a0 35 40 60 be 41 7a 4c be 7c dc c6 bd 40 b6 83 be
       -0.21899493 -0.19968511 -0.09710023 -0.25724983
0001b0 42 b7 09 3e 8a cd 44 80 34 c0 eb 3d ba 95 04 be
       0.13448814 -6.318547e-39 0.11511269 -0.12947741
0001c0 23 89 78 3c 53 aa 22 be db be 89 bd 21 09 61 3e
       0.015169415 -0.15885286 -0.06725856 0.21976139
0001d0 13 6b 14 3c 2e 6c 15 3e e2 b0 9e bd 8f 80 9d 3d
       0.009058732 0.14592049 -0.077485815 0.07690536
0001e0 80 dc 46 be 09 de f0 3c ca 59 8b bb b3 47 c2 bd
       -0.19420052 0.02940275 -0.004252647 -0.09486332
0001f0 fa 41 5b 81 ab 5d 1d bd 8e e9 82 bc d2 26 81 bd
       -4.0271283e-38 -0.038419407 -0.015980508 -0.063062325
000200 bd 77 36 be eb 58 a4 3d 46 7a 74 bd c7 80 4a 3e
       -0.17819114 0.08024772 -0.05968692 0.19775687
000210 6c 79 89 bc c8 9a 5d 3e db 50 81 bd 5a 6f 3e bb
       -0.016781531 0.21641076 -0.0631425 -0.002905807
000220 2a 08 3e be 61 30 ab 3d 88 fb 69 3e 68 d1 23 81
       -0.18557802 0.08358837 0.22849858 -3.0088613e-38
000230 31 6e 6f be b9 2e 84 be bb 43 25 3e 71 b2 1b bc
       -0.23381878 -0.25816897 0.16139118 -0.009502993
000240 82 4c 4a 3e 2a c5 71 be 2e 99 4b 3e 6a 51 66 3e
       0.19755748 -0.23610368 0.19882652 0.22491995
000250 b8 20 fd ba bb d9 0a be 94 1d 53 0e f8 35 b3 bd
       -0.0019312119 -0.1355962 2.6022e-30 -0.08750528
000260 92 55 45 01 32 47 e1 3d d0 e7 87 00 39 cb 3a bd
       3.624458e-38 0.109999076 1.248095e-38 -0.045603964
000270 6c 1b 39 3e ae bd 29 bc 57 a9 d5 bc c8 67 9c bd
       0.18076867 -0.010360165 -0.026081724 -0.07636982
000280 85 ae a6 bd a5 24 41 3d 0c e3 e7 bd ce 56 48 bd
       -0.08138756 0.047154088 -0.11322603 -0.04891091
000290 02 11 87 bd ed 42 4b 3e 1f fd 1e 3e 94 48 6a 3e
       -0.06595041 0.19849749 0.15526246 0.22879249
0002a0 50 a7 b1 3c 57 b6 f4 3b 97 ee f3 3d 7d 74 f6 3c
       0.021686226 0.0074680257 0.11910742 0.030084843
0002b0 09 ff ba bc 5a 1c fe bd fc ef a9 bd 5d 76 4e 3e
       -0.022826688 -0.124077514 -0.082977265 0.2016234
0002c0 a6 66 00 3c 0f 60 3a 3e 2d 64 77 3d 38 b6 10 be
       0.007836973 0.18200706 0.06039827 -0.14132011
0002d0 8a 35 04 3d 90 a3 28 3e 7c 59 a3 bd 2f 95 af 3c
       0.03227762 0.16468644 -0.07976052 0.021433441
0002e0 bd f7 fc bb b9 61 59 be 9e fc 77 3e 44 07 ad bd
       -0.0077199624 -0.21228684 0.2421746 -0.084486514
0002f0 c0 d0 93 3d f9 d9 20 be 12 8b 2d 3e 70 2c 61 be
       0.0721755 -0.1570815 0.16947582 -0.21989608
000300 43 0f 1a 3b 7e c3 fd 3d 4f ae 41 bd 4e 27 84 81
       0.0023507632 0.12390803 -0.047285374 -4.854554e-38
000310 d4 39 b6 3d e1 37 4f 81 0d 14 05 3e e1 71 21 00
       0.088977486 -3.8059987e-38 0.1299593 3.071423e-39
000320 2f b1 f8 3d 80 af 39 01 9d 27 6d 3e fa c7 3f be
       0.1214317 3.410505e-38 0.23159643 -0.18728629
000330 48 a6 f1 bc 1a 97 33 81 64 a3 5d 80 69 81 43 3e
       -0.029498234 -3.2985518e-38 -8.599315e-39 0.19092335
000340 42 7b 2f bd a1 45 55 be 91 57 12 be 57 0d 92 bd
       -0.042842157 -0.20827343 -0.14291216 -0.071314506
000350 a2 4c 81 3e 66 82 6f 3d 58 65 a1 00 88 45 29 be
       0.2525378 0.058473967 1.482187e-38 -0.1653043
000360 f4 0f af bd 19 6f 0b 3e 74 12 82 3e 37 22 37 bd
       -0.08547965 0.13616599 0.25404704 -0.044710364
000370 44 57 7b 3e 6b 12 f6 bd 9f 6e 80 bb 60 24 46 be
       0.24545008 -0.12015232 -0.003919437 -0.19349813
000380 e3 7f ab bd
       -0.08374002

encoder_x.out.bias f4 [15]
000000 44 1e 2e 3e 9b 1f 8e 3c ef 88 45 3e 89 b2 1c 3e
       0.17003733 0.017349055 0.19290517 0.15302481
000010 6a 27 a4 bb 51 38 3b be c8 bb 8d bd be e8 af 3d
       -0.0050095813 -0.18283202 -0.06920582 0.08589314
000020 3e 34 56 be ea 91 b8 3d a7 f8 da bc 2f 77 70 3d
       -0.20918366 0.09012206 -0.026729895 0.058707412
000030 dd 50 8e 3e be 13 84 be 87 ee 2b bc
       0.2779607 -0.25796312 -0.010493881

encoder_x.fc_mu.weight f4 [5, 15]
000000 f7 b0 38 be 10 f6 0e 3e 33 89 15 be 77 3e 31 3e
       -0.18036257 0.13961053 -0.14603119 0.17308985
000010 d3 5f 38 3c 98 9f 1a be 56 77 63 3e 53 e5 0e be
       0.011253315 -0.15099943 0.22213492 -0.13954668
000020 3a 63 1e be 84 ac 60 3e f2 c7 18 bb 05 3b 47 be
       -0.1546754 0.2194081 -0.0023312536 -0.19456108
000030 84 e6 21 be 63 24 4b 3d b9 eb a5 bd bb 02 0a be
       -0.15810591 0.049595248 -0.08101601 -0.13477604
000040 60 b3 12 be 16 8f 6f bd 59 d4 7f be 2e 6b 88 3c
       -0.14326239 -0.058486067 -0.24983348 0.01665267
000050 68 5c 0a 3e bb 2d 39 be 56 5d 9c bd 22 34 32 3d
       0.13511813 -0.18083851 -0.0763499 0.04350675
000060 c4 09 32 3e 51 a2 c8 bc 7c 56 36 be 4f 09 c1 bd
       0.17386538 -0.024491461 -0.17806429 -0.094256036
000070 6d 4c e8 bd 7f 06 3e 3e 40 0c 78 be 41 30 25 3e
       -0.11342702 0.18557166 -0.24223423 0.16131689
000080 99 9a d6 3c 37 0d 70 be 6d 3e e8 3a f3 0d 70 be
       0.026196765 -0.23442541 0.00177188 -0.23442821
000090 a5 ff fb 3d 55 2f 8f 3d 76 ee e6 3d f8 c9 fd 3d
       0.1230462 0.0699145 0.112759516 0.12392038
0000a0 e6 ea 0d 3e 80 cb 1f 3e 7b 1c 32 be 77 14 84 3b
       0.13859138 0.15604973 -0.17393677 0.00403076
0000b0 cd c0 bf bc 83 d6 30 be 2f 09 3c 3d fe b4 6f 3e
       -0.023407364 -0.1726933 0.045907196 0.23408887
0000c0 d4 01 8e 3d 00 1a a0 b5 1b d2 13 be 6e 22 2b 3e
       0.069339424 -1.1928496e-06 -0.14435618 0.16712353
0000d0 cb 60 9f 3b 46 5c 29 3d 72 d3 c3 bd b1 4e 0e bc
       0.0048638335 0.041347764 -0.09561814 -0.008685754
0000e0 eb 65 54 3e 31 62 91 bc ac d2 74 bd 8d be 26 3e
       0.20742004 -0.017747017 -0.059771225 0.16283627
0000f0 4f 38 ac bd 77 66 0d be 63 64 b3 3d e1 ea 9b 3d
       -0.084091775 -0.13808618 0.087593816 0.07613159
000100 11 68 01 b7 7b e5 3d 3e 5f e6 48 3d 7a bc 3a 3e
       -7.713229e-06 0.18544571 0.049047824 0.1823596
000110 8b 26 ff 3d 27 c8 97 bd ef d7 21 39 53 a0 73 3e
       0.12458523 -0.07411223 0.00015434598 0.23791628
000120 0f b8 08 be 8c ad 8e b9 a7 ff 2f be
       -0.13351463 -0.00027213653 -0.17187367

encoder_x.fc_mu.bias f4 [5]
000000 fb 6c 3a 3e fe 14 ed 3d 6f 86 f0 3d 94 15 ee bc
       0.18205635 0.115762696 0.11744391 -0.029063024
000010 ea b8 9f 3c
       0.019497354

encoder_x.fc_log_var.weight f4 [5, 15]
000000 29 12 de bd 16 09 07 3e 1c a9 cf bd 22 94 3d 3d
       -0.108433075 0.1318706 -0.10139677 0.04628385
000010 0e 14 c7 32 e4 5f e7 3d 7b 4b 40 be cc 95 08 3e
       2.3175769e-08 0.112975866 -0.18778794 0.13338393
000020 74 27 a6 3d e1 90 ea 3d 5a 7c 8b 3d 2a d9 6b bd
       0.08112994 0.11453415 0.068108276 -0.05758015
000030 09 81 53 bd 3b c8 a8 3d e8 f0 4e be ab 42 11 3e
       -0.05163673 0.08241316 -0.20209086 0.14185588
000040 ba 58 18 3e 89 d4 b2 bd 62 55 62 3e c6 c6 f5 bb
       0.14877596 -0.08731944 0.22102883 -0.0075005023
000050 f1 8a 77 be d3 93 16 be 1a 03 6f 3d d8 7f 29 3e
       -0.24174096 -0.14704828 0.058352567 0.16552675
000060 cb 7a db 3d 46 55 89 3c eb d7 14 be b4 93 5c 3e
       0.1071678 0.016764294 -0.14535491 0.2154072
000070 30 3c 61 3d 9f 38 4d bd 89 d5 36 be dd cc 78 bd
       0.05498904 -0.050102826 -0.17854895 -0.060742248
000080 19 98 34 bd 3b a4 4e be b4 e7 4d 3c 77 0c 53 3e
       -0.044090364 -0.20179836 0.012567449 0.20610224
000090 c9 9d b1 3d 34 32 11 3e 3f 0a 9d 3d 47 f5 a0 3d
       0.08672673 0.14179307 0.0766797 0.07859283
0000a0 0a 84 f9 b5 f8 9a 00 3e 12 05 7d bd c9 0e a4 bc
       -1.8590374e-06 0.12559116 -0.061772414 -0.020026581
0000b0 40 e2 23 ba 19 80 44 3e 36 a8 82 bc 09 99 8c 3d
       -0.00062516704 0.1918949 -0.01594935 0.06865127
0000c0 5f 63 65 be ff c4 12 b9 76 7b 35 be 83 9b 2b 3e
       -0.22401188 -0.00013997032 -0.17722878 0.16758542
0000d0 06 c8 10 3d 9c de 0c bd 71 09 15 be ec 36 5a ba
       0.035347007 -0.034391984 -0.14554383 -0.0008324224
0000e0 3b a8 5e 3e dd f7 49 3e a3 c5 c6 3d 8a ba 07 3d
       0.21743862 0.19723459 0.09705665 0.033136882
0000f0 97 64 34 be eb b6 ed bd 3a 8a 35 be 2a 2f 93 3d
       -0.17616497 -0.116071545 -0.1772851 0.0718673
000100 f8 fa 2c 3c 0d 17 63 be ec 83 3b 3e 12 60 7b bd
       0.0105578825 -0.22176762 0.18312043 -0.061370917
000110 c6 ee 38 3d a5 69 1a 3e 4d 42 1a bc fa 5e d9 3d
       0.045149587 0.15079363 -0.009415221 0.106138185
000120 6d 81 c2 bd cb 7d d2 3d c3 f6 18 bc
       -0.09497342 0.10277899 -0.009336176

encoder_x.fc_log_var.bias f4 [5]
000000 9d 29 c0 3d 31 a6 9b bd ca 75 ad 3d 81 7f 34 be
       0.09382937 -0.07600058 0.08469732 -0.17626764
000010 e6 6d 0e 3e
       0.1390911

encoder_t.out.weight f4 [15, 15]
000000 99 6f 25 81 3b fd 22 3e 8f e4 18 3d 4c cd b2 3c
       -3.038578e-38 0.15916912 0.037327345 0.021826409
000010 2d c1 00 80 d4 d0 1d bd 93 27 a2 bd b8 34 f2 3d
       -6.9298e-41 -0.038529232 -0.079177044 0.118264616
000020 0d 99 00 3e e7 56 32 bd 30 a7 88 3b f0 72 92 bd
       0.12558384 -0.043539908 0.004170321 -0.07150829
000030 57 c7 0e bd 6c 3a 43 be 47 d6 c0 3d e4 66 d8 3d
       -0.034858074 -0.19065255 0.0941587 0.105665
000040 4b e0 45 3e 6d 1c 63 be e4 ea 03 3e 80 e7 ba 81
       0.19323842 -0.22178812 0.12882572 -6.8657795e-38
000050 2e 18 48 be 81 da 2d be 12 2c e8 bc 13 c1 3c be
       -0.19540474 -0.16977884 -0.028341327 -0.18433027
000060 f2 6f b1 3d 83 bb 1d 3e ff 37 79 3e 37 39 2e 3e
       0.0866393 0.15403561 0.24337767 0.17014013
000070 2a 8c b5 3b 7f 7c 51 be 9e 0a c3 80 f5 8e 73 81
       0.0055403905 -0.20457648 -1.791173e-38 -4.4734618e-38
000080 32 36 ab 81 71 da 92 80 02 62 eb 80 7e 84 29 9c
       -6.2893246e-38 -1.3486344e-38 -2.16165e-38 -5.608865e-22
000090 88 9d 03 81 65 b2 5f 8d f2 55 80 a0 ce 97 62 01
       -2.4173923e-38 -6.8931915e-31 -2.1740917e-19 4.161856e-38
0000a0 9b 0f e0 00 93 11 75 00 ef 3f 62 81 ce 14 94 12
       2.057675e-38 1.0751057e-38 -4.1555514e-38 9.345242e-28
0000b0 42 ce 1f 01 11 8f 7c bb 96 76 6f 3d 64 c2 e9 bb
       2.935167e-38 -0.0038537423 0.0584627 -0.007133769
0000c0 c4 a1 7d 3d be c9 38 35 48 6b 6a 3d 4d 49 8f 3e
       0.06192185 6.8838915e-07 0.057231218 0.27985612
0000d0 a1 54 0b be 9d a3 e7 bd e7 ae 35 3e 47 6e b8 bd
       -0.13606502 -0.11310504 0.17742501 -0.09005409
0000e0 1c 80 f7 3c ab 57 5d 3d 98 f6 31 3e 21 11 52 be
       0.030212454 0.054038685 0.17379224 -0.20514347
0000f0 2e 13 f9 3d 44 1b 0b be e2 fc d4 3d eb e4 01 be
       0.12161861 -0.1358462 0.10399796 -0.12684982
000100 68 20 bb bb 24 70 37 3e 4f 4e b2 3d 43 ac 59 3e
       -0.0057106502 0.17913872 0.087063424 0.21257119
000110 35 ef f0 3c ee 54 86 3e c8 32 d3 bd 4f ab 4a 3e
       0.029410938 0.2623667 -0.1031242 0.19791912
000120 1f f2 27 be 79 11 50 3e fb af 08 3d 72 f9 54 81
       -0.16400956 0.20319165 0.033370953 -3.911722e-38
000130 0c 95 3a bb 62 11 c6 80 37 c0 3a bb fc b9 4e 00
       -0.0028470187 -1.8189664e-38 -0.0028495917 7.229887e-39
000140 81 74 0b bc a2 04 6a bb eb 94 c3 bb c7 17 eb bb
       -0.008511663 -0.0035708328 -0.00596868 -0.0071744653
000150 3d 9e 0a bb 72 e6 7a 01 c2 85 2d 01 ae 3b 04 01
       -0.0021151446 4.6083084e-38 3.1871048e-38 2.428739e-38
000160 e5 90 e7 bb 28 75 5c bb 18 30 fd bd 68 73 2d be
       -0.0070668333 -0.0033639167 -0.12362689 -0.16938555
000170 e7 bf 44 3e b4 ea 10 bd ac f4 16 bc e4 74 a8 bd
       0.1921383 -0.03538008 -0.009213608 -0.0822542
000180 26 7c 19 be 18 89 34 3e 61 33 1e 3d 88 f9 d6 3d
       -0.14988765 0.17630422 0.038623217 0.10496813
000190 d4 e0 e8 3d 8a ca 60 3c 6f 5c 15 be 85 37 99 bd
       0.113710076 0.013720164 -0.14586042 -0.07481293
0001a0 9e 74 02 bd 60 5c 88 13 38 bc 0d aa 24 74 60 81
       -0.031849496 3.4422315e-27 -1.2588617e-13 -4.122563e-38
0001b0 b4 0b 3b a9 48 9c bf 81 bd f6 ab b4 f5 04 8a 23
       -4.1532492e-14 -7.038657e-38 -3.2030758e-07 1.496409e-17
0001c0 9e 46 87 b1 69 1f 8a b4 4a b5 d6 a2 0a 47 1d 00
       -3.9370454e-09 -2.5727357e-07 -5.8196763e-18 2.688713e-39
0001d0 34 4f 0e 80 e3 22 13 00 c2 aa 19 b3 73 35 81 a6
       -1.31411e-39 1.75739e-39 -3.5778392e-08 -8.965661e-16
0001e0 bd be 66 3e 3b e3 63 bc d8 0f 56 be a6 76 81 3e
       0.22533698 -0.013909156 -0.20904481 0.25285834
0001f0 1c 8d 04 bc 3f 99 3e be d7 1b 87 3e 8a 2c f2 bd
       -0.008090284 -0.18613146 0.26388428 -0.118249014
000200 5d 12 84 bd 54 f9 21 bd 30 3f 20 3e 14 97 5b bd
       -0.06448815 -0.03954442 0.15649104 -0.053610876
000210 5b d5 83 3d 21 5a 26 3e ed c9 28 3e 4b f4 1f 3e
       0.06437179 0.16245319 0.16483279 0.15620534
000220 c9 5a 41 3e 48 30 b4 3d 1d a8 83 be 3c 70 33 01
       0.18882288 0.087982714 -0.25714198 3.2957632e-38
000230 fd 5c 6e be 69 a1 f0 bd 6a e6 d0 3d 04 ce ea 3d
       -0.2327766 -0.117495365 0.10200198 0.114650756
000240 93 1a 58 be 22 d7 07 bd bc 83 04 be 66 33 2d 3e
       -0.21103887 -0.03316415 -0.12940878 0.16914138
000250 ad 13 dd 3d 24 89 51 be 85 de 89 81 4a f5 35 bd
       0.107947685 -0.20462471 -5.064515e-38 -0.04442338
000260 80 e3 a5 81 3f 2c 27 bd 1a 5c 36 01 76 cb 41 bc
       -6.0937874e-38 -0.04081368 3.34942e-38 -0.011828294
000270 24 f6 05 bc 27 7e 9f 3c 03 73 15 bc 35 d5 9c bb
       -0.00817636 0.019469334 -0.009121659 -0.0047861584
000280 b0 bf 90 81 94 cd 02 80 fd f0 06 90 5d 35 14 bc
       -5.3172304e-38 -2.57419e-40 -2.661249e-29 -0.009045926
000290 8c 23 0a bc 15 79 02 3e 15 26 57 3e bf e0 d2 3d
       -0.008431327 0.12741502 0.21010621 0.10296773
0002a0 f8 69 88 be 46 8e 53 81 87 8a 1d be 9b 03 87 be
       -0.26643348 -3.8856656e-38 -0.15384875 -0.26369938
0002b0 e1 15 ee 3d 5a 50 8f 3d 07 72 97 3d 9a a1 75 ba
       0.11625267 0.06997748 0.07394796 -0.0009370089
0002c0 e3 6c bd bd 9b 02 06 3c c8 35 ad 3d a0 df 49 3c
       -0.09249284 0.008179332 0.084575236 0.012321383
0002d0 6f d2 f5 3d b3 b5 2d 3e b9 f5 a7 3c 9b 68 2c bd
       0.12003028 0.16963844 0.020502912 -0.042091947
0002e0 a3 b0 2e 3c bd f2 21 3e 45 ac 2f be 58 c7 82 3e
       0.010662231 0.15815254 -0.1715556 0.25542712
0002f0 cd f9 de bd 0d 41 2e 3e 2b 10 0e 3e 75 17 25 bc
       -0.108874895 0.17017002 0.13873355 -0.010076393
000300 04 4b 43 be 20 d3 16 be ed 02 c9 3d 47 43 57 be
       -0.19071585 -0.14728975 0.09815011 -0.21021758
000310 d8 e6 88 3e d6 1e ba 3d 64 4b 07 bd 68 24 2a bc
       0.2673862 0.09087913 -0.033030882 -0.0103846565
000320 08 3f 42 be 2b 3d 2e be fe 6c b4 3d ff 89 cb bc
       -0.18969357 -0.17015521 0.08809851 -0.024846075
000330 1b 18 62 be 38 fc e5 bd a9 fe 88 bd 7f 51 dd bc
       -0.22079508 -0.112297475 -0.066891976 -0.0270164
000340 8c d3 f7 3d 5b f5 8b 3e 43 94 f9 bd 2d b4 31 be
       0.12100896 0.2733563 -0.12186482 -0.17353888
000350 1d d6 30 bd 41 8d 97 be b3 38 a4 ba 2d 2f 8b 3e
       -0.043172944 -0.29599956 -0.0012529105 0.2718443
000360 cd f2 37 be 24 d9 8a 3c b9 a4 71 3d 0d be 0c 3d
       -0.17963715 0.016949244 0.058994982 0.034360934
000370 fd 42 87 bb 03 60 8d 3c fa cc 43 bc bd 8a 35 3e
       -0.0041278587 0.017257696 -0.011950726 0.17728706
000380 18 bf 11 bd
       -0.03558263

encoder_t.out.bias f4 [15]
000000 78 d3 61 be 03 c3 27 3d 66 7b 03 8f dc 45 13 be
       -0.22053325 0.040957462 -6.482564e-30 -0.14382118
000010 36 5b 42 3e a4 3b b5 bb 20 8e 82 3e 82 0f b6 b0
       0.18980107 -0.0055307914 0.25499058 -1.324665e-09
000020 2e ad 7b 3e e6 0f 05 3e 77 aa da bc f9 e0 e3 bd
       0.24577782 0.12994346 -0.026692612 -0.111268945
000030 f0 a0 40 be 97 8f e2 3d 2c 2c 9c 38
       -0.18811393 0.11062544 7.446887e-05

encoder_t.fc_mu.weight f4 [1, 15]
000000 9e 27 a9 bb 2c 75 5d 3e 26 7f 0c 01 7b 26 0a 3d
       -0.0051621934 0.21626729 2.5805163e-38 0.033728104
000010 3b f1 19 3d d4 53 6b 3c b7 92 2a 3e fc dc 59 39
       0.03758357 0.014363248 0.1665753 0.00020777056
000020 94 0f 43 3e f1 32 9a bd 46 47 a0 b9 d9 03 0a 3c
       0.19048911 -0.075292476 -0.0003057068 0.008423769
000030 0e fb 4f be 23 de 2f 3e 9a 51 8f 3d
       -0.20310614 0.17174582 0.06997986

encoder_t.fc_log_var.weight f4 [1, 15]
000000 b1 69 20 be 44 22 4e bd e8 ed 48 01 2c 5c 7c bd
       -0.15665318 -0.050325647 3.6904888e-38 -0.06161134
000010 83 c4 dd 3d a6 49 5a 3c ed 6b d1 3d 4d bd 45 35
       0.10828497 0.013323223 0.10225663 7.366369e-07
000020 ce b0 f2 3b 3a de 0e be f6 92 2f bc e8 f2 26 3e
       0.0074063307 -0.1395196 -0.010716191 0.16303599
000030 23 ea 40 be fc 95 32 3e 49 11 9c bd
       -0.18839316 0.17440027 -0.076204844

encoder_yf.out.weight f4 [15, 15]
000000 84 49 3e 3e 21 e8 34 bd b8 d7 28 be 3c 3b 65 be
       0.18582731 -0.044166688 -0.1648854 -0.22385877
000010 42 87 30 01 4e 36 26 3e ba 2b 16 3d 9a 3e 8f bd
       3.2423137e-38 0.16231653 0.036662795 -0.06994362
000020 4b 9e 23 bd 9c 8d 2c 3e 36 de 47 be 79 a9 44 be
       -0.03994588 0.16850895 -0.1951836 -0.19205274
000030 6e 2b 4f 3d af 39 76 bd 8b 18 66 bc 66 62 83 81
       0.050578527 -0.060113605 -0.014043937 -4.8262995e-38
000040 cf 74 f4 b9 2e b5 37 81 f9 c2 6b b9 2a de cf 00
       -0.00046626336 -3.3741782e-38 -0.0002248398 1.9089645e-38
000050 99 bf 4b bb 9c 76 86 b9 1b 76 ac ba 91 35 46 bb
       -0.0031089543 -0.00025646843 -0.0013157757 -0.003024433
000060 c2 1c 00 b9 11 b3 84 81 6d 85 2f 81 f4 fe ac 00
       -0.00012217744 -4.874609e-38 -3.2238152e-38 1.5887165e-38
000070 ce 53 0d bb 25 f8 9c b9 09 c4 80 b7 43 af 03 bc
       -0.0021564844 -0.0002993952 -1.5350075e-05 -0.008037391
000080 aa 40 55 bd 05 f4 81 be 3e 5f 2a 89 1e 76 0b be
       -0.05206362 -0.25381485 -2.0507788e-33 -0.13619277
000090 e2 ed 8b be 24 62 63 3e d3 49 38 bd 8b 34 b5 3d
       -0.27329928 0.22205406 -0.04499228 0.088479124
0000a0 3a b3 a0 39 d7 9a 55 be 8c 43 1e 3d c9 b4 43 3c
       0.00030651112 -0.20859848 0.038638636 0.011944958
0000b0 ac ab 1b be 55 b9 4b bc 27 21 82 be 81 e7 06 25
       -0.15202206 -0.012434323 -0.25415918 1.1701084e-16
0000c0 e7 21 36 3e d9 29 0d 00 7e f6 b0 bd f6 2e 98 bc
       0.1778637 1.208874e-39 -0.08640765 -0.01857708
0000d0 c0 46 c5 bd df 9e 6b bd 09 43 68 be 66 e8 48 3c
       -0.09632635 -0.05752456 -0.22681822 0.012262439
0000e0 fe 08 fd bd fd a6 ae bd f5 65 e8 3c b2 44 38 3e
       -0.12355231 -0.08527944 0.02836893 0.17994955
0000f0 4a c4 2a 3d 64 74 2b bd 90 6c 66 be e4 28 d8 bc
       0.041691102 -0.041859046 -0.22502351 -0.026386686
000100 ba ca f1 3b fa 0c 4c 3e a3 3d 8b 3d bd 5e 49 3e
       0.007378903 0.19926825 0.06798866 0.19665046
000110 e6 f2 b2 3d 33 76 0f 3d 39 4f 09 bd 82 93 36 be
       0.087377355 0.035024833 -0.03352282 -0.17829707
000120 d8 3e ce 3d 73 54 82 3c 9d 79 60 be 3c e9 e3 bb
       0.1007058 0.01590941 -0.21921392 -0.006955294
000130 d4 c8 17 bd 58 02 06 3d 5d 68 61 bd 02 c9 ca 00
       -0.03705676 0.03271708 -0.05503117 1.8622878e-38
000140 b7 43 5b 3d bd 9f 1f be d0 b8 df bd 4b 14 82 bd
       0.053531375 -0.15588279 -0.10923922 -0.06351527
000150 06 e5 39 be b3 ce 35 be c6 e1 f8 bd 95 cc 81 be
       -0.18153772 -0.1775463 -0.12152438 -0.25351396
000160 f1 5f 1d 3e e2 df 7f bd 3c 40 58 be ae 9d 13 3d
       0.1536863 -0.06246937 -0.21118253 0.036039047
000170 c5 9f a3 bd a0 5a 75 3c d8 44 d7 3b dd 45 08 3c
       -0.07989458 0.01497522 0.006569486 0.008317438
000180 24 04 27 3e c8 4e 51 be 38 c0 02 3c 42 7c 6c bd
       0.16310173 -0.20440209 0.007980399 -0.05773569
000190 d0 07 11 3c c6 0f 24 3e a1 c7 12 3e c9 c4 c1 3d
       0.00885196 0.16021642 0.14333965 0.09461362
0001a0 12 95 e1 bc f6 80 09 be b7 ab 0e bd 75 f0 de 3c
       -0.027536903 -0.13428101 -0.03483173 0.027214268
0001b0 5a 9f e9 3d 86 01 a3 bb 8f cf ad 3d 84 1d 2b 3d
       0.11407347 -0.004974547 0.08486854 0.041776195
0001c0 8f dc 84 3e 9d 6c 43 3d 09 5b 72 be 89 23 5e bd
       0.25949523 0.047711004 -0.2366754 -0.054233108
0001d0 85 89 f6 3c 53 ed db 3c c8 41 2e 3e 1a 87 c2 bd
       0.030094871 0.026846563 0.17017281 -0.09498425
0001e0 84 07 16 3d 12 f3 41 00 16 9d 25 bd c6 e0 53 01
       0.03662826 6.056504e-39 -0.040433012 3.8915846e-38
0001f0 fe f2 8d 01 77 ad 46 be 2f 42 78 3d c7 8c 96 b7
       5.2143897e-38 -0.19402109 0.060609993 -1.7946948e-05
000200 c4 be 75 3b 97 ff 7b a1 5e eb 5c 81 9c 50 55 bd
       0.0037497738 -8.538038e-19 -4.0576486e-38 -0.05207883
000210 7e 65 a8 3d ea 61 ca 3d 60 e3 55 3a 0a df 96 00
       0.08222483 0.09881957 0.00081591867 1.3855336e-38
000220 92 6c 86 ba 93 ce 10 81 77 79 59 38 38 b0 b5 01
       -0.0010255745 -2.6596833e-38 5.1849955e-05 6.674176e-38
000230 9a ba ea bb a6 62 f9 b9 71 6c 9b 3b e8 28 d9 ba
       -0.007163358 -0.0004756648 0.004743152 -0.0016567977
000240 29 75 e1 ba 6d 16 03 01 24 f2 2e 81 30 e3 52 00
       -0.0017201054 2.407699e-38 -3.213248e-38 7.61201e-39
000250 95 e7 cd ba 96 c5 84 ba 17 df 59 bb 5b 8d 81 bc
       -0.0015709276 -0.0010129686 -0.0033244544 -0.015814474
000260 01 5a dd bd 0d 1a 46 3d 29 dd 06 81 57 32 5a be
       -0.108081825 0.048364688 -2.4770588e-38 -0.21308266
000270 55 37 5c 3e 4d 16 02 bd df d7 f4 bd b2 61 54 3e
       0.21505482 -0.03175955 -0.11955237 0.20740393
000280 67 dd 90 bc 5c bc 58 3e 6f 05 3d be e8 7e 14 3e
       -0.017683698 0.21165603 -0.18459104 0.14501536
000290 3e d0 ad 3d 26 a9 a9 bd 47 30 70 3e 0f af 44 be
       0.08486985 -0.08284216 0.23455916 -0.19207405
0002a0 09 61 1c be 9b 94 c5 2c 63 40 06 3e 61 cf f2 bd
       -0.15271391 5.6155753e-12 0.13110499 -0.11855961
0002b0 da b3 61 bc d3 62 c1 bd d1 b4 2d 3d 54 b3 31 3c
       -0.01377579 -0.09442677 0.042408768 0.010845978
0002c0 ed f5 2e 3e 69 58 9d 3d 8b af 4f 3e 57 6f 66 be
       0.17086 0.076828785 0.20281808 -0.2250341
0002d0 33 99 44 80 04 e1 01 bc c6 36 01 81 dc 50 48 bd
       -6.299771e-39 -0.007927183 -2.3732856e-38 -0.04890524
0002e0 2e 60 51 81 7b aa e6 3c 75 42 0f bb 90 20 1f 39
       -3.8456243e-38 0.028157463 -0.002185968 0.00015175552
0002f0 7d 0f 91 3d 3f 2a b1 3c 20 93 a8 ba 46 83 3c bd
       0.07083032 0.02162659 -0.001286123 -0.04602363
000300 e3 73 ac 3d 0d 78 1b be ec ea ca bc 64 6d 02 01
       0.08420541 -0.15182514 -0.024770223 2.3955713e-38
000310 ff 5a e1 af 88 3c 4b 00 4d 6b 81 ad e5 00 31 81
       -4.0991918e-10 6.909377e-39 -1.4713253e-11 -3.2510407e-38
000320 6a 96 fd b5 6d 1a 7e ac a8 49 2f b3 ba 9d ec b5
       -1.8893745e-06 -3.611024e-12 -4.0812353e-08 -1.7629275e-06
000330 0d 61 ee ac f1 d7 76 80 0d f7 a9 81 bf 1e 78 00
       -6.7751416e-12 -1.0914054e-38 -6.2435296e-38 1.1031289e-38
000340 ed 9f 0e b5 ff 2e a7 ad ab a1 fb bd 76 39 27 3e
       -5.3131845e-07 -1.9006572e-11 -0.12286695 0.16330513
000350 12 be 69 bd d1 2d fc bc a9 22 03 81 c8 b3 a7 3d
       -0.05706603 -0.030783566 -2.4085767e-38 0.081885874
000360 bc bc 1e 3e 7f bf 9e bd 4e 18 29 be f8 38 7e 3d
       0.15501684 -0.07751369 -0.16513178 0.06206605
000370 48 34 36 3d cf a3 63 be a4 f4 de 3d c9 51 b5 3d
       0.044483453 -0.22230457 0.10886505 0.0885349
000380 8a 9d 23 be
       -0.15978065

encoder_yf.out.bias f4 [15]
000000 19 a3 4c bd be 5b d1 ba 61 bb 72 3e 15 f5 bc 3d
       -0.04996023 -0.0015972776 0.23704292 0.09226433
000010 dc 01 35 3e 66 8b 10 3e 8f 77 46 3e 4b 06 62 be
       0.1767649 0.14115676 0.19381545 -0.22072713
000020 37 55 19 bd 3f 83 89 ba 83 e9 2d be 7a 76 6c be
       -0.037434783 -0.0010491385 -0.16983609 -0.2309207
000030 80 58 2f 3c 81 60 00 b4 05 e6 20 be
       0.010702252 -1.1956037e-07 -0.15712745

encoder_yf.fc_mu.weight f4 [1, 15]
000000 c9 67 b7 bd 30 b5 b7 3c fb 3d 3a bd 6e fb a8 3d
       -0.08955342 0.022425264 -0.045469265 0.082510814
000010 42 d1 80 3e a7 5c 72 3a a3 01 1a 3e f5 4d 37 be
       0.2515965 0.00092453737 0.15039687 -0.17900832
000020 7d a2 46 bc 24 df 8c ba ac 47 5f 3e 01 c9 61 be
       -0.012123701 -0.0010747653 0.21804684 -0.22049333
000030 34 a1 6d 3d db 3f a5 bc cd c4 e6 bc
       0.058015063 -0.02017205 -0.028170014

encoder_yf.fc_log_var.weight f4 [1, 15]
000000 d0 61 55 bc fb af 35 39 15 3d fc 3d 0c fe 00 3e
       -0.013023809 0.00017327063 0.12316338 0.12596911
000010 a2 55 02 3e 8c b2 2d 3d f2 36 58 3e a1 eb a9 bd
       0.12727979 0.042406604 0.2111471 -0.08296896
000020 fa 38 0b bd c2 61 b6 37 7f bf 3f 3e 52 b4 51 be
       -0.033989884 2.1741613e-05 0.18725394 -0.20478943
000030 71 3e 7a 3d 4c 31 d7 ba a8 4b cf 3b
       0.061094705 -0.001641789 0.0063261576
