DR_Info_CFR/Twins/Models/Backup/adversarial_vae.pth (torch, 25835 bytes, 32 tensors)

encoder_shared.shared1.weight f4 [15, 30]
000000 97 88 6e 00 7d 98 5d 00 a8 2d 6f 00 28 16 55 00
       1.0150904e-38 8.595404e-39 1.0210118e-38 7.813965e-39
000010 34 e8 4a 00 b2 56 cb 00 6d 6c 43 00 d4 62 2c 00
       6.879126e-39 1.8673706e-38 6.191874e-39 4.076215e-39
000020 e8 97 16 00 2d 44 50 00 11 25 26 00 99 8f 97 00
       2.074875e-39 7.371297e-39 3.503046e-39 1.3918673e-38
000030 12 90 00 00 db c9 f7 80 c1 59 94 80 47 bf 93 00
       5.1683e-41 -2.275578e-38 -1.3623851e-38 1.3568435e-38
000040 c9 78 2e 00 9d bb a4 00 81 23 6e 00 27 61 13 00
       4.267762e-39 1.5128324e-38 1.0114641e-38 1.779726e-39
000050 13 e0 04 b5 6d 18 80 00 19 99 6a b5 76 9d 90 b4
       -4.9499903e-07 1.1763706e-38 -8.739458e-07 -2.6936658e-07
000060 20 58 c2 aa 2e a8 95 00 c4 84 7d 00 3e a7 55 00
       -3.4522472e-13 1.374382e-38 1.1527064e-38 7.866012e-39
000070 51 f4 8d a3 19 e4 71 00 47 89 ff a8 92 a7 88 9f
       -1.5390723e-17 1.0459237e-38 -2.8370222e-14 -5.787546e-20
000080 9c b5 4a a0 81 04 3b a0 fd 5a d8 9f 96 43 ea a3
       -1.7170155e-19 -1.5841006e-19 -9.1630086e-20 -2.5398955e-17
000090 74 6f 8f 9f d4 b6 40 a0 4b 7a 14 a0 27 6e c1 9f
       -6.074724e-20 -1.6323525e-19 -1.2576551e-19 -8.192091e-20
0000a0 b8 05 2f a0 f7 d6 24 a0 21 85 49 a0 4e 56 93 9f
       -1.4824969e-19 -1.3962466e-19 -1.7069411e-19 -6.23997e-20
0000b0 d1 a2 5f a0 0b a9 ca a1 ed 5c 82 a3 a1 c4 a1 99
       -1.8942706e-19 -1.3732798e-18 -1.4133984e-17 -1.6726428e-23
0000c0 dc d0 95 aa 0d 37 14 00 02 1b 96 ba 32 bd b8 81
       -2.6612642e-13 1.856458e-39 -0.0011452141 -6.7862407e-38
0000d0 4f 1b 0b bb 02 73 b4 ba 39 55 8e b8 bf c9 92 90
       -0.0021225994 -0.0013767185 -6.7869616e-05 -5.7897685e-29
0000e0 38 9e 94 95 3d 30 89 a5 75 7c 03 b7 e0 27 6d 92
       -6.002635e-26 -2.37984e-16 -7.837186e-06 -7.4833164e-28
0000f0 90 2a b9 01 d8 c3 17 80 ab 85 1a 00 3f 03 0a 00
       6.801934e-38 -2.182472e-39 2.435674e-39 9.1952e-40
000100 fb d2 51 00 88 cb fd 00 e3 9e 10 80 2d 52 21 00
       7.514361e-39 2.3307394e-38 -1.526366e-39 3.06005e-39
000110 c8 b7 2c 00 1f 28 2e 80 9e ee 05 80 a6 fc 10 80
       4.10669e-39 -4.238826e-39 -5.44777e-40 -1.560001e-39
000120 4a 07 15 00 3d 65 93 80 45 ae 34 00 db 52 89 00
       1.93116e-39 -1.3536135e-38 4.837962e-39 1.2611186e-38
000130 4f c3 db 00 85 35 ba 80 93 c9 d4 00 7c 10 28 81
       2.0182037e-38 -1.7100601e-38 1.9541436e-38 -3.0868554e-38
000140 9a 7f 8c 90 0d 0b 80 01 ff 62 f1 9a 1d 2a 10 94
       -5.5416865e-29 4.703563e-38 -9.98352e-23 -7.2784475e-27
000150 02 fa 20 00 66 58 75 00 a1 7b 11 01 10 5e 02 01
       3.028422e-39 1.0776464e-38 2.6720993e-38 2.3944716e-38
000160 55 1b c4 80 eb 06 b9 80 9f 79 6d 97 98 5a 43 83
       -1.8009562e-38 -1.6992048e-38 -7.673234e-25 -5.7409346e-37
000170 0f 28 0f 09 44 76 55 07 01 a5 86 07 a0 52 61 91
       1.7231834e-33 1.6059094e-34 2.025906e-34 -1.7774831e-28
000180 10 4d 92 84 07 87 db 87 55 98 7f 07 98 e6 fe 02
       -3.4395206e-36 -3.303082e-34 1.9228834e-34 3.74543e-37
000190 72 e7 80 07 0f 46 47 87 0a 32 24 08 9c ae a9 03
       1.939533e-34 -1.4991684e-34 4.9410775e-34 9.973016e-37
0001a0 16 6c 08 09 64 f5 bf 8a 29 a2 2f 90 ff 73 df 00
       1.6421226e-33 -1.8484937e-32 -3.4637588e-29 2.0520927e-38
0001b0 94 01 42 a2 61 81 4c 80 6c 05 d3 b8 c0 3c ed 80
       -2.6292738e-18 -7.02591e-39 -0.00010062274 -2.1786806e-38
0001c0 ce 6f 67 b9 45 78 06 b9 41 cd 59 b5 a3 91 ff 00
       -0.00022071527 -0.0001282404 -8.1137483e-07 2.3470296e-38
0001d0 f1 85 dd 00 8a 33 75 94 a3 98 d7 b1 de e3 c7 00
       2.0343694e-38 -1.2379503e-26 -6.2746763e-09 1.8357007e-38
0001e0 32 f3 30 39 4e 18 2e 3d 87 72 00 3d f5 26 a7 3d
       0.00016875265 0.042503648 0.03135922 0.08161727
0001f0 18 d2 35 3d 07 9a 56 3c 74 5d 8d 3c 48 58 d8 3c
       0.044389814 0.013098246 0.017256476 0.026409283
000200 16 ab 38 3d 8f 93 4c 3d 2e f3 fc 3c 7d ef 1e 3d
       0.045085035 0.04994541 0.030877676 0.038802613
000210 bb cb 90 3c 89 45 56 3d b1 e9 b8 3d 53 c3 da 3c
       0.017675271 0.052312408 0.09028948 0.026704466
000220 2d c6 4a bc 6e af c0 3c da 76 a3 39 5c 6d f6 bb
       -0.01237635 0.023521151 0.00031178334 -0.007520361
000230 72 21 0a 3c 7f e4 0f 3d 5c 1b 3a 3c 58 8b 8f 3b
       0.008430826 0.03513002 0.011359062 0.0043806247
000240 95 c5 29 3c 87 0e 41 3d e2 5a 80 3c 1d 03 9f bb
       0.010362049 0.047132995 0.015668336 -0.004852666
000250 dc 94 bb 3a 1e 48 25 3c ff a1 80 b8 5a 88 30 3c
       0.0014311331 0.010087995 -6.13369e-05 0.010774696
000260 cd 7d df 3c 4f e1 98 3c bb 6e b6 3c 35 8a 36 bc
       0.027281666 0.018662123 0.022269597 -0.01114135
000270 49 c8 3f 3c cd 72 59 3c b3 1e b9 3c c8 12 88 3c
       0.011705467 0.013272 0.022597646 0.016610518
000280 c5 ed b5 3c c9 7f 1d 3c 20 0c 5f 3c 8c 17 09 bb
       0.022208104 0.009612986 0.013613731 -0.0020918576
000290 7d 52 99 3c 45 86 e0 bb 20 01 a6 3b 07 40 cf bb
       0.018716091 -0.0068519437 0.005066052 -0.0063247713
0002a0 07 63 6b bb c4 56 04 ba 89 26 17 bc b9 e3 a2 3b
       -0.003591718 -0.00050483295 -0.009225496 0.0049709943
0002b0 f3 ac 3b bb d5 ce b4 3a 51 74 74 3b ee f8 a6 3b
       -0.0028637021 0.0013794551 0.0037300775 0.0050955927
0002c0 4b a6 20 bc f2 38 a6 3b 8f 81 0b bc 01 fa 83 3c
       -0.009805272 0.0050727064 -0.008514776 0.016110422
0002d0 fa b8 3b b5 a9 40 85 34 5e 35 13 34 78 9f d9 33
       -6.9932105e-07 2.4820227e-07 1.3709857e-07 1.0133857e-07
0002e0 bf 7c 96 33 24 12 57 b5 67 99 a9 33 70 ab 1e 34
       7.0076105e-08 -8.012014e-07 7.8975795e-08 1.4777265e-07
0002f0 ce 67 fc 33 5a 5d 48 b4 00 9d bb b2 06 3e 10 33
       1.17535464e-07 -1.8660413e-07 -2.184106e-08 3.3584023e-08
000300 12 2b 43 34 9d 35 9d 33 34 a2 2e 34 a4 d1 27 35
       1.8176459e-07 7.3206344e-08 1.6264022e-07 6.2517415e-07
000310 80 ee 4f b5 d8 40 f1 b4 ed 31 9d 35 04 9c 70 b2
       -7.746057e-07 -4.4936928e-07 1.1711942e-06 -1.40053125e-08
000320 7b b4 13 bb be 60 8d 33 4b 56 aa b8 e0 80 4b b8
       -0.0022537995 6.5834215e-08 -8.122305e-05 -4.8518996e-05
000330 77 db ea 35 39 a4 96 34 0e c4 11 b5 37 c2 81 b4
       1.7498231e-06 2.8059165e-07 -5.4302006e-07 -2.4169432e-07
000340 00 06 2d b5 7d 3e 29 34 f1 1a 08 b1 15 bf b5 ac
       -6.4456253e-07 1.5762085e-07 -1.980592e-09 -5.1655438e-12
000350 a9 ac 3a ad ac f6 25 ad 54 08 2a ad 25 64 3c ae
       -1.0611214e-11 -9.433936e-12 -9.66523e-12 -4.2835197e-11
000360 a5 b7 1c ad 57 de 41 ad 59 0e 28 ad bc ff 03 ad
       -8.908351e-12 -1.1020149e-11 -9.55288e-12 -7.503272e-12
000370 5f 0e 15 ad 67 a4 26 ad 75 a6 41 ad 22 5c 12 ad
       -8.4728604e-12 -9.472512e-12 -1.1007741e-11 -8.319597e-12
000380 60 e0 41 ad ec 05 e9 ad 41 3f 19 ae 3e a4 db a9
       -1.1020601e-11 -2.6491663e-11 -3.4844353e-11 -9.754045e-14
000390 65 31 8c b1 89 37 9d 81 cb 7d 93 bb bb 23 ba 9b
       -4.0801518e-09 -5.775238e-38 -0.0045010797 -3.079421e-22
0003a0 e1 fd e9 bb 27 6a bb bb 3e 6c 85 ba 0a 2e b0 a5
       -0.0071408604 -0.0057194415 -0.0010179353 -3.056233e-16
0003b0 bd fe cd a6 82 07 01 b0 a0 54 5f b9 b6 90 d8 a5
       -1.4293779e-15 -4.6940596e-10 -0.00021298463 -3.7568087e-16
0003c0 5e 89 ce 00 8c 74 8a 00 3c 0f a2 01 18 49 a4 00
       1.896739e-38 1.2715108e-38 5.953126e-38 1.5087242e-38
0003d0 c4 2c b8 00 3a 95 0a 81 6c 9c b7 00 ee 48 a6 00
       1.691379e-38 -2.5453662e-38 1.686201e-38 1.5270855e-38
0003e0 44 a1 9a 00 36 a9 85 00 00 7a 9a 01 fa 99 83 00
       1.4200518e-38 1.2274822e-38 5.6745727e-38 1.2085686e-38
0003f0 12 7f a7 00 14 40 94 00 16 3a a7 01 c8 28 b4 00
       1.5382112e-38 1.361464e-38 6.142946e-38 1.6545019e-38

encoder_shared.shared1.bias f4 [15]
000000 81 fe 87 00 17 d8 bb 81 c8 94 63 01 04 3a 37 80
       1.2489091e-38 -6.9003025e-38 4.180006e-38 -5.071764e-39
000010 17 61 0a 3d a3 44 30 3c b4 4e 96 b4 aa 49 30 9b
       0.033784 0.010758552 -2.799694e-07 -1.4582181e-22
000020 b0 66 4b 00 5b 4b 27 ab 62 dd f5 00 d4 4a 55 01
       6.9245e-39 -5.9434895e-13 2.2579114e-38 3.9175608e-38
000030 c4 4b 0f 29 61 61 58 00 c4 e8 17 80
       3.1818095e-14 8.116457e-39 -2.195717e-39

encoder_shared.shared2.weight f4 [15, 15]
000000 9e 79 42 00 5c b3 e9 80 62 90 ee 00 8a 00 a7 80
       6.104771e-39 -2.1462013e-38 2.1908643e-38 -1.5336721e-38
000010 91 bb 5d b6 05 b1 12 ad 3a 7d f5 00 b9 a1 1a 80
       -3.3040744e-06 -8.338445e-12 2.254462e-38 -2.445738e-39
000020 c0 4e 87 81 f2 ac 9f 01 dc 6c bd 00 0b e0 82 81
       -4.970417e-38 5.865554e-38 1.739596e-38 -4.8075944e-38
000030 5b 04 6d 80 5f f7 4b 00 9c e9 5f 80 19 ec a6 81
       -1.0011632e-38 6.976402e-39 -8.808175e-39 -6.1317553e-38
000040 a4 9d ff 80 6c 71 03 01 90 1d a2 01 ad bb b5 b6
       -2.3474602e-38 2.4142276e-38 5.955182e-38 -5.4160687e-06
000050 bb 92 8e b0 e0 9d 03 81 6c fe af 00 f0 4b 11 01
       -1.0373563e-09 -2.417417e-38 1.6162481e-38 2.6686776e-38
000060 60 7e 78 01 68 41 2f 81 c2 55 86 81 2c 1f 44 80
       4.5641076e-38 -3.218935e-38 -4.934688e-38 -6.255996e-39
000070 1e 99 7e 00 a4 4e 14 80 89 6a db 80 b6 cc 33 00
       1.16262e-38 -1.864921e-39 -2.0150191e-38 4.757047e-39
000080 42 7e 81 00 5b 63 a9 81 d9 88 a2 80 30 f0 f1 80
       1.1892072e-38 -6.2223364e-38 -1.4926442e-38 -2.2218518e-38
000090 ab ba 92 80 1a 15 81 00 74 4a ae 00 ee 7a aa 00
       -1.3474946e-38 1.1854349e-38 1.6006085e-38 1.5656133e-38
0000a0 0c 77 25 01 46 33 bd 81 87 39 1b 00 7b b4 86 00
       3.0391126e-38 -6.950121e-38 2.500195e-39 1.23707e-38
0000b0 5d bc 8d 80 96 39 f9 38 4a b3 59 ba e5 2c 42 30
       -1.3016377e-38 0.000118839715 -0.0008304609 7.064059e-10
0000c0 a7 ce aa 3c b5 90 01 3e 2e bb 06 3d 43 98 bd b6
       0.020850493 0.12652858 0.032893352 -5.6503645e-06
0000d0 37 ee 08 b9 5a 53 75 81 6a dd 51 bc b8 e1 ba 80
       -0.00013058713 -4.5059195e-38 -0.012809137 -1.7162375e-38
0000e0 09 d7 d7 03 42 ac 36 38 a3 4b 41 36 83 97 6b 00
       1.2685934e-36 4.355261e-05 2.8803267e-06 9.88075e-39
0000f0 17 6d 6b 80 c8 b5 7d 81 95 92 a3 81 88 e7 41 00
       -9.865532e-39 -4.6599183e-38 -6.008708e-38 6.052365e-39
000100 23 91 cf b8 8d 61 71 b5 e8 5b fa 80 53 71 6c 00
       -9.897563e-05 -8.992145e-07 -2.2991844e-38 9.958887e-39
000110 d4 17 1b 00 28 6d 03 80 04 47 63 00 15 16 49 80
       2.488106e-39 -3.14664e-40 9.11719e-39 -6.711913e-39
000120 59 3a 2a 80 db 9c 12 81 57 4f a8 01 61 6e 63 00
       -3.878022e-39 -2.6928503e-38 6.18273e-38 9.13131e-39
000130 95 37 4e 80 87 1b 10 81 ac 23 4a 00 e1 64 5c 86
       -7.183108e-39 -2.6468373e-38 6.808623e-39 -4.1451515e-35
000140 53 cf a9 84 91 33 1a 00 2a 4c 7c 00 7e e8 13 81
       -3.9922106e-36 2.406221e-39 1.1414924e-38 -2.716644e-38
000150 ba ab 02 01 13 63 54 00 2f 57 32 80 c2 b2 24 00
       2.4000437e-38 7.749723e-39 -4.62305e-39 3.370204e-39
000160 ab f0 28 80 b7 b8 0c 00 9f 66 07 00 f8 0b 08 80
       -3.759755e-39 1.168289e-39 6.79662e-40 -7.38978e-40
000170 20 71 08 01 30 7c 42 80 c5 dd f9 80 db bf a5 00
       2.5060418e-38 -6.105693e-39 -2.2946594e-38 1.5221682e-38
000180 51 a9 84 00 f3 63 88 00 89 5d d9 80 28 bf 8e 80
       1.2183025e-38 1.2525483e-38 -1.9961857e-38 -1.3109214e-38
000190 a8 90 35 00 17 3d a4 80 98 88 57 80 58 a6 1b 81
       4.919174e-39 -1.5082936e-38 -8.038689e-39 -2.858835e-38
0001a0 ea d4 56 00 13 36 75 3b ee 76 65 3b bc 9a 1a 38
       7.974232e-39 0.0037416264 0.0035013515 3.686057e-05
0001b0 36 98 18 3c 1e c6 32 3e c9 55 cb 3d 66 18 6e 3a
       0.009313634 0.17458388 0.099284716 0.0009082615
0001c0 14 37 a5 3a 3c 52 3c 80 fb 6a 91 3c 4e a3 9a 15
       0.0012604916 -5.53963e-39 0.017751208 6.2457754e-26
0001d0 6a 82 6d a2 8d f0 4e ba 9e cd 0e b9 f6 cd 3e 80
       -3.218853e-18 -0.0007894121 -0.00013618774 -5.767686e-39
0001e0 6a 5d 44 ba 6b 57 1d 3a c4 bd 7b 35 58 b1 4b 3c
       -0.00074907264 0.0006002101 9.378093e-07 0.012432419
0001f0 85 16 ac 3d b9 a5 70 3d 01 f1 e5 37 a4 c4 85 38
       0.08402733 0.058751795 2.7411153e-05 6.3785614e-05
000200 7e 29 16 80 11 25 45 3c a1 59 79 00 44 e7 02 82
       -2.035266e-39 0.012032763 1.1144248e-38 -9.617262e-38
000210 3a ab c1 b6 03 70 70 b4 83 7e b5 01 c3 e1 42 80
       -5.7717816e-06 -2.2392491e-07 6.6670435e-38 -6.142131e-39
000220 c7 e7 2d 01 8c 77 65 80 c7 21 82 00 20 ec c1 a6
       3.1941374e-38 -9.31827e-39 1.1950732e-38 -1.3456067e-15
000230 40 ba 1e 24 04 00 2f 00 8c 6d 34 00 f4 f0 a6 81
       3.441855e-17 4.316274e-39 4.814744e-39 -6.132452e-38
000240 d4 cf 19 00 38 71 4c 00 d6 0e 9f 01 10 d3 b5 80
       2.370442e-39 7.020113e-39 5.8428664e-38 -1.669794e-38
000250 3d bf 5c 80 9c 07 f4 80 78 ee ce 30 74 46 b3 36
       -8.517469e-39 -2.2410591e-38 1.505625e-09 5.3428175e-06
000260 ca 43 8a 05 89 7a a0 38 1b 6e 16 3e 4e f8 c7 3c
       1.300236e-35 7.6522185e-05 0.1469044 0.024410393
000270 3e 03 7f b6 28 66 3d 33 a8 2d 28 80 03 0d 7f 3b
       -3.7999848e-06 4.4097902e-08 -3.689798e-39 0.0038917668
000280 8e ff 1a 01 ed eb 97 00 cf 24 e8 ab a8 a7 e4 ac
       2.8468684e-38 1.3951794e-38 -1.6494808e-12 -6.4987633e-12
000290 12 79 5a 01 00 55 90 b9 4f 6c 12 bb 1b c6 25 b4
       4.012714e-38 -0.0002752915 -0.002234239 -1.5438893e-07
0002a0 6f 10 a8 3c 88 7e 3c 3e b4 bb 9c 3d 72 47 93 b9
       0.020515649 0.18407643 0.07652989 -0.00028091256
0002b0 90 5e 20 ba 64 1a 97 80 57 89 84 bc 3f 2b 04 07
       -0.00061176065 -1.3876627e-38 -0.01617877 9.943285e-35
0002c0 72 99 1c 1b 29 b6 aa 39 1c 2b 15 38 c8 db 8e 81
       1.2953598e-22 0.00032560647 3.5564517e-05 -5.247793e-38
0002d0 67 30 30 37 10 f4 86 00 3b 47 86 a6 49 d2 1a 3b
       1.0501687e-05 1.239351e-38 -9.317425e-16 0.0023623875
0002e0 09 d7 0e ba 9d 82 21 3a a3 9a c7 00 2c 64 01 00
       -0.0005448913 0.00061611255 1.8330737e-38 1.2777e-40
0002f0 e8 15 8a 80 d0 1e 78 01 2f c6 a5 00 62 ef e0 80
       -1.2681157e-38 4.5572513e-38 1.5223952e-38 -2.0657026e-38
000300 56 6b 5b 80 d0 95 02 00 15 0f 73 80 9e ca a8 3b
       -8.395535e-39 2.37414e-40 -1.0566492e-38 0.005151107
000310 c2 f0 0d bb 48 ae 11 36 3a 3e 9f bc 69 6e 16 3d
       -0.0021658395 2.1708129e-06 -0.019438852 0.03672639
000320 1d 4d 63 3d 9b aa 55 b9 c0 aa 15 ba 63 78 4b 80
       0.055493463 -0.00020376818 -0.00057093427 -6.930849e-39
000330 18 ae 8c bc a8 60 ea 05 f2 42 9d 1b 63 15 84 39
       -0.017172858 2.204076e-35 2.6016734e-22 0.00025192936
000340 12 64 d2 37 ae 52 82 81 51 25 4d 80 27 e2 0d 00
       2.508055e-05 -4.78731e-38 -7.08472e-39 1.27499e-39
000350 e1 20 2e 00 4f 49 18 80 18 93 9f 80 6e 8a 1e 80
       4.236228e-39 -2.23035e-39 -1.4654611e-38 -2.804724e-39
000360 4d 77 1b 01 2d 37 39 01 60 68 15 01 35 c0 ab 81
       2.8554598e-38 3.401872e-38 2.7441863e-38 -6.3091283e-38
000370 99 48 a6 01 1d da a0 81 78 83 e5 80 fe 8a a8 00
       6.108294e-38 -5.9087695e-38 -2.1077491e-38 1.5478224e-38
000380 f4 9c 17 00
       2.16852e-39

encoder_shared.shared2.bias f4 [15]
000000 fe 6b 04 19 41 a9 a2 12 e4 5b 76 80 b5 05 81 3e
       6.846049e-24 1.0265362e-27 -1.0869553e-38 0.25199667
000010 c1 87 1a b5 23 3b 44 86 3d b2 bb 00 13 64 ae be
       -5.756702e-07 -3.690695e-35 1.7237178e-38 -0.34060726
000020 7b 88 2a be c8 d6 19 a6 b3 2f 0c be 5a 8c 23 3d
       -0.16653626 -5.337362e-16 -0.13690071 0.03992877
000030 1c a4 2a b8 72 a3 af 3e 5c 06 5d 80
       -4.0683997e-05 0.34304386 -8.542982e-39

encoder_shared.shared3.weight f4 [15, 15]
000000 23 d7 6c 81 d0 62 70 00 88 20 c9 80 30 ea c8 80
       -4.3500707e-38 1.0321023e-38 -1.8470605e-38 -1.845111e-38
000010 10 ec 67 00 e8 93 c2 00 55 c3 35 01 c2 0d 87 01
       9.54374e-39 1.7869145e-38 3.3384593e-38 4.961091e-38
000020 13 d2 0e 81 06 57 82 81 11 38 af 81 60 8f 84 80
       -2.6232002e-38 -4.787933e-38 -6.43653e-38 -1.2173719e-38
000030 a8 91 2b 80 a7 90 41 80 b8 85 6b 81 6c 75 3f 81
       -4.001178e-39 -6.021199e-39 -4.3258622e-38 -3.5165406e-38
000040 f8 32 0f b8 51 12 36 80 35 44 65 3e cc ee 80 b7
       -3.4141325e-05 -4.965687e-39 0.223893 -1.5369988e-05
000050 81 f0 2d 88 c6 08 b8 00 1c 2f 87 be 67 d0 23 be
       -5.2343005e-34 1.6900879e-38 -0.2640313 -0.15997468
000060 2e 07 c0 a6 65 af d5 bd 8f 9c 07 3e a1 0c ee 3a
       -1.3324622e-15 -0.104338445 0.13243316 0.0018161723
000070 12 cb 8f 3e 4d 8c 5b 81 10 7c 94 81 49 e7 a6 00
       0.28084618 -4.0324608e-38 -5.4544635e-38 1.5327662e-38
000080 68 9f 95 00 16 79 61 81 56 33 41 80 09 b0 81 80
       1.3740673e-38 -4.1412848e-38 -5.987723e-39 -1.1909929e-38
000090 24 da a8 01 35 d1 90 81 17 d3 81 80 98 9a 2a 80
       6.202647e-38 -5.3197443e-38 -1.1922504e-38 -3.912549e-39
0000a0 f9 60 bf 00 30 be 2c 81 ae 9b 2f 81 62 be 15 01
       1.7575367e-38 -3.1727864e-38 -3.2254118e-38 2.750357e-38
0000b0 2c 7e 21 01 66 06 83 00 80 74 09 01 ba 44 b6 01
       2.9661554e-38 1.2032745e-38 2.524651e-38 6.695486e-38
0000c0 bf 80 c9 a4 92 92 75 00 2b 4b 0b 00 a8 1b ae 00
       -8.738796e-17 1.0797333e-38 1.037156e-39 1.5989298e-38
0000d0 e2 f6 61 9a f5 9b 1d 00 b4 e8 96 81 87 8c 43 11
       -4.672834e-23 2.719176e-39 -5.543521e-38 1.5426091e-28
0000e0 15 f5 f0 a8 d3 c5 1c 80 b6 86 a8 96 78 4c d2 00
       -2.675164e-14 -2.64236e-39 -2.7226878e-25 1.9312886e-38
0000f0 b0 1c 4b 81 4b 7b a5 b5 f9 f5 ed 00 47 87 83 3d
       -3.7305794e-38 -1.2329341e-06 2.1853251e-38 0.064222865
000100 08 af fe b3 fe c9 0f 88 5d e0 4f 00 0f c3 ff bd
       -1.1859635e-07 -4.326994e-34 7.33549e-39 -0.12488376
000110 4d c5 1a 3e c4 b1 28 a4 57 27 81 bd e7 e4 15 3e
       0.15114327 -3.6579766e-17 -0.063063316 0.146381
000120 6d 64 be 3a b9 94 d5 bd 92 15 23 00 75 68 22 00
       0.0014525779 -0.10428757 3.22198e-39 3.159879e-39
000130 68 bc 27 81 0f 88 42 81 a9 09 fd 37 bc 72 82 81
       -3.080823e-38 -3.572979e-38 3.0164449e-05 -4.7919094e-38
000140 e4 4b 49 80 02 7c 89 00 ca e2 05 b3 8e 91 79 af
       -6.731216e-39 1.2625949e-38 -3.117274e-08 -2.269813e-10
000150 2d 34 0c 00 9b 30 86 b4 54 5a 1a b8 6e ce e3 1f
       1.120743e-39 -2.499481e-07 -3.6800586e-05 9.647975e-20
000160 b4 df 29 b5 db 6c af 81 22 04 02 01 32 8e 98 81
       -6.3282937e-07 -6.444105e-38 2.3880194e-38 -5.604002e-38
000170 d2 59 f8 80 7e 6c 61 22 c5 30 26 80 3c e3 44 80
       -2.2807425e-38 3.0550621e-18 -3.507244e-39 -6.32633e-39
000180 d7 9b 39 80 1c 17 3d 21 5c 64 6a 20 12 19 54 00
       -5.290528e-39 6.4066276e-19 1.9853777e-19 7.723175e-39
000190 b1 ac cd a1 e0 48 69 22 70 b9 55 00 6e cd 6c 22
       -1.3937051e-18 3.1615968e-18 7.87254e-39 3.2092718e-18
0001a0 ac 7f b2 81 fe 6e 94 01 b4 15 56 81 91 a8 a5 01
       -6.5570073e-38 5.452588e-38 -3.9321164e-38 6.085331e-38
0001b0 97 85 d6 3d b1 41 9f 80 70 01 07 81 71 1f b6 00
       0.10474699 -1.462541e-38 -2.4796615e-38 1.672534e-38
0001c0 cd 9a 1b bd 5c 59 c9 3b dd c1 b1 80 fa 50 dd bc
       -0.037989426 0.0061446857 -1.6324428e-38 -0.027016152
0001d0 e7 a6 02 3d 00 9a 91 39 47 d5 63 3b e7 1d ac 01
       0.03189745 0.00027771294 0.0034764574 6.322573e-38
0001e0 4e 09 7b 00 2c 42 a3 81 d5 09 b2 00 59 e1 62 81
       1.1299104e-38 -5.9971695e-38 1.6350245e-38 -4.1671323e-38
0001f0 73 7c 40 80 f4 fd 60 00 48 08 91 00 ef 37 8f 81
       -5.922116e-39 8.907309e-39 1.3319118e-38 -5.2610165e-38
000200 92 36 72 81 e5 9a a7 00 ed d5 59 80 7e 15 26 80
       -4.4487532e-38 1.5392094e-38 -8.250101e-39 -3.497459e-39
000210 8d 8f 2f 00 b3 79 bc 81 a6 81 6a 81 d2 9a 73 80
       4.367765e-39 -6.9234923e-38 -4.307203e-38 -1.0616621e-38
000220 62 71 82 81 58 50 47 81 a0 6f 47 98 0f 0c 0a 80
       -4.7917154e-38 -3.660817e-38 -2.5776503e-24 -9.22681e-40
000230 0c 3a 5d 81 13 5e 4a 01 48 74 4d 1a a2 b0 e6 99
       -4.0632936e-38 3.7169035e-38 4.2486938e-23 -2.3852784e-23
000240 4a 57 d4 00 01 a9 28 1b ad c0 b1 99 ee df d2 00
       1.9500439e-38 1.3951242e-22 -1.8379192e-23 1.9365785e-38
000250 1b c6 fd 1a 49 c2 93 81 a3 98 53 80 02 14 a8 81
       1.04958404e-22 -5.427806e-38 -7.677102e-39 -6.1742163e-38
000260 7b 20 d9 00 e6 d4 0b 81 99 8a b3 00 1d f6 9b 00
       1.9939954e-38 -2.5683015e-38 1.6488273e-38 1.4322791e-38
000270 ee 79 b5 01 64 4d 02 81 e9 ca 0c 01 1d df 2a 80
       6.666386e-38 -2.3932754e-38 2.585952e-38 -3.937129e-39
000280 ba 4c fb 80 e4 e6 cf 80 e5 4e 8a 80 c4 a1 64 81
       -2.3078234e-38 -1.9092776e-38 -1.27016e-38 -4.1993047e-38
000290 c5 eb 93 80 9f c8 f2 80 6c 19 1e 01 5a 87 71 01
       -1.3584396e-38 -2.229616e-38 2.9038256e-38 4.436182e-38
0002a0 d0 47 a8 81 29 a7 a6 80 00 de 7e 00 8d 70 84 81
       -6.18165e-38 -1.5304658e-38 1.1650911e-38 -4.8650644e-38
0002b0 40 be 38 00 08 21 39 00 3a fd 8d 80 a0 5b b8 81
       5.211037e-39 5.246473e-39 -1.3039646e-38 -6.77224e-38
0002c0 f8 5a 30 81 ed c7 1e 00 0f dc 6e 81 8d 9f 16 01
       -3.2391362e-38 2.826785e-39 -4.387158e-38 2.766512e-38
0002d0 3e a3 09 81 08 89 c1 80 38 bb 4d 00 8d 5b db 9e
       -2.5280046e-38 -1.7773408e-38 7.138495e-39 -2.3225391e-20
0002e0 21 71 1a 01 72 fc 34 00 08 bc e2 00 da bb 56 1d
       2.83665e-38 4.866006e-39 2.0822275e-38 2.8419781e-21
0002f0 b1 2b 76 1d 10 74 f5 80 ab 5b 2a 9d cb a0 bf 9e
       3.2580417e-21 -2.2541332e-38 -2.2546704e-21 -2.0289414e-20
000300 d1 82 a1 81 6c 96 a8 9e 7c 3e 45 81 4a 52 13 81
       -5.932977e-38 -1.7849905e-20 -3.6228016e-38 -2.7058675e-38
000310 a0 4d 5e b6 29 68 73 00 58 d1 f9 bc 59 0c c9 b6
       -3.3125762e-06 1.0598448e-38 -0.03049533 -5.9917043e-06
000320 c4 1e 26 88 b6 7e 99 80 1b d6 a4 bd 11 8d 19 be
       -4.9989973e-34 -1.4096286e-38 -0.0804865 -0.14995219
000330 f7 c6 07 a6 fa 70 85 3d 5d ff 0b 3e b6 77 f7 bb
       -4.710718e-16 0.06515689 0.13671632 -0.0075521125
000340 99 93 03 3e 82 e2 8d 80 bf d5 c1 00 d8 26 1a 01
       0.12849273 -1.303006e-38 1.7800928e-38 2.8313202e-38
000350 60 7c 9b 00 a8 df 24 af 91 22 67 81 22 d8 9b 01
       1.4279119e-38 -1.4995172e-10 -4.24528e-38 5.7248143e-38
000360 d4 51 54 81 85 41 9f 30 80 b5 fe 2a 6c 70 36 81
       -3.899696e-38 1.1587394e-09 4.5245405e-13 -3.350878e-38
000370 7e b1 6a 31 b8 76 9c 30 b3 d7 53 80 ec 90 f4 b1
       3.4152374e-09 1.1384236e-09 -7.699724e-39 -7.1178103e-09
000380 25 9c f8 80
       -2.2831217e-38

encoder_shared.shared3.bias f4 [15]
000000 05 e6 b0 95 5d 32 89 3e f1 27 e9 80 db 41 60 a7
       -7.144874e-26 0.26796237 -2.1411999e-38 -3.1121945e-15
000010 be 85 a9 3e e6 d0 82 b6 e0 5d af a2 d9 60 da bd
       0.3310985 -3.898621e-06 -4.753324e-18 -0.106630035
000020 59 8b 61 81 37 b2 4b 9b 02 0f 95 93 a7 49 77 81
       -4.142595e-38 -1.6849351e-22 -3.7627687e-27 -4.5419578e-38
000030 25 23 31 9f 8d 74 66 3e 94 e5 8d b1
       -3.751028e-20 0.22505398 -4.12974e-09

encoder_x.out.weight f4 [15, 15]
000000 ac 65 45 01 44 bf 7c 80 e0 dd 44 00 34 50 e8 00
       3.6256131e-38 -1.1456215e-38 6.324407e-39 2.1334607e-38
000010 dc 92 b7 81 ee e1 2b 80 38 6f 4d 80 7c 8d d1 80
       -6.7434316e-38 -4.029975e-39 -7.111231e-39 -1.9244374e-38
000020 5c 0e d6 80 c9 60 c1 80 c1 6c 58 00 c7 fc 45 80
       -1.9657947e-38 -1.7758971e-38 8.120537e-39 -6.427329e-39
000030 46 e8 98 81 77 2d ff 00 a6 01 90 01 63 3e 9b 81
       -5.616928e-38 2.3434361e-38 5.289961e-38 -5.702753e-38
000040 ea 93 85 b7 fc d0 7c 81 78 4f c3 00 8b 76 12 b5
       -1.5923713e-05 -4.643503e-38 1.793643e-38 -5.456174e-07
000050 10 d4 61 80 ba e1 8f 81 4c 5e 6e 00 d6 3a ad 01
       -8.984117e-39 -5.2853806e-38 1.0135732e-38 6.363459e-38
000060 50 60 05 01 f4 61 25 01 32 63 23 01 78 c9 0c 01
       2.4497343e-38 3.0375992e-38 3.000954e-38 2.5858486e-38
000070 94 37 24 b4 e3 0f b1 80 a2 b7 9b 01 63 4a 8f 3e
       -1.529391e-07 -1.6260582e-38 5.720151e-38 0.2798644
000080 e4 74 6a 01 e3 bf 0b 1e b1 3e 5e 3e 61 b8 9f 2f
       4.3062877e-38 7.39828e-21 0.21703602 2.905294e-10
000090 87 28 18 a0 58 26 9b 3c 68 a2 a1 01 52 bb 32 9c
       -1.288831e-19 0.018939182 5.93751e-38 -5.9137365e-22
0000a0 df 99 13 80 05 d8 ce 00 f2 6e 99 9e 8e 27 49 3e
       -1.800073e-39 1.8995605e-38 -1.6245391e-20 0.19643995
0000b0 58 60 4a b2 8f 52 5d 01 d7 da 8d b8 ed 2e 3f 81
       -1.17798535e-08 4.0650522e-38 -6.764166e-05 -3.5114827e-38
0000c0 2d 3d c0 81 e7 21 24 b7 3a d3 f6 80 b8 4a e1 00
       -7.0617444e-38 -9.783055e-06 -2.2667306e-38 2.068979e-38
0000d0 38 1a 7a 81 04 d6 21 01 4c 5d a3 81 14 16 44 80
       -4.593656e-38 2.9724578e-38 -6.001062e-38 -6.252734e-39
0000e0 74 bc 49 01 ed f0 2d 01 59 e4 3f b6 c0 32 be 01
       3.7053078e-38 3.1947937e-38 -2.8594134e-06 6.98678e-38
0000f0 3c df 80 81 9e ef 1e 80 7f dc a7 01 59 f9 bc 80
       -4.73401e-38 -2.841023e-39 6.166251e-38 -1.7354522e-38
000100 b4 b9 89 81 1c fa 12 80 c3 81 e1 00 38 5a 01 00
       -5.0592323e-38 -1.742761e-39 2.0709536e-38 1.242e-40
000110 03 f7 d3 00 8a 73 c1 00 0c 82 9c 00 e7 fc 38 81
       1.9465901e-38 1.7765698e-38 1.437299e-38 -3.397691e-38
000120 02 9e 3b 81 3b 99 1f 81 6e b0 87 01 a8 00 11 88
       -3.445984e-38 -2.9313625e-38 4.984433e-38 -4.363512e-34
000130 0d d4 bd bc 33 50 a0 01 35 e6 e2 00 76 93 9a bb
       -0.023172403 5.88898e-38 2.0837405e-38 -0.0047172857
000140 b8 f7 df 2c a9 76 63 a0 3b fa 31 b9 b4 7f b6 01
       6.3655435e-12 -1.9266909e-19 -0.00016973254 6.7039486e-38
000150 a4 a7 36 1c 2d 82 91 81 d4 ad b7 00 b5 1a 8a 9f
       6.043542e-22 -5.345138e-38 1.6868254e-38 -5.8489456e-20
000160 44 8f d8 bc f4 2b 35 b2 11 b1 1a 10 ae 34 9b 3e
       -0.026435502 -1.054558e-08 3.0507552e-29 0.3031363
000170 4e 5b be 01 b2 fa ea 1d b6 da 3f 3e c3 85 63 2b
       6.9925993e-38 6.2198497e-21 0.18735775 8.083223e-13
000180 cd 9f 4f 20 2a 88 02 3d 82 00 6b 00 a9 b5 73 9b
       1.7586456e-19 0.031868137 9.82658e-39 -2.0159186e-22
000190 5a cf a6 01 95 e8 3f 01 95 2e 91 1f df 54 71 3e
       6.1276304e-38 3.524803e-38 6.148695e-20 0.23567532
0001a0 80 85 99 b1 6f 2d b6 01 df 90 f3 3d 44 83 09 01
       -4.4680633e-09 6.6921435e-38 0.11892866 2.5257104e-38
0001b0 78 21 b3 01 1a 2d 6b 3d 90 5e 9b 0a a3 ff a1 9e
       6.580224e-38 0.05741606 1.4961528e-32 -1.7152267e-20
0001c0 80 83 9f 3b e7 d9 32 81 5c 44 5c 1c f0 1e 3e 01
       0.004867971 -3.2849774e-38 7.2880246e-22 3.4919685e-38
0001d0 18 97 b2 01 fe 12 cd 1d ae 5c 13 3e 65 14 ca 30
       6.560368e-38 5.4282686e-21 0.14390823 1.4703231e-09
0001e0 c2 2e 9f 01 63 50 a9 a1 40 fa 99 80 b8 d4 8d 81
       5.847447e-38 -1.1473164e-18 -1.4140604e-38 -5.2100456e-38
0001f0 32 5e 4d 91 74 48 73 81 b0 7c 69 80 0e 62 3e 01
       -1.6200675e-28 -4.4684034e-38 -9.687457e-39 3.496784e-38
000200 56 fb 92 80 56 67 93 81 65 e2 53 80 48 d2 a0 80
       -1.3498145e-38 -5.414755e-38 -7.703561e-39 -1.4769114e-38
000210 10 61 36 01 7a 7b 51 09 52 a1 c1 00 b6 f9 f0 00
       3.349776e-38 2.5215518e-33 1.7782122e-38 2.2130098e-38
000220 6d 02 8b bc a2 a5 95 80 89 0e 71 00 98 9d 8c bc
       -0.01696893 -1.3742907e-38 1.0382625e-38 -0.01716499
000230 8e d1 71 81 4b a8 69 80 5c 4c 89 81 97 52 ce 80
       -4.4415057e-38 -9.703099e-39 -5.043542e-38 -1.894774e-38
000240 a2 a0 0e 00 e4 29 25 00 30 1d fc 00 f7 24 b1 80
       1.343321e-39 3.412941e-39 2.3153016e-38 -1.6268143e-38
000250 54 10 8e bc b5 00 a5 00 0b c3 dd 80 5d ff 1a 3e
       -0.01734177 1.515311e-38 -2.0365613e-38 0.15136476
000260 04 ba 0e 00 1f 64 22 00 c3 64 e8 bb 38 de ef 2a
       1.352427e-39 3.158324e-39 -0.00709209 4.2609124e-13
000270 f4 e6 0c 9f c2 d7 0c 3c aa 37 70 01 c7 be 0f 1a
       -2.9837193e-20 0.008596363 4.4120975e-38 2.9725816e-23
000280 0d 9c 3c 80 a3 ff cc 00 b3 f9 bb 9e 7c b9 75 3e
       -5.56611e-39 1.8826146e-38 -1.9902668e-20 0.23996538
000290 0c e7 d4 32 af 76 95 01 47 63 ac 39 2f 13 57 81
       2.4785116e-08 5.490426e-38 0.00032880364 -3.9503027e-38
0002a0 34 35 b1 00 de 6a e1 39 26 d3 4f 80 31 91 40 00
       1.6273969e-38 0.00042994966 -7.33075e-39 5.929557e-39
0002b0 d0 10 e2 80 2b 2b 23 00 48 4c 21 80 2a 44 c3 80
       -2.0760853e-38 3.229728e-39 -3.057936e-39 -1.7932374e-38
0002c0 97 cc 6c 00 62 65 5f 07 51 9c 6d 39 0f ff 98 00
       9.991627e-39 1.6806449e-34 0.00022660314 1.4050493e-38
0002d0 f2 79 a5 81 64 4f 6a b8 e0 73 ce 00 8d 1f 90 00
       -6.078641e-38 -5.5863886e-05 1.895968e-38 1.323563e-38
0002e0 57 f2 74 b7 c0 0b 86 80 8b 27 25 80 14 7d 97 81
       -1.45999575e-05 -1.2310172e-38 -3.412099e-39 -5.564812e-38
0002f0 35 41 62 80 d0 e8 08 81 3d f3 2f 80 87 1b 7a 81
       -9.02327e-39 -2.514629e-38 -4.403526e-39 -4.5937498e-38
000300 ca 88 2f 00 5b 9f f7 b6 60 b0 ed 80 dc 47 7c 00
       4.365339e-39 -7.379725e-06 -2.1828284e-38 1.141338e-38
000310 6a 83 f5 b1 95 8f 24 80 05 e2 7a 80 a0 7b 0f 33
       -7.1453785e-09 -3.357585e-39 -1.1285011e-38 3.340722e-08
000320 cb b9 d4 00 7b 9c c4 00 d0 26 3a 01 f1 4e 1f 80
       1.9535775e-38 1.8055892e-38 3.419065e-38 -2.875219e-39
000330 e0 18 c8 00 e2 7d b6 00 c2 c8 28 81 28 fe 84 81
       1.8376023e-38 1.6759219e-38 -3.1000763e-38 -4.885384e-38
000340 44 f2 6c 32 44 12 36 00 18 b0 86 81 ee d6 1c b2
       1.3792093e-08 4.965669e-39 -4.947651e-38 -9.1292645e-09
000350 2a dd 9e 81 16 4d 46 80 02 96 05 b0 2b 54 66 80
       -5.835739e-38 -6.456138e-39 -4.859829e-10 -9.397414e-39
000360 b4 5f 14 81 9d 48 7d 81 2d 50 95 00 70 3e 4d 00
       -2.725197e-38 -4.6520859e-38 1.371225e-38 7.093732e-39
000370 9a 4a 3b 80 19 bc 17 81 96 24 3e 81 81 91 ab ad
       -5.445056e-39 -2.7869273e-38 -3.4923738e-38 -1.9505066e-11
000380 be d6 d6 00
       1.9729831e-38

encoder_x.out.bias f4 [15]
000000 6f 84 14 80 7d cc 10 ba 21 cd a6 bd 66 19 c1 ba
       -1.884218e-39 -0.0005523635 -0.08144594 -0.0014732301
000010 cb 4f fe 00 5a 5e 7e 3e 49 3c f4 bc 0e ca 2e bc
       2.335484e-38 0.2484068 -0.029813902 -0.010668291
000020 f5 1e 40 af cb a0 9a bc 1a 35 fd 3d b7 fa 7a bb
       -1.7473296e-10 -0.0188755 0.12363644 -0.003829641
000030 a7 7e b0 b9 fb 7c 85 b5 8d 6b ce b7
       -0.000336637 -9.945646e-07 -2.4607196e-05

encoder_x.fc_mu.weight f4 [5, 15]
000000 52 55 2b 01 b3 57 58 34 c0 92 19 3d ec 51 9b 01
       3.1468954e-38 2.0148472e-07 0.037493467 5.705556e-38
000010 88 9f c3 00 a1 7c 69 be e3 9d 86 be 3d 3f 01 be
       1.7965151e-38 -0.22801448 -0.26292333 -0.1262178
000020 b0 5e 70 81 2b f3 7f 3c 5d 11 81 bd 34 83 89 38
       -4.4148973e-38 0.015621941 -0.0630214 6.5571076e-05
000030 88 d3 d6 2a fe 20 be 2e 0c 80 71 b7 69 53 ba 80
       3.8160816e-13 8.64606e-11 -1.4394533e-05 -1.7111324e-38
000040 91 da 18 30 f1 6f 49 be c1 14 46 01 f0 16 71 80
       5.560788e-10 -0.19671609 3.6381747e-38 -1.038564e-38
000050 28 fe a5 bd c4 90 9f bd 5f 66 21 3e e6 04 a0 00
       -0.08105117 -0.07791284 0.15761708 1.4695437e-38
000060 31 a1 9c 3c b2 36 71 3d 86 e7 ea b8 3e 9d 9e 1f
       0.01911983 0.058890052 -0.00011201114 6.717574e-20
000070 9c 03 22 2e ab ad 46 b7 f4 78 85 81 9c d9 d7 34
       3.683774e-11 -1.1842155e-05 -4.9030043e-38 4.0205202e-07
000080 e1 e5 71 be 22 81 a7 01 a5 4e 4f 01 e8 6e 22 be
       -0.23622848 6.153141e-38 3.807632e-38 -0.1586262
000090 e4 ec 30 3e eb d0 3d 3e bc 1b 34 81 85 11 b1 3c
       0.17277867 0.18536727 -3.3080677e-38 0.0216148
0000a0 f0 2b 76 be 00 c9 c2 b8 8e 03 da 14 aa 3f 94 ae
       -0.24040198 -9.28808e-05 2.2013777e-26 -6.74157e-11
0000b0 4f 81 41 b2 c0 d3 88 01 7a 0e df 2c 72 69 1f be
       -1.126348e-08 5.0262356e-38 6.3396484e-12 -0.15567568
0000c0 4e 36 8a 81 b3 62 92 81 10 45 af 3d d0 b5 50 be
       -5.077112e-38 -5.3773556e-38 0.085580945 -0.20381856
0000d0 27 86 91 bd 97 18 60 00 b1 e9 87 3c 7e 8a d1 bd
       -0.07105666 8.825029e-39 0.016590925 -0.102314934
0000e0 ca 1f 8c b6 00 21 e4 aa 3c 65 e2 2d 04 f7 6e b7
       -4.176026e-06 -4.0523834e-13 2.5738182e-11 -1.4243418e-05
0000f0 d6 ff 9b 81 17 23 1f 27 0d b6 6f be e3 39 c3 80
       -5.7305114e-38 2.2084705e-15 -0.2340929 -1.7928688e-38
000100 48 04 17 80 d1 80 0e be e0 17 68 3d e4 49 b6 bd
       -2.113752e-39 -0.13916327 0.056663394 -0.08900812
000110 44 f8 1a 81 ad ed 9a 3c a9 ff 15 be 96 70 b9 b7
       -2.8463455e-38 0.01891216 -0.14648308 -2.2106145e-05
000120 37 92 6f 29 8c a7 04 ad ee aa 00 b7
       5.3195482e-14 -7.540534e-12 -7.669192e-06

encoder_x.fc_mu.bias f4 [5]
000000 62 82 19 3e 57 79 3d 3d 17 ca a9 3d 1c 24 dd 3d
       0.14991143 0.046258297 0.08290499 0.10797903
000010 93 8d f0 3d
       0.11745753

encoder_x.fc_log_var.weight f4 [5, 15]
000000 cf 56 0d 01 7e 46 c3 26 af b8 e9 3c 36 29 a2 00
       2.5959892e-38 1.354995e-15 0.028530447 1.4892134e-38
000010 e5 d4 ab 81 e7 1b 19 be ae 6e c4 3d b3 a9 15 be
       -6.312097e-38 -0.1495205 0.09591423 -0.14615516
000020 3c dc 90 01 ea fa 9d 3c 26 ee 7d be 18 4f 17 b7
       5.3213267e-38 0.019284684 -0.24797878 -9.018717e-06
000030 a6 1f a2 01 00 fc 00 ae 49 ec 07 00 61 40 86 81
       5.9554815e-38 -2.932765e-11 7.27612e-40 -4.9316205e-38
000040 ff d8 5f 81 57 29 1b be 06 fd a7 81 6a 02 88 81
       -4.1114318e-38 -0.15152489 -6.170918e-38 -4.9961974e-38
000050 1d ec 52 3e 62 79 f5 3d 77 55 7c 3e 27 98 84 01
       0.20597883 0.119860426 0.24641977 4.870747e-38
000060 ab 08 9e 3c 09 4e d4 bd 10 9a 35 b8 cc 7f 14 81
       0.019291243 -0.103664465 -4.3297245e-05 -2.7274997e-38
000070 0c 87 72 ae b0 34 18 2b 50 5d 2a 01 e2 ce 28 1b
       -5.5144375e-11 5.4074367e-13 3.1291017e-38 1.3963482e-22
000080 1a 41 74 3d 44 c6 38 01 70 49 1f 81 3e b9 13 be
       0.0596324 3.393771e-38 -2.9256377e-38 -0.14426133
000090 89 88 b2 bd 80 a2 88 bd 85 04 5e 80 11 6a d3 bb
       -0.08717448 -0.066716194 -8.634158e-39 -0.006451853
0000a0 9b 62 c1 bc 96 b1 88 37 21 15 2d 01 ca e0 82 2d
       -0.023606589 1.6295158e-05 3.179024e-38 1.4879115e-11
0000b0 9d 57 58 a9 b0 be 93 01 f8 33 4f 81 a1 57 84 bd
       -4.8037627e-14 5.4272895e-38 -3.805718e-38 -0.064620264
0000c0 18 61 49 01 83 67 83 01 72 7b 98 3c b9 5f b9 ba
       3.698753e-38 4.827033e-38 0.01861355 -0.0014142907
0000d0 84 98 f9 3d 20 ad 5a 80 0b 4b 71 3b 07 51 96 bc
       0.12187293 -8.3273e-39 0.003681841 -0.018349184
0000e0 26 ce 37 b8 7c c7 a2 81 63 81 6e ae 8d 86 93 b2
       -4.382259e-05 -5.979565e-38 -5.4229853e-11 -1.7174239e-08
0000f0 a7 40 56 81 55 c0 06 ae 07 71 72 3e c6 a4 89 81
       -3.9351978e-38 -3.0638898e-11 0.23675929 -5.056229e-38
000100 19 cf ae 01 0f 32 16 3e c5 58 24 3e fb 65 94 bc
       6.4214676e-38 0.14667533 0.16049488 -0.018115034
000110 92 c5 66 81 c1 55 82 bc 82 15 6d 3d 39 0a c0 b7
       -4.2386078e-38 -0.015910031 0.05788184 -2.2892944e-05
000120 ad 6e 15 98 f2 f4 d1 2d 2c df 30 33
       -1.9313676e-24 2.3869327e-11 4.1181167e-08

encoder_x.fc_log_var.bias f4 [5]
000000 70 e5 b4 3d 1d fc 46 bd 70 76 71 3d 2e 8d ec 39
       0.08832824 -0.048580278 0.05895084 0.00045118615
000010 e1 cd 11 be
       -0.14238693

encoder_t.out.weight f4 [15, 15]
000000 38 aa 0a 81 a3 96 5a 00 2f 57 84 00 c8 75 d3 00
       -2.5468723e-38 8.319233e-39 1.2153561e-38 1.9419542e-38
000010 0f 5d aa 01 ae a8 d1 80 d1 3f 3d 80 e1 22 00 81
       6.258167e-38 -1.925413e-38 -5.624858e-39 -2.3534911e-38
000020 ef 0f 58 80 b0 df 44 80 fd da e7 00 9c e6 1e 00
       -8.08724e-39 -6.325058e-39 2.1292558e-38 2.837792e-39
000030 d8 0c af 81 8e f3 a3 81 3a 72 31 00 4c fa 21 00
       -6.4303277e-38 -6.022623e-38 4.540916e-39 3.120361e-39
000040 88 70 18 3e 42 ea 4f 01 30 fb 90 01 c2 20 a5 3d
       0.14886677 3.8187967e-38 5.325768e-38 0.08062889
000050 c4 f5 8d 81 d2 3d 80 a1 76 0a a1 bc ce d2 18 81
       -5.2147876e-38 -8.689981e-19 -0.019658308 -2.8069236e-38
000060 52 d9 d6 19 b9 75 ed 80 85 84 41 81 68 7a 8e 1c
       2.2214856e-23 -2.1807244e-38 -3.554358e-38 9.428413e-22
000070 b1 27 cf 3d 40 42 ce b1 c1 08 f4 00 6c 3a ea b4
       0.101149924 -6.002921e-09 2.2411001e-38 -4.3628404e-07
000080 6e 61 23 01 9e 26 04 81 4e 06 a7 b2 09 fe ea 80
       3.0008274e-38 -2.4272277e-38 -1.9444226e-08 -2.1580637e-38
000090 67 e8 5e 00 08 00 29 00 44 7b 47 80 9a 4b 41 80
       8.715907e-39 3.765267e-39 -6.56454e-39 -5.996428e-39
0000a0 36 8b 64 00 03 76 fe 80 9d e6 25 81 79 78 01 b1
       9.233489e-39 -2.336855e-38 -3.047117e-38 -1.8840451e-09
0000b0 fb 9c 6b 00 8c e1 a0 80 c6 75 4a 00 c3 0b 0c 81
       9.882712e-39 -1.477459e-38 6.838076e-39 -2.5722378e-38
0000c0 2e 7b 1a 00 39 75 b0 80 87 98 50 00 c2 6c 66 00
       2.431911e-39 -1.6205099e-38 7.401556e-39 9.406236e-39
0000d0 f2 ec 82 00 f6 52 a8 80 6e 61 59 00 9d a7 bd 00
       1.2023614e-38 -1.5458124e-38 8.20831e-39 1.7417037e-38
0000e0 59 95 a2 00 23 51 8c 00 09 74 59 81 8c cc 31 00
       1.4930926e-38 1.2886076e-38 -3.9939856e-38 4.573317e-39
0000f0 54 fb 2b 81 f7 fe 07 00 88 51 ba 00 c5 06 e5 80
       -3.158806e-38 7.34313e-40 1.711065e-38 -2.1032757e-38
000100 a8 06 8b 81 2e a1 84 81 79 dc 52 00 24 62 57 01
       -5.1070087e-38 -4.8720423e-38 7.609601e-39 3.9559676e-38
000110 14 b6 16 00 be 2f c0 00 1f 21 61 00 27 17 2e 80
       2.085698e-39 1.7649542e-38 8.919925e-39 -4.232738e-39
000120 08 72 61 00 42 fb 90 81 3c 71 55 01 b4 56 55 01
       8.94895e-39 -5.3257783e-38 3.9203163e-38 3.9184128e-38
000130 e6 cf be ac c7 30 50 00 e3 df 00 00 4c 9f c2 a9
       -5.423206e-12 7.364338e-39 8.0315e-41 -8.642964e-14
000140 73 f5 83 00 f0 f2 25 00 44 21 55 80 5c 52 9b 00
       1.21185e-38 3.485063e-39 -7.81795e-39 1.4264047e-38
000150 6f 9c 3b 00 18 8d f5 80 a0 40 5b 80 44 bc a1 01
       5.474412e-39 -2.2550311e-38 -8.380213e-39 5.941221e-38
000160 c8 6f e8 a6 8f b5 ac 00 3b 5d 53 81 d3 47 c1 ba
       -1.6128532e-15 1.5860836e-38 -3.882147e-38 -0.0014746137
000170 4e 7f 75 81 3b 92 de 80 78 0a 45 ba 54 91 9e 01
       -4.509073e-38 -2.0439938e-38 -0.00075165136 5.824857e-38
000180 6e fd b8 00 24 72 13 01 fe da 3a 80 0f 56 4e 81
       1.6988645e-38 2.7081528e-38 -5.405018e-39 -3.7897968e-38
000190 f4 7d 99 80 18 68 72 01 da a6 a6 00 43 46 0f ba
       -1.4096014e-38 4.4523064e-38 1.5304547e-38 -0.0005465487
0001a0 c0 c0 3c 81 bc 34 c6 80 40 27 88 bd 4c 60 7a 01
       -3.4668438e-38 -1.8202346e-38 -0.06648111 4.5986838e-38
0001b0 6b 79 46 01 c2 36 d7 3d 0a bb 02 02 7f 50 61 a1
       3.645397e-38 0.10508491 9.604569e-38 -7.63395e-19
0001c0 cc b7 c9 bc c6 b8 0a 00 ce d7 33 1b 9c f8 6f 80
       -0.024623774 9.84639e-40 1.4876263e-22 -1.0282924e-38
0001d0 8e 2c 04 81 4e c3 ae 9e a1 5e 3a 3e 34 0e 0b 32
       -2.4276537e-38 -1.8503743e-20 0.1820016 8.094094e-09
0001e0 8e ec a7 00 4b 95 1e be ce 25 bb 81 5f fa 2c 00
       1.5421388e-38 -0.15486638 -6.87472e-38 4.130578e-39
0001f0 f6 f7 d8 3d 9c 15 b4 81 b6 79 6e 21 cf a3 88 3c
       0.1059417 -6.6152565e-38 8.079862e-19 0.016679673
000200 2c 2c 04 80 5c c9 06 99 ff 09 00 01 5e 7b 11 01
       -3.83188e-40 -6.968302e-24 2.351706e-38 2.6720806e-38
000210 06 a1 b1 9d f4 f1 ab 3d 8b b5 b6 b1 37 1b b4 81
       -4.7018004e-21 0.08395758 -5.317536e-09 -6.616061e-38
000220 65 4c 8e 3b 0a e0 aa 81 64 9b 8e 01 a0 55 72 3a
       0.004342603 -6.276962e-38 5.2385536e-38 0.00092443265
000230 5a 15 6e 81 6b cc 3b 00 ab cc 02 80 17 f8 3f 00
       -4.3729015e-38 5.491626e-39 -2.57092e-40 5.874634e-39
000240 b6 63 f3 80 f3 69 41 00 8c 50 a9 81 a0 f4 7c 01
       -2.2351795e-38 6.007315e-39 -6.2196375e-38 4.64606e-38
000250 b3 8b 71 39 7b 61 3a 81 02 f6 0d 01 1a a3 66 3d
       0.00023035593 -3.4232743e-38 2.6074112e-38 0.05630789
000260 20 02 3d 00 90 5f 6b 00 b3 3d f3 ba 91 6b b4 80
       5.602728e-39 9.86068e-39 -0.0018557817 -1.6568977e-38
000270 c3 f2 70 a1 0e 15 9d bc ee ee 9d 81 1d 4f bd 9b
       -8.1636455e-19 -0.019175079 -5.801554e-38 -3.1318553e-22
000280 59 91 aa 81 3b 06 10 81 6a 06 23 1f f9 0d 9b 3c
       -6.26567e-38 -2.6453093e-38 3.4521898e-20 0.018927561
000290 58 c5 c0 b1 ef aa 69 80 5a 0c 3a 3e 52 bd 6a 80
       -5.610371e-09 -9.704047e-39 0.18168774 -9.802478e-39
0002a0 c2 2f 83 01 17 1b 98 3c 37 84 c0 80 ae ed 0e a0
       4.819033e-38 0.018567605 -1.7679845e-38 -1.210651e-19
0002b0 73 9f ef bb 40 92 c5 80 5c b9 67 9a d2 95 a7 01
       -0.007312709 -1.8144057e-38 -4.7919412e-23 6.1561093e-38
0002c0 90 1c 44 81 84 81 83 1d 48 69 65 bd a5 4b 0a b1
       -3.6020007e-38 3.4809327e-21 -0.056008607 -2.0124642e-09
0002d0 db a9 4e 81 0c d5 46 3e c0 22 d8 80 c3 90 4e 81
       -3.795809e-38 0.19417208 -1.9848933e-38 -3.7940086e-38
0002e0 9b 25 24 3d ab ab 7a 00 f4 f0 00 a1 80 bc d7 3c
       0.040074926 1.1265513e-38 -4.3686986e-19 0.026335001
0002f0 b8 82 a7 00 50 e8 c7 1b d3 97 52 01 fc 76 18 01
       1.5383421e-38 3.3071917e-22 3.8679837e-38 2.8003358e-38
000300 ea f1 4d 9f 7f 98 f4 3d b4 f5 a8 b1 15 97 b7 81
       -4.3610545e-20 0.11943149 -4.9173767e-09 -6.7440375e-38
000310 8a d0 30 3e d3 d6 0e 01 fc 99 3b 81 0d 97 e6 3d
       0.17267051 2.623541e-38 -3.4456954e-38 0.112592794
000320 68 c2 29 82 9e 7e 39 a1 8f d1 12 bd fc f0 eb 00
       -1.2471951e-37 -6.2848015e-19 -0.035844382 2.166779e-38
000330 3b 2c 02 1b aa 0e 9e 00 16 f2 03 01 18 15 f7 9e
       1.076764e-22 1.4515269e-38 2.4234588e-38 -2.6160866e-20
000340 24 7b 89 3d c0 3c 32 31 28 21 54 81 90 fa e4 0c
       0.0671294 2.5936941e-09 -3.896204e-38 3.5279764e-31
000350 ea 4d 57 00 c7 48 98 80 3d c4 04 8d ee 19 aa 01
       8.017638e-39 -1.3985103e-38 -4.0911854e-31 6.2485345e-38
000360 e7 6c 9d 80 2b f8 41 80 e0 a7 de 80 9e f6 8c 81
       -1.445724e-38 -6.058333e-39 -2.0447702e-38 -5.1781756e-38
000370 ba 01 95 00 c0 11 8a 01 0f e2 0c 80 72 f8 10 8d
       1.3684108e-38 5.0718664e-38 -1.18312e-39 -4.467248e-31
000380 70 f0 14 80
       -1.922963e-39

encoder_t.out.bias f4 [15]
000000 9b 56 6e 80 ae 93 00 3e 86 15 cb b8 f7 15 55 80
       -1.0132973e-38 0.12556335 -9.6838034e-05 -7.813897e-39
000010 8a be 1e 80 25 cd c5 b4 c7 cf 60 bb 4e 8b b9 3d
       -2.823417e-39 -3.6843372e-07 -0.0034303532 0.090597734
000020 f4 91 82 3e 69 16 8d bc f5 ba c5 3d b8 c0 c9 3c
       0.25501978 -0.0172226 0.096548 0.024628028
000030 37 7b 92 3d 7b dc 24 3e ba d6 58 8c
       0.071524076 0.16099732 -1.6704652e-31

encoder_t.fc_mu.weight f4 [1, 15]
000000 14 c4 8f 81 3a 9b e1 3d d2 95 dd 3a 64 74 30 80
       -5.281126e-38 0.11015935 0.0016905612 -4.449857e-39
000010 c4 5c a2 80 fd 89 c5 b1 85 04 f6 3b 78 65 f2 3d
       -1.4910628e-38 -5.749142e-09 0.007507863 0.1183576
000020 50 0c cd bd 2d 54 32 ad 8e 48 12 3e 2f 3f 72 bb
       -0.10012114 -1.0136819e-11 0.1428549 -0.003696393
000030 05 09 4f be 00 d5 13 3e b2 56 a3 8a
       -0.20218284 0.14436722 -1.572894e-32

encoder_t.fc_log_var.weight f4 [1, 15]
000000 4b 00 fe 00 bf 83 74 bd a9 8b 8e 97 0b 01 27 81
       2.3326321e-38 -0.059695955 -9.21179e-25 -3.0673804e-38
000010 f8 b0 5f 01 f8 09 f5 2a 6b 2c 91 b9 a3 ab 67 3d
       4.10856e-38 4.352766e-13 -0.0002768965 0.05656017
000020 12 a3 bf 3d 7d bf 5a 9b 41 15 2f be 28 cb 26 3e
       0.09357275 -1.809441e-22 -0.17097951 0.16288435
000030 38 7f da 3d 1b 48 6e 3e 64 c5 8d 8a
       0.10668796 0.23269694 -1.3652056e-32

encoder_yf.out.weight f4 [15, 15]
000000 fe 42 b0 80 b4 eb ca 00 f8 3c c7 00 72 f1 7b 01
       -1.618708e-38 1.8635325e-38 1.8297135e-38 4.6274648e-38
000010 c9 aa 66 80 ff f1 8d 81 e0 85 74 00 26 a4 0f 80
       -9.428487e-39 -5.214247e-38 1.0700943e-38 -1.436418e-39
000020 c6 05 c3 00 ec a4 8f 00 a2 1c ac 00 2b 98 87 01
       1.7909993e-38 1.3191639e-38 1.5805977e-38 4.980952e-38
000030 f0 9c 05 81 17 d1 9c 81 96 22 0a 01 e0 a5 4f 81
       -2.454084e-38 -5.760538e-38 2.537141e-38 -3.8138905e-38
000040 17 c3 14 8b b0 fe 0a 01 0a 8c e1 00 41 40 25 80
       -2.8650532e-32 2.5529326e-38 2.0713223e-38 -3.420963e-39
000050 a7 df 7d 01 82 ea 75 80 cc fa 3f 01 29 69 c0 80
       4.6629224e-38 -1.0828879e-38 3.5261097e-38 -1.767014e-38
000060 62 55 ae 80 62 f0 2e 00 87 f5 59 81 6c 70 33 01
       -1.6010006e-38 4.310666e-39 -4.0032763e-38 3.2957766e-38
000070 68 3a 9e 00 1c 85 2e 81 9e 54 1b 01 31 8f 3f 81
       1.453096e-38 -3.2054254e-38 2.8529714e-38 -3.5183894e-38
000080 76 7b 3e 81 ef 62 8a 00 f4 bb 5f 81 aa 45 45 80
       -3.4986067e-38 1.2708789e-38 -4.109348e-38 -6.36164e-39
000090 d7 bc 9a 01 e5 44 a5 81 d6 fc 19 00 18 22 b5 80
       5.684164e-38 -6.0710286e-38 2.386588e-39 -1.6634455e-38
0000a0 6b 18 c9 00 48 18 40 81 73 a7 ae 00 01 c8 39 81
       1.8467694e-38 -3.5282251e-38 1.6039446e-38 -3.412263e-38
0000b0 d2 7b 96 81 5c 70 17 80 17 9b 03 bd e8 73 21 00
       -5.527897e-38 -2.152523e-39 -0.032130327 3.072151e-39
0000c0 96 33 49 80 57 ee 3b 3d 12 6f 23 81 86 24 8a 1e
       -6.722497e-39 0.045881595 -3.001806e-38 1.4626424e-20
0000d0 80 70 f0 38 ff 41 81 01 6c d9 04 99 38 66 82 01
       0.000114650466 4.7481816e-38 -6.868148e-24 4.7901135e-38
0000e0 6e 1f 23 81 00 3d 13 9c 75 4d 50 ba d9 0e 00 af
       -2.9960921e-38 -4.871706e-22 -0.00079461123 -1.1646807e-10
0000f0 3c 44 4e 81 72 af 2f 80 f0 47 ac 80 38 44 9b 80
       -3.788518e-38 -4.379206e-39 -1.5821512e-38 -1.4258974e-38
000100 bb 6e 94 81 8c 59 67 01 32 41 b4 81 30 0a fd 80
       -5.4525504e-38 4.2492246e-38 -6.621511e-38 -2.3238035e-38
000110 4f b9 66 80 f4 af 03 01 52 4b 4f 00 a8 8c 8f 00
       -9.433697e-39 2.418714e-38 7.282024e-39 1.3182934e-38
000120 70 79 a7 81 b3 54 6e 80 7c c6 0f 01 a5 fe 57 81
       -6.1520366e-38 -1.0132289e-38 2.6407357e-38 -3.9671962e-38
000130 11 67 a8 bc d8 d0 03 00 2b fd bc 80 83 4a 9c bc
       -0.020556958 3.50426e-40 -1.7355893e-38 -0.019078499
000140 d4 2d fd 00 c4 96 a5 80 a0 da 36 01 10 a3 e7 00
       2.325082e-38 -1.5206941e-38 3.3584976e-38 2.1272495e-38
000150 58 d8 05 00 1b ba e7 00 80 92 cb 80 16 82 35 96
       5.36787e-40 2.1280762e-38 -1.869516e-38 -1.4662111e-25
000160 19 a0 95 bc fc 60 3b 0c 5e 8a 13 01 5b 32 06 3d
       -0.018264817 1.4435141e-31 2.709891e-38 0.032762866
000170 61 43 70 01 9d bd 91 00 29 37 06 bc d2 e7 67 02
       4.412938e-38 1.3384167e-38 -0.008191862 1.7037729e-37
000180 7d 72 4f a0 b4 6e 8b bb 54 11 95 81 9d f9 31 1b
       -1.7571463e-19 -0.00425514 -5.475882e-38 1.4721751e-22
000190 ec bc 07 81 b9 f8 07 01 b4 91 c8 1b 20 b1 a6 3d
       -2.493113e-38 2.4974034e-38 3.3181383e-22 0.08139253
0001a0 44 f6 d6 b1 74 8e 5e 81 ad 2d d0 bd a8 c6 14 81
       -6.256217e-09 -4.0877165e-38 -0.10164962 -2.7325836e-38
0001b0 1a a4 89 01 40 e5 32 3d 90 e0 51 81 96 0c 55 9b
       5.0561326e-38 0.04367566 -3.8548353e-38 -1.7623014e-22
0001c0 6a de ba bb 64 23 15 00 c6 06 fe 17 a8 e1 a4 00
       -0.0057027834 1.941241e-39 1.6416075e-24 1.5141972e-38
0001d0 3d 77 24 01 40 f5 43 93 34 09 a8 3d 9e 3e df 23
       3.0207592e-38 -2.4733378e-27 0.0820488 2.4204228e-17
0001e0 cf 91 54 01 78 b4 d8 3d ed 2a 18 01 3b 6d 46 80
       3.9042863e-38 0.10581297 2.7948789e-38 -6.467669e-39
0001f0 64 07 65 be 7e e2 3a 82 a6 65 66 9f 69 82 cf 39
       -0.223661 -1.3730122e-37 -4.8788476e-20 0.0003957928
000200 48 95 7c 80 21 fa 85 19 ef b4 28 00 9c 9c 6c 00
       -1.1441154e-38 1.3852904e-23 3.738327e-39 9.974414e-39
000210 02 28 0a 1c 0c 3a 1e 3e e0 ff cd af 60 50 31 80
       4.571208e-22 0.1545183 -3.7471093e-10 -4.528772e-39
000220 09 d8 22 00 ff f2 25 81 85 a0 b7 81 04 ab 3b 81
       3.199906e-39 -3.0480055e-38 -6.745392e-38 -3.4469173e-38
000230 53 2f 08 01 55 af 60 00 af 66 78 01 6c e4 22 80
       2.5013208e-38 8.879105e-39 4.5624078e-38 -3.204349e-39
000240 78 ab 25 00 fa f0 34 00 a6 ac 63 80 00 90 b1 00
       3.459425e-39 4.861892e-39 -9.153649e-39 1.630654e-38
000250 aa aa ad 81 d8 da 2f 80 94 40 53 01 92 72 7e 81
       -6.3795054e-38 -4.394775e-39 3.8800912e-38 -4.6734632e-38
000260 b1 53 18 80 38 4d e1 80 bd de e6 80 88 cd 4e 00
       -2.234075e-39 -2.0690688e-38 -2.1202068e-38 7.2369e-39
000270 18 11 a3 80 58 05 ca 80 1a fa b1 00 4a 3c 5a 80
       -1.4975318e-38 -1.8552687e-38 1.6344602e-38 -8.286822e-39
000280 cc 3d 1e 80 ff ce d5 00 5e f3 e5 80 d6 64 b3 00
       -2.777233e-39 1.9635217e-38 -2.1117632e-38 1.6474727e-38
000290 f8 1b 0f 81 28 2b 52 01 58 93 3f 3e 00 b6 8e 00
       -2.6285018e-38 3.8601871e-38 0.18708551 1.310593e-38
0002a0 a7 a9 83 80 ec 68 16 be 2a 85 53 80 30 20 ae 9c
       -1.209131e-38 -0.14688462 -7.670116e-39 -1.1522674e-21
0002b0 98 f3 c6 bb fe 70 a5 81 15 e8 b4 1a 21 26 04 01
       -0.006071519 -6.0773563e-38 7.4821204e-23 2.4271927e-38
0002c0 b8 2b 39 00 ba f7 86 1c d8 a2 9f 3d c8 f6 f5 af
       5.250307e-39 8.931412e-22 0.07794732 -4.474059e-10
0002d0 44 ab 04 00 39 e1 20 bd e3 41 bf 01 84 dc 80 80
       4.2878e-40 -0.03927729 7.025686e-38 -1.183405e-38
0002e0 d0 a6 06 3d 2e 51 87 81 9c f9 a2 95 60 04 7b 01
       0.03287393 -4.9707655e-38 -6.582509e-26 4.6104558e-38
0002f0 7b d9 94 01 22 93 cd 8e 84 be 69 00 4c 77 4d 81
       5.4678683e-38 -5.0678085e-30 9.711071e-39 -3.7738145e-38
000300 ea f6 86 01 e8 64 b5 bd f8 77 da 85 7d 66 91 80
       4.957813e-38 -0.08857137 -2.0544691e-35 -1.3352913e-38
000310 36 1e 01 bc d0 3e bf 01 34 c9 26 81 3b 3d 38 3e
       -0.007880738 7.025245e-38 -3.063374e-38 0.17992108
000320 66 d9 c1 81 d5 8c 29 a0 1e 6d 3d bb 43 f6 93 81
       -7.1208954e-38 -1.4361454e-19 -0.002890415 -5.435264e-38
000330 73 75 33 1b 38 aa 02 81 ac f2 79 01 32 be 74 1c
       1.4844483e-22 -2.3999355e-38 4.5908186e-38 8.097865e-22
000340 28 85 34 be ec 35 c2 b1 b3 89 cc 00 2b 47 4a 28
       -0.1762892 -5.6522733e-09 1.8783838e-38 1.1228685e-14
000350 f6 22 a9 01 80 2a 38 80 ee 1b 20 28 fa 8e b6 00
       6.213096e-38 -5.158034e-39 8.8878405e-15 1.676535e-38
000360 ac 70 bc 80 1d 86 bc 80 d0 29 12 00 b5 ba 30 02
       -1.7305492e-38 -1.7313184e-38 1.668038e-39 1.298402e-37
000370 f9 3b 6d 00 b8 d2 d0 80 ae 88 85 00 95 a6 e6 27
       1.0031583e-38 -1.9177375e-38 1.2263152e-38 6.4018433e-15
000380 c2 15 c0 81
       -7.056088e-38

encoder_yf.out.bias f4 [15]
000000 f9 a5 6d 00 4e 11 00 a6 40 49 94 81 51 fc 3a 3b
       1.0069609e-38 -4.4432373e-16 -5.447172e-38 0.002853174
000010 cc 5c b0 00 f2 a8 bb bc 02 74 50 3e 1e 8f 0b 3c
       1.6196337e-38 -0.022907708 0.20356753 0.0085180085
000020 b8 20 3e 3e 90 16 00 01 37 07 f9 97 32 7b 49 3d
       0.18567169 2.3526075e-38 -1.6093069e-24 0.049189754
000030 7e ed 17 3d 39 4f 52 3e 88 33 4b a8
       0.037091725 0.20538034 -1.1279938e-14

encoder_yf.fc_mu.weight f4 [1, 15]
000000 90 a4 2c 00 ed dd b0 9d 57 2b c2 00 e9 c6 04 3c
       4.099796e-39 -4.6816278e-21 1.7831634e-38 0.0081040645
000010 de 35 a2 81 0b 18 a0 3c 4f e5 5f be 70 4d 4c bd
       -5.9586697e-38 0.019542715 -0.21864818 -0.049878538
000020 46 f0 f3 bd 87 29 57 81 29 d6 af b1 67 1d 25 3d
       -0.11911063 -3.9519058e-38 -5.1175175e-09 0.040311243
000030 ba 74 3a bb 00 55 4a be 8b 6b bd 2a
       -0.0028450922 -0.19758987 3.3647767e-13

encoder_yf.fc_log_var.weight f4 [1, 15]
000000 50 77 78 80 da bf 2a 23 37 60 51 80 73 51 b4 bc
       -1.1063061e-38 9.256345e-18 -7.47319e-39 -0.022011494
000010 19 08 05 81 6c b4 91 3c 6f 28 28 be c9 9d 34 3d
       -2.4434052e-38 0.017786227 -0.16421674 0.04409579
000020 84 9e 10 be 56 77 3f 81 9f c7 8a 00 74 7e c7 3d
       -0.14122969 -3.516678e-38 1.2744909e-38 0.09740916
000030 c1 96 0b 3b a5 ae 2f be 06 5a a0 27
       0.0021299573 -0.17156465 4.4506525e-15
