DR_Info_CFR/Twins/Models/Backup/netD.pth (torch, 10091 bytes, 5 tensors)

hidden1.weight f4 [30, 32]
0.08993217 -0.10636833 0.12296761 -0.09144101 0.03744032 0.0033938058 -0.1220373 0.16235638
-0.14490864 -0.13152692 -0.14029749 0.15696134 0.07482357 -0.12351885 0.10982037 -0.025851756
0.1300566 0.13405524 0.019396473 0.09079691 -0.06475248 -0.064179145 0.1995892 -0.020845084
0.18192983 0.018363554 0.13871871 -0.0050530257 0.16528119 0.12649158 1.8076004 0.046741843
0.007633593 0.032764167 0.19142479 0.1710652 0.15692198 -0.02181731 0.1573335 -0.08052677
-0.0021204154 0.19324233 0.035761274 0.018853923 0.13156518 -0.116588555 -0.009494159 -0.0032336828
0.08678116 -0.1290302 0.020509655 0.10905772 -0.06529482 -0.092906 0.13317238 0.080918536
-0.043448813 0.09016987 0.091144 0.020933356 0.11143425 -0.006962574 -1.405084 -1.9243745
0.08555258 -0.0883788 -0.10370869 -0.10523826 0.1239701 0.23101 0.17219913 0.047342252
0.0723704 -0.07721977 0.118155755 0.062856 0.1362955 0.0002898592 0.21860518 -0.100451
-0.06775156 -0.035961974 -0.008591304 -0.012358949 -0.050906822 -0.049611833 0.021651363 0.18704607
0.10590808 0.19641148 -0.027916389 0.048609857 -0.06698329 0.06628881 -0.32779744 0.78480244
0.0113034835 0.20483789 0.15357295 0.010180264 -0.11604242 -0.048879556 -0.03433567 0.16839086
0.14630367 -0.037010495 -0.06719385 -0.07045494 -0.14891283 0.02837201 -0.07605359 0.11343423
0.035372954 0.12753187 0.027545845 0.017121488 -0.0035097294 0.16959825 0.043513875 -0.06736239
0.084476404 -0.00071163673 0.09259969 0.044455003 0.043135785 -0.0022352503 -0.7771784 1.1620982
0.23458056 -0.037256956 0.12336262 0.20865017 0.16926478 -0.0733996 0.099171 0.07045967
0.18986318 -0.14637949 -0.07703846 0.07656994 -0.19824457 -0.090057634 -0.09445422 0.12837318
-0.15590186 0.22150333 0.14450973 0.091712125 0.047037534 -0.073508896 -0.14635791 -0.10371924
-0.14203744 0.17091529 0.141833 0.14293192 0.06158426 -0.15470439 -0.23943625 0.10259205
-0.07859656 -0.060035974 0.028044254 -0.0065714456 -0.10080338 -0.07498907 0.08376464 -0.009641622
-0.03487066 -0.0397603 0.12539941 0.023753162 -0.10238937 -0.14452063 0.06736764 0.13173375
0.060581848 -0.13286977 0.009892395 0.14791852 -0.08190742 0.10357496 0.010350644 0.04012836
-0.1221477 -0.10160321 0.13044685 0.015967518 -0.1607829 -0.13936405 0.017319495 0.1052463
0.050679214 -0.082805656 -0.13237959 -0.15394779 0.030638909 0.15372998 -0.024546606 -0.11120223
-0.014032965 -0.15035504 -0.021853173 -0.12767301 0.14512245 0.1275408 -0.10990164 0.054446705
-0.16542163 -0.06774402 0.028136013 0.045781504 0.0041979696 -0.0028313862 -0.023366895 0.1011314
0.17923848 0.11203566 -0.0027094765 0.1302177 0.08322788 -0.0431074 -0.92336303 -0.28640854
0.013040258 0.07256687 0.06968624 -0.057921957 -0.038298346 0.08968109 -0.09108932 0.1966942
0.100014836 0.08887513 -0.04461653 0.062583685 0.15832065 -0.029972998 -0.0076908395 -0.035238195
-0.060978938 0.14350146 -0.0017331709 0.024627555 0.080522604 -0.066052265 0.0133090895 -0.022708742
0.00288436 0.057128165 0.0014378513 0.15623268 -0.032763388 -0.03246049 1.1530788 -0.96562666
00000000: 5c2e b83d a4d7 d9bd 71d6 fb3d 6d45 bbbd
00000010: 055b 193d 9d6a 5e3b b1ee f9bd c040 263e
00000020: ee62 14be feae 06be 25aa 0fbe 79ba 203e
00000030: 1a3d 993d 73f7 fcbd 81e9 e03d 10c7 d3bc
00000040: 8f2d 053e c745 093e 5ae5 9e3c bbf3 b93d
00000050: f39c 84bd 5b70 83bd 1c61 4c3e 4fc3 aabc
00000060: d04b 3a3e 2a6f 963c 470c 0e3e da93 a5bb
00000070: 793f 293e 0287 013e 735f e73f 6074 3f3d
00000080: 3823 fa3b b833 063d dc04 443e b72b 2f3e
00000090: 28b0 203e 37ba b2bc 081c 213e 38eb a4bd
000000a0: abf6 0abb 51e1 453e 6a7a 123d 8b73 9a3c
000000b0: 06b9 063e fbc5 eebd 648d 1bbc 32ec 53bb
000000c0: 52ba b13d 7e20 04be dd03 a83c a759 df3d
000000d0: 4ab9 85bd 8045 bebd 575e 083e 9eb8 a53d
000000e0: 62f7 31bd fbaa b83d b5a9 ba3d 6e7c ab3c
000000f0: a437 e43d 4e26 e4bb cbd9 b3bf e751 f6bf
00000100: 3136 af3d f2ff b4bd 3965 d4bd 2887 d7bd
00000110: 09e4 fd3d e38d 6c3e f854 303e f3e9 413d
00000120: ef36 943d 6625 9ebd a5fb f13d a6ba 803d
00000130: 0c91 0b3e 3ef8 9739 09da 5f3e 41b9 cdbd
00000140: 54c1 8abd dd4c 13bd 8ac2 0cbc 307d 4abc
00000150: ac83 50bd c735 4bbd 335e b13c 0189 3f3e
00000160: 56e6 d83d 1720 493e e9b0 e4bc 211b 473d
00000170: 892e 89bd 6dc2 873d 11d5 a7be d0e8 483f
00000180: 3f32 393c 06c1 513e 3a42 1d3e 1fcb 263c
00000190: a6a7 edbd ee35 48bd 8fa3 0cbd a76e 2c3e
000001a0: a1d0 153e 5198 17bd ee9c 89bd ae4a 90bd
000001b0: 9b7c 18be 6b6c e83c fcc1 9bbd 3550 e83d
000001c0: 3be3 103d b797 023e d3a7 e13c 5d42 8c3c
000001d0: 7d03 66bb 2aab 2d3e 9b3b 323d 4bf5 89bd
000001e0: f701 ad3d 228d 3aba e8a4 bd3d 7316 363d
000001f0: 26af 303d 477d 12bb 2af5 46bf a2bf 943f
00000200: e335 703e c09a 18bd 8ba5 fc3d 64a8 553e
00000210: bf53 2d3e 8852 96bd 2a1a cb3d 294d 903d
00000220: 7e6b 423e 81e4 15be 57c6 9dbd b3d0 9c3d
00000230: a000 4bbe 2370 b8bd 3771 c1bd 4274 033e
00000240: bda4 1fbe c5d1 623e 5cfa 133e 91d3 bb3d
00000250: 6eaa 403d d58b 96bd d9de 15be c16a d4bd
00000260: 4372 11be 6b04 2f3e ac3c 113e bf5c 123e
00000270: c73f 7c3d d46a 1ebe c72e 75be c81b d23d
00000280: 3cf7 a0bd 48e8 75bd 10bd e53c 4855 d7bb
00000290: 0172 cebd df93 99bd cc8c ab3d e5f7 1dbc
000002a0: 8ad4 0ebd b2db 22bd b468 003e fe95 c23c
000002b0: 85b1 d1bd 37fd 13be 0cf8 893d 36e5 063e
000002c0: ac24 783d 030f 08be b613 223c f477 173e
000002d0: 14bf a7bd 1c1f d43d bf95 293c a35d 243d
000002e0: 9328 fabd 5815 d0bd dc93 053e 50ce 823c
000002f0: 46a4 24be 73b5 0ebe 9de1 8d3c 5f8b d73d
00000300: 0295 4f3d 0396 a9bd 848e 07be 7da4 1dbe
00000310: 73fe fa3c 646b 1d3e f715 c9bc ffbd e3bd
00000320: 85ea 65bc acf6 19be 6d05 b3bc b7bc 02be
00000330: fb9a 143e 0e9a 023e 1c14 e1bd 8203 5f3d
00000340: 4a64 29be 60bd 8abd 7f7d e63c 6385 3b3d
00000350: 1f8f 893b c78e 39bb ee6b bfbc fb1d cf3d
00000360: 4b8a 373e f472 e53d 7991 31bb ca57 053e
00000370: 6173 aa3d 6391 30bd 8561 6cbf 24a4 92be
00000380: cea6 553c f09d 943d a9b7 8e3d 933f 6dbd
00000390: bade 1cbd b8aa b73d 0a8d babd 346a 493e
000003a0: 94d4 cc3d 2a04 b63d d3bf 36bd e02b 803d
000003b0: cf1e 223e ef89 f5bc 7003 fcbb ed55 10bd
000003c0: 0dc5 79bd 0cf2 123e 912b e3ba babf c93c
000003d0: 09e9 a43d 6946 87bd 5e0e 5a3c af07 babc
000003e0: 8807 3d3b 39ff 693d 4976 bc3a 76fb 1f3e
000003f0: e732 06bd 4af5 04bd 1698 933f 4f33 77bf

hidden1.bias f4 [30]
-0.08058102 0.099578805 0.16975807 0.05522191 0.13870482 -0.15579875 0.049617488 -0.033930834
0.15169774 0.12676175 0.16181973 0.00074817945 0.14234158 -0.10127659 -0.034354612 -0.09292236
-0.19854535 -0.11017785 -0.24413793 -0.017847568 0.06496477 -0.16668849 0.10090812 0.2141703
0.18363611 0.24827635 -0.05653827 0.0055322945 0.10314043 -0.010291264
00000000: a907 a5bd f9ef cb3d 0fd5 2d3e 5f30 623d
00000010: a308 0e3e b589 1fbe b53b 4b3d 0ffb 0abd
00000020: a756 1b3e d5cd 013e 12b4 253e 7921 443a
00000030: fec1 113e 1a6a cfbd 6cb7 0cbd 144e bebd
00000040: 794f 4bbe eda4 e1bd 4bff 79be 1035 92bc
00000050: 400c 853d 63b0 2abe eba8 ce3d 764f 5b3e
00000060: 1b0b 3c3e 283c 7e3e ac94 67bd 4048 b53b
00000070: 4a3b d33d b19c 28bc

hidden2.weight f4 [30, 30]
0.32939827 -0.05278657 -0.036505505 0.034213714 0.23862371 -0.45183238 -0.24335311 0.4438234
-0.20953318 -0.28817904 0.5098551 -0.03273799 -0.15409881 0.1671166 0.1631006 -0.08700084
-0.06038671 -0.08890305 0.1352058 -0.17528792 -0.07579202 -0.19822635 -0.11454702 0.43462595
0.19792327 -0.095184244 -0.16693886 0.08509522 -0.8067664 -0.19534637 -0.106660396 0.026599064
-0.08539585 0.032298267 0.094666004 0.28105325 -0.330508 0.26520222 0.108960085 -0.2275317
-0.043360285 0.11145569 0.42643306 -0.0918291 -0.07612173 0.12366142 -0.0022705328 -0.28051642
0.22390223 0.000676421 -0.025209324 -0.085676424 0.068223484 0.09776158 0.052702803 0.024453705
-0.02848019 -0.40962926 -0.07157634 -0.033086307 -0.19723046 0.8899867 -0.36714804 -0.46043056
0.13322693 -0.023525765 0.077015825 0.4891263 0.047376085 0.46939924 0.2652375 -0.3987948
0.30856794 0.033095233 0.5563377 0.00601836 -0.65727365 -0.46569437 -0.3751876 0.20896393
0.062454432 0.25693718 -0.57015914 0.46019813 0.43836182 0.5834852 0.046324622 0.027325818
-0.25582585 -0.2111696 0.34622413 0.27851287 0.107280694 -0.101539806 -0.31752348 0.20263433
-0.15313564 0.21251808 -0.17593925 0.039051987 0.28164133 -0.1968921 -0.0014593736 0.14172001
0.47953358 -0.11300481 -0.3917141 0.019148348 -0.04747063 0.039870877 -0.06805686 0.10798023
-0.29898965 0.21733741 0.15994656 0.36211175 0.3177118 -0.21693246 -0.53024524 -0.45144194
-0.08677348 0.8988582 0.031578332 -0.64642596 0.2410468 -0.19536929 -0.031141507 0.56118596
-0.011312375 0.41309857 0.12863645 -0.62341964 0.32034814 0.18827458 0.41417783 -0.13365886
-0.30399555 -0.5742252 -0.08084923 -0.30616128 -0.15858263 -0.16415454 -0.81557584 -0.096977025
0.21666385 0.35910136 0.42805445 -0.13520426 -0.1381293 -0.286732 -0.057861928 0.15972866
-0.26415884 -0.1527971 0.5021983 0.013592077 -0.19028957 0.09774768 -0.1606746 0.40565616
0.12814607 -0.11529875 -0.20404433 0.10529664 0.72822076 -0.10344634 -0.056527335 -0.114691086
0.17226784 -0.035048448 -0.103179574 -0.04906531 -0.7314115 0.09102294 -0.23319533 0.10689003
0.30893782 -0.0636033 -0.11657479 -0.1365435 -0.06796173 0.32936195 0.03854798 0.12909968
0.16147746 0.085322075 -0.08149942 0.13428482 -0.12497853 0.18259592 0.37871858 -0.2043553
-0.5543419 0.11974101 0.2948129 -0.07397582 -0.42086682 0.010597882 0.0068129064 -0.17472139
0.106573895 0.0420685 -0.40078938 0.31965426 0.07636486 0.1478655 0.19910733 0.23152651
-0.14954446 -0.24953733 -0.45524234 0.030683147 -0.32635304 -0.11281445 0.049693033 0.15304877
0.27427787 0.6024027 0.011206472 -0.21897502 -0.095503174 -0.13414937 0.24166791 0.4574702
-0.123827524 0.152971 -0.19894238 -0.15194945 -0.018226936 -0.2217614 -0.22100307 -0.084840976
-0.19417739 -0.12348309 0.5323427 0.06638016 0.06621034 -0.18029565 -0.22730106 0.095625
0.1434857 -0.14943984 0.34581608 0.5105478 -0.12946625 0.02497298 0.18635733 -0.2707337
0.400531 -0.11290793 -0.3054108 0.30691618 0.022182668 0.13867077 -0.1388758 0.05280364
00000000: e4a6 a83e bb36 58bd cc86 15bd ae23 0c3d
00000010: c659 743e 9356 e7be 8f31 79be d23c e33e
00000020: de8f 56be 348c 93be dd85 023f 4518 06bd
00000030: 14cc 1dbe 9d20 2b3e d803 273e 7f2d b2bd
00000040: 0e58 77bd cd12 b6bd 6473 0a3e ad7e 33be
00000050: d938 9bbd d9fb 4abe a197 eabd 4b87 de3e
00000060: 66ac 4a3e f5ef c2bd 05f2 2abe 6746 ae3d
00000070: 3e88 4ebf e108 48be c470 dabd 48e6 d93c
00000080: 05e4 aebd 304b 043d 40e0 c13d 36e6 8f3e
00000090: 5838 a9be 96c8 873e 7726 df3d 12fe 68be
000000a0: 8e9a 31bd e142 e43d 6f55 da3e e510 bcbd
000000b0: b6e5 9bbd 3342 fd3d 38cd 14bb d99f 8fbe
000000c0: a046 653e d851 313a c983 cebc 1f77 afbd
000000d0: c1b8 8b3d 3937 c83d e5de 573d 2353 c83c
000000e0: 4a4f e9bc edba d1be 9e96 92bd 8285 07bd
000000f0: c8f6 49be 2bd6 633f d4fa bbbe 8ebd ebbe
00000100: a46c 083e 1bb9 c0bc 79ba 9d3d c36e fa3e
00000110: 6d0d 423d 1955 f03e 36cd 873e d52e ccbe
00000120: 9efc 9d3e de8e 073d 266c 0e3f aa35 c53b
00000130: 1643 28bf 7e6f eebe 9718 c0be a4fa 553e
00000140: 38d0 7f3d 458d 833e f3f5 11bf 179f eb3e
00000150: f670 e03e 495f 153f e3be 3d3d 65da df3c
00000160: 9bfb 82be d83c 58be 4a44 b13e 3d99 8e3e
00000170: fbb5 db3d 1af4 cfbd 7092 a2be 607f 4f3e
00000180: 97cf 1cbe 579e 593e 6b29 34be faf4 1f3d
00000190: 4b33 903e 159e 49be 7448 bfba 0d1f 113e
000001a0: 6d85 f53e 116f e7bd c08e c8be ffdc 9c3c
000001b0: 9070 42bd a54f 233d 6561 8bbd bd24 dd3d
000001c0: 2c15 99be b38d 5e3e 08c9 233e b666 b93e
000001d0: 1fab a23e 8b23 5ebe 27be 07bf 6623 e7be
000001e0: 4bb6 b1bd 921b 663f 4858 013d 2c7c 25bf
000001f0: f9d4 763e e30e 48be 791c ffbc e2a9 0f3f
00000200: 8a57 39bc a881 d33e 46b9 033e 6e98 1fbf
00000210: ac04 a43e 0dcb 403e 1e0f d43e dedd 08be
00000220: 4ea5 9bbe 6c00 13bf 4894 a5bd 2cc1 9cbe
00000230: 7c63 22be 2118 28be 94c9 50bf e49b c6bd
00000240: 21dd 5d3e 22dc b73e f429 db3e fc72 0abe
00000250: c471 0dbe 89ce 92be a100 6dbd e98f 233e
00000260: d43f 87be d876 1cbe 1190 003f 4eb1 5e3c
00000270: 45db 42be f02f c83d e287 24be 2ab2 cf3e
00000280: b938 033e c021 ecbd fff0 50be c4a5 d73d
00000290: ad6c 3a3f addb d3bd 3589 67bd 29e3 eabd
000002a0: fb66 303e f68e 0fbd d04f d3bd b5f8 48bd
000002b0: c93d 3bbf 3c6a ba3d c2ca 6ebe 29e9 da3d
000002c0: 192d 9e3e 7242 82bd c3be eebd 0fd2 0bbe
000002d0: 852f 8bbd 21a2 a83e 7de4 1d3d b532 043e
000002e0: 595a 253e 57bd ae3d 2be9 a6bd f681 093e
000002f0: bef4 ffbd 6dfa 3a3e 67e7 c13e 8442 51be
00000300: 5ae9 0dbf c63a f53d b7f1 963e a280 97bd
00000310: db7b d7be bda2 2d3c cd3e df3b 2aea 32be
00000320: 6a43 da3d 0550 2c3d 4434 cdbe b9a9 a33e
00000330: 2e65 9c3d 0e6a 173e cbe2 4b3e 4915 6d3e
00000340: 2f22 19be b786 7fbe 8615 e9be 395b fb3c
00000350: bf17 a7be 430b e7bd ec8a 4b3d d1b8 1c3e
00000360: 266e 8c3e 1037 1a3f 5a9b 373c fd3a 60be
00000370: 2b97 c3bd 745e 09be cb77 773e 8939 ea3e
00000380: 4999 fdbd 6ea4 1c3e 8db7 4bbe a398 1bbe
00000390: a850 95bc 6c15 63be a14e 62be 1bc1 adbd
000003a0: 70d6 46be b4e4 fcbd 9c47 083f 52f2 873d
000003b0: 4999 873d 6c9f 38be 9cc1 68be 0ad7 c33d
000003c0: eaed 123e c206 19be ce0e b13e 43b3 023f
000003d0: cd92 04be 2394 cc3c 75d4 3e3e 9c9d 8abe
000003e0: 6612 cd3e 463c e7bd ce5e 9cbe 1e24 9d3e
000003f0: 6db8 b53c b6ff 0d3e 7535 0ebe a148 583d

hidden2.bias f4 [30]
0.02907871 -0.0020062581 -0.047106467 0.05509236 0.1427667 0.037987404 0.00953903 -0.07263524
0.0700973 -0.0034691207 -0.03238863 0.02675601 -0.05513104 0.09486901 0.0 0.1274451
0.0010438113 -0.022489017 -0.022963941 0.03422319 0.0 -0.025278902 0.025941651 0.063403584
0.07295249 0.1277272 0.06166978 0.039912894 0.04064179 0.009552314
00000000: 7a36 ee3c 6d7b 03bb b6f2 40bd 87a8 613d
00000010: 6f31 123e ae98 1b3d 9749 1c3c c9c1 94bd
00000020: 2c8f 8f3d 305a 63bb f1a9 04bd 6b2f db3c
00000030: 16d1 61bd af4a c23d 0000 0000 f880 023e
00000040: 7fd0 883a e33a b8bc e01e bcbc 9e2d 0c3d
00000050: 0000 0000 b315 cfbc 9683 d43c bdd9 813d
00000060: 1d68 953d ebca 023e 7499 7c3d b47b 233d
00000070: 0178 263d 4f81 1c3c

out.weight f4 [1, 30]
-1.2680938 -0.24652426 1.6281235 -0.87309915 1.5794535 -0.5211286 -0.5566065 0.08500632
0.38411838 -0.14051943 1.5442739 -0.5369141 0.03507309 -1.0748755 0.0303054 -0.79585975
1.672214 -0.9419308 -0.06009959 -1.8780694 0.04757066 -0.049507797 0.35804114 -0.5021325
0.24464372 -1.0027057 -0.61438847 -0.4941166 0.20463242 -1.1813368
00000000: e650 a2bf db70 7cbe 5a66 d03f 6d83 5fbf
00000010: 882b ca3f af68 05bf c37d 0ebf cb17 ae3d
00000020: 2aab c43e 53e4 0fbe c4aa c53f 3473 09bf
00000030: cda8 0f3d 8595 89bf 0843 f83c 77bd 4bbf
00000040: 1c0b d63f 6022 71bf fd2a 76bd 9464 f0bf
00000050: 74d9 423d b0c8 4abd 2b51 b73e c18b 00bf
00000060: e283 7a3e a958 80bf 9048 1dbf dafc fcbe
00000070: 298b 513e 0b36 97bf
