DR_Info_CFR/Twins/Models/Backup/netD.pth (torch, 10091 bytes, 5 tensors)

hidden1.weight f4 [30, 32]
000000 c4 3a 54 3a d9 d1 ad be 46 22 8d bb 5a c4 fa 3d
       0.0008095915 -0.33949164 -0.004307064 0.12244482
000010 a2 82 71 be 8d 68 83 bd cb 86 f6 bd 91 77 b3 be
       -0.23584989 -0.06416426 -0.120374285 -0.3505216
000020 90 ac 36 3d a5 c1 2d be 2b 24 be bd 14 d2 0b be
       0.044598162 -0.16968401 -0.09284242 -0.13654357
000030 09 7d 6c 3c b7 32 99 3e 58 26 75 be 09 52 ad 3d
       0.014434108 0.29921505 -0.23940408 0.084629126
000040 c4 12 f5 3d 71 45 9a 3d 91 eb 01 bc 2e 47 59 bc
       0.1196647 0.07532776 -0.007929699 -0.0132615995
000050 a4 53 00 bf 84 bc cb bc c1 cf 96 3d e4 c3 3a be
       -0.50127625 -0.024870165 0.07363845 -0.18238789
000060 71 ca 98 3e ba 20 77 3e 12 96 cf 3d 8b bd 02 3d
       0.2984195 0.24133578 0.101360455 0.031919044
000070 d7 37 04 3f b2 95 46 39 6c 70 05 3e 0b 85 69 be
       0.51647705 0.00018938517 0.13031167 -0.22804658
000080 63 6e c9 bd 1d 37 71 3e 32 3f f9 bd bd 0e b2 bd
       -0.09835508 0.2355618 -0.12170257 -0.08694217
000090 80 dc 31 be 91 31 3b 3d 36 f7 b8 3e d1 bf 8d 3d
       -0.1736927 0.045701567 0.36126107 0.06921352
0000a0 d0 36 c3 bc 26 55 13 3e 89 89 33 3e 82 fc 43 be
       -0.023829848 0.1438795 0.17532934 -0.19139293
0000b0 ab 6e 3e bd 78 cb 0f be d4 6f 68 be fe 42 62 be
       -0.04649226 -0.14042461 -0.22698909 -0.22095868
0000c0 2a ff 9e 3e 9a d2 35 bc aa 3f 51 3d 04 40 84 3b
       0.3105405 -0.011097575 0.051086105 0.0040359516
0000d0 1e ef 5f bb a4 80 87 be 66 ec 45 3c cf 92 f2 3d
       -0.0034169625 -0.26465333 0.012080288 0.11844408
0000e0 6a db 2e 3e b2 cb 05 3c e0 63 74 3d e4 d3 ad 3d
       0.17075887 0.0081662405 0.05966556 0.084876806
0000f0 95 5b 17 3e f5 31 0d 3e 8d 8e c1 be f6 cb 2d 3f
       0.1478103 0.13788588 -0.3780407 0.67889345
000100 12 a2 98 be cc da 53 be 92 dd 3a 3b ec bf b5 3c
       -0.2981115 -0.20688933 0.0028513414 0.022186242
000110 0d ef c7 3d aa a8 7b bd ab 1b 8a 3b 49 9a c3 3c
       0.09762392 -0.061440147 0.004214724 0.02387728
000120 38 44 a3 3d 40 92 20 3e 6b ca be 3a ba 60 66 bd
       0.07971996 0.1568079 0.0014556175 -0.05624459
000130 4e 8a 8d 3e 1c 78 a1 3e 24 eb b3 3c 96 b5 e1 3d
       0.2764458 0.3153695 0.02196271 0.11020963
000140 2e 2c a1 bd 16 58 8b 3d 4e d4 a7 3d 31 05 04 3e
       -0.07869755 0.068039104 0.08194791 0.12892605
000150 db ab a1 bd fd 99 b3 be c1 8c 38 be d9 24 d2 be
       -0.07894107 -0.3507842 -0.18022443 -0.41043738
000160 de 99 c4 bd 53 00 8d be 39 9b 53 3e 37 d7 27 be
       -0.0959966 -0.2753931 0.20664681 -0.16390692
000170 74 eb ef bc e9 eb 68 be 2a 45 3a 3d 18 ab 93 3d
       -0.029287077 -0.22746243 0.045476116 0.07210368
000180 e3 5e 6e 3e c8 42 61 3e f2 0b 91 3b 70 d7 11 be
       0.23278384 0.21998131 0.004426473 -0.14242339
000190 0d a2 05 3e 12 27 6c be b4 1a 04 be a4 20 c7 bc
       0.13050099 -0.23061779 -0.12900811 -0.024307556
0001a0 4b 4f 06 be e2 96 37 be 14 9f 31 3e b0 60 aa 3d
       -0.13116185 -0.17928651 0.1734584 0.08319223
0001b0 df 0c 0f be 10 7f 5f 3e 5e 17 22 3e f8 1c 45 bd
       -0.13969754 0.21825814 0.15829226 -0.04812333
0001c0 d6 41 f2 3d 57 d0 93 3c 78 78 82 3e 13 63 00 3f
       0.118289635 0.01804368 0.25482535 0.50151175
0001d0 48 ff 40 bd b9 d7 0e 3e 30 ec 30 be d2 5a 41 be
       -0.047118455 0.13949479 -0.17277598 -0.18882301
0001e0 a8 fc 09 be 7b d4 00 bd 42 0a 8d 3c 02 23 a3 be
       -0.13475287 -0.031452637 0.017216805 -0.31862646
0001f0 09 53 15 3e f1 b4 13 3e ce a9 37 3d 25 fc ce 3e
       0.14582457 0.14424492 0.044839673 0.40426746
000200 f9 e0 ea be 90 73 a3 bd 9a 4b 6e 3e 33 0a b0 3e
       -0.45874766 -0.07981026 0.23271027 0.3438278
000210 cc af 65 3d 63 3d b1 bd cf 82 58 bd d1 67 fe bd
       0.056075856 -0.08654287 -0.052859124 -0.12422145
000220 0a 10 87 be 53 71 1f bd e2 47 94 be ec 6f 8d 3e
       -0.26379424 -0.038926434 -0.28961092 0.27624452
000230 b1 c7 a4 bb db b1 33 be 4f ac 8d 3e 77 1b ad 3b
       -0.005028688 -0.17548315 0.27670524 0.005282815
000240 d4 30 5d be 47 3f c6 3d 58 69 9b bc c0 60 64 3d
       -0.21600658 0.09680038 -0.01897113 0.05575633
000250 77 32 3d bd 1b 40 e4 3d a8 b7 c8 3d 0f b3 39 3e
       -0.046190705 0.1114504 0.09800655 0.18134712
000260 54 55 2f be 41 42 28 3e 70 93 4a 3e 95 e9 18 bc
       -0.17122394 0.16431524 0.19782805 -0.009333034
000270 b4 35 48 bd 02 eb 43 3c 9d 55 53 bf 41 af 0b 3f
       -0.04887934 0.011957886 -0.8255251 0.5456429
000280 42 1f 8d bc 4e 81 d8 bd 83 12 75 be 51 25 31 be
       -0.017226819 -0.10571538 -0.23932843 -0.17299391
000290 8c 1c 5e 3d 40 28 27 3e bb 28 00 3e 05 67 61 3e
       0.054226443 0.16323948 0.12515537 0.22011955
0002a0 4d cf ba 3e 6e 48 3f 3c 3f 50 cf 3e fa b3 2b bd
       0.36486283 0.011674983 0.4049091 -0.041919686
0002b0 c1 05 8c bc 05 af bb bd 77 5f 13 3e 9a 72 b2 3c
       -0.017092587 -0.09164242 0.14391886 0.021783162
0002c0 cd 48 eb bc 80 83 95 be 0e 89 94 bd 91 97 10 3e
       -0.028721238 -0.2920189 -0.072527036 0.14120318
0002d0 00 a9 ce bd 75 54 21 be 9b 5b 9c 3d 88 bd 34 3d
       -0.10090828 -0.15754874 0.0763466 0.044126064
0002e0 a7 70 93 3e c3 33 92 3e be 9c 73 bc d1 8c 81 bd
       0.28796884 0.28555116 -0.014868913 -0.06325687
0002f0 a6 d2 cb bd 47 f3 9a bd 13 87 d4 be 9b f2 2f 3f
       -0.099522874 -0.07565933 -0.41509303 0.6872956
000300 da 27 98 3d 30 e1 55 3e 03 ab 02 3e d8 9d 52 bd
       0.07429476 0.20886683 0.12760548 -0.051420063
000310 ba 10 39 3e 6e 38 78 bb e2 0a c3 3d d2 72 00 bd
       0.18072787 -0.0037875432 0.0952356 -0.0313595
000320 74 8c d2 3d 7e 5e 16 be 15 e5 52 3e 0c c7 f9 bd
       0.102806956 -0.14684483 0.205952 -0.12196168
000330 bf f7 8b bc 3d c3 e2 bd b5 c6 5a be 48 aa b0 bc
       -0.017085908 -0.11072395 -0.21364863 -0.021565571
000340 92 8a 8f 3e 0b 12 b6 3d 36 53 aa 3d 7e f4 64 3b
       0.28035408 0.0889016 0.083166525 0.0034935768
000350 89 bd 1a 3c 0f d5 7e 3d ac 7d 80 be ee cb cb 3e
       0.009444603 0.062214907 -0.2509588 0.39804024
000360 d9 4a 19 3c 35 d8 88 3d fb 04 cc bd 0f 93 64 3e
       0.009356224 0.06681863 -0.099618874 0.22321723
000370 1d 15 f8 3c 3b 31 4b 3e 75 5e 18 bf cc a9 eb 3e
       0.030283505 0.19842999 -0.5951913 0.46027982
000380 51 4b aa be 3c 6b c2 bd ac 49 5d 3d 3c fa 4a be
       -0.33260587 -0.094931096 0.054025337 -0.1982202
000390 99 92 19 be 48 5e 1f be 1e 4d 08 3e 14 08 f0 3d
       -0.14997329 -0.15563309 0.13310668 0.11720291
0003a0 e2 48 df bd 1c 4d b2 3d ea 23 6c 3d 6a a9 b7 bd
       -0.10902573 0.08706114 0.057651438 -0.0896786
0003b0 a7 d9 b7 bd 85 72 26 be 57 26 c2 3c 48 a6 fe bd
       -0.08977061 -0.16254623 0.023699922 -0.124340594
0003c0 d3 4d f5 bb 4b 52 dd be c1 71 77 3c 7d fe 23 be
       -0.007486084 -0.43226847 0.015102805 -0.16015048
0003d0 af 04 46 3e 73 d3 da 3d a6 fa 73 3e cd f2 ea bd
       0.19337724 0.10684862 0.23826084 -0.11472092
0003e0 32 07 cd 3d 7e d3 07 be 04 b4 e2 3d 00 6a b4 bd
       0.10011138 -0.13264272 0.110694915 -0.088092804
0003f0 53 e6 31 3d 49 b4 81 3d 0d c2 47 3f 1d d8 ee be
       0.043432545 0.06333215 0.78030473 -0.46649256

hidden1.bias f4 [30]
000000 6f f0 60 bd 5b a2 88 3c 00 00 00 00 ca fb af 3a
       -0.054916795 0.01667898 0.0 0.0013426479
000010 62 18 3c 3d 59 83 33 3d 1a af 97 bb 6b 72 59 bc
       0.04592169 0.043826435 -0.004629028 -0.013271908
000020 5b a5 43 3d ca db ab 3c 7f 7f 3f 3c cd 65 a6 3b
       0.047765117 0.020978827 0.011688112 0.0050780536
000030 c0 d0 be bc cd 1e 86 3d 6d d1 35 bc df ec 46 3b
       -0.0232929 0.065488435 -0.011097294 0.0030353589
000040 00 00 00 00 7d e1 4e 3d 00 00 00 00 27 aa d8 3c
       0.0 0.05050801 0.0 0.026448322
000050 19 ca f8 3c a4 08 80 3a 00 00 00 00 00 00 00 00
       0.030369805 0.00097682 0.0 0.0
000060 f9 88 89 bc 35 ba 04 bd e2 94 07 3c 20 e4 8c 3c
       -0.016788946 -0.032404143 0.0082752425 0.017198622
000070 00 00 00 00 72 fe cf bc
       0.0 -0.025389884

hidden2.weight f4 [30, 30]
000000 5c 76 0a bc b0 43 6d 3e 06 e1 96 bc 3a fd 91 3e
       -0.008451071 0.23170352 -0.018417846 0.2851351
000010 0c 1c 22 bd 4a 5f 12 be 78 de 21 3e e7 41 49 bd
       -0.03957753 -0.14294162 0.15807521 -0.049135115
000020 9e 23 d4 3e 26 f4 61 b9 48 a4 97 bc 41 a4 cb 3d
       0.41433424 -0.00021548624 -0.018510953 0.09943438
000030 1b 3c 92 3d 82 cc e0 3d a9 16 28 3e 97 89 56 be
       0.071403705 0.10976507 0.16414894 -0.20950924
000040 6c 10 68 bb 82 88 11 be 94 70 38 3e 04 e0 ec bd
       -0.0035410179 -0.1421223 0.18011695 -0.11566165
000050 b3 01 a9 bd ab 34 84 be 3a 6d 14 3e d0 20 cb be
       -0.08252277 -0.25821432 0.14494792 -0.3967347
000060 0b 06 12 3e 0b 73 20 be 3f 9f e6 bd 0a 57 2b be
       0.14260118 -0.15668885 -0.112608425 -0.16732422
000070 6a ca fe bd 6c d6 8d 3e 0a 7e c1 3e 5c cf a0 be
       -0.12440951 0.27702653 0.37791473 -0.31408203
000080 ce 72 fa 3d 6b 1c c4 3e 26 49 61 be 1b 1d 34 3d
       0.122289285 0.3830293 -0.2200056 0.04397307
000090 08 37 7c bc c4 05 62 be bf fd 43 3c b9 e3 9a 3e
       -0.01539398 -0.22072512 0.011962353 0.30251864
0000a0 50 ed 3e bc fd 05 94 3b 3e 76 09 3e 29 de a2 bd
       -0.011653259 0.0045173154 0.13424012 -0.0795253
0000b0 88 5b c8 bd 39 0f 24 3e 3f b1 8b bc 77 80 1d 3e
       -0.09783083 0.16021432 -0.017052291 0.15381037
0000c0 1c 30 37 be 98 21 8a 3d 27 fe f4 bc 32 f5 42 3c
       -0.17889446 0.06744689 -0.029906346 0.011899279
0000d0 36 31 82 bb 05 11 b1 bd 50 c7 21 be e9 f2 89 3d
       -0.0039731516 -0.08645824 -0.15798688 0.067357846
0000e0 fe 56 84 be f7 8a 9d 3e 54 99 f8 3d 3b 9a 20 3c
       -0.2584762 0.30770084 0.1213862 0.009802396
0000f0 2e 37 ff bd a5 00 ae 3e 25 5a 45 3e aa 24 dd bd
       -0.124616966 0.33984867 0.19272669 -0.10798009
000100 85 bc ba 3e 64 15 80 3e c6 6f a8 3e e9 06 32 be
       0.36471954 0.2501632 0.32897776 -0.17385449
000110 ec 5c fe 3c fa aa 32 be 8e 89 22 bd aa ad b7 be
       0.031050168 -0.17448035 -0.039681964 -0.35874683
000120 5c 5b c5 3e d9 1b a2 3d f2 79 ca 3d 6c 0b bb 3d
       0.38546264 0.07915468 0.098865405 0.09133038
000130 b1 df e3 3e 8f 99 37 3e bc 8d 43 be 18 14 1c 3e
       0.445066 0.17929672 -0.19097036 0.1524204
000140 51 8b 4a 3e 77 8d 0c ba 7f 37 1f 3e 4d bd 28 be
       0.19779707 -0.0005361656 0.15548514 -0.16478463
000150 3f de b8 bd 03 59 b3 be 07 ce 99 3e 7c 6a 6f bd
       -0.09026765 -0.35028848 0.3004 -0.05845116
000160 f1 ac 73 be c1 43 57 bc 98 99 eb 3d 19 4f e2 be
       -0.2379644 -0.013138712 0.11503905 -0.44200972
000170 61 64 01 3e a3 03 4b bd be 96 1f be 3f cc ac 3c
       0.12635948 -0.049564015 -0.15584847 0.021093486
000180 0d b4 87 3e a0 ca 80 3e 54 53 ba bd 9a f7 3b 3d
       0.26504555 0.2515459 -0.09097925 0.045890428
000190 45 b0 70 bc 02 b8 83 be 26 a1 ab be 6b 1f 9f bd
       -0.014690463 -0.25726324 -0.33521384 -0.077696644
0001a0 0e 40 d9 bd 7f 93 49 be 39 a5 88 3e 7f 02 21 be
       -0.106079206 -0.19685172 0.26688555 -0.15723608
0001b0 ba 59 88 3d 30 52 d0 bd 11 6d 85 be ef d3 4e be
       0.06657739 -0.10171926 -0.26059774 -0.20198034
0001c0 c9 ae 49 be 82 c3 94 bd 27 7c 52 be 09 96 75 bb
       -0.19695581 -0.07263853 -0.20555173 -0.003747346
0001d0 5a 74 c5 3d 9d 89 00 bd d6 44 9c bb 5d bb c2 3d
       0.09641333 -0.03138124 -0.004768948 0.09508393
0001e0 67 9d c5 3d 89 9f 5b be ff 75 97 3d 1e 92 ba 3d
       0.09649163 -0.21447577 0.07395553 0.09109901
0001f0 2c 0d 23 3e cb e7 5b 3e 1c 3b 84 3e f1 b7 a4 3b
       0.15922993 0.21475141 0.25826347 0.0050268103
000200 5d fa 09 be 83 77 c8 be 70 db 0e 3c 31 a5 3b 3e
       -0.13474412 -0.3915368 0.00871931 0.18324734
000210 c2 6f 3a 3e 97 ce 4e bd 77 55 3b 3e 89 77 84 3e
       0.18206695 -0.05048999 0.18294321 0.25872448
000220 48 15 3e bd a6 06 cf bc 09 b7 19 3e 3d 6a 3c be
       -0.046407014 -0.025271725 0.15011229 -0.18399902
000230 3b db b8 3e 41 70 4c bd 2d 15 12 3f d1 91 24 3e
       0.3610476 -0.04991174 0.5706356 0.1607125
000240 03 1a 62 3e 5f ba 28 bb 99 5a aa bd 86 68 94 be
       0.22080235 -0.0025745851 -0.083180614 -0.28985995
000250 d5 05 c6 bd c0 24 f5 bc af 62 a1 be 36 40 54 3d
       -0.09669081 -0.02992475 -0.31520602 0.05181905
000260 78 81 7e be d5 d5 d3 3e 0a 1f c8 3e 3b db 1e be
       -0.24854076 0.41374078 0.3908618 -0.15513317
000270 8d 70 52 be 51 df 92 be 3a 0d 25 3d 29 96 04 be
       -0.20550747 -0.28686002 0.040295817 -0.12947907
000280 24 1a 25 3e 1d 4c 97 3e 3d 72 9f 3c bf 87 aa 3d
       0.16123253 0.29550257 0.019463653 0.08326673
000290 e1 a3 9f 3e 69 0e ab 3d 75 9d 8b be 05 0c 11 3e
       0.31179717 0.08352358 -0.27268568 0.14164741
0002a0 97 9d 0e bd 93 c9 19 be 75 c9 35 be 37 6b bc bd
       -0.034818258 -0.150183 -0.17752631 -0.09200137
0002b0 13 1d 80 be 9e 92 e5 3c 63 3e 7f 3e 57 ae 18 3d
       -0.25022182 0.028024014 0.24926142 0.03727564
0002c0 2c 23 27 3e a0 9e 89 3e 06 88 7f 3e 54 5b 2c 3e
       0.16322011 0.26878834 0.24954233 0.16831714
0002d0 96 ba f8 be b8 b7 ad 3d 04 a3 a8 3e 32 4c 17 be
       -0.48579854 0.08482307 0.3293687 -0.1477516
0002e0 d0 bf 1f bd fa a5 3a bd bd 29 70 3e 9d 03 46 3e
       -0.039001286 -0.045568444 0.23453422 0.19337316
0002f0 d7 0c 6b 3c 8e bb af 3c 59 44 c8 bb ee 87 a3 bd
       0.014346323 0.021451738 -0.0061116633 -0.07984911
000300 a1 48 9d be 6a 92 ea 3c 06 5f 3b bd 99 2a 80 be
       -0.30719474 0.028634269 -0.04574492 -0.250325
000310 d4 9a 19 3e 1b e4 e2 bd 8a 2c bd 3e d1 f3 9a bd
       0.15000468 -0.11078664 0.36948043 -0.075660355
000320 0d be 74 3d 6b e3 7a bd 82 7d f5 3d 44 12 5a bb
       0.05975156 -0.06125204 0.11986829 -0.0033275047
000330 4f 21 62 3e a5 1a 26 bc 0c 4c f7 3d 6b d5 12 3e
       0.22083019 -0.0101381885 0.12075052 0.14339225
000340 7e f4 ed bc 42 75 5c 3e 5c 40 55 3e 5c ed 04 bd
       -0.029047247 0.21529105 0.20825332 -0.032452926
000350 cb 96 f1 3d 41 bd 40 bd e0 14 fa bd 74 36 4e 3e
       0.117963396 -0.047055487 -0.12211013 0.2013796
000360 85 0a f1 3d a4 f2 84 3e 8c d9 07 3d 97 ea 6f bd
       0.117695846 0.2596637 0.033166453 -0.05857333
000370 f6 41 52 bd 09 09 8e 3e ec c6 06 be a8 65 a3 3c
       -0.051332437 0.27741268 -0.1316182 0.019945934
000380 a9 2a 55 bd 16 60 9e 3c 4f be aa be 03 aa 1b be
       -0.052042637 0.019332927 -0.3334832 -0.15201573
000390 1c a6 29 3d 02 9d 6f 3e 4c 58 82 be d5 27 5b 3e
       0.04141818 0.23399737 -0.2545799 0.21401913
0003a0 e9 e2 84 3e e9 74 c4 3d f9 65 79 3d ad 40 df 3c
       0.2595437 0.09592611 0.060888264 0.02725252
0003b0 09 1f f8 bd cc 39 87 3e 86 54 4c bd 1d e5 58 be
       -0.121152945 0.26411283 -0.049885295 -0.2118115
0003c0 a9 2d d6 3c 87 0e 18 be bc 2f a1 bd 26 9a f3 3d
       0.02614482 -0.14849292 -0.07870433 0.11894636
0003d0 2d 05 de bd 0c cd 7f 3d 9a a6 03 be 96 35 49 3e
       -0.10840831 0.062451407 -0.12856522 0.19649348
0003e0 d6 b7 2f be 94 16 cb 3c a4 71 84 3d 1a e0 21 be
       -0.17159972 0.02479104 0.06466988 -0.15808144
0003f0 ab 44 f2 3e 6c 56 da 3d 59 e5 0b be 3c ab 41 3e
       0.47318015 0.10661015 -0.13661708 0.18912977

hidden2.bias f4 [30]
000000 2a a9 1d 3c 45 fe a6 3d c5 c9 78 3c 00 00 00 00
       0.009622851 0.08153967 0.015184824 0.0
000010 0c 42 b7 bc 47 62 1c bd b9 bc 49 3c 45 a6 65 bc
       -0.02237036 -0.038179662 0.012313061 -0.0140166925
000020 ce 37 6b bc 2e 58 1c 3d 8d d3 95 bb e7 c7 ab bb
       -0.014356567 0.038170032 -0.004572338 -0.005242336
000030 34 e7 2e 3c 97 0b 60 3b 80 7f 34 bc db a4 86 bc
       0.01067524 0.0034186596 -0.0110167265 -0.016436031
000040 bb fd ca bb 8d 60 38 3d 86 11 ff bc fa c0 58 3c
       -0.006194798 0.045013953 -0.031136286 0.013229603
000050 b9 87 24 3c 00 00 00 00 85 5b ce bc 4a ac 0e 3c
       0.010042124 0.0 -0.025190124 0.008708069
000060 e6 81 88 3d da 07 f3 3a ed 03 6e bc 6c f5 2e bd
       0.06665401 0.0018541769 -0.014527303 -0.04271452
000070 b0 9e 2e 3c b7 44 04 3c
       0.010657951 0.0080730235

out.weight f4 [1, 30]
000000 d7 96 a1 be 3a f1 b0 be ad d9 af be d5 eb c2 bc
       -0.31560394 -0.3455904 -0.3434576 -0.023794094
000010 e4 e6 9e bf ed 83 de be 3f f3 e4 bd 58 cf af 3e
       -1.2414212 -0.43460026 -0.11179208 0.34337878
000020 31 18 bb 3e 47 02 ec 3e 80 ae f8 3e 92 67 1f bf
       0.36541894 0.46095487 0.48570633 -0.6226741
000030 73 13 10 be 9e 0d 70 3e b5 41 b1 3e d0 b5 37 3d
       -0.1406992 0.23442695 0.34620443 0.044851124
000040 75 f1 d8 3e d9 f2 3d 3e f7 d9 22 3d 93 9b 39 be
       0.42371717 0.1854967 0.03975865 -0.18125753
000050 5e 9b 54 3e e5 f3 88 3e 73 ad ac 3e 4a d6 9d 3e
       0.20762393 0.26748577 0.3372608 0.30827552
000060 c4 e5 fa 3e c7 33 73 3e 37 74 cc 3e 69 dc 69 3e
       0.49003422 0.2375022 0.39932415 0.22837986
000070 21 4f 85 be 0e c6 22 bd
       -0.26036933 -0.03973966
