DR_Info_CFR/Twins/Models/Backup/netG.pth (torch, 27623 bytes, 10 tensors)

shared1.weight f4 [30, 100]
000000 1b c5 bd ba 43 c3 49 bb 40 2e 86 3c 2f b5 6b bc
       -0.0014478298 -0.003078655 0.016379476 -0.014386459
000010 fb 49 ff 3b 80 2b 93 bb fe 56 d8 bb fa e8 4c bc
       0.0077908016 -0.0044912696 -0.006602167 -0.012506718
000020 9f 4f be 3b 83 9f 22 ba a5 20 df bb a9 3b 77 3b
       0.0058078314 -0.00062035787 -0.0068093115 0.003772477
000030 34 b3 8f 3b b2 3c 83 3c 98 29 17 3c 7d 99 cf bc
       0.0043853763 0.016020153 0.009226225 -0.025341744
000040 db 15 ed 3c cb 29 4d bb e2 74 0a bc 6e b8 92 bc
       0.028941086 -0.0031305428 -0.008450719 -0.017910209
000050 eb 07 f3 ba 4a c7 d3 3a 54 2e f6 bb 00 5e 4d bb
       -0.0018541788 0.0016157415 -0.007512847 -0.0031336546
000060 90 13 e6 3c 05 73 38 bb 2d ae 37 3b 5f 2f 81 bc
       0.0280855 -0.002814473 0.00280274 -0.015769659
000070 18 43 dc bb 88 9f 88 3c df c5 c8 bb 12 c8 3c 3b
       -0.0067218654 0.016677633 -0.0061271037 0.0028805775
000080 40 6b 2e ba af e2 0c bc 82 db 90 3b 76 8d ba 3c
       -0.0006653555 -0.008598967 0.0044206986 0.022772532
000090 41 a5 38 bb cd 02 a2 bc fc 95 e8 bc 36 db 1e bc
       -0.002817467 -0.019776726 -0.02839183 -0.009695819
0000a0 99 17 09 bc 95 5b 99 bb bd ea 7c 3c 87 77 79 3c
       -0.0083674425 -0.004680107 0.015436825 0.015226251
0000b0 0b 4f 55 bc d5 29 44 ba 74 c6 a6 b7 61 22 09 3c
       -0.013019334 -0.000748304 -1.9881154e-05 0.008370013
0000c0 08 7b 64 3c a4 d5 11 bc 07 41 04 3c 69 05 16 bc
       0.013945349 -0.008901034 0.008072144 -0.009156563
0000d0 f2 6a 80 3c ac cb 8b bb eb d8 31 3a ee 62 85 bb
       0.015675995 -0.004266223 0.00067843375 -0.004070631
0000e0 e5 63 cc 3a 64 7d ca bb 39 c3 9f 3b 75 df 50 bc
       0.0015593736 -0.0061794985 0.0048755673 -0.012748589
0000f0 eb 30 7a 3b d8 a8 25 bc 19 fc 16 3c 41 f9 4c 3b
       0.003817613 -0.010111056 0.009215378 0.0031276497
000100 dc 09 51 bb f6 af 4b 3c 82 3c 53 bb bf 40 b0 bb
       -0.0031896746 0.012432089 -0.003223211 -0.005378812
000110 ea 82 e6 3a a7 c2 98 ba e8 05 b8 bb 78 bf 58 bc
       0.0017586623 -0.0011654691 -0.0056159385 -0.013229243
000120 62 c2 be 3c fe e2 a1 3c 53 7e 31 3c 9b f6 fe bb
       0.023286048 0.019761559 0.010833341 -0.0077808625
000130 50 4f 33 bb 0a 4b 0f 3c fc d8 a2 bb 1c ad c1 bc
       -0.0027360506 0.008745918 -0.004969714 -0.023642115
000140 97 4d 1d bb 18 ea 4c 3a ad 68 41 bc 55 5e 93 3b
       -0.0024002546 0.0007816865 -0.011804742 0.0044973292
000150 ce a1 e5 bb 9c 54 b6 bb b5 e2 00 bc d6 5a 46 bc
       -0.007007814 -0.0055642854 -0.007866551 -0.012106618
000160 8f f8 b0 3b 8e 12 cd 3a 61 77 1f 36 d1 60 00 3c
       0.0054007242 0.0015645789 2.3762334e-06 0.007835583
000170 4c 85 2e bc ef 5d b3 bb 97 3f aa bc 29 99 3b 3c
       -0.010651898 -0.0054738442 -0.020782275 0.01145009
000180 c9 f3 95 bb b7 40 14 3c 43 21 b0 3a 5f 5c 93 bb
       -0.0045761806 0.009048632 0.0013437647 -0.0044970955
000190 f8 70 c6 bc 1d c0 d7 3c 88 97 3f bf 4d ab 6e bc
       -0.02422379 0.026336724 -0.74840593 -0.0145672085
0001a0 a8 7c 4a bd af 28 c1 bb 9c f4 a1 bc eb 71 69 3d
       -0.049435288 -0.0058947424 -0.01976996 0.056993406
0001b0 80 38 8d bc 15 91 08 bd 7f 40 40 bb 24 a8 52 3c
       -0.017238855 -0.033341486 -0.0029335318 0.012857471
0001c0 aa 61 64 bc 04 19 91 bb 06 5a 2b 3c 83 5d 0a bb
       -0.013939301 -0.004428031 0.010458475 -0.0021112866
0001d0 dd 88 61 3c 1a 8c 76 3c 3c 6a f4 3c 04 36 21 3c
       0.013765541 0.015048051 0.029835813 0.0098395385
0001e0 89 85 fa 3b 0e 1a 23 3b 53 b2 ef 3c 29 94 e7 bc
       0.007645313 0.0024887356 0.029259836 -0.02826889
0001f0 eb 07 a4 bc c3 f6 07 bd d2 90 26 3d 8f 64 7e bd
       -0.020023307 -0.033194315 0.040665455 -0.06210762
000200 2b bd 18 bd 5e 43 4e 3c 96 c8 9e 3b 57 24 fb 3b
       -0.03728978 0.012589304 0.004845689 0.007664244
000210 18 cf 65 3c e4 24 4a bd dd 48 57 3b d3 b0 08 3d
       0.014026426 -0.049351588 0.0032849826 0.033371758
000220 99 49 91 bc 6c f3 8c bc 27 93 cb 3c 95 27 82 bc
       -0.01773529 -0.017205916 0.024850441 -0.015888015
000230 bf 2d 20 3b 61 f4 d8 ba a0 93 99 bb d7 2e 00 3c
       0.002444133 -0.0016552323 -0.0046867877 0.0078236675
000240 a0 23 41 3b 70 23 0d 3d 52 ff 9c 3c de e2 ed 3c
       0.0029470697 0.034457624 0.019164715 0.029038843
000250 5e f2 a3 bc 97 ea 02 bd 15 9c 69 bb 87 ff 8a 3c
       -0.02001303 -0.031962004 -0.003564601 0.016967548
000260 a2 60 1a 3d 28 0f e7 bb 6d d1 a1 3c b9 48 d5 3b
       0.037689812 -0.0070513673 0.019753182 0.0065089134
000270 6b 8a a9 3c b1 94 5c 3b 16 39 8d bb 17 6d 0c 3c
       0.020695886 0.0033657963 -0.0043097837 0.008570931
000280 8b 19 d7 3c 5a f0 b1 bb 3c 96 30 3c 1c 40 d2 3b
       0.026257297 -0.0054302635 0.010778006 0.006416334
000290 db 11 06 3d fb 5c 16 3d 08 03 b9 bc e0 b1 51 3d
       0.032731872 0.036709767 -0.022584453 0.051195025
0002a0 b6 82 a1 bc 90 11 11 3c 14 0f 3e bd 0e 2a 14 bb
       -0.019715648 0.008854285 -0.0464011 -0.0022608074
0002b0 71 d6 0d 3c 58 53 1b 3d 67 78 b1 bb 07 6f 89 3b
       0.008657084 0.03792128 -0.0054159644 0.0041941437
0002c0 41 d2 ff bb 3a 5c 56 bc b4 d7 c9 3c 5c 66 ec bc
       -0.0078070466 -0.013083512 0.024638988 -0.028857403
0002d0 8d 4f 7b bc 04 39 e4 3a 3a d4 e7 3b 45 12 ed 3c
       -0.015338791 0.0017412012 0.00707486 0.028939376
0002e0 fe 95 72 bc cb a8 90 3b 0e 92 ad 3b c7 9d 6f bc
       -0.014806269 0.004414653 0.005296952 -0.014625019
0002f0 a4 42 0a bd a6 c7 14 3d 61 de 46 bd 8c e6 09 3c
       -0.03375496 0.036323212 -0.04855192 0.008416783
000300 bf d2 9f bc a9 26 d2 bc 36 bd 96 3c f2 42 73 3c
       -0.019509671 -0.0256532 0.01840077 0.014847504
000310 89 bd e7 3c b7 64 8d bb c0 11 dc bb e2 7d 51 bc
       0.02828862 -0.0043149847 -0.006715983 -0.01278636
000320 a3 d4 a5 bb 0e b8 05 bc 98 5b 3f 3e a8 19 7f 3b
       -0.0050607487 -0.008161558 0.18687284 0.0038925204
000330 70 db c9 3c 8f 07 e9 3b 30 4c b6 bb 7b 65 42 3c
       0.024640769 0.0071114968 -0.0055632815 0.011865015
000340 be dd 05 bb 1b 42 4d 3c c9 96 4b bc 36 90 c7 bb
       -0.0020426358 0.012527968 -0.012426087 -0.0060901893
000350 6d 10 00 bd 3f e4 af bc 96 11 b9 bc 25 63 e9 3c
       -0.031265665 -0.02147114 -0.022591393 0.028489659
000360 75 35 7b bc c9 a1 37 bc d9 48 48 bc 65 f6 c8 3b
       -0.015332569 -0.011208006 -0.0122243995 0.006132888
000370 37 35 9a bb 7f 00 c5 3b 30 ec 4b 3b ff 78 0d 3c
       -0.0047060507 0.006012022 0.003111612 0.008634805
000380 06 c9 a1 bc c9 76 ec ba 83 6f 94 bc d0 7c cc bc
       -0.019749176 -0.0018040772 -0.01811958 -0.024961859
000390 a5 5e c6 3b 4e 58 b0 3c 06 91 66 bc 40 04 66 bc
       0.006053763 0.021526482 -0.014072662 -0.014039099
0003a0 4c 98 04 bc b8 5e 43 bc 6a 14 57 bb 07 42 a9 bc
       -0.008092951 -0.011924438 -0.0032818564 -0.020661367
0003b0 94 c1 da 3a 4f 8f 24 3c ba 44 5f 3c b4 ff 33 bc
       0.0016689771 0.010043933 0.0136272255 -0.010986257
0003c0 a7 31 0c 3a 4b 17 1a 3d 99 d0 30 bc e2 c6 ea 3a
       0.0005347975 0.03761987 -0.010791921 0.0017912055
0003d0 4f c3 5a bc 53 c4 59 3a bf d9 46 bc 42 f3 c8 3b
       -0.013352229 0.00083071477 -0.012136876 0.006132514
0003e0 1c d6 20 bb 34 db 6a 3c 7a 8b 9f bc a5 83 35 bc
       -0.0024541682 0.014334489 -0.019475687 -0.01107875
0003f0 d1 12 86 3b ec 97 0e 3c a6 02 07 bb 16 02 01 3b
       0.0040915986 0.008703213 -0.0020600944 0.0019685081

shared1.bias f4 [30]
000000 b4 77 08 bf d8 de 96 3d 9b 01 bf be 6e c5 93 bd
       -0.5330765 0.07366723 -0.37305912 -0.07215391
000010 f3 08 8b bb cd 0b 15 bf 5c 32 e9 be 94 d8 12 bf
       -0.00424301 -0.5822113 -0.45546234 -0.5736172
000020 73 18 05 bf bd 42 50 be 49 9d 60 bc 20 82 23 bf
       -0.5199043 -0.20337959 -0.013709375 -0.6387043
000030 c4 90 c1 be 48 d1 d6 be ce a6 20 bf 44 f9 34 be
       -0.3780576 -0.41956544 -0.62754524 -0.17673212
000040 b0 c4 ae bd f6 0b c2 bd 3b cb 58 3c 6a b3 ab be
       -0.08533609 -0.094749376 0.013232048 -0.3353532
000050 9a a6 fb be d1 46 bd be 3d 44 48 3e 24 ae 42 bf
       -0.49150544 -0.3696809 0.19557281 -0.7604697
000060 d5 e0 f7 3d ea 23 26 bf 28 bd 20 bf ab 66 27 bf
       0.1210343 -0.6489855 -0.6278863 -0.65391034
000070 f0 d1 16 bf 2c ba bb be
       -0.5891409 -0.36665475

shared2.weight f4 [30, 30]
000000 b0 43 84 be aa e2 d4 3d d5 59 93 be be 51 05 be
       -0.2583289 0.10394795 -0.28779474 -0.13019463
000010 c0 63 3b bd cd 2a 9d bd 69 67 7b bd bf 47 19 3d
       -0.045749426 -0.07674179 -0.061377916 0.037421938
000020 a8 05 c1 bc 07 02 f4 bd ec 8c 7e 3e 37 d8 47 be
       -0.023562267 -0.11914449 0.24858445 -0.19516073
000030 c8 6e 97 be 67 20 34 3e e4 8b a4 3d 87 53 a4 3d
       -0.29576707 0.17590486 0.080344945 0.08023744
000040 12 a8 17 be e5 6b b1 be 15 59 f1 bd 6e a5 53 be
       -0.14810207 -0.3465263 -0.11784569 -0.20668575
000050 1d d1 56 bd d5 45 59 3b 0b 8a bd bd 23 6b 0e be
       -0.05244552 0.0033153195 -0.09254845 -0.13908057
000060 62 56 17 3e 0c bb 78 3d 58 19 8c 3c 84 8f a3 3c
       0.14779046 0.060725257 0.017101929 0.019965895
000070 87 69 a9 3d ad a4 70 3d 04 dc bd 3c 28 15 22 be
       0.08272081 0.058750797 0.0231762 -0.15828383
000080 91 54 1d 3d f3 c8 d8 3d e1 8e 73 bb f1 ea ff 3c
       0.038410727 0.10585203 -0.003716402 0.031239958
000090 30 38 a8 3d 90 ab 3d bd c1 a2 9f be 99 98 19 be
       0.08213842 -0.046306193 -0.3117886 -0.14999618
0000a0 c8 71 45 be e6 96 3c bd 8c 4d 07 bd 34 fe c7 bc
       -0.19281685 -0.046042345 -0.03303294 -0.024413206
0000b0 f5 ea 1b bd 11 38 d0 3d c6 6a 60 3c 2b 9b 5a be
       -0.03806587 0.10166944 0.013697332 -0.21348254
0000c0 44 73 18 3e df 69 80 bd d1 6d 1a bd 48 e7 80 bd
       0.1488772 -0.06270193 -0.037702385 -0.062941134
0000d0 ca 6c 8e be df c8 3c bb fa 78 a1 bc c6 c1 b6 bc
       -0.27817374 -0.0028806252 -0.019711006 -0.022309195
0000e0 c3 29 77 3c 05 bf c6 3c a9 bf ac bc 23 6c df bd
       0.01508564 0.024261007 -0.021087484 -0.10909297
0000f0 78 ae 28 be 85 7f 1a 3d 6d 99 8b bd 2c 3c b3 3c
       -0.16472805 0.03771927 -0.06816373 0.021879278
000100 c0 d3 53 be cf ed 00 be 72 53 e6 3d 58 1d 08 be
       -0.20686245 -0.12590717 0.11246385 -0.13292444
000110 48 b0 9d bc 2f df 15 3e 34 d1 2f bd be e2 50 be
       -0.019249097 0.14635919 -0.04292412 -0.20398995
000120 64 0c b8 bd 3f b6 42 3e 45 e1 1e be 63 3b db 3c
       -0.08986738 0.19014834 -0.15515621 0.026761716
000130 7a b6 8f be 72 d5 51 be ff e1 93 be fd ff d9 bd
       -0.28068906 -0.20491579 -0.2888336 -0.10644529
000140 8c 84 5a 3e 3a b6 1a 3e e1 0e cb bd 23 b1 9b bd
       0.21339625 0.15108576 -0.09914947 -0.076021455
000150 a9 2b e0 bc 88 e4 8a 3d d9 87 2d be fd af 7e 3d
       -0.027364569 0.0678187 -0.16946353 0.062179554
000160 df 5e c2 3d 48 f9 97 be 32 93 e6 bd b2 d4 28 3c
       0.094907515 -0.29682374 -0.11258544 0.010304617
000170 ae bf 5b be da 68 6b be c2 ea 30 be 19 fa 94 bd
       -0.21459839 -0.22989216 -0.17277053 -0.07274265
000180 64 81 a5 be 2f 00 a2 3d b5 72 38 bd 0a c4 b8 3d
       -0.3232528 0.07910191 -0.04503127 0.090217665
000190 a3 0e d2 bd b4 3e 2a be a9 84 2f be c1 c0 a0 bd
       -0.10256698 -0.16625482 -0.1714045 -0.07849265
0001a0 b5 78 cc be 94 96 1c 3e 0a db 01 be e9 d2 8c be
       -0.39935842 0.15291816 -0.12681213 -0.27504662
0001b0 b8 b7 9a be dc 35 95 3d 72 d9 20 3d 26 5d 21 3e
       -0.3021829 0.072856635 0.039269872 0.1575819
0001c0 2f 56 44 3d de 69 3d 3c ec 76 57 be 06 aa ad 3e
       0.047933754 0.011560885 -0.21041459 0.3391878
0001d0 a7 8f 0e 3e 74 be 08 be 1f 49 35 be 54 27 b5 be
       0.13921987 -0.13353902 -0.17703675 -0.35381567
0001e0 d0 5f e9 3b d8 9d 39 bc 37 e3 78 bd 8d e4 82 3c
       0.0071220174 -0.011329137 -0.060763564 0.015978122
0001f0 15 20 74 3d 62 45 eb bd ca 6e 96 bc fe d5 25 3d
       0.05960091 -0.11487843 -0.018363375 0.040487282
000200 dc ca 20 be ff 52 56 bd 9d e3 05 3e f5 01 5c be
       -0.15702385 -0.052325245 0.13075109 -0.21485122
000210 04 e2 b8 be fe 64 32 bd 7b f5 01 be 1c 52 c0 be
       -0.36109936 -0.043553345 -0.126913 -0.37562644
000220 c5 15 d2 be a3 b5 e4 bd 24 76 a1 bc 05 4f 22 bd
       -0.41032234 -0.11167457 -0.019709654 -0.03962614
000230 84 54 d9 3e 5f 92 08 3e aa 76 d6 3d 7f c7 32 bd
       0.42447293 0.13337086 0.10471852 -0.043647286
000240 2d fe 8d be ee 3d a4 3e b0 79 36 bd 46 52 05 3e
       -0.27732983 0.320785 -0.044549644 0.13019666
000250 4b 04 fa 3c 4a 29 1e 3e 76 bb 47 be ec 8b 51 be
       0.030519625 0.15445438 -0.19505104 -0.20463532
000260 79 d8 ab bd 46 0e 02 be 69 bb 9e be cb b6 34 3e
       -0.08390898 -0.12700757 -0.31002358 0.17647855
000270 bd 84 2a bc 7f 42 71 be 3f e8 37 3e 8e a1 ac 3d
       -0.010407624 -0.23560522 0.17959689 0.084292516
000280 64 0c 8e be 75 a9 ca bd e0 17 27 3e 3b c2 6f 3e
       -0.27743828 -0.098956026 0.16317701 0.23413937
000290 4d 55 39 bd a3 3f c0 be b7 b1 a2 3d 56 51 3e bc
       -0.045247365 -0.3754855 0.07944053 -0.011616072
0002a0 49 97 a8 3c 98 4e bb be 4e d3 fe bc 32 1a 12 3e
       0.02057995 -0.365834 -0.031106617 0.14267805
0002b0 02 74 82 3c 5b 69 3e 3e 87 a8 cd bd 53 61 ca 3d
       0.015924457 0.18594877 -0.1004191 0.09881844
0002c0 cf 56 9b be da 35 35 be aa 03 93 bc 20 33 5b bc
       -0.30339667 -0.17696324 -0.017946083 -0.013378888
0002d0 16 cf 89 3c d5 4c 30 3c 15 8f 33 bd c7 e7 4e 3b
       0.01682238 0.010760506 -0.043837626 0.0031571256
0002e0 39 f4 45 3e 84 d0 dc 3d 8c 4a 33 bc 5d 50 a4 3d
       0.19331445 0.10781959 -0.010943066 0.080231406
0002f0 52 ea 3c 3e 92 88 0c 3e 9f 34 0b be 8d 69 20 3e
       0.18448761 0.13723972 -0.13594292 0.15665264
000300 78 96 6e 3e 19 34 19 3e e1 c6 58 3e b4 9a 04 3f
       0.23299587 0.1496128 0.21169616 0.5179856
000310 c0 18 7c 3e 61 ba 15 3e bf 7f 2b bd f9 03 22 3e
       0.24618816 0.14621879 -0.041869875 0.15821828
000320 d6 d7 3a 3e 68 3a 8c 3e 8d 0a b7 3d 03 2d 0a 3e
       0.18246397 0.2738831 0.08937559 0.13493733
000330 8c 40 9c 3e ef 9b 6a 3d da b3 b5 3c f6 ff 30 bd
       0.30517995 0.057277616 0.022180486 -0.043212853
000340 62 4e 43 3e 33 2d 1c 3e 08 40 a1 be df cd 4b be
       0.1907287 0.15251617 -0.31494164 -0.19902752
000350 bd 58 dd bd 54 43 ac bb c1 93 3d 3d 0b b4 9c be
       -0.10807941 -0.0052570496 0.046283487 -0.30606112
000360 30 dc 81 be ef 42 2b 3e 19 44 bb 3d 8c cd 2a be
       -0.25363302 0.16724752 0.09143848 -0.16679972
000370 94 3b 9e be 02 dd 18 be 9f c4 59 be 56 98 e6 bd
       -0.3090483 -0.14928058 -0.21266411 -0.112595245
000380 e8 31 a1 3d ea 46 32 be a7 c8 6e 3d 29 5c c9 bd
       0.07870847 -0.17409864 0.058296826 -0.09832031
000390 8c 99 3a bd 98 59 6d bd 96 0f ed 3c fd 14 64 bc
       -0.04555659 -0.05794677 0.028938096 -0.01392102
0003a0 56 c5 45 bc b5 f0 35 3d 6d 2a 2c be dc 42 c5 bd
       -0.012070974 0.04441901 -0.16813059 -0.09631893
0003b0 d8 fb ec bd e7 6d d4 bc f1 8b 27 3e 89 19 a6 bd
       -0.11571473 -0.025931312 0.16361977 -0.08110339
0003c0 19 0d dc bb 76 d2 5d 3c 19 2a 7e be 0c ac bb bd
       -0.0067154285 0.013538947 -0.24820746 -0.09163675
0003d0 2a 88 38 3d 96 0a 61 be ea 50 05 be 0e 88 89 3d
       0.04505173 -0.21976694 -0.13019148 0.067154035
0003e0 29 96 e2 bd fb 76 cb bd 3b ad fe 3d 51 3b 2d be
       -0.11063797 -0.09934803 0.12435385 -0.16917159
0003f0 29 ba 75 bd a0 f0 83 3e c9 a3 3a bd 85 79 61 3e
       -0.05999199 0.2576952 -0.045566354 0.22019012

shared2.bias f4 [30]
000000 74 7d 0e be 30 0a 98 be 0b e1 20 be 2e fe b8 bd
       -0.13915044 -0.29695272 -0.15710847 -0.09032856
000010 45 3d 09 3d e3 d6 e1 bc b4 2d 2f 3d f4 c2 8f bd
       0.033505697 -0.027568286 0.042768195 -0.07019606
000020 14 83 1e be e4 06 0e 3d f2 5d ce bd 30 f8 48 bd
       -0.1547969 0.03467454 -0.100765124 -0.049064815
000030 dd 2c ff be f8 94 bb bd 28 76 1d be 7d 6f 6e bd
       -0.49838915 -0.09159273 -0.15377104 -0.058211792
000040 a6 ac 36 be c0 65 f3 be 1f 7d 6d be 77 04 e0 bd
       -0.17839298 -0.47538567 -0.23192261 -0.109383516
000050 b1 77 d0 3c dd cb 58 be 12 45 a0 3c 39 53 db bd
       0.025447698 -0.21171518 0.019564185 -0.10709233
000060 24 04 a5 bc 7b 60 92 bd a9 fe ad bd fa 17 0e be
       -0.020143576 -0.071473084 -0.08495838 -0.13876334
000070 9e c3 af bd 9f de a6 bd
       -0.08582233 -0.0814793

hidden_y0.weight f4 [30, 30]
000000 70 3e a5 be 55 fa 8a bd df d1 ec 3d 14 16 b0 3d
       -0.322742 -0.06786028 0.11563467 0.08597961
000010 4d 1c 20 3e 32 fc 0f 3d aa 81 b4 3e 1c 7b 3f 3d
       0.15635796 0.03515262 0.35255176 0.046748266
000020 a1 67 15 3e bd f0 c3 bc 88 eb a5 bb 56 7c 6d 3d
       0.14590313 -0.023918504 -0.005063478 0.057979904
000030 80 0f 22 3e 51 06 68 3e 81 2b 3d 3d 42 8c f4 3c
       0.15826225 0.2265866 0.046184067 0.029852036
000040 2c 9e 10 be ee aa d7 3d d4 5b b5 bd 89 14 22 be
       -0.14122838 0.10530649 -0.088554054 -0.15828146
000050 0b 69 2e 3c d4 6d 87 bc 2d af 66 be d1 39 9f bd
       0.010645161 -0.016531862 -0.22527762 -0.077746995
000060 dd 6c 94 3d 51 70 a8 bc e6 0c 77 3e ac c4 63 3d
       0.072473265 -0.02056137 0.24126014 0.055607483
000070 46 8d 86 bd 11 ec 21 be 39 1e 01 bc 80 82 07 3f
       -0.065699145 -0.15812708 -0.007880741 0.529335
000080 70 35 a8 3e 5f f1 79 be 8c db e5 3b 93 97 20 bd
       0.3285327 -0.24408482 0.0070146974 -0.039207052
000090 bc cb 77 3d 16 8c 8b 3e 60 ea 80 3d 2c 3a 93 be
       0.06049703 0.27255315 0.062947035 -0.2875532
0000a0 52 ae 3f bd 8a 58 d7 3d 1b e7 06 be de cb ab be
       -0.046797104 0.10514934 -0.13174097 -0.33553976
0000b0 5c 72 a3 bd 33 1f 6c 3d 2e f6 60 be 2a 7e 0a 3e
       -0.07980797 0.05764694 -0.2196891 0.1352469
0000c0 aa da ba 3c 32 7b c5 3d fb 39 3a 3d 76 aa b8 3d
       0.022809345 0.09642638 0.04546545 0.09016888
0000d0 ee 89 6a bd f5 9d fa bd 9e c4 5d be b5 7b 84 be
       -0.057260446 -0.12237159 -0.21657035 -0.2587563
0000e0 36 0f 84 be e6 28 2b 3e b7 1b 8b bd 1d 4f 12 be
       -0.25792855 0.1671482 -0.067923956 -0.14287992
0000f0 6e f9 ba 3d 8b a2 6c 3d d5 f2 49 be 4d 94 a1 bc
       0.09129606 0.0577722 -0.1972154 -0.019724036
000100 56 e6 2f bd e4 64 9d 3e ca 53 4c be 03 83 2d be
       -0.042944275 0.30741036 -0.19953838 -0.16944508
000110 9a 4e e6 3c c8 6f d5 bd bf 56 17 3e 06 be 90 bd
       0.028113652 -0.10421711 0.14779185 -0.07067494
000120 46 a7 f4 be d0 5d 69 be 41 a8 31 be 89 11 50 be
       -0.4778387 -0.22789693 -0.1734934 -0.20319189
000130 0e 17 1d bd 5d 41 8b 3e 67 8b 10 3e a2 43 01 bd
       -0.038352065 0.27198306 0.14115678 -0.03155864
000140 63 37 49 be 02 d5 69 bd b4 53 91 3d a7 bc 1d 3e
       -0.19650035 -0.057087906 0.07096043 0.15403996
000150 32 f3 b4 bd ce cd 2e 3e 2c 59 87 3d 4c 2b b4 bd
       -0.08835448 0.17070696 0.06608805 -0.08797321
000160 15 ac 61 be 36 d2 58 bd bb 1c ce 3c e8 ef 46 3e
       -0.220383 -0.052934848 0.025160184 0.19427454
000170 e5 c3 28 be bd 23 2d 3e 2f d2 a5 3d f2 07 1a 3e
       -0.16480978 0.16908164 0.0809673 0.15042093
000180 8b 11 3d 3e 9b cb 5a bc ae 41 8b be f7 13 99 3e
       0.18463723 -0.013354207 -0.27198547 0.29898044
000190 97 d6 a4 be 16 25 d3 3d 19 16 76 3e 94 f3 38 3c
       -0.3219497 0.10309808 0.24031867 0.011288542
0001a0 49 b6 f5 3d 0a 0a c1 bc dc ed 6d 3d 44 6f 9b 3e
       0.11997659 -0.023564357 0.05808817 0.30358326
0001b0 79 72 be 3b d3 8b 2b be 0b 2a 8f bc e6 9a c1 bd
       0.005811986 -0.16752557 -0.017476102 -0.09453373
0001c0 74 c3 ba 3d 24 da 30 3e fa 51 6e bd 35 39 cc bc
       0.09119311 0.17270714 -0.058183648 -0.024929622
0001d0 ff 2e 6e 3d 13 20 bc bd 08 8a 45 3e 17 bd ec 3e
       0.058150288 -0.09185805 0.19290936 0.46238014
0001e0 d0 f4 1d 3d b8 27 19 3c 71 40 4c 3e 85 15 ac bd
       0.03856355 0.009347849 0.19946457 -0.08402542
0001f0 c0 d4 47 3e 11 bc 66 3e 64 d0 00 3e cc 0b 98 3d
       0.19514751 0.22532679 0.12579495 0.07424125
000200 3e e1 1c bc f6 21 3d bd 21 03 f9 bd 53 dc c6 bd
       -0.009575186 -0.046174966 -0.121588 -0.09709992
000210 cb ba a7 3e 27 06 56 bd 58 a7 c5 be 24 65 ad bd
       0.327597 -0.05225196 -0.38604236 -0.08466557
000220 4b 11 87 be bb d0 96 be b4 51 cf 3e bb 9c 03 be
       -0.2638038 -0.29456124 0.40492022 -0.12852757
000230 9e f0 ef 3d d5 96 f1 3d 73 a2 a7 3d 15 94 4b 3d
       0.11715816 0.11796347 0.081852816 0.04970177
000240 41 fb bc 3d 75 73 a5 3d 0e 4e 0d bd 6f 27 65 3e
       0.092276104 0.08078662 -0.034498267 0.22378324
000250 7a c4 84 be 37 bb cb bd d7 66 0d be b4 d5 cd bd
       -0.2593115 -0.09947818 -0.13808762 -0.10050526
000260 37 69 12 3e f9 f2 1c be b3 04 29 3e 87 cd 70 be
       0.14297949 -0.15327062 0.16505699 -0.23515902
000270 28 87 32 3e d0 c0 41 bd 60 97 62 3d e6 11 31 3e
       0.1743437 -0.04730302 0.055320144 0.17291984
000280 25 0b 98 be f1 63 c7 be b8 34 c8 bd 6a a6 2a bd
       -0.29696003 -0.38943437 -0.0977568 -0.04166261
000290 9b 04 c1 bd bb 95 c7 3d 60 f8 19 3e 33 84 f8 3d
       -0.094247065 0.09745356 0.15036154 0.1213459
0002a0 7f 93 e6 bd 13 be 8c bc 9a 3e ed bd 41 87 12 3e
       -0.112586014 -0.017180478 -0.11584206 0.14309408
0002b0 80 60 31 be 3c b4 54 be dd 1b 2a 3d 95 19 37 be
       -0.17321968 -0.20771879 0.04153048 -0.17880853
0002c0 1b ce a1 3c 41 42 4f bc 51 ea 1b 3c 3c d3 9d 3e
       0.019751599 -0.0126500735 0.009516315 0.30825222
0002d0 ad 9c 89 3d 79 a6 af bc c7 b6 0d be ba 03 0c 3d
       0.06719337 -0.021441685 -0.13839255 0.03418324
0002e0 5b 44 b5 3e 01 1a 4e 3d 46 7d b5 3d e6 b5 98 bd
       0.35403714 0.050317768 0.08861785 -0.074565694
0002f0 35 a8 69 be 5b 9a bd bd e4 b2 84 be ea 83 3d 3e
       -0.22818072 -0.092579566 -0.25917733 0.18507352
000300 9f 34 99 3e 8d db 1d 3c c0 05 f1 3d 43 9a 76 be
       0.2992296 0.0096348645 0.11768675 -0.24082284
000310 d8 10 5b be 47 b4 a9 3e 81 b4 9d 3e 03 94 fa bd
       -0.21393144 0.33145353 0.30801776 -0.12235262
000320 1b fd 41 bd 20 88 70 3e 97 34 34 3d 28 ad 58 be
       -0.04736052 0.23489428 0.043995466 -0.21159804
000330 28 8d 8e 3e d3 a4 32 be 41 81 01 bf a5 b4 f5 bc
       0.2784207 -0.17445688 -0.5058785 -0.029993365
000340 06 1f aa bd 60 8a bc bd 68 b2 5d 3e 84 4d 37 bd
       -0.083066985 -0.092060804 0.21650088 -0.04475166
000350 d8 0c 8b bb 91 1f 6d 3d 74 1c a5 bd 93 7c f3 bd
       -0.0042434745 0.057891432 -0.08062068 -0.11888995
000360 cc f4 2d 3e 9d b5 02 be 7e 97 13 bd 5d ab 93 bd
       0.16987914 -0.12764592 -0.036033146 -0.07210419
000370 71 6a 98 3e 69 af 55 bd bc 95 9d be 8b 28 4e be
       0.29768708 -0.052169237 -0.307783 -0.20132653
000380 4f 73 7d 3d 11 0b ed 3d be e4 d4 bd f1 d0 6f 3e
       0.061877545 0.115743764 -0.103951916 0.23419549
000390 15 19 07 3d 41 a0 33 be 9a a2 87 bd 8c 3d 29 bd
       0.032982904 -0.17541601 -0.06622811 -0.04131846
0003a0 52 a2 d0 be 10 00 4a 3d a9 aa f9 bc 80 87 2e bc
       -0.4074884 0.049316466 -0.030476885 -0.010652423
0003b0 42 90 16 bd 8c 8c 90 be 2d 2c 3a 3b e1 b6 31 bd
       -0.03675867 -0.2823223 0.0028407678 -0.043387298
0003c0 6c cd d3 3e 2c e9 7d be 5e 76 f2 be 2b 59 a6 3d
       0.41367662 -0.2479598 -0.47355932 0.08122476
0003d0 d4 2b 64 be c9 9b b1 3c f6 68 99 3d 40 58 17 3d
       -0.22282344 0.02168073 0.07490723 0.036949396
0003e0 78 6e 5a 3e 01 e2 de 3d 43 55 17 bd 74 bd ea bd
       0.21331203 0.108829506 -0.036946546 -0.114619166
0003f0 4f 2d 20 3e 18 6b af bd d0 e6 23 3e 35 22 d6 bd
       0.15642284 -0.085653484 0.16006017 -0.10455743

hidden_y0.bias f4 [30]
000000 02 9e 78 3d 55 ff d8 be b1 38 48 bc b0 4d cb bc
       0.060697563 -0.42382303 -0.012220548 -0.024817318
000010 c4 dc 9f bc aa 14 4f bc 05 42 11 bd 41 64 82 be
       -0.019514449 -0.012639204 -0.03546335 -0.25467113
000020 7e 8a 9b bd 7a 7b 87 3d d1 a5 dd bc cf d1 b9 3c
       -0.07594775 0.06615348 -0.027056606 0.022683052
000030 47 b7 0a bd 8c 84 05 3d 65 5b 75 bd 05 d7 38 3e
       -0.033866193 0.03259711 -0.059901614 0.18050773
000040 5b ca 09 bd 7a d8 10 bd 42 48 af bc 9d 58 89 bd
       -0.033640247 -0.0353627 -0.02139676 -0.06706355
000050 89 ad f7 3c b7 97 9b bc f1 14 ff bc 4e d1 7e bc
       0.030234115 -0.018993242 -0.031137915 -0.015552832
000060 0e 7e e5 bc c4 8d cf bd 6b 53 53 bc a4 ad 06 3d
       -0.02801421 -0.101344615 -0.012898306 0.03288044
000070 ac 60 39 bd 6d d4 ab bc
       -0.04525821 -0.020975316

out_y0.weight f4 [1, 30]
000000 88 7e a6 3e f5 ce 04 3f 7e e0 9e 3e 2c ff c6 bd
       0.3251841 0.5187829 0.3103065 -0.09716639
000010 31 35 a7 be b6 95 8f 3d ab 75 6b 3b 19 69 a2 3e
       -0.3265777 0.07010977 0.003592829 0.31720808
000020 dd c0 22 bc c8 91 63 3e 12 03 9f be 1f 4c ec 3e
       -0.0099336775 0.2222358 -0.3105703 0.46151826
000030 8f d2 3c bd 5f 83 fc 3e f0 57 19 3f a7 5d 85 3e
       -0.04609924 0.49318978 0.59899807 0.26048014
000040 30 be ed 3a c2 09 a3 3c 80 09 56 be c9 0a 0e 3c
       0.0018138345 0.019902114 -0.20902061 0.008669564
000050 c9 f0 08 3e 35 4a 72 bd 7e 89 30 be 5d 6b 4b 3e
       0.13373102 -0.0591528 -0.17239949 0.19865175
000060 e0 6e 1d be 70 c9 11 3f b6 17 bc 3b 3f f4 d6 3e
       -0.15374327 0.56947994 0.0057401313 0.4198322
000070 84 df 53 3d 93 64 45 bd
       0.051726833 -0.04819162

hidden_y1.weight f4 [30, 30]
000000 76 80 11 3e e4 bb 46 be e4 e0 0b be 4d 76 34 be
       0.1420916 -0.19407612 -0.13660008 -0.17623253
000010 14 2d ae 3d bc cb 86 3c ac 7f 3e bc 31 d5 a7 3b
       0.08504692 0.01645457 -0.011627119 0.00512185
000020 a3 2e d2 3d 20 52 68 be 59 fc ce 3d c3 c3 98 3e
       0.102628015 -0.22687578 0.10106725 0.29836854
000030 6a 1e 94 bd bb 1e 79 3c 55 b2 84 be b0 d5 df be
       -0.072323635 0.015205081 -0.25917307 -0.43717718
000040 d0 e6 be 3e 34 bd c4 bd d3 bf 24 be 89 09 52 be
       0.3728547 -0.096064 -0.160888 -0.2051145
000050 6c 7e aa 3d 45 e0 32 be 45 79 69 be 37 45 3d bd
       0.08324894 -0.17468365 -0.22800167 -0.046208587
000060 62 77 1f 3e b3 e4 49 3e c3 15 6c be c7 9f 2d be
       0.15572885 0.19716148 -0.23055176 -0.16955481
000070 ec a4 99 39 6f 53 8b 3e 7e 88 6c 3e 08 b3 6d be
       0.0002930531 0.27212092 0.23098943 -0.23212826
000080 30 fd 63 3e 1b f9 93 bd 3a c7 c0 be 1a 86 6a be
       0.22264552 -0.072252475 -0.37651998 -0.22902718
000090 46 6e 4a 3e ac 78 c4 bd 5c f3 51 be d7 18 30 3d
       0.19768628 -0.09593329 -0.2050299 0.04299244
0000a0 79 07 3f be ae 27 e9 bd f6 0d 23 be 05 09 99 3d
       -0.18655194 -0.113845214 -0.15923294 0.074724235
0000b0 35 22 09 bd 97 f0 3b be 7f 19 37 3d ae df 06 be
       -0.033479888 -0.18353496 0.04470205 -0.13171265
0000c0 4d 29 7b 3d 18 1d 26 be c1 0f 6a bd 11 2c 05 be
       0.061318684 -0.16222036 -0.05714393 -0.13005091
0000d0 5f 6a d1 3d c0 81 20 be 9d 54 16 bd ba ee d4 bd
       0.10225367 -0.15674496 -0.036701787 -0.10397096
0000e0 b5 01 ab be 03 8d 54 bb 48 40 ac 3d fd 4c 0a be
       -0.3339974 -0.0032432682 0.08410698 -0.13505931
0000f0 53 5a 8d 3e 09 78 89 3d 44 cb 3b 3e d6 3c fc bd
       0.27607974 0.06712348 0.18339258 -0.12316291
000100 94 b4 2b 3e da 40 8b bd ed 20 5a bd d7 c2 ae 3d
       0.16768104 -0.06799479 -0.053254057 0.085332565
000110 49 59 02 3e 2a cc f9 3d f9 d6 ad 3d 1c b4 15 3e
       0.12729372 0.12197144 0.084882684 0.14619488
000120 68 f3 16 be 1f c6 9a bd 3a 37 7f be ee db b8 3c
       -0.1474129 -0.0755732 -0.24923411 0.022565808
000130 ae f6 81 3d 19 1e a5 3e d2 04 85 3e 95 09 57 3e
       0.063458785 0.32249525 0.2598024 0.20999749
000140 27 25 0a 3e 15 5a 63 be 8c 49 0a 3f 6a df 49 3e
       0.13490735 -0.22202332 0.54018474 0.19714132
000150 b0 3d 29 be b7 76 fc 3d ea 56 ab bd ac dd 87 bc
       -0.16527438 0.123273306 -0.08366187 -0.016585194
000160 99 b0 48 bd d4 ae 25 be a3 1c ec bb 87 5c 2b 3c
       -0.04899654 -0.16179973 -0.007205562 0.010459072
000170 c5 27 9d be a0 bd 7b 3e 70 39 ab 3d 70 d3 0e 3f
       -0.30694404 0.24584055 0.08360565 0.5579138
000180 57 8f 10 be de 41 9c 3d fe 30 ac ba 85 49 70 3e
       -0.1411718 0.07629751 -0.0013137159 0.23465545
000190 71 5b 72 bd f4 51 5c 3d 3d 70 38 3e bd 30 6d 3e
       -0.059169237 0.053789094 0.18011566 0.23163123
0001a0 8f 17 f8 bd 66 31 b3 3c 64 66 af bd 4f 54 90 bd
       -0.121138684 0.021874141 -0.08564451 -0.070473306
0001b0 77 21 37 3e b7 04 3a be cc c4 94 bd 76 4c e5 3d
       0.1788386 -0.18165861 -0.072640985 0.111962244
0001c0 4e 70 81 3e f8 db e5 bd 56 29 94 3e e7 91 2a be
       0.25280994 -0.11223596 0.28937787 -0.1665722
0001d0 19 74 93 3e 3a b4 d7 bc 16 65 97 3e 8b 3e 3f 3e
       0.28799513 -0.026331056 0.2956931 0.18676202
0001e0 d2 5c 67 be a7 03 dd 3d 15 87 05 be 30 6e 93 bd
       -0.22594002 0.10791712 -0.13039811 -0.07198751
0001f0 f1 11 45 3e 42 5f ab bd b4 52 ee 3d a7 9c c4 3d
       0.19245125 -0.08367778 0.11636868 0.096001916
000200 6e f7 67 3e 88 7e 09 be 84 e3 fb 3e ba e8 0c be
       0.2265298 -0.13427174 0.49197018 -0.13760653
000210 b9 c2 4c 3c d6 37 33 3e 0c 59 4e 3d 67 89 19 bc
       0.012497597 0.17501768 0.05037789 -0.009371138
000220 21 27 7e be 03 fa 4a be 4f 44 13 bd f4 bb 9d be
       -0.24819614 -0.19821934 -0.035953816 -0.3080746
000230 0b af 3b bc 70 08 eb 3d 12 b7 98 bc 09 a4 31 bd
       -0.011455308 0.11476219 -0.018641982 -0.043369327
000240 eb e0 07 bd 76 87 ed 3c 4d 0c bd 3d e7 5b 56 3e
       -0.033173483 0.028995257 0.09230862 0.20933495
000250 fa 83 04 3e 10 99 83 3e a6 18 78 3e da 6f 1c 3d
       0.1294097 0.25702715 0.24228153 0.038192607
000260 79 b2 95 3c ba c3 ad be dc 99 ec 3d 37 9b c5 be
       0.018273579 -0.3393839 0.11552784 -0.38594982
000270 d2 20 6a be 39 c0 bc bc 8d f5 b2 3e d6 61 80 bd
       -0.22864082 -0.023040878 0.34952965 -0.06268661
000280 e8 57 8a be ce aa e7 3c d3 0d b5 3c ca 00 e9 3c
       -0.27020192 0.028279688 0.022101318 0.028442759
000290 bb c2 93 3d f2 ff 87 3d 13 fc 2d 3e 66 fb 17 3d
       0.07214876 0.066406146 0.1699069 0.037104987
0002a0 84 e8 29 bd 98 a2 bd bd da 98 01 bc 24 c7 8e 3b
       -0.04148151 -0.09259528 -0.007909978 0.0043572355
0002b0 18 8d c6 bd 46 a9 67 3e 01 2f cf 3c 55 37 3e 3e
       -0.0969488 0.22623166 0.025290968 0.18575795
0002c0 8d 61 07 3e 12 6b eb 3d 9f 8c 35 bd 74 7e 95 3e
       0.13220806 0.114950314 -0.04432356 0.2919804
0002d0 8a 7c 3e 3d e9 b6 08 be bf a4 c2 bc 5b 86 b4 be
       0.04650549 -0.13351025 -0.023760198 -0.35258755
0002e0 36 03 48 3e 09 ca 85 be d9 54 01 3e 4c b3 0f 3d
       0.19532475 -0.26130703 0.12630023 0.0350831
0002f0 3f d2 53 be 71 db bb 3e 93 6e 42 be e1 b2 16 3d
       -0.20685671 0.36690858 -0.18987493 0.036791686
000300 4f 02 37 3d f4 83 82 be 20 36 d2 bd 6f ca 08 be
       0.044679936 -0.25491297 -0.1026423 -0.13358472
000310 fe 2c 83 3e 84 57 9c bd d4 a5 38 3e fe 44 8f bd
       0.25620264 -0.0763388 0.18032008 -0.06995581
000320 af 56 bf 3d 36 b3 e2 3e 16 fd 05 be cb 3e 8a 3e
       0.093427055 0.44277352 -0.13084826 0.27001032
000330 71 6a 80 3e 99 1d d8 bd ec 6c 39 3e 01 97 8e bd
       0.25081208 -0.1055252 0.18107957 -0.069623955
000340 66 5e df 3d 5a f3 e4 3d 15 56 5b 3d 04 5e fd 3d
       0.10906677 0.11179228 0.05354889 0.12371448
000350 a8 20 76 3d 8c 78 e5 3c 85 c0 78 3a d7 d4 d6 bd
       0.060089737 0.028011583 0.0009489137 -0.10489815
000360 6d c4 84 3e a1 a7 3b be a9 ab 3d 3e 6c a4 04 3e
       0.2593111 -0.18325664 0.18522514 0.12953347
000370 4a 55 a7 3b cb bd 17 3e 49 1f 64 bc 57 e9 9f bd
       0.005106603 0.14818494 -0.013923475 -0.07808178
000380 3b 42 49 3c 70 2b eb 3d d6 f3 20 be 5d f4 06 3e
       0.012283857 0.114828944 -0.15718016 0.13179155
000390 20 cf 97 bd ea 33 81 3e 94 2c 02 be 4d 28 7a bd
       -0.07412553 0.2523492 -0.12712318 -0.06107359
0003a0 9f 1d b8 3d b2 6b 70 3e 52 b3 1a 3e 4b a4 82 bd
       0.08990025 0.23478583 0.15107468 -0.06378993
0003b0 2b b7 a0 bd 46 36 dc 3d c0 89 ca 3c de 77 46 3d
       -0.078474365 0.10752539 0.024723887 0.048454158
0003c0 37 52 94 3e a8 73 ed bb ef 7e 4a be 40 aa f5 3e
       0.28968975 -0.0072464533 -0.19774984 0.47981453
0003d0 f2 cd 9a 3d 74 01 9c 3c cb de 71 3e 33 96 8b 3e
       0.07558812 0.019043662 0.23620145 0.2726303
0003e0 d0 86 ab bd 39 72 ea bd 2c a9 03 3e a6 4f 9e 3e
       -0.08375323 -0.114475675 0.12857503 0.30920142
0003f0 5b f9 ce 3c cc 32 80 be db 6b e3 bd 9f a5 81 be
       0.025265386 -0.25038755 -0.11104556 -0.2532167

hidden_y1.bias f4 [30]
000000 ed 7c 6a bd 31 f5 fe bd 3b 6c 3c 3d ce cf d5 ba
       -0.057248045 -0.1244911 0.046001654 -0.0016312541
000010 85 3d ad 3d 0b eb 38 bd 67 51 b9 bd 01 0c 92 3b
       0.084589995 -0.04514603 -0.090487294 0.0044569974
000020 32 45 00 bd 7d a5 19 bc fa 86 d0 3c 74 ad 2e bc
       -0.03131599 -0.009377834 0.025454987 -0.010661472
000030 c0 ad b4 3b d5 4f c2 3c ef fb 9a bd 1d 13 9f bd
       0.0055138767 0.023719708 -0.07567584 -0.077673174
000040 e1 d2 98 bc 0f d9 28 3d a6 45 05 bd 65 7d f5 bc
       -0.018655242 0.04122263 -0.032537125 -0.02996702
000050 0a 2d 91 bd a2 71 3a bd 37 99 0b bd 0a 4a 45 be
       -0.07088669 -0.045518525 -0.034081664 -0.19266525
000060 54 be 87 3d 75 95 da bd 77 57 ee bc ca 2a 3b bd
       0.06628099 -0.10673038 -0.02909444 -0.045695104
000070 8d 6f f6 39 d7 77 bb bc
       0.00047003888 -0.022884293

out_y1.weight f4 [1, 30]
000000 b0 06 50 3b 0e ae 97 bc b5 5d ae 3e 2d 42 cb bb
       0.0031742267 -0.018515613 0.34055868 -0.006202957
000010 a5 3e 9b 3e b3 03 90 bc 90 8a 2c bc 16 2a 91 be
       0.3032123 -0.017579889 -0.010531083 -0.28352422
000020 2f 2b 78 3c e2 34 c4 3e 23 d0 53 3d d5 45 af 3b
       0.0151470145 0.38321596 0.051712167 0.005348901
000030 8b 18 61 3b 4b 1d c5 3d 7e a3 89 b9 6d 18 8e 3e
       0.0034346904 0.09624728 -0.00026252487 0.2775301
000040 f0 c0 15 3b b0 c4 d7 3e 78 32 b5 bb c3 45 4d be
       0.0022850595 0.42142248 -0.005529698 -0.20046143
000050 b8 13 17 bf f9 ff f3 bb 2e c5 60 3d 75 d7 6b be
       -0.59014463 -0.007446286 0.054875545 -0.23031409
000060 57 65 3c 3d a0 9d ce ba 95 1e dd bd 37 da a6 bd
       0.045995083 -0.0015763529 -0.10796849 -0.0814709
000070 da 46 d8 be 3f a7 91 3e
       -0.42241555 0.2844791
