DR_Info_CFR/Twins/Models/Backup/netQ1.pth (torch, 3711 bytes, 8 tensors)

hidden1.weight f4 [8, 1]
0	0x3fb31088	1.398942
1	0x3eec54f8	0.46158576
2	0x3eefcf7b	0.46837983
3	0x3fa10788	1.2580423
4	0xbfa59e2a	-1.2938893
5	0xbf6f9f6a	-0.9360262
6	0x3fa4789e	1.284931
7	0xbf0a43ae	-0.5400952

hidden1.bias f4 [8]
0	0x3f5313e3	0.8245222
1	0xbec2bc78	-0.38034415
2	0x3f9bd2c3	1.2173694
3	0x3e542909	0.20718779
4	0x3f1105c4	0.5664942
5	0x3eef40aa	0.46729022
6	0x3f1ff7a3	0.6248724
7	0xbf7489da	-0.95522845

hidden2.weight f4 [8, 8]
0	0xbe73ebc9	-0.23820414
1	0xbde913ec	-0.11380753
2	0xbd54392d	-0.05181234
3	0x3d6025f0	0.05472368
4	0x3ed9882e	0.4248671
5	0x3f11eaef	0.56999105
6	0xbd71e483	-0.059055816
7	0xbeb21aef	-0.34786174
8	0xbe9c596b	-0.3053697
9	0x3d8c1e68	0.06841737
10	0x3e7127e9	0.23550381
11	0x3e345b07	0.17612849
12	0x3e23ce04	0.15996557
13	0xbea305eb	-0.31840453
14	0x3ecc7739	0.3993471
15	0x3e964c73	0.293552
16	0x3da68fbc	0.08132884
17	0xbe2e6609	-0.17031111
18	0x3db1c07a	0.0867929
19	0xbddcfe55	-0.107906975
20	0x3f72961c	0.947603
21	0x3ee3a9a6	0.4446537
22	0xbc81bf28	-0.01583822
23	0x3e65ee6a	0.22454229
24	0xbdf0c976	-0.117571756
25	0xbe8ae0a6	-0.27124518
26	0x3f17de5b	0.5932366
27	0xbf24ab32	-0.64323723
28	0x3f81cf04	1.0141301
29	0x3f382803	0.71936053
30	0xbe53ddd0	-0.20690084
31	0xbe1267c6	-0.14297399
32	0x3f19cd37	0.6007876
33	0xbe9104b2	-0.28323895
34	0x3ee96dcc	0.4559158
35	0x3f74db96	0.9564756
36	0xbeafb149	-0.34314945
37	0xbe4f6aee	-0.20255634
38	0x3f1bc10c	0.6084144
39	0x3d9698d0	0.073533654
40	0xbe876f61	-0.26452163
41	0x3e818207	0.25294515
42	0xbe8fc6e2	-0.28081423
43	0x3e56654a	0.20937076
44	0x3e529262	0.20563653
45	0x3ecebf4c	0.40380323
46	0xbe82946d	-0.25503865
47	0x3e6fb73a	0.23409739
48	0xbe8ee8a9	-0.2791188
49	0x3eb36231	0.35035852
50	0xbeb28521	-0.34867194
51	0xbdfede09	-0.124446936
52	0x3eff1dc0	0.49827385
53	0xbde76ee9	-0.11300451
54	0x3dab6f40	0.08370829
55	0xbeb3d63b	-0.35124382
56	0xbd3c4199	-0.045960996
57	0x3dd1aabc	0.10237643
58	0x3eb89582	0.36051565
59	0x3f2eebce	0.6832856
60	0xbdcad4c4	-0.09903863
61	0x3df83988	0.12120348
62	0x3edb9247	0.42885038
63	0x3e67c8ca	0.22635189

hidden2.bias f4 [8]
0	0x3ef56af2	0.47933155
1	0xbe373deb	-0.17894714
2	0x3f2a0ea0	0.66428566
3	0x3f335009	0.70044
4	0x3e9656cc	0.29363096
5	0xbbf2f294	-0.0074141715
6	0x3e4b321a	0.19843331
7	0x3e84644c	0.2585777

out_mu1.weight f4 [8, 8]
0	0x3e9ad59d	0.302411
1	0xbf0b959e	-0.5452517
2	0xbec2962b	-0.38005194
3	0x3e2251f9	0.15851583
4	0x3e5047ed	0.20339938
5	0xbdadb293	-0.08481326
6	0xbd391f67	-0.045195963
7	0xbdeb7741	-0.11497355
8	0xbe09a055	-0.13440068
9	0x3e9360dc	0.28784835
10	0x3d0588a4	0.032601014
11	0x3db14015	0.08654801
12	0x3d34bfff	0.044128414
13	0xbd0128cc	-0.031533048
14	0x3e06f960	0.13181067
15	0xbdfd8d9d	-0.12380526
16	0x3e6c990d	0.23105259
17	0xbf769a6b	-0.96329373
18	0x3e3abf34	0.18237
19	0xbe31684d	-0.17324944
20	0x3e941100	0.2891922
21	0xbd87e969	-0.06636316
22	0xbe125572	-0.14290407
23	0xbe9e4b92	-0.3091703
24	0xbf362fed	-0.7116688
25	0x3e592fa3	0.21209578
26	0xbf1952ff	-0.59892267
27	0xbf5a3a16	-0.8524488
28	0x3f642b3d	0.89128476
29	0xbdc05f60	-0.09393191
30	0xbf42aecc	-0.7604797
31	0x3f0d294d	0.55141145
32	0x3ea40b64	0.3203994
33	0xbe62c9a7	-0.22147237
34	0xbd083b02	-0.0332594
35	0xbe43a1e3	-0.19104724
36	0xbd869dc1	-0.06573058
37	0xbe34baec	-0.1764943
38	0x3e35a895	0.1774009
39	0x3e126f32	0.1430023
40	0xbe48c392	-0.19605854
41	0xbe2671cd	-0.16254349
42	0x3e007ea1	0.12548305
43	0xbc87e2bc	-0.016587608
44	0x3b1fc279	0.002437739
45	0x3a4c386c	0.000779039
46	0x3d975457	0.073891334
47	0xbd0eb23a	-0.03483794
48	0x3d52606a	0.05136148
49	0x3ec9bc1a	0.39401323
50	0x3d98a355	0.07453028
51	0xbd65453e	-0.055974238
52	0xbd951419	-0.07279224
53	0xbe888190	-0.26661348
54	0x3b8bac02	0.0042624483
55	0x3da4ab2d	0.08040462
56	0xbe5fcc70	-0.2185533
57	0x3d9c23b1	0.07623995
58	0xbe3224cb	-0.17396848
59	0x3e799021	0.24371387
60	0x3d839b1e	0.06426071
61	0xbe1cac63	-0.15300135
62	0xbe621bf3	-0.22080974
63	0xbde1e90f	-0.110307805

out_mu1.bias f4 [8]
0	0xbdf05157	-0.11734264
1	0xbddca2d7	-0.10773247
2	0xbe27daca	-0.16392055
3	0x3e1f8b84	0.15580565
4	0x3e1de935	0.15420993
5	0x3d0cb404	0.034351364
6	0xbd1a6b8d	-0.037700225
7	0xbd54cd85	-0.05195381

out_var1.weight f4 [8, 8]
0	0xbc6a95d8	-0.014317952
1	0xbd0522ee	-0.032504015
2	0xbb339d5c	-0.0027407026
3	0x3d25100b	0.040298503
4	0x3e15d47f	0.14631842
5	0x3e3b38ca	0.18283382
6	0xbea4bec6	-0.321768
7	0xbe972fa0	-0.29528522
8	0xbdf1babd	-0.118031956
9	0xbcae1071	-0.021248074
10	0x3de46054	0.11151186
11	0xbce29590	-0.027659208
12	0x3dd8e891	0.105912335
13	0x3dbb821b	0.09155675
14	0x3ddc8c98	0.10769004
15	0xbe9e38b6	-0.30902642
16	0x3e24a1bc	0.16077322
17	0xbd7de668	-0.06198731
18	0xbdc29339	-0.09500737
19	0x3cdc447c	0.026888125
20	0x3c763906	0.015028244
21	0x3ea182f4	0.31545222
22	0x3ed61b6f	0.41817805
23	0x3dc73ad6	0.09728019
24	0xbf5b6fcc	-0.85717463
25	0xbe8951d4	-0.26820242
26	0xbfa0288a	-1.2512372
27	0xbf992bfa	-1.1966546
28	0xbf6891a8	-0.90847254
29	0x3ebcc56f	0.3686938
30	0x3e9dadb9	0.30796602
31	0xbf651f99	-0.8950134
32	0x3e2d9639	0.16951837
33	0xbebe1fd9	-0.37133673
34	0xbd43b0ea	-0.04777614
35	0x3d14c484	0.036320224
36	0x3e4e92c6	0.20173177
37	0x3e0b99f6	0.1363295
38	0x3dd735c2	0.105083
39	0xbe4ff69b	-0.20308916
40	0xbe37cf05	-0.17950065
41	0x3eb7da8a	0.3590892
42	0x3d850bab	0.06496366
43	0x3af968f9	0.0019028477
44	0xbd92649c	-0.07148096
45	0x3e8aaaeb	0.27083525
46	0xbdcf8ed9	-0.10134668
47	0xbd4b6d99	-0.049665067
48	0x3dbcf249	0.092259
49	0x3e36f9f2	0.17868784
50	0x3d39a26f	0.045320924
51	0xbce880be	-0.028381702
52	0x3d65f75f	0.056144115
53	0xbdfb120b	-0.12259301
54	0x3e2fe948	0.17178833
55	0xbe03d8b8	-0.1287564
56	0xbdc2fee9	-0.095212765
57	0x3d9a7cdd	0.07543347
58	0xbe8a3fdd	-0.2700185
59	0x3e115ee1	0.1419635
60	0xbe1ff670	-0.15621352
61	0xbe6e14c3	-0.23250107
62	0x3e81eed9	0.2537754
63	0x3e80ff91	0.25194982

out_var1.bias f4 [8]
0	0x3cd61dbb	0.026137223
1	0x3e01e0b5	0.12683375
2	0xbe2424ce	-0.16029665
3	0xbf30a52c	-0.6900203
4	0xbe35b5da	-0.17745152
5	0x3e21b907	0.15793239
6	0xbcf7f2d8	-0.030267164
7	0x3e3662d8	0.17811143
