DR_Info_CFR/Twins/Models/Backup/netQ0.pth (torch, 3711 bytes, 8 tensors)

hidden1.weight f4 [8, 1]
-0.44560537 0.9195751 -0.3721565 -0.29948515 -0.48991406 0.53726006 0.5944002 0.5938964
00000000: 6326 e4be 4669 6b3f 4c8b bebe 1e56 99be
00000010: 04d6 fabe e089 093f 9d2a 183f 9809 183f

hidden1.bias f4 [8]
0.25302422 0.24845819 0.23271969 -0.16774993 0.28851613 0.83780205 0.10874802 -0.097721845
00000000: 648c 813e d36b 7e3e 124e 6e3e a3c6 2bbe
00000010: 63b8 933e 327a 563f 48b7 de3d 6422 c8bd

hidden2.weight f4 [8, 8]
0.635522 -0.037351597 1.1055721 -0.24595067 0.9400507 0.09699632 -0.55144185 0.17492604
-0.042725436 0.12731361 -0.17338906 -0.35273916 0.4081696 -0.33271152 0.102163106 0.5756212
-0.42961228 1.300377 -0.57992214 -0.5607607 0.1451987 0.074223734 0.57166904 -0.22035828
-0.51321715 0.1399718 0.08239209 -0.12304494 -0.17114463 -0.2802758 -0.33807024 0.25626394
-0.16388336 0.8607058 -0.15358233 0.41837826 -0.6000557 0.28837657 0.31780124 0.15713763
0.11291175 -0.12836802 0.0063749216 -0.0712017 0.20402457 0.07873298 0.09552559 -0.41490394
0.014678813 0.65459365 0.26827896 0.42169374 -0.20610206 0.8628372 0.4589456 -0.27530873
0.7448987 -0.29295623 1.5571464 -0.11087615 1.0662292 0.57562095 -0.31729767 -0.38736287
00000000: 92b1 223f fdfd 18bd 6383 8d3f 7eda 7bbe
00000010: 2aa7 703f 02a6 c63d 4b2b 0dbf d01f 333e
00000020: de00 2fbd 805e 023e e78c 31be 3a9a b4be
00000030: 9bfb d03e 2a59 aabe e43a d13d e95b 133f
00000040: 24f6 dbbe c172 a63f c775 14bf 038e 0fbf
00000050: f8ae 143e 9d02 983d e758 123f 9aa5 61be
00000060: 3362 03bf c454 0f3e 2fbd a83d fcfe fbbd
00000070: 8a40 2fbe 4f80 8fbe 8b17 adbe 0735 833e
00000080: 0ad1 27be 3757 5c3f b044 1dbe ad35 d63e
00000090: 409d 19bf 18a6 933e d8b6 a23e b0e8 203e
000000a0: 473e e73d e872 03be b8e4 d03b 32d2 91bd
000000b0: d1eb 503e c23e a13d eca2 c33d 4a6e d4be
000000c0: 677f 703c 7393 273f dc5b 893e 3ee8 d73e
000000d0: 6b0c 53be e6e2 5c3f ebfa ea3e 44f5 8cbe
000000e0: aeb1 3e3f 5cfe 95be 9350 c73f 0913 e3bd
000000f0: 337a 883f e55b 133f d774 a2be 6d54 c6be

hidden2.bias f4 [8]
0.15531342 -0.068305485 0.26718548 0.0 0.24523324 0.07141002 0.3878225 0.23472911
00000000: 7b0a 1f3e bfe3 8bbd 89cc 883e 0000 0000
00000010: 6c1e 7b3e 6b3f 923d ac90 c63e d45c 703e

out_mu0.weight f4 [8, 8]
-0.16090809 0.1218247 -0.42917162 0.10855222 -0.16354571 0.2239431 0.45134395 -0.170987
-0.09472484 -0.24439213 -0.3156057 0.5880333 0.018881176 0.048521824 0.2292528 -0.09145152
0.30278876 -0.05597563 0.6553577 0.22664876 -0.81261635 0.42033315 0.1763013 -0.24037497
-0.25065213 -0.08595363 0.09441775 -0.061078865 -0.49580222 -0.38267535 0.19188252 0.07407453
0.48804107 0.21781565 0.18497695 0.23811829 -0.2690511 0.61011887 0.18863173 -0.4341772
1.5558082 0.20237596 -0.97330225 -0.14626276 -0.96659136 0.1525312 -0.6448637 1.361844
-0.72386295 0.3884587 -0.1652091 -0.021603547 0.00558522 -0.7513139 0.01000511 0.56869715
-0.2764796 -0.1763056 -0.07533957 0.040850114 0.08942095 0.9058043 0.054653414 0.11848236
00000000: 17c5 24be 3a7f f93d 62bc dbbe a050 de3d
00000010: 8778 27be 5751 653e 8e16 e73e 3717 2fbe
00000020: 19ff c1bd ee41 7abe 1297 a1be 5a89 163f
00000030: b2ac 9a3c d2be 463d 3fc1 6a3e ef4a bbbd
00000040: 2107 9b3e b446 65bd 86c5 273f 9d16 683e
00000050: a007 50bf e835 d73e 5488 343e db24 76be
00000060: 7a55 80be 7508 b0bd 185e c13d d52d 7abd
00000070: cad9 fdbe 06ee c3be da7c 443e 63b4 973d
00000080: 85e0 f93e 110b 5f3e 996a 3d3e 48d5 733e
00000090: 11c1 89be c030 1c3f ad28 413e 794c debe
000000a0: b924 c73f a53b 4f3e 562a 79bf e8c5 15be
000000b0: 8872 77bf 2431 1c3e ca15 25bf e750 ae3f
000000c0: 154f 39bf 0fe4 c63e 932c 29be ecf9 b0bc
000000d0: 3904 b73b 1c56 40bf 79ec 233c 2396 113f
000000e0: bc8e 8dbe 7589 34be a24b 9abd 7352 273d
000000f0: 5522 b73d cae2 673f 42dc 5f3d e1a6 f23d

out_mu0.bias f4 [8]
0.048200253 0.03599919 -0.16413328 0.1273754 -0.11469816 -0.20693846 0.011468851 -0.2102595
00000000: a16d 453d e373 133d 8e12 28be b26e 023e
00000010: dee6 eabd ade7 53be d9e7 3b3c 444e 57be

out_var0.weight f4 [8, 8]
-0.4015116 0.079548 -0.11877925 -0.2807765 -0.15480706 0.13115461 0.063611254 0.083645105
0.2254347 -0.34740028 0.16780718 0.21331891 -0.39948544 -0.31924948 0.25630492 -0.13720065
1.1885064 0.54851335 0.2014282 0.4214828 0.35009232 0.31175599 -0.31623396 -0.7341758
0.5357467 0.5366138 -0.28088227 -0.025262987 0.59367156 0.13177031 -0.23572335 -0.3987163
0.2644264 -0.004398827 -0.030320168 0.37308964 0.11706864 -0.0014862793 0.021929625 -0.1349891
-1.44212 -0.55519736 -1.0784104 0.20377962 -0.5996094 -1.1822008 -1.9164188 -2.1445656
0.19026679 0.24397343 0.39226416 0.16544418 0.3302603 0.03566388 -0.57651246 0.14002754
-0.49272415 0.17025284 0.28244758 -0.11538714 -0.31300148 0.28446582 -0.091143645 0.3152986
00000000: ee92 cdbe 10ea a23d 8942 f3bd f0c1 8fbe
00000010: be85 1ebe 654d 063e 9e46 823d 204e ab3d
00000020: 5bd8 663e 73de b1be a5d5 2b3e 4670 5a3e
00000030: 5b89 ccbe ab74 a3be 663a 833e 547e 0cbe
00000040: fa20 983f 5f6b 0c3f 3243 4e3e 98cc d73e
00000050: 4d3f b33e 7b9e 9f3e 6be9 a1be f2f2 3bbf
00000060: b226 093f 865f 093f cdcf 8fbe 53f4 cebc
00000070: dcfa 173f ccee 063e 7661 71be 8b24 ccbe
00000080: e662 873e 0924 90bb 0062 f8bc 9b05 bf3e
00000090: afc1 ef3d 42cf c2ba c2a5 b33c 953a 0abe
000000a0: 6397 b8bf 6a21 0ebf 5a09 8abf 9bab 503e
000000b0: 0080 19bf 5b52 97bf 364d f5bf 9040 09c0
000000c0: 4cd5 423e 2cd4 793e d9d6 c83e 336a 293e
000000d0: e117 a93e 4a14 123d 5296 13bf 6163 0f3e
000000e0: 5746 fcbe c356 2e3e f89c 903e 1850 ecbd
000000f0: bb41 a0be 81a5 913e 85a9 babd d16e a13e

out_var0.bias f4 [8]
0.24115403 -0.16750365 0.14819923 0.2699138 -0.084134065 -1.0212505 0.022705123 0.025614725
00000000: 15f1 763e 1486 2bbe 8ac1 173e 2432 8a3e
00000010: 7b4e acbd 56b8 82bf 1800 ba3c f9d5 d13c
