DR_Info_CFR/Twins/Models/Backup/netQ1.pth (torch, 3711 bytes, 8 tensors)

hidden1.weight f4 [8, 1]
0	0x3f8d6c8c	1.1048751
1	0xbc4d2cf0	-0.012522921
2	0xbe457eea	-0.19286695
3	0x3f647f46	0.89256704
4	0x3d48f665	0.049063105
5	0xbf923c19	-1.142459
6	0xbe4739bc	-0.19455618
7	0xbec139f1	-0.37739518

hidden1.bias f4 [8]
0	0x3e3ddf77	0.18542276
1	0xbc00bff1	-0.007858262
2	0x3e727f94	0.2368148
3	0x3e685a18	0.22690618
4	0xbd21f7e3	-0.039543044
5	0x3d1b0e45	0.037855405
6	0x3ea07d9f	0.3134584
7	0x3ebdeaed	0.37093297

hidden2.weight f4 [8, 8]
0	0x3f29ea08	0.6637273
1	0xbc066974	-0.008203853
2	0x3e8d437f	0.27590558
3	0xbcefd7c9	-0.029277699
4	0x3f19c86b	0.6007144
5	0x3f141203	0.57839984
6	0x3f66f479	0.90216786
7	0x3d82bc68	0.06383592
8	0xbea2f954	-0.31830847
9	0x3e3854a5	0.1800104
10	0xbee4b307	-0.44667837
11	0x3e49fd21	0.19725467
12	0x3d1ecd6a	0.038770117
13	0xbec02945	-0.37531486
14	0x3c8c0063	0.017090028
15	0xbb0879c1	-0.0020824524
16	0x3f9e5293	1.236895
17	0x3ed9319d	0.42420664
18	0x3e30d4a8	0.17268622
19	0x3f7e718a	0.99391997
20	0x3cf963b3	0.030443048
21	0xbec84236	-0.39113015
22	0xbe455f8c	-0.1927473
23	0xbd031ddb	-0.032010894
24	0xbe975fe3	-0.29565343
25	0xbeae1a1a	-0.3400429
26	0x3f99e5b4	1.2023225
27	0xbe865080	-0.26233292
28	0x3e99207c	0.29907596
29	0x3e9cae5d	0.3060178
30	0x3f5f54ee	0.8723897
31	0x3fc019da	1.5007889
32	0x3f9b5c2e	1.2137506
33	0xbe07de91	-0.13268496
34	0xbe98ed92	-0.29868752
35	0x3f5e4fae	0.8684033
36	0xbf0fd460	-0.56183434
37	0xbf22ada5	-0.6354621
38	0x3eeb71d9	0.45985296
39	0xbf2bba1c	-0.67080855
40	0xbe8edb5b	-0.2790173
41	0xbf51cc35	-0.8195222
42	0xbeb007b0	-0.34380865
43	0x3ea0caf4	0.3140484
44	0xbe21f3ec	-0.15815705
45	0xbf2eaac6	-0.6822933
46	0x3e6e6f38	0.23284614
47	0xbed40975	-0.41413465
48	0xbc62fbda	-0.013853991
49	0xbdc96b9e	-0.098349795
50	0x3f0fa251	0.5610705
51	0x3cdb2e50	0.026755482
52	0x3e091bb6	0.13389477
53	0xbd47612a	-0.048676647
54	0xbefbb682	-0.4916268
55	0xbe31ff61	-0.17382576
56	0xbebe7a31	-0.372026
57	0xbda11594	-0.07865444
58	0x3e4c3385	0.19941528
59	0x3e75d37a	0.24006453
60	0x3e2121d6	0.15735564
61	0x3e71585a	0.2356886
62	0x3c948116	0.01812796
63	0x3f80a39f	1.0049933

hidden2.bias f4 [8]
0	0x3e27d031	0.16388012
1	0xba376cff	-0.00069971377
2	0x3e1e2fad	0.15447874
3	0x3ef2a373	0.47390327
4	0x3ede5d4d	0.43430558
5	0xbcae6f97	-0.021293445
6	0xbd0ef12e	-0.034897976
7	0x3f18d43e	0.59698856

out_mu1.weight f4 [8, 8]
0	0xbe746eeb	-0.23870437
1	0x3e982d65	0.29722133
2	0x3e2c32ba	0.16816226
3	0x3cd7088c	0.026249193
4	0xbdbef8fd	-0.093248345
5	0x3d01607d	0.03158616
6	0x3e6f8533	0.23390655
7	0x3d00b435	0.03142186
8	0x3e282b5f	0.16422795
9	0x3ef91d0e	0.4865498
10	0x3ee3faab	0.44527182
11	0xbf04e233	-0.5190765
12	0xbf0ec972	-0.5577613
13	0x3f34add2	0.7057773
14	0x3d7a184b	0.061058324
15	0x3f53d8c8	0.82752657
16	0x3e1ffc96	0.15623698
17	0xbe5a7aab	-0.21335857
18	0xbd85f28a	-0.06540401
19	0xbe1ca2fa	-0.15296546
20	0xbd53c0ec	-0.051697657
21	0x3e24ea65	0.1610504
22	0x3ee8f3ef	0.45498607
23	0x3b62f708	0.0034632105
24	0x3e81437f	0.25246808
25	0x3ed0b8da	0.4076603
26	0x3f96d880	1.178482
27	0xbf977598	-1.1832762
28	0x3f902577	1.1261433
29	0x3c72fc0b	0.0148306
30	0xbda8837b	-0.08228203
31	0xbf71e659	-0.9449211
32	0x3cd59ed2	0.026076708
33	0x3eacf347	0.33779356
34	0x3e1a53f6	0.15071091
35	0x3df838a3	0.121201776
36	0xbdca673c	-0.09882972
37	0xbec8a3ff	-0.3918762
38	0xbe0f784e	-0.14010736
39	0xbd9037de	-0.07041906
40	0x3e1cdd1f	0.15318726
41	0xbe95ea14	-0.2928015
42	0xbecfd922	-0.40595347
43	0x39e87da0	0.00044344086
44	0x3eb9cce8	0.36289144
45	0xbe8cc9ce	-0.27497715
46	0xbf1845a0	-0.5948124
47	0xb9bbbfe9	-0.00035810404
48	0x3e5042a7	0.20337926
49	0xbdcabc76	-0.09899227
50	0xbe800b5d	-0.2500867
51	0x3e640f7a	0.22271529
52	0x3e53e1c4	0.20691592
53	0xbf0d6f3c	-0.55247855
54	0x3e989680	0.29802322
55	0xbf08b554	-0.53401685
56	0x3f25873f	0.64659494
57	0xbf4bfda9	-0.7968393
58	0x3d71b716	0.059012495
59	0xbec7e7c3	-0.39044008
60	0xbea96bcb	-0.33090052
61	0x3e83d550	0.25748682
62	0xbeec9eb5	-0.46214834
63	0x3e8ee871	0.27911714

out_mu1.bias f4 [8]
0	0x3d70ebbf	0.058818575
1	0xbd789a6d	-0.060694147
2	0x3e3060a2	0.17224362
3	0xbe771537	-0.24129187
4	0xbe241e53	-0.16027193
5	0xbdec498d	-0.11537466
6	0x3da6c4d1	0.081430085
7	0x3d2f839a	0.042850114

out_var1.weight f4 [8, 8]
0	0x3d828950	0.063738465
1	0x3d18a630	0.037267864
2	0x3f08d033	0.53442687
3	0x3e114fc6	0.14190587
4	0xbef2e923	-0.47443494
5	0x3eaf7577	0.34269306
6	0x3f06e6ef	0.52696127
7	0xbe0ba2c0	-0.13636303
8	0x3e78dec3	0.24303727
9	0x3cfc0c6f	0.030767648
10	0xbdaa171e	-0.083051905
11	0xbda713a5	-0.08158044
12	0xb85b10b8	-5.222924e-05
13	0xbec4d01c	-0.38440025
14	0x3bdf2876	0.0068102432
15	0x3d121f59	0.035674427
16	0x3e325e35	0.1741875
17	0xbf0aa75f	-0.5416164
18	0xbdb52170	-0.08844268
19	0xbe6f88b4	-0.23391992
20	0x3c3f64b5	0.011681725
21	0xbdfd26e1	-0.12360931
22	0xbe1d0e28	-0.15337431
23	0x3eb3352b	0.350015
24	0xbf75ee70	-0.9606695
25	0x3e8ba64b	0.2727531
26	0xbfadf3aa	-1.3589985
27	0xbfd0d061	-1.6313592
28	0xbfae15c5	-1.3600394
29	0xbec0c49e	-0.37650007
30	0xbe620ead	-0.22075911
31	0xbfe5a5b1	-1.794119
32	0xbe8732fc	-0.26406085
33	0xbe276753	-0.16348009
34	0x3eafe062	0.34350878
35	0xbe2f6ceb	-0.17131393
36	0xbea0451f	-0.31302735
37	0x3d855f74	0.06512347
38	0x3eb117b5	0.345884
39	0x3e9ccbff	0.30624387
40	0x3cd60530	0.02612552
41	0xbea4b2ec	-0.32167757
42	0xbe1da610	-0.15395379
43	0xbd9a2305	-0.07526211
44	0x3dfc2117	0.12310999
45	0x3e9b177f	0.30291364
46	0xbebe8f84	-0.3721887
47	0x3e06c522	0.13161138
48	0x3d1f5aae	0.03890484
49	0x3e79c107	0.2439004
50	0x3e3b202e	0.18273994
51	0x3f2b1f4d	0.66844636
52	0x3c6f71e5	0.014614557
53	0x3e28a7cc	0.1647026
54	0x3cc8faf4	0.024533726
55	0xbf6b5dd5	-0.9194005
56	0xbf0e44ea	-0.55573905
57	0xbef1a3dd	-0.4719533
58	0x3ec598ba	0.38593084
59	0x3d8128e6	0.06306629
60	0xbe186b99	-0.14884795
61	0xbe07e91f	-0.13272522
62	0x3f276866	0.65393674
63	0x3ea915be	0.330244

out_var1.bias f4 [8]
0	0xbdcbec03	-0.09957125
1	0xbd23ba06	-0.039972328
2	0xbd835c99	-0.06414146
3	0xbfa33b09	-1.2752391
4	0x3e1be277	0.15223108
5	0xbd3fdc2d	-0.046840835
6	0xbe494a34	-0.19657212
7	0xbe416605	-0.18886574
