DR_Info_CFR/zz/Twins/Stats/!!Paper_Best_Twins_2_heads_All_BCE_xavier_updated_lamda_1.2/Models/netG.pth (torch, 27559 bytes, 10 tensors)

shared1.weight f4 [30, 100]
0.39783373 0.00618056 -0.0024148815 0.007060194 -0.0011116248 -0.0014395936 0.0013653461 0.0054185423
-0.0025669474 -0.003229346 -0.003615583 -1.2039164e-05 -0.0039418186 -0.0008425693 0.0012455643 -0.004273851
0.003117976 -0.0013603438 -0.00193652 -0.002619186 0.00017328694 0.0006242435 -0.0023121296 0.0017531173
0.004495346 -0.00077674986 -0.0045176963 -0.002904844 0.005489407 0.0036853482 -0.0003939575 0.00067208754
-0.0013844623 0.0032183127 0.00070057303 -0.0016482286 0.00080603675 -0.0043440578 0.00096321 0.0036930044
-7.89584e-05 -0.00033270955 0.0019435302 -0.0014122828 -0.001832983 0.0012234485 0.0022302514 0.0002723693
0.0015137126 -0.004117561 0.00013916624 -0.0014261244 -0.0014821708 -0.004282764 0.00064102723 0.0021807358
0.0034424085 0.003075427 0.0038790968 -0.0026899234 0.0038346 -0.0006124907 -0.0013836771 -0.0021994994
-0.0036953504 -0.001544577 6.435169e-05 -0.0051057553 -0.0036939194 0.006973919 -0.0019098169 0.00051649834
-0.004588195 0.0010472093 -0.00089354016 0.0011022779 -0.0015819239 -0.0023477944 0.00068164367 0.00047249557
0.0011353907 0.003969746 0.002352041 -0.0017637027 -0.0076528084 0.0004612922 0.0019450955 0.000103867635
0.001494056 -0.0030469978 0.0005788177 -0.000113725735 -0.0033282808 0.0026286812 0.001738193 9.308351e-07
-0.004264644 0.0021258937 -0.0011128697 0.0010369989 0.5750513 0.0007667986 0.0012251909 0.0014271312
-0.0018464705 0.00023584437 0.00067079894 0.0020721378 0.0010432868 3.757572e-05 -0.0025422794 -0.0005757617
-0.002623968 3.9394126e-05 -0.00072068034 -0.002043611 0.00043692935 -0.0008228179 -0.0014829192 -0.00022292754
0.000432058 -0.00012574779 -0.00011043313 -0.001972604 0.00065214885 1.672878e-05 -0.0005821618 0.0005590796
0.0009155763 0.0013334876 -0.0011836715 -0.0011020693 0.00032479945 0.0022853725 0.0023944604 -0.0025050957
-0.0014609947 -0.00022889674 -0.0001653432 0.001572693 -0.00029168953 -0.0022273338 0.0004258825 -0.0009429137
-0.0012057753 -2.9751456e-05 0.00043006986 0.0005088171 0.0008041949 -0.0007026871 -0.0023123524 0.00084990845
0.0010080576 -8.640063e-08 0.0016727316 0.0027303975 0.0012280818 -0.00029225618 -0.0025280416 0.0013444133
0.0014334833 0.00095304055 -0.00030386794 0.00049946824 0.00020629793 -0.0011573313 -0.00010482958 0.0008976593
-0.0026571588 0.0008358585 0.0009813256 0.0018891859 -0.0016788578 0.0006981329 -0.00090916123 -0.0001226234
-0.00051374745 -0.000852775 -0.00051673915 0.0003951868 0.00063681556 0.00025051142 0.00010687811 -0.0015083138
-0.0017562635 -0.0009248239 0.0007459959 -0.0012239353 0.0028288055 0.0011120352 0.00094219454 -0.0017927978
-0.00013557346 -0.00013470206 0.001711461 -0.0028721243 -0.0005761209 0.0003624707 -0.0022082417 0.0018529007
-0.574133 0.003105747 -0.00046480386 0.0066507026 -0.0018212786 0.00041458255 0.0013714591 0.0019087086
-0.0011231089 -0.0016785029 -0.0050062826 -7.827489e-05 -0.005028362 0.0015500522 -0.00046471012 -0.0035362164
0.0022927437 -0.0010639591 -0.0042510144 -0.0019329035 0.0002838927 -0.00042189469 -0.00016920199 0.0022840851
0.0014755159 0.0013034039 -0.0052752355 -0.0002824762 0.0035035834 0.0037359202 -0.0014656058 -0.00014021425
-0.0005372459 0.0028502848 0.0013668691 -1.0647649e-05 0.0007743238 -4.7338857e-05 0.0012804569 0.0026985863
-0.0014630059 0.0011760455 0.0017128899 -0.001062707 -0.002824957 0.0013684704 0.00058795844 -0.0012049241
0.0015801766 -0.0036600681 -0.0016494351 9.798081e-05 -0.0018210498 -0.0025872174 -0.0015241718 0.003864416
00000000: ddb0 cb3e 4c86 ca3b fd42 1ebb 3359 e73b
00000010: f0b3 91ba bfb0 bcba 6af5 b23a 078e b13b
00000020: 3b3a 28bb 6fa3 53bb 6bf3 6cbb d1fb 49b7
00000030: 5f2a 81bb dedf 5cba 3442 a33a a90b 8cbb
00000040: f556 4c3b 904d b2ba d4d2 fdba a6a6 2bbb
00000050: 5cb4 3539 46a4 233a 1987 17bb dbc8 e53a
00000060: b24d 933b cd9e 4bba 2f09 94bb 325f 3ebb
00000070: 7ce0 b33b e285 713b 158c ceb9 082f 303a
00000080: d976 b5ba 54ea 523b a9a6 373a 6009 d8ba
00000090: 364c 533a 9958 8ebb ee7f 7c3a 5506 723b
000000a0: 7896 a5b8 856f aeb9 0dbe fe3a 591c b9ba
000000b0: b440 f0ba 1f5c a03a 6929 123b cacc 8e39
000000c0: c467 c63a 9bec 86bb 27ed 1139 cbec baba
000000d0: 6645 c2ba 6e56 8cbb 9c0a 283a adea 0e3b
000000e0: 089a 613b 1a8d 493b 7238 7e3b 6d49 30bb
000000f0: ea4d 7b3b 8e8f 20ba 805c b5ba 7a25 10bb
00000100: b12d 72bb 6773 caba 8df4 8638 2e4e a7bb
00000110: af15 72bb 7985 e43b d252 faba 9e65 073a
00000120: 9258 96bb 8342 893a 773c 6aba 4f7a 903a
00000130: 8f58 cfba 74dd 19bb 55b0 323a 48b9 f739
00000140: 64d1 943a a514 823b b324 1a3b 0b2c e7ba
00000150: 69c4 fabb 97d9 f139 93f2 fe3a 83d3 d938
00000160: 33d4 c33a 24b0 47bb ccbb 173a 0a80 eeb8
00000170: 491f 5abb f445 2c3b 14d4 e33a 80de 7935
00000180: 6dbe 8bbb 9452 0b3b b6dd 91ba e9eb 873a
00000190: 9036 133f fc02 493a 9696 a03a 940e bb3a
000001a0: 4505 f2ba fe4c 7739 8ed8 2f3a b4cc 073b
000001b0: e5be 883a 9f9a 1d38 5f9c 26bb b7ee 16ba
000001c0: e1f6 2bbb 1f3b 2538 0aec 3cba 1aee 05bb
000001d0: aa13 e539 60b2 57ba 835e c2ba a8c1 69b9
000001e0: d885 e239 2adb 03b9 5698 e7b8 ce46 01bb
000001f0: f8f4 2a3a c854 8c37 389c 18ba 328f 123a
00000200: 4903 703a 6bc8 ae3a 6d25 9bba 4f73 90ba
00000210: d849 aa39 30c6 153b 61ec 1c3b 882c 24bb
00000220: d97e bfba 0004 70b9 fa5f 2db9 d222 ce3a
00000230: e8ed 98b9 76f8 11bb fb48 df39 de2d 77ba
00000240: 1b0b 9eba c492 f9b7 007b e139 2362 053a
00000250: 9bd0 523a 8834 38ba d68a 17bb 64cc 5e3a
00000260: cd20 843a 408b b9b3 8f3f db3a 78f0 323b
00000270: 96f7 a03a f639 99b9 80ad 25bb 0637 b03a
00000280: b8e3 bb3a 78d5 793a 7750 9fb9 bfee 023a
00000290: ae51 5839 98b1 97ba f4d7 dbb8 e550 6b3a
000002a0: ba23 2ebb 841d 5b3a d39f 803a 8f9e f73a
000002b0: 1f0d dcba e802 373a c754 6eba 7894 00b9
000002c0: 02ad 06ba c38c 5fba c775 07ba 1331 cf39
000002d0: f8ef 263a 1357 8339 c023 e038 9db2 c5ba
000002e0: 6d32 e6ba e26f 72ba f08e 433a 746c a0ba
000002f0: 7b63 393b b6c1 913a 9bfd 763a 50fc eaba
00000300: b928 0eb9 cf3e 0db9 1a53 e03a 403a 3cbb
00000310: d206 17ba fe09 be39 26b8 10bb 08dd f23a
00000320: 61fa 12bf ca89 4b3b ebb0 f3b9 23ee d93b
00000330: f8b7 eeba 545c d939 88c2 b33a a22d fa3a
00000340: 4835 93ba 3601 dcba be0b a4bb 8327 a4b8
00000350: f5c4 a4bb 1f2b cb3a 56a4 f3b9 debf 67bb
00000360: db41 163b 8b74 8bba 184c 8bbb 7b59 fdba
00000370: 6fd7 9439 bf31 ddb9 d06b 31b9 97b0 153b
00000380: 1966 c13a fad6 aa3a e2db acbb 5019 94b9
00000390: 609c 653b 57d6 743b 9219 c0ba 7a06 13b9
000003a0: f6d5 0cba d8cb 3a3b 8428 b33a 4ea3 32b7
000003b0: fefb 4a3a b68d 46b8 01d5 a73a c4da 303b
000003c0: 55c2 bfba 8a25 9a3a 0c83 e03a 884a 8bba
000003d0: ea22 39bb 3f5e b33a 3921 1a3a 8bee 9dba
000003e0: ee1d cf3a c1dd 6fbb dc31 d8ba 0c7b cd38
000003f0: 4bb0 eeba 4e8e 29bb b8c6 c7ba 2442 7d3b

shared1.bias f4 [30]
0.023205495 0.12249134 -0.09520842 0.046507444 -0.3966257 -0.21040551 -0.086874716 -0.5362173
-0.5230866 -0.18844232 -0.04149902 0.12585786 -0.26473033 0.08462513 -0.05912552 -0.48346442
-0.113896765 0.16272183 0.11577666 -0.568194 -0.06626899 -0.35614857 -0.61598057 -0.10049889
-0.4857416 -0.075694434 -0.58312696 0.020287447 0.12940972 0.18143599
00000000: 7319 be3c bddc fa3d a2fc c2bd 977e 3e3d
00000010: 8612 cbbe 8b74 57be 5feb b1bd 8945 09bf
00000020: 01e9 05bf 06f7 40be e0fa 29bd e2e0 003e
00000030: bc8a 87be f14f ad3d 9a2d 72bd a688 f7be
00000040: b542 e9bd 8da0 263e 501c ed3d 2975 11bf
00000050: 09b8 87bd 1b59 b6be e7b0 1dbf 5dd2 cdbd
00000060: 1fb3 f8be af05 9bbd cf47 15bf dc31 a63c
00000070: fb83 043e 5bca 393e

shared2.weight f4 [30, 30]
0.04772775 0.12516755 0.11737045 -0.0038411207 0.23180614 -0.03418435 -0.12287049 0.06745088
0.19722205 0.03310252 -0.044087086 0.06324977 -0.3790531 -0.18696567 0.08437466 0.21473612
-0.04034865 -0.07632916 -0.06253353 -0.009082851 -0.0408042 0.051693387 0.030167483 -0.20688727
0.18791078 0.033027127 0.1664053 -0.16921115 0.29066497 0.16854657 -0.060557015 -0.19207262
-0.12570356 0.15171295 0.16013189 0.012565121 0.13919897 -0.019082474 -0.111947626 0.20225163
-0.1828418 0.040693164 -0.13576984 -0.051064007 0.14252862 -0.29438016 -0.31423065 -0.15566827
-0.0158139 0.08526054 -0.20300166 -0.156442 0.1405349 -0.013803622 -0.15986864 -0.18176702
-0.117209755 -0.18995239 -0.19286112 -0.27689794 0.2955974 -0.012362258 0.17005584 0.026847003
-0.14563316 0.0648637 -0.30796197 0.18399371 0.09835504 -0.06321765 -0.11004285 -0.12809896
0.056993224 0.10777693 -0.0587323 -0.05017891 -0.11978055 -0.5005963 -0.11778089 -0.057521623
-0.048266616 -0.2183645 -0.4694958 -0.33194607 -0.09970174 -0.20197605 0.18885276 -0.08110789
0.07147092 -0.0008452005 -0.17921129 -0.13326395 -0.28382647 0.15116344 -0.059882898 0.06169741
-0.2809348 -0.22311491 -0.02315726 0.020243756 -0.35473347 -0.13213496 0.071331985 -0.13201693
0.08007308 0.09959562 -0.052213293 -0.1062626 -0.08559516 -0.13417299 0.0028524068 -0.2535956
-0.30304164 -0.1360665 -0.031492833 0.1518373 -0.37076068 0.02190407 -0.2912614 0.2688981
0.11172946 0.096362986 0.05291225 -0.16334516 0.083932035 0.075721994 -0.17181738 0.19886844
-0.40233505 -0.33864287 -0.12518458 -0.066732176 0.037951984 0.039076876 -0.17533545 0.10605653
-0.073223785 -0.109474346 -0.09858975 -0.17308079 0.11424299 0.18185212 0.039587077 -0.10480813
0.068228416 0.035364375 -0.018724296 -0.18337676 -0.23812813 0.2583612 -0.1316994 -0.21568595
-0.16031402 0.21578541 -0.19646482 0.04967117 -0.14137803 0.1073383 -0.23862605 -0.04161245
-0.12423658 -0.17665386 0.11034458 0.23443744 0.08762917 0.0021255612 -0.021778466 -0.11595242
0.07139068 0.0100110285 0.044942144 -0.44563004 -0.13938798 0.14132549 -0.3380725 -0.02939554
0.066239834 -0.07774145 0.014995744 -0.2137784 0.4687653 0.19204439 -0.045149807 -0.21270162
0.28891617 -0.10212277 -0.004622899 0.13977505 0.1680377 0.14118245 0.12060295 0.077455305
0.17368372 -0.19767906 0.24744561 0.19962457 0.13705805 0.099079266 -0.0014289304 0.0028102587
-0.004408994 0.2030747 0.12084935 0.10581409 0.08493356 0.002086819 0.12148076 0.11862561
0.05636479 -0.2856801 -0.15043834 -0.036699202 0.16008046 -0.068222344 0.01255996 -0.025348399
-0.12024898 -0.11607078 0.13916355 -0.15250465 -0.20682687 0.07777906 -0.2564209 0.08642475
-0.11937201 0.11447393 -0.2238208 0.071417466 -0.44696006 -0.11654029 -0.38374895 0.07009755
-0.08127171 -0.06671271 -0.2805397 -0.19701736 -0.31676614 0.0688983 -0.054711837 -0.098035805
0.039563257 -0.10410363 0.3532562 0.0447698 0.013257251 -0.26635376 -0.079390235 -0.002339345
-0.05846091 0.1027499 0.1257044 -0.7293421 -0.20967676 -0.108958885 -0.16560727 -0.05365346
00000000: 2c7e 433d ec2b 003e eb5f f03d 50bb 7bbb
00000010: 975e 6d3e e404 0cbd 86a3 fbbd b023 8a3d
00000020: 94f4 493e 8296 073d a994 34bd 1889 813d
00000030: 3f13 c2be ee73 3fbe 9fcc ac3d c9e3 5b3e
00000040: a044 25bd 7652 9cbd 9411 80bd 3dd0 14bc
00000050: 4e22 27bd 72bc 533d cc21 f73c 42da 53be
00000060: af6b 403e 7447 073d 2766 2a3e b045 2dbe
00000070: 0ad2 943e 7997 2c3e a20a 78bd afae 44be
00000080: 6fb8 00be a45a 1b3e 9df9 233e f0dd 4d3c
00000090: 2d8a 0e3e d952 9cbc cc44 e5bd 0d1b 4f3e
000000a0: e13a 3bbe e0ad 263d 4007 0bbe 7e28 51bd
000000b0: 06f3 113e ffb8 96be d7e2 a0be 8167 1fbe
000000c0: 278c 81bc 149d ae3d abdf 4fbe 5532 20be
000000d0: 61e8 0f3e 9628 62bc 9bb4 23be 2221 3abe
000000e0: ab0b f0bd e182 42be 637d 45be 91c5 8dbe
000000f0: 8b58 973e 118b 4abc 1e23 2e3e 3fee db3c
00000100: dc20 15be 42d7 843d 31ad 9dbe d968 3c3e
00000110: 5e6e c93d 4178 81bd 255e e1bd 602c 03be
00000120: ba71 693d 27ba dc3d 4891 70bd 6788 4dbd
00000130: 814f f5bd 1427 00bf 1b37 f1bd cb9b 6bbd
00000140: 37b3 45bd f29a 5fbe c161 f0be d6f4 a9be
00000150: 6d30 ccbd cfd2 4ebe 9e62 413e e51b a6bd
00000160: 595f 923d 7290 5dba 2a83 37be 5876 08be
00000170: b451 91be 97ca 1a3e c547 75bd 6cb6 7c3d
00000180: b0d6 8fbe 3c78 64be 4bb4 bdbc 3cd6 a53c
00000190: a09f b5be 634e 07be 8116 923d 722f 07be
000001a0: 5bfd a33d caf8 cb3d 9bdd 55bd 35a0 d9bd
000001b0: 844c afbd a564 09be 72ef 3a3b 48d7 81be
000001c0: 4628 9bbe 0455 0bbe a1fe 00bd 3d7b 1b3e
000001d0: 58d4 bdbe 2a70 b33c 3720 95be 03ad 893e
000001e0: 6ad2 e43d f559 c53d 84ba 583d f443 27be
000001f0: 8fe4 ab3d 2214 9b3d e5f0 2fbe 2ba4 4b3e
00000200: dcfe cdbe 9962 adbe 6330 00be e1aa 88bd
00000210: 8a73 1b3d 130f 203d 238b 33be 2a34 d93d
00000220: 5af6 95bd 1634 e0bd 6ce9 c9bd 173c 31be
00000230: 3bf8 e93d 7137 3a3e 0f26 223d a5a5 d6bd
00000240: 57bb 8b3d 3cda 103d b263 99bc 1ec7 3bbe
00000250: dcd7 73be eb47 843e 35dc 06be c7dc 5cbe
00000260: 5c29 24be daf6 5c3e 132e 49be ff73 4b3d
00000270: 67c5 10be 2fd4 db3d 635a 74be d171 2abd
00000280: c06f febd c0e4 34be 57fc e13d 5e10 703e
00000290: ec76 b33d 004d 0b3b c168 b2bc 7678 edbd
000002a0: 4735 923d 4c05 243c 4115 383d 9f29 e4be
000002b0: b9bb 0ebe a1b7 103e d717 adbe eace f0bc
000002c0: c0a8 873d e936 9fbd b6b0 753c bae8 5abe
000002d0: 0102 f03e 49a7 443e 01ef 38bd 74ce 59be
000002e0: d2ec 933e be25 d1bd b07b 97bb 3121 0f3e
000002f0: 1312 2c3e 2292 103e aefe f63d e3a0 9e3d
00000300: 25da 313e 616c 4abe 6262 7d3e 626a 4c3e
00000310: f258 0c3e 12ea ca3d f34a bbba 512c 383b
00000320: 5379 90bb d0f2 4f3e dd7f f73d 0fb5 d83d
00000330: a5f1 ad3d 03c3 083b e8ca f83d fcf1 f23d
00000340: c4de 663d a944 92be 820c 1abe e751 16bd
00000350: 22ec 233e 28b8 8bbd 4ac8 4d3c 72a7 cfbc
00000360: 1945 f6bd 84b6 edbd e480 0e3e 2e2a 1cbe
00000370: 6cca 53be a14a 9f3d 9a49 83be 76ff b03d
00000380: 5079 f4bd 4f71 ea3d 4831 65be 5243 923d
00000390: f3d7 e4be adac eebd be7a c4be 4e8f 8f3d
000003a0: c871 a6bd aca0 88bd e6a2 8fbe ebbe 49be
000003b0: 2c2f a2be 8d1a 8d3d 8519 60bd ffc6 c8bd
000003c0: 150d 223d 4934 d5bd ffdd b43e 8a60 373d
000003d0: f134 593c 855f 88be 5997 a2bd b24f 19bb
000003e0: b574 6fbd 8a6e d23d a7b8 003e 2ab6 3abf
000003f0: 81b5 56be d625 dfbd f494 29be bbc3 5bbd

shared2.bias f4 [30]
-0.024136422 -0.12150474 -0.0724411 -0.11459818 -0.089733444 -0.04909378 0.03986585 -0.09994755
0.012751453 0.093940005 0.05789318 -0.10489501 -0.09852677 -0.1197946 0.008748253 0.04950863
0.049645387 -0.00033566414 -0.11867401 -0.24675862 0.03114725 -0.022900613 -0.16109593 -0.11982489
-0.09361297 -0.09899798 0.0057471134 -0.01786056 -0.08601387 0.054405592
00000000: bfb9 c5bc 7ad7 f8bd 005c 94bd 73b2 eabd
00000010: 2bc6 b7bd 8f16 49bd 604a 233d 4db1 ccbd
00000020: 78eb 503c 9e63 c03d 6621 6d3d 32d3 d6bd
00000030: 67c8 c9bd df56 f5bd d554 0f3c 90c9 4a3d
00000040: f658 4b3d 14fc afb9 5c0b f3bd 4bae 7cbe
00000050: 8528 ff3c 119a bbbc 55f6 24be c066 f5bd
00000060: 28b8 bfbd 74bf cabd 4852 bc3b 4f50 92bc
00000070: 0a28 b0bd 66d8 5e3d

hidden_y0.weight f4 [30, 30]
-0.11788291 -0.14696215 0.029798932 -0.081330895 -0.19379455 -0.078329824 0.06870689 0.38403273
0.09516327 0.052758817 0.2327137 -0.25627932 0.04122017 0.2605204 0.0027870385 -0.21548358
-0.4968921 -0.13510312 -0.17678785 -0.079686314 0.44116247 -0.13733341 0.14509143 0.1076492
0.09264419 0.27180317 -0.09776621 -0.25705606 0.17754425 0.1781432 0.3268924 -0.058083136
-0.20761581 0.22080228 0.12236188 -0.054741137 0.045530427 0.08044976 -0.48508802 -0.17497855
0.21272701 0.30166 0.10898124 -0.19466873 -0.1712851 -0.2757887 0.07472782 0.085387684
0.028976444 -0.20344804 0.2449387 -0.18160962 -0.3404749 -0.08348145 -0.06437301 -0.21028039
0.21350847 0.0013706238 0.2885077 0.118006185 0.015127797 0.194412 0.040977508 0.0644172
-0.022168763 -0.21481037 -0.104707554 -0.10609264 0.17161205 0.20183198 0.08173292 0.09158292
0.15168814 -0.038719803 0.050214555 0.15041165 0.31033152 -0.029756336 0.055676334 0.074907765
0.02144486 0.03190145 -0.26327822 0.020003123 -0.111377195 -0.09052642 0.13813041 0.045404673
0.034473073 0.049651407 0.068974026 -0.46046007 0.059228316 0.0033959663 -0.043598156 0.13783535
0.08558563 0.1949594 -0.24602158 0.14569283 -0.18823604 -0.009856266 -0.008379954 0.07942828
-0.04420502 0.21712916 -0.19055027 -0.13836923 0.2836487 0.27288556 -0.0790199 -0.15484527
-0.021888284 -0.035930354 0.21599466 0.19492202 0.058225974 -0.30587494 -0.12303226 -0.24449013
-0.04644247 -0.19696225 0.14745174 0.17821243 0.21022174 -0.32492918 -0.30900165 0.15534785
0.060724244 -0.15879825 -0.13122283 -0.26515207 -0.23616134 -0.103350095 -0.048065305 -0.18419206
-0.14514945 0.0036799298 -0.020956252 -0.18209793 0.30680192 -0.22044933 -0.002448226 -0.12893943
-0.42360058 0.24929368 -0.017261153 0.036572166 -0.09856745 0.11591877 -0.17883658 0.24571884
-0.14255099 -0.030968051 0.14470552 0.021043068 -0.16942452 -0.04539927 0.22613607 -0.13904516
0.19356439 0.39279783 -0.013161308 0.14904411 -0.13230254 0.072463475 -0.11053493 0.0004373174
-0.21947037 -0.35399234 -0.26912996 -0.0831337 -0.40264052 0.17929764 -0.3501839 0.047422837
0.10783683 -0.34309265 0.11725151 -0.030583566 0.13311964 -0.09961963 -0.23221815 -0.048718635
-0.060885597 0.45134908 -0.115427196 0.14758433 -0.35876122 -0.029445361 -0.21233416 0.19162488
-0.041234463 0.067560606 -0.25114536 0.2661275 -0.13622133 -0.070872895 -0.13130312 0.28072116
0.16544284 0.14738582 0.3814378 0.011981107 -0.070778094 -0.10450688 0.07915927 -0.023513824
-0.010488974 -0.22395772 -0.1784172 -0.24171305 0.07060891 0.21694371 -0.036915954 -0.2625802
-0.03980572 -0.2237131 0.06545173 -0.07109167 -0.29669636 -0.0850406 0.4668668 0.24378099
-0.085647225 -0.24694099 -0.0073044533 -0.41133943 0.19989929 0.035145573 -0.049396817 -0.3577346
-0.016339123 -0.13470268 0.2595192 0.2059611 -0.16259868 -0.07240536 -0.16860284 -0.21454729
0.07492668 -0.29607916 0.054057993 -0.15436071 -0.12126202 0.33382705 -0.04140693 -0.23021036
-0.24854538 -0.21203057 0.0076793465 -0.25661677 -0.15285252 0.04618976 0.25181946 -0.031513102
00000000: 986c f1bd 3f7d 16be e41c f43c d090 a6bd
00000010: 1472 46be 636b a0bd 33b6 8c3d f09f c43e
00000020: f6e4 c23d a119 583d 804c 6e3e 0b37 83be
00000030: 7bd6 283d ee62 853e bfa6 363b baa7 5cbe
00000040: a468 febe 7958 0abe e007 35be 9432 a3bd
00000050: 0ce0 e13e 21a1 0cbe d992 143e 2f77 dc3d
00000060: 3dbc bd3d c929 8b3e a739 c8bd da9c 83be
00000070: 29ce 353e 2c6b 363e 715e a73e 95e8 6dbd
00000080: 3d99 54be fe19 623e de98 fa3d 3e38 60bd
00000090: 1d7e 3a3d d8c2 a43d 755d f8be 942d 33be
000000a0: 1cd5 593e 2e73 9a3e 8e31 df3d 3d57 47be
000000b0: 5c65 2fbe 2d34 8dbe e60a 993d bddf ae3d
000000c0: 0260 ed3c af54 50be 36d1 7a3e dff7 39be
000000d0: ba52 aebe 53f8 aabd ffd5 83bd be53 57be
000000e0: f7a1 5a3e 81a6 b33a 48b7 933e 3aad f13d
000000f0: 94da 773c f013 473e 08d8 273d 2aed 833d
00000100: 449b b5bc 40f7 5bbe ea70 d6bd 1947 d9bd
00000110: 12bb 2f3e 0bad 4e3e 9763 a73d d38f bb3d
00000120: 2354 1b3e a898 1ebd c7ad 4d3d 8305 1a3e
00000130: c6e3 9e3e 8fc3 f3bc de0c 643d 3e69 993d
00000140: 22ad af3c 18ab 023d 67cc 86be 97dd a33c
00000150: ba19 e4bd ea65 b9bd 0f72 0d3e 40fa 393d
00000160: a333 0d3d 465f 4b3d 4142 8d3d 6cc1 ebbe
00000170: 6499 723d dc8e 5e3b fb93 32bd b624 0d3e
00000180: 8547 af3d 70a3 473e 15ed 7bbe 8030 153e
00000190: f3c0 40be 2d7c 21bc 134c 09bc 4bab a23d
000001a0: 5310 35bd 1b57 5e3e 9c1f 43be aab0 0dbe
000001b0: 673a 913e a8b7 8b3e 2fd5 a1bd c28f 1ebe
000001c0: 0f4f b3bc b52b 13bd b42d 5d3e a399 473e
000001d0: 5c7e 6e3d a49b 9cbe 56f8 fbbd 9f5b 7abe
000001e0: 763a 3ebd 79b0 49be 97fd 163e 527d 363e
000001f0: 5e44 573e 1e5d a6be 7735 9ebe 8213 1f3e
00000200: fcb9 783d 029c 22be 475f 06be 03c2 87be
00000210: 47d4 71be 37a9 d3bd 20e0 44bd d89c 3cbe
00000220: 0fa2 14be fa2a 713b 72ac abbc e177 3abe
00000230: 2415 9d3e 78bd 61be 6b72 20bb b308 04be
00000240: 2de2 d8be d846 7f3e 4367 8dbc b2cc 153d
00000250: bbdd c9bd d266 ed3d f020 37be b89d 7b3e
00000260: e3f8 11be b6b0 fdbc af2d 143e 8362 ac3c
00000270: 9f7d 2dbe 96f4 39bd 3790 673e db61 0ebe
00000280: be35 463e cc1c c93e 87a2 57bc 059f 183e
00000290: 517a 07be bb67 943d 2360 e2bd bf47 e539
000002a0: d7bc 60be 7c3e b5be 67cb 89be 0042 aabd
000002b0: e626 cebe cd99 373e 4e4b b3be 733e 423d
000002c0: 8ed9 dc3d d7a9 afbe 8f21 f03d 638a fabc
000002d0: 8450 083e 6005 ccbd 98ca 6dbe 318d 47bd
000002e0: 2d63 79bd 3a17 e73e 1865 ecbd 5920 173e
000002f0: 8daf b7be 6637 f1bc 206e 59be 5039 443e
00000300: 78e5 28bd 375d 8a3d 2096 80be dd41 883e
00000310: 9b7d 0bbe cf25 91bd 5374 06be afba 8f3e
00000320: d969 293e 4fec 163e d14b c33e 684c 443c
00000330: 1bf4 90bd b407 d6bd 411e a23d 10a0 c0bc
00000340: f2d9 2bbc 2c55 65be 00b3 36be a083 77be
00000350: 679b 903d 7e26 5e3e 2f35 17bd e970 86be
00000360: 530b 23bd 0c15 65be 8e0b 863d 8298 91bd
00000370: 96e8 97be c429 aebd 2a09 ef3e b9a1 793e
00000380: d067 afbd 19de 7cbe 325a efbb 159b d2be
00000390: 66b2 4c3e cef4 0f3d 5154 4abd fd28 b7be
000003a0: a0d9 85bc 80ef 09be b3df 843e 77e7 523e
000003b0: 4580 26be 4349 94bd 39a6 2cbe 49b2 5bbe
000003c0: 2973 993d b097 97be ea6b 5d3d bc10 1ebe
000003d0: 3958 f8bd 61eb aa3e 509a 29bd 44bc 6bbe
000003e0: ae82 7ebe 8b1e 59be 07a3 fb3b 4663 83be
000003f0: 5f85 1cbe 7931 3d3d 7bee 803e e213 01bd

hidden_y0.bias f4 [30]
0.06667668 -0.013558868 0.118917845 0.051772747 -0.07280407 -0.12899232 0.06610441 0.0056145852
0.0839211 -0.16094635 -0.09378303 -0.10358305 -0.049230345 -0.37255758 -0.004985383 0.14821057
-0.01358872 -0.057170272 0.028549667 -0.07735382 -0.12995191 -0.063298136 -0.099014856 -0.0343713
-0.01743037 -0.03501622 -0.10113374 -0.3668709 -0.044985943 0.055734105
00000000: c98d 883d 0426 5ebc 338b f33d a90f 543d
00000010: 4d1a 95bd 9016 04be c061 873d 8efa b73b
00000020: d3de ab3d 1fcf 24be 5111 c0bd 5a23 d4bd
00000030: c2a5 49bd debf bebe 6c5c a3bb 83c4 173e
00000040: 39a3 5ebc 602b 6abd fee0 e93c ae6b 9ebd
00000050: 1d12 05be 74a2 81bd 4dc8 cabd ecc8 0cbd
00000060: 23ca 8ebc 2b6d 0fbd 351f cfbd 81d6 bbbe
00000070: 2e43 38bd 7249 643d

out_y0.weight f4 [1, 30]
0.04785146 -0.0016914752 0.4063325 0.011505436 -0.354103 -0.15656497 0.035831463 -0.0026903234
0.107896164 -0.024159808 -0.0034675854 -0.10953372 0.4775928 -0.20690799 0.19512905 0.06465527
-0.0029684429 -0.0038922732 -0.00028712902 -0.32271054 -0.2739994 -0.053384043 -0.20634027 0.10065306
-0.07655675 0.048741803 -0.041823737 -0.4891926 -0.0741152 0.010860913
00000000: e4ff 433d 7db4 ddba d00a d03e 4c81 3c3c
00000010: fd4c b5be 9152 20be 03c4 123d 2350 30bb
00000020: aaf8 dc3d caea c5bc 6e40 63bb 3753 e0bd
00000030: 0b87 f43e b0df 53be e9cf 473e fb69 843d
00000040: 358a 42bb 8215 7fbb ce89 96b9 513a a5be
00000050: a649 8cbe 3aa9 5abd dd4a 53be 3123 ce3d
00000060: c9c9 9cbd 7ca5 473d 5e4f 2bbd 7477 fabe
00000070: b6c9 97bd f9f1 313c

hidden_y1.weight f4 [30, 30]
0.1968064 -0.20312543 -0.1701959 -0.19924691 -0.14585854 0.13288537 -0.10048879 0.0704842
0.10185544 0.27961296 0.23042843 -0.108111545 0.13200198 0.37449598 -0.025818657 0.04516272
-0.026189843 -0.15186515 -0.045523573 0.06603349 0.18727754 -0.1524967 0.28633827 0.05960317
0.084654674 0.31062844 0.18284827 0.19575563 0.37721097 0.4866564 -0.046767585 0.10286172
-0.16671525 0.129942 -0.21369807 -0.18912518 -0.35039517 -0.06868022 -0.05167894 0.07116438
-0.16234097 -0.17967482 0.049057625 -0.11041586 -0.004273361 -0.06861403 -0.0847402 -0.20510365
0.1821003 -0.0438362 0.06311092 0.07837657 0.14372143 -0.093909726 -0.13008389 0.042477027
-0.057317067 -0.248587 -0.3214712 0.3114873 -0.18217386 0.06833105 -0.10574665 -0.07009985
0.026757883 0.40707326 -0.20400079 -0.12223047 0.16804208 -0.37080133 0.22921517 0.30355486
-0.055588797 -0.20628588 0.03464519 -0.02508529 -0.10590818 0.021537492 0.040263016 0.036420096
-0.24654447 -0.35616946 0.01809979 0.053254783 -0.060345147 -0.20162912 -0.03800252 -0.08867591
0.038406294 -0.12643185 0.2309448 0.080647804 -0.2074368 0.17277211 0.16655429 0.110714994
-0.2062069 -0.3357873 -0.015311578 -0.15325959 0.046209585 -0.22790214 0.01196283 0.20134076
-0.045955546 0.038309373 -0.0075907437 -0.021146249 0.23403814 0.40217313 0.11209865 -0.098699555
-0.26674226 0.30557352 0.08896566 -0.08731488 -0.03187938 -0.21031466 0.06683557 -0.10996104
-0.09956715 -0.1723586 -0.06453983 -0.23647356 -0.18153091 0.28086448 0.005980741 -0.098427124
-0.17931926 -0.10364797 -0.13224044 -0.19273773 0.012339705 -0.084255606 -0.109804615 0.17488404
-0.0063968664 0.004362485 0.19173892 -0.04002304 0.13577065 0.15610465 -0.023487575 -0.017797275
0.037785217 0.07893962 0.2143897 0.06341666 0.036689624 0.02613117 0.08323045 0.042158507
-0.006930887 0.027905663 0.3298731 -0.009704513 -0.19479702 -0.17531796 0.13911249 -0.014610296
-0.042532034 -0.07283821 0.014362891 0.05617814 -0.08041082 -0.030694863 -0.029788783 0.03592316
-0.23551644 0.022991916 -0.06524907 0.0054393 0.030545296 -0.11299947 -0.07669865 0.24476266
-0.10655446 -0.1381645 -0.09532977 -0.08729036 -0.11593563 -0.42321122 -0.037020456 0.2770135
0.025160117 -0.014006502 0.0815354 0.4653345 0.42865646 0.03928741 0.08199375 0.0645705
0.04866601 -0.055849537 -0.018390296 0.039243363 -0.051246118 -0.25151572 -0.21128722 -0.1781433
-0.17675728 -0.15807864 0.006924549 0.36104313 0.10438773 0.2847613 -0.09151257 -0.24869496
0.012034357 0.046217244 -0.19656461 0.028916782 -0.03903847 -0.14456618 -0.29703867 0.07330222
-0.07811276 0.022939136 0.088923454 -0.34486616 0.038942225 0.12990013 -0.070369355 -0.26808658
-0.0039211265 -0.17881909 0.03229597 0.20059536 -0.12528042 -0.11528885 -0.16422871 0.018614752
0.33352643 0.00027369484 -0.12598026 -0.04981862 -0.0740701 0.02704574 -0.012950964 -0.26805955
0.30920812 0.116889864 0.038176324 0.10874499 0.12713528 -0.088571765 -0.052534875 -0.16239046
0.116095714 0.09110507 -0.022085017 0.23345685 0.2886725 -0.09029444 0.048888266 -0.16510043
00000000: 9e87 493e 1d00 50be d647 2ebe 6207 4cbe
00000010: f15b 15be 1a13 083e 11cd cdbd 055a 903d
00000020: 9699 d03d 6e29 8f3e 6ef5 6b3e 9669 ddbd
00000030: 872b 073e f0bd bf3e a681 d3bc 8bfc 383d
00000040: 158c d6bc 8a82 1bbe ed76 3abd 913c 873d
00000050: afc5 3f3e 1828 1cbe ee9a 923e 7422 743d
00000060: 6e5f ad3d b10a 9f3e 943c 3b3e 2a74 483e
00000070: cc21 c13e 072b f93e 5e8f 3fbd 2aa9 d23d
00000080: 67b7 2abe 840f 053e abd3 5abe 08aa 41be
00000090: ff66 b3be 37a8 8cbd 4cad 53bd a1be 913d
000000a0: b63c 26be adfc 37be a6f0 483d b621 e2bd
000000b0: 8d07 8cbb 8385 8cbd 458c adbd b106 52be
000000c0: 8078 3a3e 968d 33bd 4c40 813d e583 a03d
000000d0: b62b 133e be53 c0bd b634 05be 64fc 2d3d
000000e0: 4dc5 6abd 978d 7ebe e097 a4be 437b 9f3e
000000f0: c98b 3abe 26f1 8b3d b391 d8bd 8390 8fbd
00000100: 5933 db3c e86b d03e 95e5 50be f853 fabd
00000110: 3913 2c3e acd9 bdbe 62b7 6a3e 8b6b 9b3e
00000120: 14b1 63bd 9b3c 53be 1de8 0d3d ab7f cdbc
00000130: 63e6 d8bd 656f b03c d5ea 243d 3d2d 153d
00000140: 2776 7cbe d85b b6be 0346 943c b021 5a3d
00000150: 792c 77bd dd77 4ebe 88a8 1bbd b79b b5bd
00000160: eb4f 1d3d 5a77 01be cb7c 6c3e ad2a a53d
00000170: 506a 54be 2ceb 303e 358d 2a3e 8bbe e23d
00000180: e727 53be 50ec abbe 6add 7abc 15f0 1cbe
00000190: 4346 3d3d 2e5f 69be bfff 433c 462c 4e3e
000001a0: e23b 3cbd 4aea 1c3d c6bb f8bb e63a adbc
000001b0: b2a7 6f3e a3e9 cd3e fa93 e53d fe22 cabd
000001c0: 7192 88be 2274 9c3e a133 b63d 25d2 b2bd
000001d0: f493 02bd ba5c 57be 16e1 883d 4133 e1bd
000001e0: dde9 cbbd c67e 30be 752d 84bd 2026 72be
000001f0: 3de3 39be 78cd 8f3e 18fa c33b 2994 c9bd
00000200: 789f 37be 6345 d4bd 0a6a 07be 0a5d 45be
00000210: 792c 4a3c 348e acbd 3ee1 e0bd cd14 333e
00000220: ce9c d1bb 2df3 8e3b 3557 443e 33ef 23bd
00000230: 7607 0b3e e6d9 1f3e 0469 c0bc 97cb 91bc
00000240: acc4 1a3d 18ab a13d f988 5b3e 98e0 813d
00000250: dc47 163d 0911 d63c ba74 aa3d 66ae 2c3d
00000260: 7e1c e3bb 6b9a e43c 21e5 a83e adff 1ebc
00000270: df78 47be 8d86 33be 8173 0e3e 0660 6fbc
00000280: 1236 2ebd 332c 95bd 5552 6b3c 0d1b 663d
00000290: 6eae a4bd cb73 fbbc 9b07 f4bc 2a24 133d
000002a0: 392b 71be 8b59 bc3c 4ea1 85bd 283c b23b
000002b0: 213a fa3c 446c e7bd 2f14 9dbd 10a3 7a3e
000002c0: 3a39 dabd ff7a 0dbe 413c c3bd 4ac5 b2bd
000002d0: a96f edbd 24af d8be c3a2 17bd b7d4 8d3e
000002e0: 971c ce3c 877b 65bc 08fc a63d 5340 ee3e
000002f0: dc78 db3e d6eb 203d 57ec a73d 8a3d 843d
00000300: 0356 473d 7cc2 64bd 3fa7 96bc a6bd 203d
00000310: 73e7 51bd abc6 80be ad5b 58be 326b 36be
00000320: dcff 34be 5edf 21be 54e7 e23b a5da b83e
00000330: 3cc9 d53d 3ccc 913e f16a bbbd e4a9 7ebe
00000340: c02b 453c 4b4e 3d3d 3c48 49be e3e2 ec3c
00000350: cde6 1fbd 2809 14be 7415 98be 791f 963d
00000360: 95f9 9fbd dbea bb3c 801d b63d 4c92 b0be
00000370: e281 1f3d 8a04 053e cf1d 90bd a542 89be
00000380: cb7c 80bb 5a1c 37be c748 043d df68 4d3e
00000390: 8349 00be 901c ecbd 922b 28be f77d 983c
000003a0: fac3 aa3e b37e 8f39 f800 01be 9c0e 4cbd
000003b0: 11b2 97bd 078f dd3c 4830 54bc 1a3f 89be
000003c0: 8750 9e3e f463 ef3d c75e 1c3d b1b5 de3d
000003d0: c02f 023e 1d65 b5bd cf2e 57bd af49 26be
000003e0: 97c3 ed3d 4c95 ba3d a3eb b4bc 500f 6f3e
000003f0: e2cc 933e 4bec b8bd 103f 483d 1610 29be

hidden_y1.bias f4 [30]
0.048114054 -0.03797668 -0.05044898 -0.023970976 -0.014402891 0.033752583 -0.07571459 -0.0651005
-0.012153035 -0.09408583 -0.11131622 0.089219466 -0.12806341 -0.011514967 -0.08806552 0.08336243
-0.04222538 -0.05541232 -0.05047992 0.028076218 0.03664115 -0.045586627 -0.39924026 -0.09362831
-0.085903235 -0.25908762 -0.055573314 -0.028583761 0.009679175 0.05625564
00000000: 3e13 453d 6f8d 1bbd 97a3 4ebd c85e c4bc
00000010: 1afa 6bbc 2640 0a3d 4010 9bbd 6953 85bd
00000020: 861d 47bc 12b0 c0bd c2f9 e3bd b2b8 b63d
00000030: 0e23 03be 46a9 3cbc b25b b4bd ecb9 aa3d
00000040: 85f4 2cbd 07f8 62bd 08c4 4ebd 1900 e63c
00000050: 0815 163d 0bb9 3abd 3869 ccbe 33c0 bfbd
00000060: 09ee afbd 22a7 84be d8a0 63bd 7e28 eabc
00000070: 6795 1e3c 506c 663d

out_y1.weight f4 [1, 30]
0.20936118 -0.39728335 0.18004894 -0.00081739976 -0.18021373 -0.0032940044 -0.038663927 -0.31648213
-0.241937 0.10227646 0.025373287 0.08570559 0.22314057 -0.0049368995 0.24034463 0.18081267
0.08605606 0.00081724883 -0.15320799 0.09197382 0.009467327 0.012776012 -0.25750118 -0.017337343
-0.22049008 -0.37831232 -0.008290106 -0.305803 -0.105802 0.013026745
00000000: c762 563e b968 cbbe c05e 383e c546 56ba
00000010: f389 38be 39e0 57bb 115e 1ebd f209 a2be
00000020: 55be 77be 5276 d13d a4db cf3c 6a86 af3d
00000030: f67e 643e b7c5 a1bb e71c 763e f526 393e
00000040: 293e b03d a43c 563a 8ee2 1cbe c55c bc3d
00000050: d91c 1b3c 7a52 513c 32d7 83be 0b07 8ebc
00000060: 27c8 61be 27b2 c1be 3ad3 07bc 3692 9cbe
00000070: b8ae d8bd 216e 553c
