DR_Info_CFR/Twins/Models/Models/netD.pth (torch, 10155 bytes, 5 tensors)

hidden1.weight f4 [30, 32]
000000 3d c3 2f 3e b1 f0 a1 be b8 d2 3f be a4 f8 0c be
       0.17164321 -0.31628945 -0.18732727 -0.13766724
000010 37 e8 5c bd e1 25 fb 3d a2 5b 7d 3c 70 1e 30 3e
       -0.053932395 0.12263084 0.0154637415 0.17199111
000020 cf 5b d7 3c eb fe 05 3d 12 b4 2f 3b d2 2c ad ba
       0.026288895 0.03271381 0.002681021 -0.001321221
000030 09 5a 56 be 47 d5 d7 3d 81 92 28 be 2c 98 ce be
       -0.20932783 0.10538726 -0.16462137 -0.40350473
000040 5a 90 f0 bd bb e2 40 3e 92 ad a7 be 61 e8 92 3d
       -0.11746283 0.18836491 -0.3274961 0.07173229
000050 60 a6 49 be ab d1 bc bd dd 8f 1a be 66 b0 06 3c
       -0.19692373 -0.092196785 -0.15093942 0.008220768
000060 9b a4 a4 bc d3 96 a3 3e 90 e0 ab bd f2 9f 4c be
       -0.020098021 0.31951007 -0.08392441 -0.1998289
000070 15 51 82 be 5e 93 ac 3d 03 79 b7 3b d5 bf 80 be
       -0.25452486 0.084265456 0.0055991425 -0.25146356
000080 9c 4f a6 3d 9b c0 2e be 8d e9 41 be 5c 78 ac 3e
       0.08120653 -0.1706566 -0.18936749 0.33685577
000090 b6 ff 93 be 8e 0a 37 bd 92 92 c7 bd cb 07 9e 3d
       -0.2890603 -0.0446878 -0.09744753 0.0771633
0000a0 58 62 9c be 2e f7 ba be 17 be 8f 3e ff 44 36 be
       -0.3054378 -0.36516708 0.28074715 -0.17799757
0000b0 70 52 0e 3e 4f cb 2c be 13 29 ea bd 74 3e df bd
       0.13898635 -0.16874431 -0.114336155 -0.10900584
0000c0 ac 1a ac 3e c7 6b 32 3e 4a b4 54 3e 9a ab 12 3f
       0.336141 0.17423926 0.207719 0.57293093
0000d0 2a 4d 74 3e 43 e3 de 3e 0e ef 6c bd 47 f3 85 be
       0.23857561 0.43532762 -0.057845168 -0.26162168
0000e0 d0 54 2e be c6 9e b9 bc a7 f8 32 3e 02 69 94 3e
       -0.17024541 -0.022658717 0.17477666 0.28986365
0000f0 07 07 0d bf 7b 2e 3c 3a 07 1f 2c bf 5e ac cc be
       -0.5508885 0.0007178557 -0.67234844 -0.39975256
000100 f0 e4 62 3e ff 1c 74 3d b7 87 95 be 0b 37 19 be
       0.22157645 0.059597965 -0.29205105 -0.14962403
000110 41 b8 fd 3d 32 c8 9e bd 40 19 26 be 37 56 64 be
       0.12388659 -0.07753028 -0.1622057 -0.22298513
000120 e3 11 c9 39 51 30 e9 3d 30 5a 93 3d d5 fd 5a bc
       0.00038351034 0.11386169 0.07194936 -0.013366182
000130 0a 80 9d be 64 77 d9 3d 68 e9 4c be 05 ae 29 3d
       -0.3076175 0.10618475 -0.20010912 0.041425724
000140 78 f1 a1 bd 07 ba 3f bd 2f be cd 3d 6c 34 53 bd
       -0.07907385 -0.04680827 0.1004604 -0.051563665
000150 ac b7 1f bd 58 7a 0c 3e 88 cb 14 3e 12 4e 67 3c
       -0.038993523 0.13718545 0.14530766 0.0141177345
000160 f9 42 a4 bc 5e ac 9f 3a c0 4a b5 bc 97 10 a2 be
       -0.020051466 0.0012182107 -0.02213037 -0.31653282
000170 f7 2c 96 3c b8 16 df 3e ee 89 eb be d2 22 f0 3f
       0.018331988 0.4357202 -0.4600367 1.8760626
000180 ce 4d 78 3e 75 5a 7e 3c 1c dd 8b be 66 d5 00 3e
       0.2424843 0.015524496 -0.2731713 0.12581405
000190 f0 82 f1 bd 9a 3b ae 3d d0 f1 f7 bb 33 bc 16 be
       -0.117925525 0.08507462 -0.007566668 -0.1472023
0001a0 54 cd 86 3d 6c 94 95 3e 71 37 1b 3e 57 75 d2 3d
       0.06582132 0.292148 0.15157868 0.10276287
0001b0 a1 fc 40 3d e4 a8 bd 3d 15 07 2b 3e 53 97 d9 3d
       0.047115926 0.09260729 0.1670192 0.10624566
0001c0 5f 20 82 bd 9d 67 b1 3e 62 bc c1 3d 65 33 04 bc
       -0.063538305 0.34649363 0.09459759 -0.008068894
0001d0 4d a4 70 3e d3 83 35 be 15 c8 51 be 1a 99 ec 3d
       0.23500176 -0.17726068 -0.20486481 0.11552639
0001e0 e4 6b 58 3e c4 70 66 3e 39 f9 20 3d c1 a1 26 3e
       0.21134907 0.22503954 0.039300177 0.16272642
0001f0 f0 e0 e1 bd c5 28 e5 3d 84 37 20 40 de 5d 26 be
       -0.110292315 0.11189417 2.5033884 -0.16246745
000200 fa d4 97 be 15 7c f0 3d 9b ba 04 3e 6a 9a 15 bd
       -0.29654676 0.11742417 0.1296181 -0.036524214
000210 21 1f 36 be 14 84 78 be 83 c5 20 3e 79 7b 3d 3e
       -0.17785312 -0.24269134 0.15700345 0.18504132
000220 29 c0 da 3d 67 96 88 bd 3e fb 06 3c b7 7b bd 3d
       0.10681183 -0.06669312 0.008238612 0.09252112
000230 b5 e2 ea 3d 30 0e 45 3d 92 95 ab 3c 0b 0f 32 bd
       0.11469022 0.048109233 0.020945344 -0.043471377
000240 08 46 d4 3e a7 ac 56 3e 81 e7 17 3e 68 7e 0c 3e
       0.4145968 0.20964299 0.14834405 0.13720095
000250 17 d3 21 be bf 59 a2 bc 79 08 03 bc 95 3a 32 be
       -0.1580318 -0.019818185 -0.0079976255 -0.1740516
000260 6a 78 85 3c 71 98 04 3d 68 e5 c1 bb 8d 9a 0f be
       0.01629277 0.032371942 -0.00591724 -0.140238
000270 f0 28 91 bc 80 f5 94 bd cd e7 4e be 38 78 16 3f
       -0.017719716 -0.07273388 -0.20205612 0.5877719
000280 9d 15 3c be e7 88 62 3c 57 16 bb 3d f2 a8 0a 3e
       -0.1836762 0.013826585 0.0913512 0.1354101
000290 54 d8 f3 3d 2f 81 93 be f3 82 b5 3d e7 5c 96 3e
       0.11906496 -0.28809497 0.08862867 0.29367754
0002a0 e5 28 96 bd aa 99 c6 bd 69 c8 b8 3e 10 13 34 bd
       -0.07332019 -0.09697278 0.360904 -0.043963492
0002b0 c4 ac 55 3c f9 38 ca 3e 09 11 60 3e f2 50 a1 3d
       0.013041679 0.39496592 0.21881498 0.07876767
0002c0 da be 64 3d 7a dd d1 3e e1 57 ec 3c c5 30 d5 bd
       0.055846073 0.40989286 0.028850498 -0.10409693
0002d0 d5 fc 98 bd 48 58 85 3e f5 42 eb 3e 5c 53 7d 3d
       -0.07470099 0.26043916 0.45949522 0.061847076
0002e0 22 da d0 bd 3c b3 9e 3e c9 05 a0 3c e1 7a 14 3e
       -0.101978555 0.3099612 0.019534009 0.145
0002f0 20 9e f0 3d af 8c 2c 3e 99 9d 64 3f e7 e9 8e bf
       0.1174891 0.16850542 0.89302975 -1.1165131
000300 4f 80 77 3e 36 7f 52 3e cc b9 95 3d 12 41 34 3e
       0.2417004 0.2055634 0.073108286 0.17602947
000310 ea a6 0b 3e 4a 44 e7 bd f1 51 61 3e a2 0d ce 3e
       0.13637891 -0.11292322 0.22003914 0.40244776
000320 f9 b0 a3 bc 8c bd 18 3d 03 c3 08 3e eb 4d 3d 3e
       -0.019981848 0.03729014 0.13355641 0.18486755
000330 e8 fe de 3d ac 8a 48 bd 11 01 28 3d e6 64 8c 3e
       0.10888463 -0.048960373 0.041016642 0.2742073
000340 da 9a 29 3e 3e 50 6d 3e 4f 49 93 bb e7 bc 7b bd
       0.16562977 0.23175141 -0.004494823 -0.06145945
000350 70 95 97 3d 37 77 2b bc 12 db 8d be 49 fc 63 3e
       0.0740155 -0.010465435 -0.277062 0.22264208
000360 8b 7c 08 bd 75 3c 4f 3c c5 51 3b 3d a6 2e 73 3d
       -0.0333219 0.012648691 0.04573228 0.05937066
000370 b8 a6 b8 3d 33 05 0a be 95 c3 08 3f 90 c1 ef 3f
       0.09016174 -0.13478546 0.53423434 1.8730946
000380 44 9b b0 3e af 73 2d 3e 6d 3d 47 3e 5b 2a cb 3d
       0.34493458 0.16938661 0.19457026 0.09920188
000390 7e 53 53 3e 01 93 8e 3d b4 0b 24 3e 94 2e 66 3d
       0.20637318 0.069616325 0.1602009 0.056196764
0003a0 a3 c7 49 3e a2 e1 d0 3e a6 cb e1 bc a7 58 09 3e
       0.19705062 0.40797144 -0.027562927 0.13412724
0003b0 3e 8e b4 3e 3b 4b 8c 3e e0 0c 87 3e 0f 23 67 3e
       0.35264772 0.27401146 0.2637701 0.22571968
0003c0 e6 ee fe bb b9 ff 06 3e da 6a 91 3e b3 7d 6a bd
       -0.0077799438 0.13183488 0.28401834 -0.057248782
0003d0 d4 1d cd bc 49 5d a0 bc 37 02 65 be 37 4d 86 3e
       -0.025038637 -0.019575732 -0.22364126 0.26230785
0003e0 25 60 53 3d 96 3e a6 3e e1 03 b1 bd 8f 4c cf 3e
       0.051605362 0.32469624 -0.08643318 0.40488097
0003f0 fa a5 24 3d 1e d1 5a be 07 8c 52 bf d3 f6 f1 bf
       0.04019735 -0.21368834 -0.82244915 -1.890345

hidden1.bias f4 [30]
000000 00 00 00 00 5c f4 18 bd 62 fc 49 bd d1 62 4c 3d
       0.0 -0.037342414 -0.049312957 0.049898926
000010 04 17 72 3d c3 f1 c6 3c 00 7d 5a bc 0b 4c 3b 3e
       0.05910398 0.024285203 -0.013335466 0.18290727
000020 00 00 00 00 98 19 6f 3d 5f c7 4d 3d 2a 41 b1 3b
       0.0 0.058374017 0.050238963 0.0054093795
000030 db 6f 26 3b 00 00 00 00 d4 2f 9c b9 0e 89 c1 3b
       0.002539626 0.0 -0.00029790273 0.005906231
000040 40 f1 45 3c 00 00 00 00 f4 f0 f3 3d f3 e5 8a bc
       0.012081444 0.0 0.119111925 -0.016955351
000050 83 56 14 3d 0d 52 68 bd 00 00 00 00 00 00 00 00
       0.036215317 -0.056718875 0.0 0.0
000060 1c c5 b3 bc 92 82 03 3e 63 4c a0 3d 09 ee 7f bd
       -0.021944575 0.12842777 0.078270696 -0.062482867
000070 49 51 17 bd 00 00 00 00
       -0.036942754 0.0

hidden2.weight f4 [30, 30]
000000 09 27 14 3d 0b 9d fe 3e af 9b f3 3d 9a 2a 8e 3d
       0.03617004 0.4972919 0.11894929 0.06941719
000010 e0 a5 77 be f2 13 5f be 50 cc e5 bb c8 e6 84 be
       -0.2418437 -0.21784952 -0.0070128813 -0.25957322
000020 08 4b f6 3d f6 32 6b 3e dd 74 af be 7b 3d fb be
       0.1202603 0.22968659 -0.34268847 -0.49070343
000030 f4 99 74 bc 27 81 50 be c5 85 d1 be d2 30 18 3e
       -0.014929283 -0.20361768 -0.4092237 0.14862373
000040 90 e0 8c be 7e bf fa 3d f4 85 7a 3d 85 7e 99 3e
       -0.27515078 0.122435555 0.061162904 0.2997934
000050 d0 77 79 3b 8e ad f2 be e2 5a 72 3e d3 91 96 3c
       0.0038065799 -0.47398037 0.23667482 0.018380081
000060 a9 9f ce bd 2e a2 35 be 26 d8 71 3d 81 3b ca 3d
       -0.100890465 -0.17737648 0.059044026 0.09874631
000070 41 f7 21 3d 2f ca 82 bd 5b 3f cb bd a2 25 62 be
       0.03954244 -0.0638622 -0.099241935 -0.22084668
000080 63 df 87 be 08 7d 8c 3d dd b6 82 3e cd 2e 81 3e
       -0.26537618 0.06859785 0.2553014 0.2523102
000090 3a 0a 67 bd 96 69 1d 3e c8 f0 21 3e f9 c8 2d 3e
       -0.056406237 0.15372309 0.15814507 0.16971196
0000a0 0d b1 58 be d7 bb c4 bd 38 41 dc bd 5a 1b c2 3c
       -0.2116129 -0.0960614 -0.10754627 0.023694683
0000b0 c9 20 a3 be 70 1d 9b 3e 2f 63 87 3e 23 c0 d7 3d
       -0.3186095 0.30295897 0.2644286 0.10534694
0000c0 70 44 94 be 69 bc 16 3d 66 84 18 be 8b 89 09 be
       -0.28958464 0.036800776 -0.14894256 -0.13431375
0000d0 18 16 3b be 6c 20 b1 3d 31 ff e0 be 53 c5 15 3f
       -0.18270147 0.08648762 -0.43944696 0.5850422
0000e0 c1 9a 1c 3e 8a 79 c0 3e ec 34 3a bd 32 12 f4 3d
       0.15293409 0.37592727 -0.045460626 0.11917533
0000f0 02 96 13 3e e7 9d 69 bd 1e ea 01 bf ed 12 49 3d
       0.14412692 -0.057035353 -0.5074786 0.049090315
000100 d6 e8 a2 be 9b 91 90 3e f1 27 cd be 99 3e cf 3e
       -0.31818265 0.28236088 -0.40069535 0.40477446
000110 5b 0c a7 3c 49 6c e1 bd 9e a8 9d bd c9 f6 83 be
       0.020391634 -0.11006982 -0.07698177 -0.2577422
000120 b8 e7 02 be d2 86 5e 3e 78 9e 7a 3e ba 2b df 3d
       -0.12783706 0.21731117 0.24474514 0.10897012
000130 40 69 0d 3d cb 1c 03 be 5d ad 05 bf 10 3a 80 3e
       0.034524202 -0.12803952 -0.52217656 0.25044298
000140 c4 a9 34 3e b2 54 8e be df 0b 0d 3d fa 35 ff bc
       0.17642885 -0.27798992 0.03443515 -0.031153668
000150 67 3c 6a bf 7b e8 8a 3f 0b 5e 05 3e 8f 00 c0 3d
       -0.91498417 1.0852197 0.13024156 0.093751065
000160 05 9d 8a bf 88 2f 1e bd 3c d3 8f be 82 ab b5 bd
       -1.0829169 -0.038619548 -0.28090847 -0.08870603
000170 4a 80 bd be 8f 96 82 3d 67 12 e0 3d a6 f8 44 3d
       -0.3701194 0.06376373 0.1094101 0.048088692
000180 7c 1b fe bd 3c c2 e0 bd 67 7f 78 be dc 6f db 3c
       -0.12407586 -0.10974547 -0.2426735 0.026786737
000190 7d fd 27 be 86 55 64 3e 73 89 1e bd 7f 63 d3 3e
       -0.16405292 0.2229825 -0.0387053 0.41286847
0001a0 b4 cc 47 bf 23 2e 59 be fa 70 18 3d 03 84 80 3d
       -0.7804673 -0.21209006 0.037217118 0.06275179
0001b0 d6 43 73 be 9a 43 2c bf 8b 19 93 3d 30 75 9a bd
       -0.23756346 -0.6729065 0.07182606 -0.07541883
0001c0 39 23 c4 3b ae a8 19 3e 08 09 f1 bd 96 8f de 3d
       0.005985644 0.15005752 -0.11769301 0.108672306
0001d0 d7 d5 01 3f 47 89 99 3d 74 80 ae be d0 b3 23 be
       0.5071692 0.07496887 -0.34082377 -0.15986562
0001e0 79 82 c0 bd 3a a7 af be ce 99 e0 3e 2a c1 98 be
       -0.09399886 -0.3430727 0.43867344 -0.29834872
0001f0 51 93 eb be 60 8f 2e bd c3 5c 93 3e 38 72 60 be
       -0.4601083 -0.0426172 0.2878171 -0.21918571
000200 20 af 22 bd 4c f1 95 3e b8 a6 1d bd cf 52 15 be
       -0.039717793 0.29285657 -0.038489074 -0.1458237
000210 b9 9b 1a 3e 14 fa 87 3c 76 91 dc 3c 3b de 6c bd
       0.15098466 0.016598739 0.02692483 -0.057829123
000220 88 8f 4c be 0e 42 2d 3e e2 f8 1f 3e f5 69 c2 bd
       -0.19976628 0.16919729 0.15622285 -0.09492866
000230 76 ab 83 bd 08 74 97 3e 42 f0 f2 3e 6c 8c ae bb
       -0.06429188 0.29580712 0.47448927 -0.005326798
000240 37 b6 64 3e 74 ea af be 28 76 fe 3d 51 2f 04 be
       0.22335134 -0.3435856 0.1242488 -0.12908675
000250 47 e4 ab 3e 47 d3 34 be 14 85 02 3e cb 0e 92 bb
       0.335726 -0.17658721 0.12746078 -0.00445733
000260 aa e0 5c 3e 30 e1 af 3d ab 2c 2b bf 6d 2d a2 39
       0.21570078 0.08587873 -0.6686503 0.00030932893
000270 73 12 a8 3e e5 9f 2c be 4d bd e2 3d e3 e7 3f 3e
       0.32826576 -0.1685787 0.110712625 0.18740802
000280 92 36 23 3c 91 d1 01 bd c0 81 c3 bd 68 a7 96 be
       0.009961741 -0.031694 -0.09546232 -0.29424596
000290 30 6c 23 3e 42 f1 30 bc d6 9e 6d 3e 7f 7a 54 3d
       0.15959239 -0.010799708 0.23205122 0.051874634
0002a0 fb 80 11 3f 40 23 37 3e e1 d7 71 be 3c 24 2e 3e
       0.56837434 0.1788454 -0.23617508 0.1700601
0002b0 e7 59 6e bc 90 03 27 3e ae c5 ad 3d 64 16 a5 bd
       -0.014547802 0.16309953 0.0848497 -0.08060911
0002c0 9c 36 5a 3e 75 b3 71 be 9a 3e 59 3e 22 3c dc bc
       0.21309894 -0.23603614 0.21215287 -0.026884142
0002d0 7e 63 eb 3d ea a0 f7 bd 1b d4 16 be ab de c7 3d
       0.11493586 -0.12091239 -0.1472935 0.097592674
0002e0 c7 58 4a 3f d8 90 09 3e b2 03 63 3e 6b 0c 42 3e
       0.79041713 0.1343416 0.22169378 0.1895005
0002f0 a9 cb fa bd 23 7b 33 bb 7c 74 6c bd c1 8e 40 be
       -0.12245876 -0.0027386628 -0.057728276 -0.18804456
000300 0c a5 bb 3d dc 7c 08 bf d6 56 4f bf d8 64 a0 3d
       0.091623396 -0.5331552 -0.80991876 0.078317344
000310 f3 a6 af 3e c2 e3 26 3e a4 5e b0 3d 99 9a 2c be
       0.3430706 0.1629782 0.08611801 -0.1685585
000320 dd c1 94 3d bc c4 91 3e a9 d4 58 3e 0c 61 44 3d
       0.07263539 0.2847041 0.21174873 0.047944114
000330 f7 78 0f be a8 09 ca ba 04 d2 1f be 1f ec 3d 3d
       -0.14010988 -0.0015414255 -0.15607458 0.04636776
000340 6e 60 31 bf 22 1f a8 be a6 46 05 bc cf 8c b7 bd
       -0.69287765 -0.32836252 -0.00813452 -0.08962404
000350 27 32 d9 bd 51 e3 3f be b4 c8 67 be e7 96 20 be
       -0.10605269 -0.18739058 -0.22635156 -0.15682565
000360 e2 0f 1b 3e d1 ca 27 be da 21 e9 bd b0 57 06 bd
       0.15142778 -0.16385962 -0.1138341 -0.03279847
000370 8b 3e dc 3e 2a fd 27 3e 08 f1 e5 bc fa 8e 4a be
       0.43016466 0.16405168 -0.028069034 -0.19781104
000380 4c 7b 4f 3e 35 34 f4 3d 84 0e 26 3e fe a2 f1 3e
       0.20261878 0.1192402 0.16216475 0.47194666
000390 01 9d 57 3e 9b c4 ac 3d c5 0a 67 bd d6 e0 f8 3e
       0.21055986 0.08435937 -0.056406755 0.48609036
0003a0 3e a1 0b 3e a6 39 b8 be 6d 4d 00 3f 0b 9c 03 bd
       0.13635728 -0.35981482 0.5011814 -0.032131236
0003b0 bb 39 80 bd ca f5 ee bd 25 2e 13 3f 8a 70 13 bd
       -0.06261011 -0.11667974 0.57492286 -0.035995997
0003c0 19 8e 3e be ed 70 07 3e 90 3a 28 bf 8a a5 8a 3d
       -0.18608893 0.13226672 -0.6571436 0.06769855
0003d0 d1 75 c8 bd 58 97 a6 3e 14 00 c0 be 7f 46 a6 3e
       -0.09788097 0.3253734 -0.3750006 0.3247566
0003e0 71 42 cb 3d 78 c9 b5 3d 0c 82 8d bd f4 47 e4 be
       0.09924782 0.08876318 -0.0690957 -0.44586146
0003f0 ba e0 87 bd 29 64 54 be 14 bc 10 3f ca a5 ed 3e
       -0.0663466 -0.20741333 0.56536984 0.4641555

hidden2.bias f4 [30]
000000 eb 18 ae bc 2c 83 db bc d1 b8 82 3d ef b1 a4 3b
       -0.021252116 -0.026795946 0.06382907 0.005026094
000010 cd 0b cb 3c e1 3b db 3c c5 03 da bc 8f 67 a4 3c
       0.0247859 0.02676195 -0.026613126 0.020068912
000020 9b 75 5d 3d b5 7a bd bc fb d8 6f 3c 04 3d 14 bd
       0.054067235 -0.0231298 0.0146391345 -0.036191
000030 bc 40 b4 bb d3 fb c2 bc dd 1f 14 bd d1 e1 9d bc
       -0.005500881 -0.02380172 -0.0361632 -0.019272717
000040 cc 62 62 bc 7e 80 cd 3c cd 37 ee 3c b6 79 8c 3d
       -0.0138175 0.025085684 0.029079342 0.06859152
000050 c1 0d 32 3c ef 03 87 3b 96 2a 2f 3c 67 5e 12 3d
       0.010867537 0.004120342 0.010691306 0.03573456
000060 6b ac b9 bc 01 2d ba bc 51 bf ce 3c 57 d8 ba bc
       -0.022665223 -0.022726538 0.025237711 -0.022808237
000070 3d d9 99 bc 3f 94 e0 ba
       -0.018780345 -0.0017134025

out.weight f4 [1, 30]
000000 df 5c 22 bf 5a cc ae be ea ce f6 3f 5f 5b 55 be
       -0.6342296 -0.34140283 1.9281895 -0.20835637
000010 1a 95 83 3e ff 7a e5 3e ef 41 1c be 6d d8 c6 3e
       0.25699693 0.448204 -0.15259527 0.38836995
000020 62 ae 14 40 bb 62 78 be 76 e5 2c c0 f7 8d 96 be
       2.3231435 -0.24256413 -2.7015052 -0.29405186
000030 a5 39 5d 3f 2f 4c 35 bf 81 02 46 3e bf a4 b0 bf
       0.86416084 -0.7081937 0.19336893 -1.3800277
000040 56 d3 9c 3e 3b 95 19 3f 1c a0 e9 3e b4 9a c8 bf
       0.30629987 0.5999333 0.45629966 -1.5672212
000050 60 62 05 bf 5e 2c 16 be ee 0f 2c 3f 8c 24 af bf
       -0.52103233 -0.14665362 0.67211807 -1.3683028
000060 8d 3a 68 be c4 5a 80 3e b2 70 9d 3e b8 24 93 be
       -0.22678585 0.2506925 0.30750042 -0.28738952
000070 86 02 17 bf 67 43 db 3d
       -0.58988225 0.10706215
