DR_Info_CFR/zz/Twins/Models/Backup/netG.pth (torch, 27623 bytes, 10 tensors)

shared1.weight f4 [30, 100]
000000 54 0e 7a c0 d4 27 93 c0 82 33 94 c0 e2 eb 83 40
       -3.9071245 -4.598612 -4.6312876 4.1225443
000010 2f 56 96 40 e9 06 7e c0 88 a7 8a 40 e0 db 4b c0
       4.6980205 -3.9691718 4.3329506 -3.185295
000020 ce 61 91 c0 e8 85 90 40 43 6b 95 c0 78 da 8c 40
       -4.543189 4.516346 -4.6693435 4.4016685
000030 34 cc 92 40 4e 71 55 c0 64 ae 90 c0 3a 25 85 c0
       4.587427 -3.3350406 -4.521288 -4.1607943
000040 d2 9b 8c c0 2d f0 87 c0 e5 60 91 40 9b 38 80 c0
       -4.394021 -4.2480683 4.543078 -4.00691
000050 dc 35 7a c0 19 b5 70 c0 20 7b 98 40 b3 c5 97 40
       -3.9095373 -3.7610533 4.76503 4.742883
000060 30 8e 86 40 1e e4 94 40 a8 92 97 c0 5f 1a 97 40
       4.204857 4.6528463 -4.7366524 4.721969
000070 65 24 94 c0 69 34 8e 40 4f ba 91 c0 60 d4 90 c0
       -4.6294427 4.4438977 -4.5539927 -4.5259247
000080 85 e1 92 c0 cd 1f 96 40 58 cd 92 c0 f7 2f 8d 40
       -4.5900292 4.691382 -4.5875664 4.412105
000090 7c 24 60 40 6e 6e 5c c0 9e 53 45 c0 bd 68 7d 40
       3.5022268 -3.44424 -3.0832286 3.9595177
0000a0 c6 1b 93 40 95 81 8f c0 6f d5 8c c0 7e 42 8c c0
       4.5971403 -4.484568 -4.401054 -4.3831167
0000b0 c8 18 98 40 2b ec 8f c0 cf ee 8b c0 2b be 78 c0
       4.753025 -4.497579 -4.3729014 -3.886607
0000c0 6c c1 84 c0 d0 93 5c 40 c1 b5 90 c0 c1 1b 94 40
       -4.148611 3.4465218 -4.5221868 4.628388
0000d0 1b e1 94 c0 55 95 96 c0 3d f5 5c c0 9d 83 89 40
       -4.6524787 -4.705729 -3.4524682 4.297316
0000e0 a4 4c 8b 40 9e 05 74 c0 ac 91 92 40 68 f1 91 40
       4.3531055 -3.8128428 4.580282 4.5607185
0000f0 73 a6 8e 40 c7 84 8e 40 d4 4a 8e c0 63 ed 8b c0
       4.4578185 4.453708 -4.4466343 -4.372728
000100 a3 a0 85 c0 30 59 86 40 db 64 56 c0 a8 b1 95 40
       -4.175859 4.198387 -3.3499057 4.6779366
000110 77 e9 88 40 05 90 89 c0 2f f8 8a 40 ca 51 86 40
       4.278499 -4.2988305 4.342796 4.197484
000120 8c 43 89 40 f6 f6 96 40 e1 f7 87 40 45 a9 8f c0
       4.2894955 4.7176466 4.2490087 -4.489413
000130 48 67 4f c0 6d 64 93 c0 12 70 88 c0 20 22 97 c0
       -3.2406788 -4.606009 -4.2636805 -4.7229156
000140 7f 59 8d c0 dc c0 79 40 1d 81 94 40 02 28 8e c0
       -4.417175 3.9023962 4.640761 -4.442384
000150 ad 8a 7b 40 f7 33 71 40 62 4a 8f 40 b8 78 94 40
       3.930339 3.7687967 4.47783 4.639736
000160 b1 dd 7d c0 4f 12 4f 40 77 94 88 c0 b8 7a 96 c0
       -3.966656 3.2354925 -4.268123 -4.7024803
000170 4a e0 93 c0 bb 1d 94 c0 7a 74 83 c0 87 3c 76 40
       -4.621129 -4.628629 -4.1079683 3.8474443
000180 34 42 6c 40 a2 50 8e c0 e0 5c 94 40 a5 1f 4d c0
       3.6915407 -4.447343 4.6363373 -3.2050564
000190 1d 29 7d c0 91 cf 90 c0 6a 02 96 c0 52 77 8c 40
       -3.9556344 -4.5253377 -4.6877947 4.3895655
0001a0 ec e2 94 40 ef 1c 81 c0 68 f4 8d 40 7a 62 83 c0
       4.6527004 -4.034782 4.4360847 -4.105771
0001b0 02 6c 93 c0 be dd 95 40 cb 92 90 c0 69 32 7c 40
       -4.6069345 4.683318 -4.517919 3.9405768
0001c0 81 2e 97 40 30 41 5b c0 78 94 83 c0 26 e2 8f c0
       4.7244267 -3.4258537 -4.1118736 -4.496356
0001d0 9e c5 92 c0 21 ee 96 c0 c4 f4 90 40 28 15 8c c0
       -4.586623 -4.7165685 4.5298786 -4.3775826
0001e0 60 5c 68 c0 f7 d8 8a c0 f0 de 97 40 f3 6c 97 40
       -3.6306381 -4.338985 4.745964 4.7320495
0001f0 5d 2d 8c 40 1e 1e 95 40 fb 2b 99 c0 9f d7 95 40
       4.3805375 4.6599264 -4.7866187 4.682571
000200 18 a1 93 c0 e6 2d 86 40 2f f0 91 c0 33 6f 91 c0
       -4.613415 4.193103 -4.5605693 -4.544824
000210 19 c8 87 c0 b3 f3 93 40 1a 0f 93 c0 fb 7d 90 40
       -4.243176 4.6234984 -4.5955935 4.5153785
000220 6a fe 48 40 f1 1f 87 c0 32 da 72 c0 55 93 8e 40
       3.1405282 -4.222649 -3.7945676 4.455485
000230 dd 33 94 40 6d 8b 84 c0 b8 74 90 c0 b0 3e 6e c0
       4.631331 -4.1420197 -4.514248 -3.7225761
000240 55 a9 98 40 67 e6 88 c0 0d ca 84 c0 b8 8e 80 c0
       4.7706704 -4.2781253 -4.1496644 -4.0174217
000250 24 8d 94 c0 e2 cb 5a 40 7c e4 8d c0 44 6d 8a 40
       -4.642229 3.418694 -4.434141 4.325838
000260 72 a5 89 c0 57 01 88 c0 4d a7 59 c0 98 ea 7a 40
       -4.301446 -4.2501636 -3.4008362 3.9205685
000270 bd f1 8e 40 d5 f7 8c c0 65 b9 92 40 9e 6a 80 40
       4.467009 -4.405253 4.585131 4.013015
000280 50 4d 8e 40 5e 4b 96 40 b9 6f 96 c0 6e bc 8c c0
       4.4469376 4.6967 -4.701138 -4.3980017
000290 c6 86 96 c0 86 6a 64 40 d8 07 6a c0 72 b8 92 40
       -4.703952 3.5690017 -3.6567287 4.5850153
0002a0 8c 1f 86 40 05 f3 66 c0 23 0d 8a 40 c2 c4 95 40
       4.191351 -3.6085827 4.3141036 4.6802683
0002b0 e1 4e 94 40 7c 1e 95 40 d8 91 8e 40 71 ef 94 c0
       4.634629 4.659971 4.455303 -4.6542287
0002c0 91 6c 78 c0 74 82 96 c0 a2 53 67 c0 56 1b 91 c0
       -3.8816264 -4.7034245 -3.6144795 -4.534587
0002d0 c1 48 82 c0 a2 cd 85 40 09 b0 8e 40 0b e3 96 c0
       -4.071381 4.1813517 4.4589887 -4.715215
0002e0 a1 fc 67 40 5f 9a 81 40 2a fc 85 40 03 aa 84 40
       3.6247942 4.050094 4.1870317 4.1457534
0002f0 86 1d 8f c0 c1 0f 82 40 03 aa 58 c0 ef 8e 97 c0
       -4.472354 4.064423 -3.3853767 -4.736198
000300 b9 a5 7f c0 2b b7 91 c0 46 9b 87 c0 65 91 7d 40
       -3.99449 -4.5536094 -4.2377043 3.9619992
000310 b9 df 70 40 db 23 8d c0 00 3e 89 40 3b 90 4f c0
       3.763655 -4.410627 4.2888184 -3.2431781
000320 70 68 97 c0 0d d1 91 c0 c9 23 94 c0 d0 98 8c 40
       -4.7314987 -4.556769 -4.6293683 4.393654
000330 7c 28 80 40 69 ff 6b c0 5a d8 8e 40 9e 4a 41 c0
       4.004942 -3.687464 4.46391 -3.0201793
000340 60 57 94 c0 4c bc 92 40 9c d7 93 c0 7c 2f 8c 40
       -4.635666 4.5854855 -4.6200695 4.3807964
000350 fa 5f 91 40 5a 11 76 c0 c5 b9 6d c0 4a b6 8d c0
       4.542966 -3.844809 -3.7144635 -4.428502
000360 77 7c 91 c0 45 ed 96 c0 7f de 90 40 bf 4c 64 c0
       -4.5464435 -4.7164636 4.52716 -3.5671842
000370 ab e5 91 c0 fc fa 88 c0 da 2d 99 40 9e 28 94 40
       -4.5592856 -4.2806377 4.786847 4.629958
000380 f6 a4 83 40 20 58 97 40 5b 79 93 c0 5e 6d 90 40
       4.113887 4.7295074 -4.608564 4.5133505
000390 17 18 87 c0 1a ca 84 40 bb d5 7a c0 c5 7d 87 c0
       -4.2216907 4.1496706 -3.919295 -4.2341027
0003a0 7a 05 85 c0 32 82 93 40 ee ca 93 c0 44 2b 8c 40
       -4.1569185 4.609643 -4.6185217 4.3802814
0003b0 68 40 54 40 1e f6 61 c0 c7 c1 93 c0 49 39 87 40
       3.316431 -3.5306468 -4.6174045 4.225743
0003c0 46 ad 92 40 f2 65 89 c0 25 3c 95 c0 fe a2 8d c0
       4.5836515 -4.2936945 -4.663592 -4.4261465
0003d0 10 9a 93 40 2d 71 8c c0 65 4d 8e c0 00 72 8c c0
       4.6125565 -4.3888154 -4.4469476 -4.388916
0003e0 a4 ce 96 c0 02 83 8d 40 d2 d7 87 c0 08 cf 91 40
       -4.7127247 4.422242 -4.2450953 4.5565224
0003f0 58 a3 94 c0 d1 aa 94 c0 ce a6 5b c0 8e 14 90 40
       -4.6449394 -4.6458516 -3.432056 4.502509

shared1.bias f4 [30]
000000 ec 1d 75 40 e7 76 74 40 d8 75 79 40 16 84 76 40
       3.8299513 3.8197572 3.8978176 3.851812
000010 84 4a 75 40 ca 1c 71 40 76 5c 6c 40 22 4c 6d 40
       3.832673 3.7673821 3.6931434 3.7077718
000020 9d 18 75 40 c8 20 74 40 5f da 71 40 17 d0 76 40
       3.8296273 3.8145008 3.7789533 3.8564508
000030 2c ab 6b 40 ab 4a 74 40 4b 9c 70 40 e6 c4 70 40
       3.6823225 3.8170574 3.7595394 3.7620177
000040 de 95 70 40 bc de 6f 40 57 06 7b 40 48 5a 75 40
       3.7591472 3.7479696 3.922262 3.8336353
000050 9b 5f 77 40 7c 69 77 40 98 8a 79 40 5f 13 79 40
       3.8652103 3.8658133 3.899084 3.8918073
000060 7f ca 73 40 8a cb 78 40 0a 0f 78 40 b7 87 78 40
       3.8092344 3.887423 3.875918 3.8832834
000070 57 0c 79 40 54 57 76 40
       3.8913782 3.84908

shared2.weight f4 [30, 30]
000000 2e 4c 9b 40 d3 f6 9a 40 e0 9b 94 40 99 86 92 40
       4.8530493 4.84263 4.6440277 4.5789304
000010 1f 5b 97 40 07 ba 96 40 40 cf 9e 40 7d 7c 96 40
       4.729873 4.7102084 4.962799 4.7026963
000020 23 87 94 40 5f 3c 98 40 cc bf 98 40 2a d4 95 40
       4.641496 4.7573695 4.7734127 4.682149
000030 72 0e 9b 40 21 62 94 40 f8 38 97 40 42 02 97 40
       4.8455133 4.6369786 4.725704 4.7190256
000040 1f c7 99 40 82 24 97 40 2d c4 95 40 e5 89 96 40
       4.805557 4.7232065 4.6801972 4.704333
000050 5c da 9a 40 3a 0f 96 40 cc 65 95 40 1e 74 93 40
       4.839155 4.6893587 4.6686764 4.6079245
000060 bd 7f 9c 40 ec 22 99 40 50 ff 91 40 42 c8 98 40
       4.890593 4.785513 4.562416 4.7744455
000070 8a 8e 9c 40 a9 eb 98 40 d0 e0 96 40 aa 30 95 40
       4.8924 4.778767 4.714943 4.6621904
000080 cf 88 99 40 17 c3 8f 40 c8 2d 9b 40 e4 bd 97 40
       4.7979503 4.4925647 4.8493385 4.74193
000090 f6 fc 9b 40 ca 0e 92 40 f9 4b 98 40 d5 8d 98 40
       4.874629 4.5643053 4.759274 4.7673135
0000a0 fa 59 95 40 26 62 94 40 ce 94 93 40 63 89 94 40
       4.6672335 4.636981 4.6119146 4.641771
0000b0 22 37 90 40 ab f5 99 40 26 88 99 40 c2 3d 95 40
       4.50673 4.811239 4.7978697 4.663789
0000c0 fc 7c 95 40 1f 41 90 40 81 c6 97 40 02 38 93 40
       4.671507 4.5079494 4.7429814 4.600587
0000d0 39 b8 91 40 24 20 9a 40 89 bc 97 40 3a 8a 98 40
       4.553738 4.8164234 4.7417645 4.7668734
0000e0 e0 97 91 40 ea 4d 8f 40 8e 38 8f 40 23 fb 96 40
       4.5497894 4.478261 4.4756536 4.7181563
0000f0 b5 6a 93 40 49 c7 93 40 37 77 9c 40 81 5b 97 40
       4.6067758 4.618077 4.8895526 4.72992
000100 70 1a 97 40 0c 28 97 40 a4 ed 92 40 67 9c 99 40
       4.721977 4.7236385 4.591509 4.800342
000110 62 9e 97 40 d7 13 93 40 44 5a 95 40 a8 e3 9c 40
       4.738084 4.596172 4.6672688 4.90279
000120 80 ab 92 40 ab 94 95 40 68 1f 9b 40 69 6b 9a 40
       4.583435 4.674398 4.847584 4.8256116
000130 70 fb 97 40 cf 08 94 40 2e 50 92 40 94 fd 98 40
       4.749443 4.6260753 4.5722876 4.7809544
000140 7f 10 95 40 af df 93 40 ed 89 98 40 9e d2 98 40
       4.6582637 4.621055 4.7668366 4.77571
000150 db 35 9b 40 50 32 95 40 7f 16 9c 40 98 36 9c 40
       4.850324 4.6623917 4.877746 4.8816643
000160 e8 00 92 40 44 aa 96 40 ce 0d 9a 40 81 75 96 40
       4.5626106 4.7082844 4.814185 4.7018437
000170 74 11 95 40 a0 ea 97 40 71 46 9b 40 4d 1f 92 40
       4.6583805 4.7473907 4.852349 4.566321
000180 12 e3 9c 40 79 b7 97 40 70 70 9b 40 1a 9b 92 40
       4.9027185 4.7411466 4.8574753 4.5814333
000190 67 d7 98 40 d3 63 94 40 e9 9b 92 40 2e b5 97 40
       4.776294 4.6371856 4.581532 4.7408667
0001a0 6e e8 94 40 2b 68 9a 40 db 90 96 40 36 73 99 40
       4.653373 4.825216 4.7051826 4.795314
0001b0 bc 5e 99 40 73 5a 92 40 39 57 92 40 84 1c 98 40
       4.7928143 4.573541 4.5731473 4.753481
0001c0 ca f7 96 40 fe e4 99 40 27 32 9c 40 f6 08 99 40
       4.7177477 4.809203 4.881122 4.782344
0001d0 e9 e5 98 40 bd 40 93 40 0f 19 98 40 35 b6 9c 40
       4.778065 4.6016526 4.753059 4.897242
0001e0 8c fc 9c 40 76 d0 9c 40 50 1f 97 40 91 91 98 40
       4.9058285 4.900447 4.7225723 4.7677693
0001f0 01 bb 9b 40 9e 4a 97 40 a9 55 98 40 29 9a 93 40
       4.8665776 4.7278585 4.7604566 4.6125684
000200 7a 40 98 40 d8 e6 97 40 c7 69 9b 40 58 2d 96 40
       4.7578707 4.746929 4.8566623 4.693035
000210 74 05 9a 40 ee d0 9b 40 1f ed 9c 40 13 a9 9a 40
       4.8131657 4.869254 4.9039454 4.833139
000220 7f d6 9a 40 8a 8d 9d 40 36 67 99 40 b5 7f 94 40
       4.8386836 4.9235277 4.793849 4.640589
000230 5a f1 98 40 09 28 9d 40 b8 4e 99 40 c0 d5 95 40
       4.779462 4.911137 4.790859 4.6823425
000240 41 1b 9d 40 b2 7b 94 40 aa f8 92 40 4c c7 94 40
       4.909577 4.6400995 4.5928545 4.649328
000250 70 c4 9b 40 04 fc 97 40 0c aa 99 40 06 52 98 40
       4.867729 4.7495136 4.8020077 4.7600126
000260 ef e3 93 40 b1 cc 8f 40 85 fc 93 40 65 ae 96 40
       4.621574 4.4937367 4.624575 4.7087884
000270 ef ba 92 40 d1 aa 91 40 7c 28 90 40 9f de 96 40
       4.585319 4.5521016 4.504942 4.7146754
000280 8c 6b 94 40 5d 3e 91 40 de 82 91 40 87 6b 95 40
       4.6381283 4.5388627 4.547225 4.669376
000290 a6 09 99 40 f0 cb 92 40 37 ad 98 40 14 ca 8f 40
       4.782428 4.5873947 4.7711444 4.4934177
0002a0 6e 2b 96 40 89 4a 99 40 ec 7f 98 40 7b ae 98 40
       4.6928015 4.7903485 4.7656155 4.771299
0002b0 2f 17 97 40 c0 76 90 40 ab 73 98 40 6b 57 99 40
       4.72158 4.514496 4.7641196 4.791921
0002c0 20 d7 91 40 b4 04 96 40 6c 2f 95 40 da 4c 90 40
       4.5575104 4.688074 4.662039 4.5093813
0002d0 85 eb 9b 40 24 2d 92 40 58 c0 91 40 a8 b0 9a 40
       4.8725 4.5680103 4.5547295 4.8340645
0002e0 59 9d 94 40 5a a1 95 40 6c 9a 96 40 1f ed 9b 40
       4.6442075 4.675946 4.7063503 4.8726954
0002f0 be 5c 92 40 c0 ec 99 40 0e 8d 99 40 d5 59 97 40
       4.573821 4.81015 4.7984686 4.729716
000300 6f ae 95 40 08 fa 98 40 05 74 94 40 09 c2 94 40
       4.677543 4.7805214 4.6391625 4.648686
000310 99 f8 94 40 77 f5 97 40 f0 9d 9a 40 78 d9 98 40
       4.6553464 4.748714 4.8317795 4.7765465
000320 f2 6a 92 40 a4 67 91 40 4d 7e 96 40 02 10 98 40
       4.575555 4.5439014 4.7029176 4.751954
000330 82 46 93 40 ff 1b 97 40 a3 90 95 40 c8 ce 94 40
       4.602357 4.7221675 4.673906 4.650242
000340 d8 26 95 40 10 19 95 40 8d d9 9b 40 19 aa 9b 40
       4.6609917 4.6593094 4.8703065 4.864514
000350 bf f9 90 40 5f ba 98 40 fa 9e 9a 40 af 65 9b 40
       4.5304866 4.7727504 4.8319063 4.8561625
000360 00 42 94 40 89 18 93 40 1c 19 9a 40 a0 89 94 40
       4.6330566 4.596745 4.815565 4.6418
000370 88 08 95 40 9a 5f 9b 40 7b 36 96 40 07 af 92 40
       4.6572914 4.85542 4.6941504 4.5838656
000380 5f 73 93 40 b8 c0 9b 40 56 b4 96 40 32 22 94 40
       4.6078334 4.867275 4.7095137 4.629174
000390 36 db 90 40 40 b4 94 40 a5 95 98 40 ae a2 9b 40
       4.526759 4.647003 4.768267 4.8636084
0003a0 99 23 94 40 ea 57 97 40 6b 06 98 40 93 ed 95 40
       4.6293454 4.7294817 4.7507834 4.6852508
0003b0 d0 23 96 40 bc b5 9b 40 3d 6d 9b 40 bc 2c 9a 40
       4.6918716 4.8659344 4.8570848 4.8179607
0003c0 11 6b 98 40 ee bf 98 40 a8 95 98 40 80 50 95 40
       4.7630696 4.773429 4.7682686 4.6660767
0003d0 8b d3 91 40 57 0b 98 40 db 83 9d 40 23 c1 93 40
       4.557073 4.7513843 4.9223456 4.6173263
0003e0 5f 06 92 40 80 2e 98 40 4f 0f 93 40 22 30 96 40
       4.5632777 4.7556763 4.5956187 4.6933756
0003f0 2e 83 9c 40 db 71 9c 40 c6 59 91 40 04 8c 91 40
       4.891013 4.8888984 4.5422087 4.5483418

shared2.bias f4 [30]
000000 ea 82 a8 41 28 22 a7 41 ac 72 a8 41 13 2d aa 41
       21.063923 20.891678 21.055992 21.272009
000010 60 6e aa 41 aa 27 a7 41 7b 21 a9 41 cb 0f a9 41
       21.303894 20.894367 21.141348 21.132711
000020 72 10 aa 41 09 9b a7 41 23 e1 a7 41 22 87 a8 41
       21.25803 20.9507 20.98493 21.065983
000030 98 ee a7 41 37 6e a8 41 e4 a3 a8 41 fb 29 a9 41
       20.9915 21.053816 21.080025 21.145498
000040 b7 7f a8 41 f6 95 a9 41 e3 a1 a8 41 22 29 aa 41
       21.06236 21.198223 21.079046 21.270084
000050 e7 5f a7 41 b6 62 a9 41 ce 5c a7 41 56 55 a9 41
       20.921827 21.173199 20.920315 21.166668
000060 4f e2 a9 41 07 e0 a6 41 f9 fa a8 41 e3 1e a8 41
       21.235502 20.859388 21.122545 21.015081
000070 83 48 a9 41 a4 a7 a9 41
       21.160406 21.206856

hidden_y0.weight f4 [30, 30]
000000 e9 da 60 be df 53 ce 3d 94 15 8c 3d 07 76 9b 3d
       -0.21958508 0.10074591 0.06840053 0.07590871
000010 40 e7 a2 3d b1 b2 d8 3d 23 67 9a bc 7d 0e a3 3d
       0.07954264 0.10580958 -0.018848008 0.07961748
000020 d2 b8 23 be e4 64 0e be c9 ff 01 be 19 39 aa bd
       -0.15988472 -0.13905674 -0.1269523 -0.08311672
000030 7a f9 e6 3c a5 6b 9e 3d 44 2c 5d be 00 71 02 be
       0.028195132 0.07735375 -0.21598917 -0.12738419
000040 ba 3d 57 be 6b c4 f9 3c c1 68 cb bc 6b 78 11 3d
       -0.2101964 0.030489167 -0.024830224 0.03551523
000050 dc 24 fb 3d fa 99 d9 3c 26 18 02 3e cd 4b 18 3e
       0.1226289 0.02656268 0.12704524 0.14872666
000060 21 39 cb bd bb c1 bf 3c b5 f9 c7 3d c0 22 db bd
       -0.09923006 0.023407808 0.09764425 -0.106999874
000070 c8 ad d1 bc 57 91 f1 3d 1b 78 91 40 0c 2e 92 40
       -0.02559556 0.117952995 4.5459113 4.568121
000080 60 c3 96 40 5a 46 90 40 69 84 91 40 db 53 93 40
       4.7113495 4.508588 4.5474133 4.6039863
000090 02 57 96 40 0e 7a 8d 40 94 27 93 40 14 2c 96 40
       4.698121 4.4211493 4.5985813 4.6928806
0000a0 97 49 96 40 f9 62 98 40 9e c6 92 40 ee 73 94 40
       4.696483 4.7620816 4.5867453 4.6391516
0000b0 31 8e 94 40 57 81 90 40 7e a0 97 40 6a f3 94 40
       4.6423573 4.5157886 4.7383413 4.6547136
0000c0 fc bd 95 40 91 23 98 40 2d ba 93 40 d6 f8 92 40
       4.6794415 4.7543416 4.6164765 4.5928755
0000d0 9a 44 92 40 37 6c 95 40 3a ec 96 40 fe b9 99 40
       4.570874 4.66946 4.7163363 4.803954
0000e0 89 24 91 40 5c 54 91 40 12 1c 94 40 ae 93 95 40
       4.53571 4.541548 4.6284266 4.6742773
0000f0 7f 0d e5 bd 3a e7 66 bc 39 76 1f bc c4 f5 58 bd
       -0.11184215 -0.014093215 -0.009732776 -0.052968755
000100 d8 cd 32 bd e6 29 fb 3d 7c d0 dc bc 0b 6a a4 3d
       -0.04365334 0.12263851 -0.026954882 0.080280386
000110 e9 eb 4e 3c ab df be 3d c9 fe 37 3d 5f 2f e9 3b
       0.012629488 0.09320005 0.044920716 0.007116243
000120 49 e1 53 bd c4 ba ad bd f6 9a 04 be fb 14 d7 3d
       -0.05172852 -0.08482888 -0.12949738 0.105020486
000130 08 16 1b bd a0 3f 6c 3d 05 03 18 be 99 a6 f0 3d
       -0.037862808 0.057677865 -0.14844902 0.11750526
000140 89 f8 0b be 53 eb 0b bc 7b 4a 82 bc 85 48 30 be
       -0.13669027 -0.008539992 -0.015904656 -0.17215164
000150 2b ad 50 be 42 93 12 3d f4 ed f5 3d 5f f5 9f 3b
       -0.20378558 0.035784967 0.120082766 0.0048815454
000160 57 f3 dd 3b 86 fb 68 be 7a a5 90 40 66 74 92 40
       0.006773393 -0.22752199 4.5202 4.576709
000170 1c d6 94 40 5c bc 97 40 5e 77 94 40 b2 3a 96 40
       4.6511364 4.741743 4.639571 4.694665
000180 2b b3 91 40 df bd 94 40 87 38 94 40 5a 6a 95 40
       4.553121 4.6481776 4.6319003 4.6692324
000190 bf b2 93 40 b4 2d 96 40 48 b0 90 40 b6 db 91 40
       4.6155696 4.693079 4.5215187 4.55807
0001a0 5d 80 8f 40 13 1b 92 40 c7 bc 93 40 6d 0d 98 40
       4.4844193 4.565805 4.616794 4.751639
0001b0 79 49 98 40 95 a8 96 40 8b a2 8f 40 18 fa 92 40
       4.758969 4.708079 4.4885917 4.593029
0001c0 21 ed 95 40 16 e5 91 40 cf 04 8e 40 bd 73 8e 40
       4.6851964 4.5592146 4.438087 4.451628
0001d0 64 9c 94 40 64 4b 97 40 da 71 93 40 80 3f 96 40
       4.6440907 4.727953 4.607648 4.6952515
0001e0 9f f4 99 40 6f 5f 94 40 1d d5 90 40 fa 2b 96 40
       4.811111 4.6366496 4.526015 4.692868
0001f0 9c 2c 93 40 e6 46 94 40 0f b8 91 40 04 d0 97 40
       4.5991955 4.6336546 4.553718 4.7441425
000200 8c 3c 91 40 83 29 91 40 d5 bd 8e 40 50 bc 98 40
       4.538641 4.5363173 4.460673 4.7729874
000210 49 e3 90 40 5d b0 98 40 96 15 92 40 58 4a 95 40
       4.527745 4.7715287 4.565135 4.665325
000220 c7 a8 99 40 44 e8 8e 40 44 44 8f 40 77 ee 98 40
       4.8018527 4.4658527 4.477083 4.7791095
000230 83 86 8f 40 a3 19 99 40 46 a2 8e 40 0f 7f 8f 40
       4.48517 4.7843795 4.457309 4.48426
000240 73 d3 98 40 fb f5 8e 40 51 5b 91 40 48 77 90 40
       4.7758117 4.467527 4.542397 4.5145607
000250 cb 03 91 40 b2 95 95 40 57 bc 06 be 5a 64 85 bd
       4.531713 4.6745234 -0.13157783 -0.06513281
000260 71 b5 00 3e 18 83 69 bd 79 07 c4 3d 63 e4 c4 3d
       0.12569214 -0.057009786 0.09571738 0.09613874
000270 7f 9d c9 bd 26 a9 52 be 69 35 46 be f5 79 86 3d
       -0.09844493 -0.20572338 -0.19356312 0.0656623
000280 8c a0 bb bd 8f ce 42 be 57 17 07 be 22 f0 f4 3d
       -0.09161481 -0.19024108 -0.13192497 0.11959864
000290 8d 74 e0 3c 35 af 19 be 42 ef 8f 3d 1b 05 93 bd
       0.027399326 -0.15008242 0.07028057 -0.07178708
0002a0 a7 cd 2e be 6b 31 51 bc 57 c1 03 3e 46 f9 15 3e
       -0.17070638 -0.01276813 0.12866722 0.14645872
0002b0 54 a7 fa 3d a4 2a b4 bd 7d c5 05 3e 66 a3 2a 3e
       0.122389466 -0.087971956 0.13063617 0.16663894
0002c0 99 3b 41 be 35 7c d0 3d 7c c0 0f be f9 83 eb 3d
       -0.18870391 0.101799406 -0.1403827 0.11499781
0002d0 24 38 94 40 69 34 97 40 f8 f6 96 40 5c 42 8e 40
       4.631853 4.7251477 4.7176476 4.4456005
0002e0 20 04 8c 40 0c 8a 95 40 14 20 91 40 33 8f 93 40
       4.3755035 4.6731014 4.535166 4.6112304
0002f0 c5 73 96 40 af b2 8b 40 f5 be 92 40 64 58 97 40
       4.701632 4.365562 4.58581 4.72954
000300 ac 0a 97 40 36 bd 95 40 d6 1a 8f 40 20 60 90 40
       4.7200527 4.679347 4.472026 4.511734
000310 62 ee 94 40 3f e0 8e 40 5e 7c 96 40 55 2a 8e 40
       4.6540995 4.464874 4.7026815 4.4426675
000320 e0 e5 8c 40 04 d4 94 40 31 49 96 40 f2 f6 95 40
       4.403061 4.650881 4.6964345 4.6863947
000330 b7 d1 8d 40 40 b3 92 40 fe 8d 94 40 29 14 95 40
       4.43185 4.584381 4.642333 4.658711
000340 c1 cd 8b 40 e0 df 91 40 69 64 96 40 34 1b 91 40
       4.3688664 4.5585785 4.699757 4.5345707
000350 9e 64 93 40 3b 60 94 40 8c dd 94 40 df 94 91 40
       4.6060324 4.636747 4.6520443 4.5494227
000360 8d bd 95 40 a8 3b 99 40 d1 cc 8e 40 c0 d9 93 40
       4.6793885 4.7885323 4.462502 4.620331
000370 b0 2c 8f 40 b9 40 8e 40 6c 7a 92 40 73 18 98 40
       4.474205 4.4454007 4.577444 4.7529845
000380 ae f9 93 40 e8 dd 8d 40 11 e2 91 40 38 f6 91 40
       4.6242285 4.433338 4.558846 4.561306
000390 1c e6 93 40 66 d8 8f 40 cd 3e 8f 40 ef b1 92 40
       4.6218395 4.495166 4.476416 4.5842204
0003a0 f1 cf 92 40 53 23 91 40 74 3f 90 40 5d 64 92 40
       4.5878835 4.535562 4.5077457 4.5747514
0003b0 ad d4 8e 40 ae ff 94 40 bf c7 94 40 d0 1f 91 40
       4.4634614 4.656211 4.649383 4.5351334
0003c0 05 c4 be bb ca 56 d7 3d cd d0 cd bd f3 9b 0b 3c
       -0.005821707 0.105146006 -0.10049591 0.008521068
0003d0 50 05 e5 bd 51 9b 7a 3d 4a 72 a2 bd 64 58 58 3d
       -0.11182654 0.061183278 -0.07931955 0.05281867
0003e0 22 7e 50 3d b7 dd 14 be 1d 38 0d be 47 2e fd 3d
       0.05090154 -0.14537703 -0.13790937 0.12362342
0003f0 ba 77 41 3c 45 73 b2 3d 24 ff 67 be da 29 56 be
       0.01180833 0.08713392 -0.22655922 -0.20914403

hidden_y0.bias f4 [30]
000000 9c 40 4c be a5 81 a6 41 d9 28 73 bd 3a 62 a7 41
       -0.19946522 20.813303 -0.059365127 20.922962
000010 62 09 a8 41 9d 05 22 be f9 83 a5 41 b7 11 a6 41
       21.004581 -0.15822454 20.68944 20.75865
000020 d9 3d af bd ad 00 a5 3b 3f e2 ed bd f7 e8 a6 41
       -0.085567184 0.005035481 -0.11615419 20.863752
000030 eb be a7 41 19 8c ba 3b 7d 42 a7 41 57 0e b4 3d
       20.968222 0.0056929705 20.907465 0.087917976
000040 98 cb 54 be 78 1c a8 41 2e 0e 83 3c 3d c7 22 be
       -0.2078079 21.0139 0.015997972 -0.15896316
000050 0a 3e a8 41 47 40 95 3d 76 5f 89 bd 9a 23 a7 41
       21.030293 0.072876506 -0.06707661 20.892384
000060 1c 54 85 bd 88 25 a8 41 20 2b 33 be 51 f2 a7 41
       -0.06510183 21.018326 -0.1749692 20.993319
000070 4d 04 c7 bd 7a f9 a6 41
       -0.09717617 20.871815

out_y0.weight f4 [1, 30]
000000 f8 c2 e1 bd e2 03 3c 40 64 cb d6 bd 68 cb 46 40
       -0.110235155 2.937737 -0.104880124 3.106165
000010 e9 2b 44 40 9b 7d b4 bc 12 26 44 40 41 c7 4a 40
       3.06518 -0.02203255 3.0648236 3.1684115
000020 43 2c b1 bd ce eb 7f bc 03 32 d4 3d 4a 27 43 40
       -0.086510204 -0.015620185 0.103611015 3.049273
000030 d2 ac 3c 40 5c d3 ec bd 34 eb 42 40 c0 08 72 bd
       2.948048 -0.11563751 3.0456057 -0.059090376
000040 d1 ad 99 3a cd ef 40 40 ba 56 b4 bd 45 15 08 bd
       0.0011724775 3.0146363 -0.08805604 -0.03322341
000050 a8 d0 3e 40 2b 5f b6 bd fa 57 0b be 73 93 46 40
       2.9814854 -0.089048706 -0.13607779 3.1027496
000060 ba 09 8b bc 43 16 46 40 ea d2 9a bd 39 a7 3d 40
       -0.016972411 3.0951087 -0.0755976 2.9633315
000070 1a 33 0b be 48 e1 43 40
       -0.13593712 3.060625

hidden_y1.weight f4 [30, 30]
000000 3c e5 7c 3d 7c 94 3c be ff 3f 62 bd 3a a0 0f 3c
       0.061742052 -0.18416017 -0.055236813 0.008766228
000010 e5 40 07 be 4c fc 6a 3d 81 da 3c be 83 d4 09 be
       -0.13208349 0.057369515 -0.18442728 -0.13459973
000020 c8 3f 1f bd d8 ab 9e 3d 2c bf ac 3d 62 d6 28 be
       -0.038879186 0.0774762 0.08434901 -0.1648803
000030 21 31 99 bd 4e 49 03 be 55 89 c7 3d 8d 63 c7 bd
       -0.07480074 -0.12820932 0.09742991 -0.09735785
000040 a1 01 bb bd e4 8c 10 be c4 b9 bf bd 9d d0 a7 3d
       -0.0913117 -0.14116246 -0.09361604 0.08194087
000050 bf 56 20 3e 37 b2 c4 bd 34 12 4d be 4b 7f a8 3d
       0.15658091 -0.09604304 -0.20026475 0.08227404
000060 3a 8c 58 bd a7 b3 0f be 5d c6 b4 3d 6d 22 e7 bd
       -0.052868105 -0.14033376 0.08826897 -0.11285863
000070 0b d4 01 3c 8e c2 b5 3d 59 86 91 40 7e 36 95 40
       0.00792409 0.08874999 4.54765 4.662902
000080 24 3b 9a 40 17 1a 9c 40 20 8a 92 40 29 95 95 40
       4.8197193 4.878185 4.579361 4.674458
000090 a8 eb 9c 40 60 a7 94 40 bf e0 9a 40 78 25 93 40
       4.9037666 4.6454315 4.839935 4.598324
0000a0 52 07 9c 40 10 ed 95 40 0b a6 98 40 b5 5f 99 40
       4.8758936 4.6851883 4.770269 4.792933
0000b0 69 7a 91 40 9f 94 95 40 70 93 96 40 88 07 99 40
       4.5461926 4.674392 4.7054977 4.7821693
0000c0 ec 05 96 40 a1 cf 99 40 24 22 95 40 74 54 99 40
       4.688223 4.8065953 4.6604176 4.791559
0000d0 62 9f 95 40 00 ec 99 40 91 82 9a 40 e2 14 95 40
       4.675706 4.8100586 4.8284383 4.658799
0000e0 8d e1 93 40 a2 27 9c 40 db f1 98 40 bc b6 98 40
       4.621283 4.879838 4.7795234 4.7723064
0000f0 a6 a6 da bc ed 49 e7 3d aa 68 d6 3d b0 bd 19 be
       -0.026690792 0.11293397 0.10469182 -0.15013766
000100 1b 18 70 bc 3f e2 1c 3e f3 4d bc bd 04 60 b9 bc
       -0.014654185 0.15320681 -0.09194555 -0.022628792
000110 b8 98 ea 3d 85 c2 19 3e 36 9a 80 bd 6a 2a ba 3d
       0.1145491 0.1501561 -0.062794134 0.09090121
000120 d5 67 92 3d 14 a1 84 bd 4e fc 85 3d a4 ed 06 be
       0.07148711 -0.06476036 0.06542264 -0.1317659
000130 c3 32 ed 3c e1 8b 1d 3d cb 98 d6 bd 4d 36 a5 3d
       0.02895487 0.038463477 -0.10478362 0.08066998
000140 bd b3 93 bd f2 97 3f be d5 39 71 3d 86 db 25 be
       -0.07212017 -0.18710306 0.058893044 -0.16197023
000150 fe 99 25 be 80 2b c7 3c c0 f3 6d 3d a6 bc 24 be
       -0.16172025 0.024312735 0.058093786 -0.16087589
000160 0b 9e 57 be a3 1f 23 be 6d 44 88 bd a5 88 31 bb
       -0.21056382 -0.15930037 -0.06653676 -0.0027089503
000170 d8 11 a6 3d 06 f6 2d be 49 53 fb bb b0 bb e5 3c
       0.08108872 -0.16988382 -0.0076698405 0.028043598
000180 5c c5 1e be dc e6 06 be 49 da 79 3b 02 06 11 3e
       -0.15504974 -0.13174003 0.0038124493 0.14162448
000190 a0 fb 88 bd 57 8c 02 3c 91 b3 25 be b2 eb c8 bd
       -0.06688619 0.00796803 -0.1618178 -0.0981058
0001a0 69 41 b5 3b 6a c9 26 be 08 80 03 3e 2d 2d c8 bc
       0.005531479 -0.16287771 0.12841809 -0.024435604
0001b0 91 4b 1a be 81 97 de bd 54 01 fb bd 78 ca b0 3d
       -0.15067889 -0.10868741 -0.12256113 0.08632368
0001c0 73 4c 14 be b3 8b 59 3d d9 a4 f6 bc 5b 38 fa bd
       -0.14482288 0.053111743 -0.030107902 -0.1221778
0001d0 cd b0 d3 3d c0 c9 27 3e 05 f0 51 bd 24 8a fc 3c
       0.103364564 0.16385555 -0.05125429 0.03082759
0001e0 00 5c 1c 3e 9c 41 b0 3d 87 74 26 be 99 83 23 be
       0.1526947 0.08606264 -0.16255389 -0.1596817
0001f0 d0 e7 4f bc 60 35 9e 3b ed 08 0c be 73 32 2b be
       -0.012689546 0.00482814 -0.1367528 -0.16718464
000200 74 2a df 3d 89 03 31 be b0 f2 50 bc c8 15 19 be
       0.10896769 -0.17286505 -0.012753174 -0.14949715
000210 b4 68 55 3d 00 05 03 bb c4 bb ce 3d 4d 0f 25 be
       0.052101806 -0.0019991994 0.10094407 -0.16119118
000220 ac 64 94 3d 5c 4c ef 3d 55 4a d7 bd e8 25 63 3d
       0.07245764 0.11684486 -0.105122246 0.055456072
000230 10 cb 23 3c 33 07 f3 bd 98 91 ce 3c 28 9d 28 3e
       0.009997144 -0.118666075 0.025215909 0.164662
000240 f4 92 0e be 04 90 60 3d 94 fd e7 bd d6 fe d3 bd
       -0.13923246 0.054824844 -0.11327663 -0.103513405
000250 d6 3d 03 be a8 ee bb 3d 09 04 98 40 44 50 93 40
       -0.12816557 0.091763794 4.7504926 4.603548
000260 7b c3 9a 40 6f 4e 95 40 d0 e8 9b 40 0d 4f 9a 40
       4.8363624 4.6658244 4.8721695 4.8221498
000270 3f 63 94 40 0e 6c 96 40 da 7f 9c 40 ff 2b 95 40
       4.637115 4.7006903 4.890607 4.6616206
000280 ad 9c 9b 40 96 0a 95 40 7b 6b 96 40 9c bb 99 40
       4.8628755 4.657542 4.70062 4.8041515
000290 27 b3 96 40 08 f1 95 40 79 86 9d 40 f9 f0 9b 40
       4.709369 4.6856728 4.922665 4.8731656
0002a0 c5 d0 9a 40 5c a4 96 40 8f 14 9b 40 ba bf 93 40
       4.8379846 4.7075634 4.8462596 4.617154
0002b0 07 c7 97 40 15 ec 93 40 d5 8a 9b 40 80 2f 9c 40
       4.7430453 4.6225686 4.8606973 4.8807983
0002c0 a3 fc 91 40 0f ec 9d 40 25 67 96 40 78 fb 91 40
       4.5620894 4.9350657 4.700091 4.561947
0002d0 9b 0c 84 bc c2 fc 2d be 83 cc 0c 3e ef cf 2e 3e
       -0.016119292 -0.1699095 0.1374989 0.17071508
0002e0 ac 0e 4e bd 6c cb aa 3d b5 7e 80 3d 95 12 b7 bb
       -0.05030696 0.08339581 0.062741674 -0.005586932
0002f0 82 dd 07 be 8f 34 f2 3d c6 1b e4 3b 36 f4 98 bd
       -0.13268092 0.11826431 0.0069613187 -0.074684545
000300 d0 fb 1a 3d ea 2d c3 bd e1 d3 d0 3d a8 05 19 bb
       0.037837803 -0.09530242 0.10196663 -0.0023349319
000310 35 18 14 be d5 57 d0 bd 85 c4 c3 bd c6 da b8 bd
       -0.14462359 -0.10173003 -0.095589675 -0.09026103
000320 53 4e 0b 3e ed 73 2d 3e fe 0b 21 bd b0 85 77 3c
       0.13604097 0.16938753 -0.039318077 0.015107557
000330 38 12 80 3d 00 fb df 3d a5 95 85 bd 02 fc 96 bc
       0.06253475 0.10936546 -0.06522683 -0.018430714
000340 77 75 09 be 28 f1 b9 bd ac d9 93 40 98 0d 93 40
       -0.13423716 -0.090792 4.6203213 4.5954094
000350 b8 55 91 40 1b d7 98 40 19 c5 98 40 74 6d 93 40
       4.5417137 4.776258 4.77406 4.607111
000360 a1 b7 94 40 6f 51 9c 40 9f 20 94 40 3b 0d 92 40
       4.6474156 4.8849406 4.628982 4.564115
000370 11 5d 9b 40 65 ec 98 40 7f 1e 9a 40 00 05 96 40
       4.8551106 4.7788568 4.8162227 4.6881104
000380 a6 ef 98 40 45 4c 96 40 75 d5 93 40 71 2c 95 40
       4.779254 4.6968102 4.619807 4.661675
000390 12 db 9a 40 42 2c 95 40 50 66 9a 40 59 b0 99 40
       4.839242 4.6616526 4.8249893 4.802777
0003a0 00 8d 9c 40 6b ff 9b 40 89 08 9c 40 97 b3 9a 40
       4.892212 4.874929 4.876042 4.8344226
0003b0 e1 f2 9a 40 dc 8f 98 40 3d f7 9b 40 28 4f 98 40
       4.8421483 4.767561 4.8739305 4.7596626
0003c0 04 d6 12 3d b1 2b 08 3d d2 95 e1 3d 27 4d 42 bd
       0.035848632 0.033244792 0.11014904 -0.04743686
0003d0 9e e7 6f 3d a8 61 ab bd ef 97 26 be 8a 59 e6 3c
       0.058570497 -0.08368236 -0.16268896 0.028118867
0003e0 20 51 f7 bd 25 dd 3f bc 1d eb c0 bd b1 e7 39 be
       -0.1207602 -0.01171044 -0.09419844 -0.1815479
0003f0 2b 25 48 be 37 7f 16 3d ba 33 4f be 69 33 99 bd
       -0.19545428 0.036742415 -0.20234576 -0.07480509

hidden_y1.bias f4 [30]
000000 b7 05 5b bd 1d 99 a5 41 e1 3b 94 bd bc c4 8d bd
       -0.053472247 20.699762 -0.072379835 -0.0692229
000010 b5 b8 2e be f7 6a a7 41 db cd 44 be 3a 33 a6 41
       -0.17062648 20.927229 -0.19219153 20.775013
000020 7b e4 c0 3d bd fd a7 41 83 65 a7 41 ac 1f 74 3d
       0.09418579 20.998896 20.924566 0.059600517
000030 df 66 a8 41 55 80 03 be 78 97 a8 41 e7 a1 a7 41
       21.05023 -0.12841924 21.07396 20.954054
000040 7c 76 0f 3e 61 28 28 3d 01 4f 6e bd 2b 86 a3 bc
       0.14010042 0.041054133 -0.058180813 -0.019961437
000050 b9 0c 14 be cd 69 a6 41 f3 92 54 bd f0 1d 6a 3d
       -0.14457978 20.80166 -0.051897954 0.057157457
000060 be 3a a8 41 ef ea a7 41 57 52 87 bd 45 b2 a7 41
       21.028683 20.989714 -0.06607502 20.962046
000070 16 dc a5 41 22 65 a8 41
       20.732464 21.049381

out_y1.weight f4 [1, 30]
000000 97 c9 a4 bd 44 85 3e 40 5d 2e 5d bd dc 54 bf bc
       -0.08046263 2.976884 -0.053999294 -0.023355894
000010 2b 5c 34 be 8c 95 48 40 ae 37 a9 3a 60 85 3f 40
       -0.17613284 3.1341276 0.0012910271 2.9925156
000020 d8 a9 38 bc 69 4b 47 40 3a 4f 3f 40 10 c7 fd bd
       -0.011270963 3.1139777 2.9892106 -0.12391484
000030 47 77 49 40 7f ca f7 bc fd 45 45 40 87 9d 46 40
       3.147905 -0.030247925 3.0823967 3.1033647
000040 24 5b a4 bd 9b 25 07 be 53 8f 87 bc 73 ca d0 bd
       -0.08025196 -0.13197939 -0.016547835 -0.10194864
000050 ed fe ce bd 6e 9e 48 40 cd 0d ab 3d 03 53 f0 bc
       -0.10107217 3.1346698 0.08352242 -0.029336458
000060 54 42 43 40 fd c4 44 40 b0 da 9b 3c 90 c2 40 40
       3.0509233 3.0745232 0.019025177 3.0118752
000070 6b 08 4b 40 dd 43 46 40
       3.1723888 3.097892
