DR_Info_CFR/IHDP/Models/adversarial_vae.pth (torch, 25195 bytes, 32 tensors)

encoder_shared.shared1.weight f4 [15, 25]
000000 98 51 8c bb 3e 92 a2 bb 26 16 88 3b 92 ad 1c bb
       -0.0042821877 -0.004961281 0.004153031 -0.0023907167
000010 21 15 b5 3c d7 77 00 bd 77 e2 04 3c 8b bb 66 b3
       0.022104802 -0.03136429 0.008110634 -5.3721617e-08
000020 7d 4b ca 39 07 af 20 3d 5b 57 8b b4 d9 17 84 b6
       0.00038584686 0.03922942 -2.5954327e-07 -3.936683e-06
000030 ce 6b 22 bb 59 87 a3 bd 38 20 8e b8 80 48 0a bc
       -0.0024783495 -0.079848 -6.777089e-05 -0.008440137
000040 bf 9e 01 bb 07 4b 8a bd c9 8c ae b8 36 f4 e9 b7
       -0.0019778458 -0.067525916 -8.32319e-05 -2.7889484e-05
000050 65 1c 95 b3 00 f6 08 3b 46 f5 66 39 cf 83 e9 b9
       -6.943518e-08 0.002089858 0.00022025881 -0.00044539428
000060 e4 0d e8 3a 9e 53 45 3b ef 18 91 ba 30 1b 8f b9
       0.0017704335 0.0030109654 -0.0011070053 -0.00027295342
000070 64 7a 22 bc 8e 84 90 ba e6 6a f1 b9 9e ed 61 3a
       -0.0099168755 -0.0011025833 -0.00046046748 0.00086184766
000080 c2 94 7d 3a fd 8c b3 3b 0a 75 32 3c 4b b1 10 3c
       0.0009673351 0.0054794536 0.010892162 0.008831332
000090 6d 4e 00 3c 12 4d c2 39 b2 55 e7 bc 9b c1 d2 3a
       0.007831198 0.00037059985 -0.028239105 0.0016079427
0000a0 84 53 90 bd 98 e9 b0 39 69 7a c0 bc f6 07 df 39
       -0.07047179 0.00033743377 -0.02349587 0.00042539806
0000b0 76 5d d3 3a 3d f4 2c 3b 5f da c8 3a 69 fe 99 3a
       0.0016125876 0.0026390695 0.0015323869 0.0011748794
0000c0 59 a0 80 ba 8f 26 ad ba e0 1a af 3c ca b9 b2 3c
       -0.0009813412 -0.0013210344 0.02137512 0.021817107
0000d0 5c ea 06 3d da fd 0e 3c 6a 91 06 3c 0d 57 00 bb
       0.032938346 0.008727515 0.00821338 -0.0019583136
0000e0 2f 0e fa ba 37 18 49 b9 bb a3 00 bc 10 df 88 bb
       -0.0019077713 -0.00019177874 -0.007851536 -0.0041769817
0000f0 65 b6 4f bb f5 78 ee ba 99 6e 9e bb 76 83 60 3d
       -0.003169441 -0.0018194007 -0.0048349616 0.05481287
000100 44 14 f0 b9 65 14 a3 bd d2 b5 f6 bc e5 02 2b 3d
       -0.00045791466 -0.07962874 -0.030115996 0.041750807
000110 06 1e da ba 6e 1e 84 bb c6 49 92 ba 69 6d 13 bb
       -0.0016641028 -0.004031948 -0.0011160902 -0.0022495633
000120 9c b2 53 3a 5f 0c e0 b7 e1 0e db ba e0 b9 ed bc
       0.0008075626 -2.6708642e-05 -0.0016712808 -0.029019296
000130 0d 30 29 3d e5 97 26 bc 08 65 f7 bb 16 a3 d4 bc
       0.04130559 -0.01016805 -0.0075498857 -0.025956672
000140 3f da aa ba 05 25 40 bc 54 2d 08 bb 09 c7 3a bd
       -0.0013035013 -0.011727576 -0.002077897 -0.04559997
000150 12 8a a8 bb 5c 13 74 3c 6c f3 38 bb f8 c8 05 3b
       -0.0051434124 0.014897194 -0.0028221263 0.0020413976
000160 ac 78 74 bd 04 16 07 bb aa 1a 9b 3d 7e 06 da bc
       -0.059685394 -0.0020612488 0.07573445 -0.026614424
000170 ab 43 6b 38 c7 c0 ab 3a 9b 62 4a bb 73 91 8b 3b
       5.6091387e-05 0.0013103717 -0.0030881527 0.0042592823
000180 4f cd da ba 68 3c 0d 3a e8 3e 14 bb f5 15 c3 39
       -0.0016693267 0.00053877244 -0.0022620503 0.00037209658
000190 9e c5 fd bc 79 77 0a ba 02 7a 74 3c 34 32 14 3c
       -0.03097802 -0.0005282085 0.014921667 0.0090451725
0001a0 bb 81 50 ba 02 b1 81 3c a4 59 15 3c 23 ab b6 bb
       -0.00079539017 0.015831474 0.00911561 -0.0055746003
0001b0 1f 9f 40 bd ed 21 12 bc da bb 6c bc ff 4a 0c bc
       -0.04702675 -0.008919221 -0.014449084 -0.008562802
0001c0 56 c8 85 3c e4 86 8c 3c ac 49 d7 3b ca f1 10 3e
       0.01633088 0.017154165 0.0065700617 0.14154735
0001d0 d5 46 2c 3c 85 eb 81 bb d1 b7 90 bb 28 8f 49 bc
       0.010514935 -0.0039648437 -0.004416444 -0.0123021975
0001e0 d5 66 f4 3b f7 2d 9f bb 84 4e be bb 78 a8 ad 3b
       0.0074585476 -0.0048577744 -0.0058076996 0.005299624
0001f0 30 5c bb 3c 61 e6 e9 3b 0a 9e 89 3d ca f2 3d bc
       0.022871107 0.007138059 0.06719597 -0.01159353
000200 8f da 0d 3d 5a e1 98 3c 6a 8f 93 3b 9a 48 eb bc
       0.03463226 0.018662143 0.0045031803 -0.028721143
000210 45 04 2d bc 1b 86 f8 3d 4f 78 6d bd 82 e7 7f 3d
       -0.0105601 0.121349536 -0.057976063 0.062476642
000220 62 f9 3c 3d 7d 28 8c bd 8d f0 b2 3d e4 3f a5 bc
       0.046136267 -0.0684366 0.08737288 -0.020172067
000230 37 ec 08 3e 38 ba f8 bd 72 8e 64 3d 91 c7 57 3d
       0.13371359 -0.121448934 0.05579991 0.052680556
000240 2e c9 87 39 94 c8 45 bd f5 47 bb 3c 3c ae 96 3c
       0.00025899097 -0.04828699 0.02286146 0.018393628
000250 0b da 53 bc 8d 4a 2c bd 56 8d f6 bb 8e 97 b6 3b
       -0.012930403 -0.042063285 -0.007524173 0.005572266
000260 70 aa 83 3b 6e cf 3d bb 2c df f3 b9 5b 52 71 39
       0.0040181205 -0.002896275 -0.00046514848 0.00023014231
000270 c7 47 06 3a 6f fa 1d ba 1b cc 94 ba 95 bc d3 ba
       0.000512239 -0.0006026392 -0.0011352332 -0.0016154224
000280 94 fe 2d bb 64 c5 10 b9 7b 26 0b 3a 64 fc 41 bc
       -0.0026549445 -0.00013806444 0.0005308163 -0.01183996
000290 10 59 3d 3b 53 31 a7 bb a4 16 99 b9 53 fe ff ba
       0.0028892197 -0.0051023155 -0.00029199303 -0.001953075
0002a0 2f 0e 6f b9 d0 80 03 ba ec 17 27 b9 4d 03 cb ba
       -0.000227981 -0.0005016448 -0.00015935273 -0.0015488655
0002b0 d9 79 1c 38 79 f0 40 ba ae 5d 9d 3b db 0c fa bc
       3.7306778e-05 -0.0007360052 0.0048024273 -0.030523708
0002c0 5d 29 bf 3c 67 5f 23 bc 21 02 16 3d 90 33 e8 bc
       0.023335153 -0.009971476 0.036623124 -0.0283449
0002d0 5e 03 6b 3d ac 19 9f bb 8c 9a 98 b5 3d a9 5b bc
       0.057376258 -0.0048553552 -1.1369862e-06 -0.013407049
0002e0 ac b8 02 bc 76 75 a7 ba 4f 3b e6 3a 9e 30 f0 3b
       -0.0079785995 -0.0012776095 0.0017565283 0.0073300144
0002f0 ad 21 a3 bd 86 1b 16 3b 5b 64 97 bc 16 6f 5f 3c
       -0.079654075 0.002290459 -0.01848047 0.013637325
000300 5a 1e 66 bd ba fd db b8 b3 d1 26 3b 8c c3 e9 39
       -0.05618129 -0.00010489994 0.002545458 0.00044586917
000310 be 68 16 3a 42 14 d0 b9 2a 05 0b b8 48 a7 c3 b1
       0.00057376537 -0.00039687945 -3.3144992e-05 -5.6942646e-09
000320 b1 e1 f9 3b dc 37 f4 bc 47 dc c6 3a 22 ff 98 3c
       0.0076257815 -0.029811792 0.0015171849 0.018676344
000330 97 ab 89 ba e1 c1 20 bc 78 c6 0a 3c fb e8 9f 3b
       -0.0010503408 -0.009811849 0.00847017 0.0048800684
000340 92 e1 4b 3d 55 23 58 3d a0 c9 fb bc 33 62 48 bd
       0.049775667 0.05276807 -0.03073579 -0.048921775
000350 be 37 05 3d 6b a5 0a 3e 1e ab 26 3c 48 eb 7f 3d
       0.032523863 0.13539664 0.010172633 0.06248024
000360 bd d2 7c 3d c2 3f 15 3e d3 08 d2 bc ee 58 11 3c
       0.061724413 0.14575103 -0.025638973 0.0088713
000370 74 7a 83 bc a1 40 19 bc 8c d4 52 bc d0 d7 53 3c
       -0.016049601 -0.009353788 -0.012868058 0.012929872
000380 f9 9e 72 bc dd 35 f9 3c 27 95 23 bc 3e 42 52 3d
       -0.01480841 0.030421192 -0.009984291 0.051332705
000390 17 e8 45 bd 8f 45 68 bc 96 7c 9a bb 36 f7 5b bd
       -0.04831704 -0.01417674 -0.004714559 -0.053702556
0003a0 77 42 92 3a a8 66 d1 bc 70 2f 45 bd ab 93 3a bc
       0.0011158724 -0.025561646 -0.048140943 -0.011387746
0003b0 e7 b1 9f bc bd 44 39 bc 6f 13 c8 bd b6 1d 75 3b
       -0.01949401 -0.011307892 -0.09769332 0.0037401742
0003c0 fa ba 7a bd 3e 4c f9 3c e0 81 67 bc de 41 a2 bb
       -0.06121347 0.030431863 -0.014130086 -0.0049516996
0003d0 7c 55 05 3d 9a 09 bb bb 30 20 9b 3c 66 96 61 b8
       0.032552227 -0.0057079317 0.018936247 -5.378425e-05
0003e0 51 12 1b 3a a9 a1 fd bb 6d 94 cd ba 40 bf 92 3c
       0.000591551 -0.0077402187 -0.0015684493 0.01791346
0003f0 26 a6 04 3c e9 08 e4 bc d8 08 d1 b9 4c 71 95 bc
       0.0080962535 -0.02783628 -0.00039870176 -0.0182425

encoder_shared.shared1.bias f4 [15]
000000 4c a7 18 bd 7c 1c 08 3e a5 8e a0 bd a8 e8 91 3d
       -0.03726892 0.13292116 -0.07839707 0.07124454
000010 f3 e5 0c 3e 13 5d 29 3e 08 f7 c0 ba b2 05 44 bd
       0.13759594 0.16539411 -0.0014722059 -0.047856994
000020 74 70 60 3c 3d 8d a9 3d 10 02 fa bc ea 12 1d bd
       0.013698686 0.08278892 -0.030518562 -0.038348116
000030 01 c9 55 bc 89 b5 6e bc 18 32 31 bd
       -0.013048411 -0.014569649 -0.043260664

encoder_shared.shared2.weight f4 [15, 15]
000000 41 c5 0f 3d 72 1a 1c bc 59 01 ad 3c 94 23 97 3c
       0.035100225 -0.009527789 0.021118807 0.018449582
000010 7f 70 28 3d b7 d5 2b 3d 70 8b c3 3c 02 7f db 3b
       0.04112291 0.04195186 0.0238702 0.00669849
000020 ff a4 83 3d 5a 51 e5 3c 68 b0 b6 bd 41 1a 4a bb
       0.06427955 0.027992893 -0.089203656 -0.0030838402
000030 c1 f3 24 bc fc 83 58 3d 2a 97 92 bd 44 86 64 3a
       -0.010067881 0.052860245 -0.071577385 0.0008717517
000040 e4 13 09 bc 02 91 23 3b ce d5 e4 3d 77 49 34 3e
       -0.008366559 0.0024958258 0.111735925 0.1760615
000050 a0 88 6d 3d e9 10 3a bc af 34 66 bb 24 db 3f 3e
       0.057991624 -0.011356571 -0.0035126617 0.1873594
000060 f7 07 b7 ba 0e 96 85 bc 7e dc 9a 3d b7 6c ff b7
       -0.0013964166 -0.016306903 0.07561587 -3.0448993e-05
000070 73 e6 ac b9 6a 37 b2 bd 88 7b 96 81 c4 c2 5b 00
       -0.00032978095 -0.08701976 -5.5278556e-38 8.426899e-39
000080 53 e9 9f 00 28 fb 96 20 08 9f 19 80 3b 6e 92 06
       1.4685545e-38 2.557719e-19 -2.352937e-39 5.5081065e-35
000090 0f d2 a7 81 16 c0 90 01 0c dd 87 a2 c0 f3 07 01
       -6.164753e-38 5.3172876e-38 -3.6825866e-18 2.4970466e-38
0000a0 d8 37 aa 80 1b 15 25 24 2a 74 2e 80 53 f3 15 80
       -1.5632067e-38 3.579655e-17 -4.266105e-39 -2.015834e-39
0000b0 1f e4 76 80 d7 a9 23 bc 71 04 24 3b a0 d3 c4 bc
       -1.0918423e-38 -0.009989223 0.0025027061 -0.024026692
0000c0 8c 32 d4 3d cc 43 97 bd d5 92 b8 bd 85 9a 47 3d
       0.103612036 -0.07385978 -0.09012381 0.048731346
0000d0 69 96 3a bb 95 1d 1a 3e 5f b4 15 3c 22 84 4d bd
       -0.0028471 0.15050347 0.009137242 -0.05017484
0000e0 34 38 53 bd 59 9c 33 3a c6 9d a8 3c 69 90 1f be
       -0.05156727 0.0006851606 0.020583045 -0.15582432
0000f0 29 ba 7b ba a0 3f 14 3d 46 ef 8e 3c 72 ee 77 3c
       -0.000960263 0.03619349 0.017448079 0.015132533
000100 d1 14 84 bd 80 36 43 3d 76 91 9c 3a 04 8e 20 3a
       -0.06449283 0.047659397 0.0011945206 0.00061246776
000110 36 be 8b 3d 02 b0 3a 3c aa d9 57 bd ad af cf bd
       0.06823389 0.011394503 -0.052697815 -0.10140929
000120 9c 22 41 39 18 5e 22 3b d3 7f 6f bd 89 69 a9 3a
       0.00018418807 0.0024775323 -0.058471512 0.0012925129
000130 84 5c 94 3c a2 de cf 3c 3a ee be bd 3b 5d e7 3d
       0.018110521 0.025374714 -0.09322782 0.11297079
000140 ed 3e 51 3e 33 ba cd bb 20 5f 17 bb 4d 62 1c be
       0.2043416 -0.0062783 -0.002309747 -0.15271874
000150 17 b1 a3 bc 82 47 98 bc 8f 7b f2 3d 66 95 83 bc
       -0.019981904 -0.018588785 0.11839973 -0.01606245
000160 dc 32 fe ba 70 0a 17 3e 10 db 14 81 27 1b 07 01
       -0.0019393819 0.14750075 -2.7340476e-38 2.4815065e-38
000170 b9 7e a0 1c 8f 7f 1d 81 e6 3f 90 81 8d c4 b5 93
       1.0620669e-21 -2.8927865e-38 -5.2988936e-38 -4.5884638e-27
000180 2e 3b 6e 81 8c 3f da 80 d6 e7 ae 1d 20 fd 17 81
       -4.3756156e-38 -2.0042934e-38 4.629713e-21 -2.7915928e-38
000190 fa 29 28 01 d1 6c 93 22 35 03 55 00 b1 c1 ba 00
       3.0886843e-38 3.9959644e-18 7.807168e-39 1.7150886e-38
0001a0 f6 b4 96 80 e0 82 31 af 35 9c 81 bb 73 06 bc bc
       -1.3840241e-38 -1.6144552e-10 -0.003955389 -0.022952294
0001b0 dd c5 29 3d 4e 0b f1 3d 35 87 23 3e be 32 56 38
       0.041448463 0.11769734 0.15969546 5.1068833e-05
0001c0 12 df 28 b9 2d 9f 46 bc 23 2b f8 b8 a7 e5 b6 3a
       -0.00016104829 -0.012122911 -0.00011833596 0.001395394
0001d0 fe 30 08 bc ff 49 52 b7 77 8d 21 b9 4e a9 60 3c
       -0.008312462 -1.2534204e-05 -0.00015406856 0.01371224
0001e0 16 fd 19 bb c1 82 a1 3b 8f e5 ae 3c a0 6e 4a 3c
       -0.0023496798 0.004928917 0.021349696 0.012355477
0001f0 f7 c4 47 bc 74 ad 04 3e 94 d4 eb bc d0 b5 36 bb
       -0.012192956 0.12956792 -0.028787889 -0.0027879365
000200 1a 85 31 3c 38 2a 93 bc 02 55 4c bd dc 18 38 3d
       0.010834957 -0.017964467 -0.049885757 0.044945583
000210 4c 9d 79 ba 82 dc af 3a 1a a1 d0 3d 5d e0 8b bb
       -0.0009522035 0.0013417157 0.10186978 -0.0042686895
000220 9c a8 46 3b 0f 49 14 ba 8c a0 f4 bc 3f a7 9e 3d
       0.0030312901 -0.00056566385 -0.029861711 0.077467434
000230 50 b7 60 bd 3d b9 86 bc e3 3a 5a b9 e2 28 5a 3e
       -0.05486232 -0.01644575 -0.00020812037 0.21304658
000240 f6 69 84 3b e9 94 b9 bc 82 60 8e 3d ea 13 ec 3b
       0.004040952 -0.022654014 0.06952001 0.0072045224
000250 88 92 50 bb cf 68 e4 bd 29 14 8d bb 9d 01 94 3c
       -0.003182562 -0.11152803 -0.004305382 0.018067176
000260 38 84 ff ba 47 a9 a2 3d 32 7b 2f 3e 5e 90 6d 3d
       -0.001949436 0.07942443 0.17136839 0.057999007
000270 19 92 d6 bb 19 12 0a bc 66 73 37 3e 41 e4 80 bd
       -0.006548178 -0.008427166 0.17915115 -0.06293536
000280 40 3b d2 bc 03 e5 ce 3d 1a 14 b6 bc 2e 05 e9 bb
       -0.025663018 0.10102274 -0.022226382 -0.007111213
000290 a9 dd 81 bd c2 56 23 a8 1d 4f 48 b9 9f 79 1a 3c
       -0.063411064 -9.06713e-15 -0.00019102958 0.009428411
0002a0 15 20 b9 3d 85 d2 5e 3e 0b 9b 11 3e 5c ab 99 b9
       0.09039322 0.21759994 0.142193 -0.00029310107
0002b0 4d a9 14 ba 94 cc 45 3e 8d 11 91 38 a0 ef 91 b5
       -0.000567098 0.19316322 6.917408e-05 -1.0873082e-06
0002c0 74 53 e7 bd 61 7a 0c b7 c4 1e 66 b9 dc b8 b9 bd
       -0.11295214 -8.373144e-06 -0.0002194597 -0.09068462
0002d0 ec d1 33 3b 6b ba c4 3b 38 b3 0d bc 16 11 93 bd
       0.0027438356 0.006003668 -0.008648686 -0.07180993
0002e0 21 63 cd bd 99 70 eb bd c0 4a ce 3c d6 7c bd ba
       -0.10028673 -0.11496086 0.025182128 -0.001445676
0002f0 9b d7 4d be be 59 56 ba 70 13 1e bc 22 e4 74 bd
       -0.20101778 -0.0008176825 -0.009648189 -0.059787877
000300 bb 7d 2f b8 9c fe a1 bb 6e 27 c3 3d 22 6c ee b8
       -4.1840347e-05 -0.004943682 0.09529005 -0.00011368866
000310 be 83 49 3a 5e 86 24 3b da 6f 90 bd ec b3 c0 bd
       0.00076871726 0.0025104503 -0.07052584 -0.094093174
000320 b5 26 1f ba ae 19 79 b6 45 94 03 39 d7 11 97 3c
       -0.00060711364 -3.711884e-06 0.00012548368 0.018441124
000330 20 45 78 b6 71 fd 2c 3b d7 51 ea bc d9 65 a3 3a
       -3.6995116e-06 0.002639618 -0.028603477 0.0012466266
000340 18 20 c1 35 0f d6 9b bb 50 50 ae b8 11 32 c4 bb
       1.4388961e-06 -0.0047557424 -8.311926e-05 -0.0059874137
000350 2e cc 98 3c e9 9f e3 bd 8d 6c 96 3c 8f 9d 3d 3e
       0.018652048 -0.11114485 0.018362308 0.18517135
000360 7e 49 0c 3b af 4f 89 3a 26 4a 39 3d 4d 40 c0 bb
       0.002140611 0.0010476018 0.04523673 -0.0058670403
000370 67 13 0c 3d af a3 96 3d 82 15 4e 3b f9 f3 7e 3a
       0.03419819 0.07355439 0.0031445925 0.0009725686
000380 58 f2 ed 3d
       0.11618489

encoder_shared.shared2.bias f4 [15]
000000 90 ed 05 3e 31 d3 9b 3d 22 32 8c a8 e8 e3 69 3e
       0.13078904 0.07608641 -1.5564864e-14 0.22840846
000010 64 45 82 3e b6 3f 2f 3e 2c 79 e1 a6 23 24 09 bd
       0.25443566 0.17114148 -1.5645355e-15 -0.03348173
000020 d3 72 39 3e bb e2 a7 3e 70 ed d5 3d c2 18 85 bc
       0.18110208 0.3279017 0.10445678 -0.016247157
000030 c2 96 a9 3e 1a da 07 3d b0 c3 0e bc
       0.33122832 0.033166982 -0.008713648

encoder_shared.shared3.weight f4 [15, 15]
000000 f2 32 0c be 65 35 6e 3e 7b a2 d2 00 9c bb 52 3e
       -0.13691309 0.23262556 1.9343741e-38 0.2057938
000010 5a 82 2b 3e 9e df 41 3e b2 5a bc 80 00 a2 89 bd
       0.16748944 0.1893296 -1.7297609e-38 -0.06720352
000020 b4 19 1f be d1 bc ed bd 8d ee c3 3d 79 51 36 bd
       -0.15537149 -0.116082795 0.09566984 -0.044511292
000030 d3 18 57 3e e1 a4 83 3b aa b5 1f 3e bf e8 91 3d
       0.21005563 0.004017458 0.15596643 0.07124471
000040 8b 31 09 3e cf de b6 01 0c 63 ef bd 99 90 a0 3d
       0.13397805 6.7175956e-38 -0.116888136 0.0784008
000050 04 2e e3 bd 4e ce 9e 01 9c 5c 20 bd d5 56 52 3c
       -0.11092761 5.8336066e-38 -0.03915082 0.012838085
000060 85 50 23 3e f2 96 13 be 0a c0 ae 3d 9c e9 48 3e
       0.15948685 -0.1441305 0.08532722 0.19620365
000070 8e b1 46 3b bd 69 c0 bd 38 0b 23 3e 2c 63 0f be
       0.0030318233 -0.09395168 0.15922248 -0.14002675
000080 ca 20 09 00 b1 43 1f 3e 45 6c 83 3c 60 cf 35 3e
       8.38282e-40 0.15553166 0.016042838 0.17754889
000090 32 81 37 01 30 85 70 3b ad dd 68 3e e1 87 ed 3d
       3.3704485e-38 0.003670048 0.22740813 0.115981825
0000a0 07 df 28 3e f7 00 e8 3c 3a 5d 57 3e 0b fc 53 3c
       0.16491328 0.028320773 0.21031657 0.01293851
0000b0 c6 b6 de bd f9 5b 1f be c3 27 d8 3c d8 bf 10 00
       -0.10874705 -0.15562429 0.026386147 1.538189e-39
0000c0 9f 41 9f 3d 9a 41 ec bd 78 40 97 bd 47 4f 4f 00
       0.07776188 -0.1153595 -0.07385343 7.283444e-39
0000d0 ca 28 b4 3d 05 89 0d 3e c4 3a 29 be 6e 67 01 be
       0.087968424 0.138218 -0.16526324 -0.12637112
0000e0 96 2e 0e bd e6 f7 b9 3c 8c 87 ad ba d2 42 38 3d
       -0.034712397 0.022701215 -0.0013239249 0.0449856
0000f0 98 3e 2e bd f0 46 55 3e 31 20 f0 80 df ad 5d 3d
       -0.042540163 0.20827842 -2.2052067e-38 0.054120895
000100 f0 5e 6a 3e a0 bc 1b 3e 6f b9 6a 81 17 ba 79 3d
       0.22887778 0.15208673 -4.3112054e-38 0.060968485
000110 0f 2c 00 bd 76 8b 1f be 86 66 35 3e b5 bb 5f be
       -0.031292018 -0.15580544 0.17714891 -0.21848948
000120 47 cd 98 3d 32 5d 01 bb e2 09 06 3e de f2 36 3e
       0.074610285 -0.0019739387 0.13089707 0.17866084
000130 fa fe c2 bd b5 9d 68 80 29 06 5b 3e ba 07 e9 bc
       -0.09521289 -9.607466e-39 0.21389069 -0.028446067
000140 1f 55 bc bc 32 ce 83 00 6c bb 9e 3d 97 81 b8 3d
       -0.022989808 1.2104419e-38 0.07750592 0.09009092
000150 66 cf b9 bd 62 d6 71 be 48 fb 87 3d d9 9d b6 bd
       -0.09072761 -0.23616937 0.06639725 -0.08916826
000160 a6 02 5b 3d b8 5e 48 be 18 d2 20 bb 1f 75 ec bd
       0.053469323 -0.19567382 -0.0024539288 -0.115457766
000170 49 be e2 80 60 69 8a 3e 8f 11 4d ba da 6c 72 3e
       -2.0823084e-38 0.2703352 -0.0007822746 0.23674336
000180 aa d9 02 81 4b c8 c5 3d 2f 41 78 3e 3c d0 33 3e
       -2.4033395e-38 0.096573435 0.24243616 0.17559904
000190 02 2b a7 3d f8 08 4c 3c c5 62 4b 3e 90 5e 87 bb
       0.081625 0.01245331 0.19861896 -0.004131146
0001a0 1f c2 c5 bd 6f cc 0a 3e a2 16 4e be 8e 6b 79 00
       -0.09656166 0.13554548 -0.20125821 1.1150678e-38
0001b0 3c d2 46 be da 94 18 3d 3a 48 18 3d e2 76 e1 00
       -0.19416136 0.03725133 0.037178256 2.0705634e-38
0001c0 11 70 76 bd 8e 61 16 bd 2a 80 1f 3e 74 a4 e4 bd
       -0.06016547 -0.03671413 0.15576234 -0.111641794
0001d0 20 a8 9a bd 63 4d 50 bc 42 b1 55 3c 52 b3 b0 3d
       -0.075515985 -0.012713763 0.01304275 0.08627953
0001e0 30 a1 13 3d aa 10 2c bd 2d 99 f5 80 55 12 d5 3d
       0.036042392 -0.04200808 -2.2554646e-38 0.10403887
0001f0 f0 34 a4 bb 84 d7 80 bb 2c d9 11 80 fb 01 a0 bb
       -0.0050111935 -0.0039319415 -1.63911e-39 -0.0048830486
000200 bc 74 6d be d6 5d 3a be 92 bd 33 3d af 12 8d bd
       -0.23189062 -0.18199858 0.04388196 -0.06888329
000210 03 fb 7e bd ce d9 87 bb 76 e0 6a bd ae ac 11 3e
       -0.062251102 -0.0041458374 -0.05734297 0.14226028
000220 08 00 1b be 2c 58 98 81 f0 f6 00 be 5d 16 26 be
       -0.1513673 -5.59625e-38 -0.12594199 -0.16219468
000230 80 3a 31 bd eb ae db 00 05 12 af 3c 77 86 a2 3d
       -0.04326868 2.0174722e-38 0.021370897 0.079358034
000240 10 13 95 bd 2e 08 93 3d 02 da e8 bd fa e5 82 bd
       -0.072790265 0.071792945 -0.11369707 -0.06391521
000250 d3 d2 85 ba e6 21 8e 3c 46 53 b3 3d c1 e2 f9 3d
       -0.0010209925 0.017350148 0.087561175 0.12201453
000260 2a 90 2c 01 51 14 79 3b 4a af fa 3d 9a a2 70 bd
       3.1694843e-38 0.0038006494 0.12240465 -0.05874882
000270 5e ff 66 00 0a 7e a8 bd 95 f5 61 bb fa 31 9e 3a
       9.458829e-39 -0.08227165 -0.0034478654 0.0012069338
000280 d7 05 63 bc ef 06 8a bd a7 c5 68 ba 1c 43 4e ba
       -0.013856373 -0.06739604 -0.000887955 -0.00078682764
000290 5a ae 68 bc 74 22 c4 31 6a 6f 4e 81 93 52 2a 80
       -0.014201725 5.7082676e-09 -3.791616e-38 -3.886713e-39
0002a0 c3 e0 b9 33 a9 bf f5 af 1e 2e a5 00 2c e4 42 80
       8.655618e-08 -4.4701423e-10 1.51694e-38 -6.142995e-39
0002b0 1a 99 27 81 ee 1f c5 80 d3 ff d0 35 7e 4d ae 9f
       -3.07829e-38 -1.8103047e-38 1.5571662e-06 -7.3820066e-20
0002c0 dd ab 64 15 17 55 2a 81 18 ab ab 81 62 9b 49 01
       4.617981e-26 -3.1285118e-38 -6.3060987e-38 3.702935e-38
0002d0 7d a8 88 3e 83 17 0f 3d 09 05 28 00 dd e9 4c 3e
       0.26691046 0.034934532 3.675226e-39 0.20011087
0002e0 cb a4 ca bd 15 a3 d7 3d fe e2 f0 80 11 ae 0f 3d
       -0.09894713 0.10529152 -2.2121949e-38 0.035078112
0002f0 8b 19 3c 3e b2 b6 c4 3c dd 54 e6 3b f6 2e 68 bc
       0.18369119 0.024012897 0.0070291595 -0.014171353
000300 59 36 67 3e 05 c8 0c bb 61 21 3a 3d 4e fb 36 81
       0.22579326 -0.0021481526 0.04544199 -3.3608423e-38
000310 2c fc a6 00 6f 51 ae 81 ca 9d db 80 02 f6 3d 80
       1.5335155e-38 -6.4034357e-38 -2.0168578e-38 -5.690216e-39
000320 0c 14 37 80 4a ed 69 81 05 3b 11 01 e8 e8 5c 00
       -5.058144e-39 -4.2965588e-38 2.6674638e-38 8.532417e-39
000330 b1 85 80 00 03 69 0e 80 38 16 21 00 b0 92 b2 00
       1.1802903e-38 -1.323368e-39 3.038542e-39 1.639934e-38
000340 10 5e 3c 01 e8 09 0a 81 e6 53 91 81 9b b6 f6 80
       3.4597633e-38 -2.5353704e-38 -5.3384976e-38 -2.2657039e-38
000350 7c b5 70 81 7e c8 0c 00 85 0b 95 81 15 3d a2 81
       -4.4211247e-38 1.173949e-39 -5.4750485e-38 -5.959705e-38
000360 b8 95 33 81 79 a2 96 81 3e 45 47 81 fb 63 3e 00
       -3.2984526e-38 -5.5334435e-38 -3.6600206e-38 5.729667e-39
000370 e1 d1 31 80 58 1c b0 81 ca 13 21 81 5d 6e 7a 81
       -4.57523e-39 -6.469286e-38 -2.9585228e-38 -4.599693e-38
000380 7c 49 b3 81
       -6.585966e-38

encoder_shared.shared3.bias f4 [15]
000000 b4 e0 da 3d 0d e8 59 3e 8a 98 1f be ae 45 ca 3d
       0.1068739 0.21279927 -0.15585533 0.098765716
000010 f0 94 d3 bd 41 87 e0 3c 1c 5b 49 3e 59 a2 46 3c
       -0.10331142 0.027408244 0.19663662 0.012123668
000020 dd 39 f4 3d 2c 3a c8 3d da 9b a5 bd 36 cf 57 b9
       0.11925099 0.097767204 -0.08086367 -0.0002058119
000030 5e 91 cd 3d c6 58 75 80 26 13 15 81
       0.10037492 -1.0776599e-38 -2.7380716e-38

encoder_x.out.weight f4 [15, 15]
000000 11 1a 29 be ce 37 6f 3d ed d9 34 3e fc 19 92 3a
       -0.1651385 0.05840283 0.17661257 0.001114666
000010 60 8c 62 bd ac e6 cb bc ae e2 6d 3e 84 e1 04 3d
       -0.055309653 -0.024890266 0.23231003 0.03244163
000020 dd 8c b3 bd c6 70 55 bd 17 6c 26 bd fc 2d 0c 00
       -0.08767102 -0.052109502 -0.040630426 1.118522e-39
000030 4b 9f 87 3d 92 b5 a6 81 a0 31 ab 81 07 de 67 be
       0.066221796 -6.123931e-38 -6.288669e-38 -0.2264329
000040 c8 df ea bb 0f 71 bf bd 16 12 08 bd 3e 7d ba 3d
       -0.00716779 -0.09347736 -0.033220373 0.09105919
000050 45 00 49 3e 84 63 c4 bd 29 fa 6b 3d aa a6 d8 bc
       0.19629009 -0.095892936 0.05761162 -0.02644666
000060 06 6a 23 be 56 a1 a3 3d 2b 82 05 81 e2 2c 4f be
       -0.15958413 0.07989757 -2.4521633e-38 -0.20231965
000070 23 3b f7 00 35 96 84 81 dd 8b e6 bd 85 d8 10 3e
       2.2704582e-38 -4.870468e-38 -0.112571456 0.14145096
000080 ab eb 07 3e d0 f9 49 3c 3f e9 f3 3c f7 81 c5 b9
       0.13273494 0.012327626 0.029774306 -0.000376716
000090 87 34 89 3e 07 3f 0f ba d9 9b 1e be a4 c9 fd 3d
       0.26797888 -0.0005464409 -0.15489139 0.123919755
0000a0 4d 4c 77 bc af e2 e2 00 6a 7a a8 bc 49 34 4d 01
       -0.015093875 2.0836141e-38 -0.020566184 3.7690066e-38
0000b0 33 cc 95 81 e6 19 89 ba 84 4e b8 ba ea 44 7d b7
       -5.502697e-38 -0.0010459989 -0.0014061485 -1.509602e-05
0000c0 cc 5c 81 09 34 70 90 19 c4 41 01 01 b8 5c 93 bb
       3.1142886e-33 1.493457e-23 2.3740743e-38 -0.004497137
0000d0 0e fd a4 81 02 55 f9 8e 20 18 63 00 20 66 8c 01
       -6.06072e-38 -6.14651e-30 9.100369e-39 5.157442e-38
0000e0 1a cc 93 01 b3 62 e4 ba 6c a3 ea 80 8a ec d3 80
       5.4292143e-38 -0.0017424434 -2.1548131e-38 -1.9462144e-38
0000f0 a4 0c 38 00 cc e0 a3 00 2e d4 0c 81 cc 78 84 01
       5.147322e-39 1.5049828e-38 -2.586617e-38 4.8662477e-38
000100 25 ad a3 81 52 2a 2e 81 2f 2c 01 00 b2 c8 a1 81
       -6.0125194e-38 -3.1989116e-38 1.07686e-40 -5.9430043e-38
000110 ce 84 54 81 a2 18 12 01 6d 1b 1b 80 00 23 2e 00
       -3.9033533e-38 2.6833638e-38 -2.489397e-39 4.236988e-39
000120 e2 3e 83 00 56 1f ac 01 6d c1 8e 81 e5 2d 5c be
       1.2053008e-38 6.3227786e-38 -5.2440114e-38 -0.21501882
000130 4a 50 28 3a c1 3f 10 3d ba e8 aa b7 bc 24 5f bc
       0.00064206554 0.03521705 -2.0373951e-05 -0.013619598
000140 72 35 dd bd ac ec de 3c 72 73 13 bd a4 61 f1 bc
       -0.108012095 0.027212463 -0.03599877 -0.029465504
000150 d2 3a 87 3c b3 d1 13 be 88 f3 11 01 43 49 cd bd
       0.01650754 -0.14435463 2.680702e-38 -0.10023739
000160 72 3f 8b 01 eb 50 c8 00 ca 60 1b 3e c4 7a 3f 3d
       5.1151575e-38 1.8396127e-38 0.15173641 0.046747938
000170 4e fd 31 bd b4 73 de bc 28 56 0a be a7 e8 19 bc
       -0.04345446 -0.02715478 -0.13509429 -0.009393848
000180 ca ea 0c 3e 4e d2 b3 38 ee a1 63 bd c9 73 d6 3d
       0.1376144 8.5745574e-05 -0.05557435 0.10471303
000190 2e 43 3d 3c e9 ea f1 00 ce 79 83 3e 9f 3d 11 81
       0.011551661 2.2216624e-38 0.25678867 -2.6676505e-38
0001a0 5c b1 93 01 ba 9f ab 81 00 12 74 81 c0 8b 20 81
       5.425377e-38 -6.3044676e-38 -4.4828636e-38 -2.9487624e-38
0001b0 dc ae 71 81 54 ee 02 00 74 a9 0a 80 46 40 14 80
       -4.4390165e-38 2.69167e-40 -9.79143e-40 -1.859767e-39
0001c0 b9 83 6a 80 1d d8 d2 00 0e 9a 29 01 e2 96 9f 01
       -9.781816e-39 1.9362981e-38 3.1150927e-38 5.862388e-38
0001d0 6c bc 4c 80 a9 29 37 81 9e 67 67 01 c1 93 01 00
       -7.047091e-39 -3.364168e-38 4.250234e-38 1.4484e-40
0001e0 42 75 80 81 fe ad 9a 81 61 6f 34 81 ee 1e 7a 80
       -4.718803e-38 -5.682033e-38 -3.314069e-38 -1.1215026e-38
0001f0 fc f2 e2 00 00 1d 02 01 8d 99 6d 00 5d c0 2f 00
       2.0841989e-38 2.3898035e-38 1.0065153e-38 4.385275e-39
000200 20 67 89 80 f0 fd 3a 80 46 3b 54 01 9e 3d 43 81
       -1.2618457e-38 -5.417554e-39 3.8980777e-38 -3.5860052e-38
000210 1c 2c 8a 81 9e f7 6d 00 18 0b 80 01 1c e8 0f 81
       -5.075649e-38 1.0098897e-38 4.703569e-38 -2.6431482e-38
000220 d6 69 4e 81 43 0f 7c 81 18 19 82 01 4c 9e 46 80
       -3.7912158e-38 -4.629604e-38 4.7790466e-38 -6.485271e-39
000230 4d 86 53 01 66 a6 0d 01 62 6d 86 80 1f 97 89 01
       3.8850935e-38 2.6016995e-38 -1.2345196e-38 5.05427e-38
000240 a3 fa 98 01 5a 91 b6 00 97 97 70 81 a4 d9 40 81
       5.619563e-38 1.6766203e-38 -4.4189799e-38 -3.542098e-38
000250 1d cf a4 01 b7 d7 1f 01 9a ea ed bc c7 c4 80 3e
       6.054128e-38 2.9358456e-38 -0.02904253 0.2515013
000260 57 72 ee 3c d8 19 d2 bd 1d e7 86 3e 79 2f 21 3d
       0.029107256 -0.102588356 0.263482 0.039351914
000270 16 39 86 bd 33 3a d1 39 15 90 bc bd c5 db 9a bd
       -0.06553857 0.00039906948 -0.09207169 -0.07561449
000280 6e ee 9a bd 18 3e 8f 00 8b 9d 94 bd bc bd a1 01
       -0.07565008 1.3154751e-38 -0.072566114 5.9414315e-38
000290 a4 ab 26 81 d4 81 7b 98 a0 91 57 9b 2c de dc 00
       -3.061253e-38 -3.2506536e-24 -1.7831437e-22 2.028351e-38
0002a0 9c a8 11 80 96 00 ad 81 2e 7d 24 81 13 62 25 ab
       -1.621689e-39 -6.3551004e-38 -3.0211855e-38 -5.875588e-13
0002b0 60 14 4b 80 88 61 4e 80 16 96 3f 81 dc 62 29 81
       -6.894971e-39 -7.198156e-39 -3.518884e-38 -3.1111326e-38
0002c0 52 42 14 00 1e 82 36 9f 6d 92 7d 80 12 95 df 80
       1.860501e-39 -3.864763e-20 -1.1531965e-38 -2.0532792e-38
0002d0 77 33 b1 9f 57 ad 9b 1d fc 94 20 1d f1 a6 a4 01
       -7.504756e-20 4.1207388e-21 2.1252847e-21 6.0483635e-38
0002e0 98 ee aa 00 58 45 0a 01 b1 34 02 ab ac c6 72 00
       1.5697626e-38 2.539635e-38 -4.62584e-13 1.0540517e-38
0002f0 80 e4 9a 81 56 a1 94 80 22 60 04 01 bc 55 da 80
       -5.6898547e-38 -1.364953e-38 2.4313543e-38 -2.0050894e-38
000300 f1 c8 40 18 d2 58 74 00 33 2b 8c 80 fe 54 81 3e
       2.4916868e-24 1.068478e-38 -1.2872466e-38 0.25260156
000310 3f 19 ec 3d 31 9f bc 3c 38 d7 07 be 38 69 9a bd
       0.11528253 0.023025127 -0.13265693 -0.075396
000320 49 bd 41 3c 21 2d 88 3c 00 e2 b7 b9 63 bf 78 3d
       0.011824914 0.016623082 -0.00035072863 0.060729396
000330 f2 34 82 39 a5 25 12 3e 5e 47 6f 00 bc 3d 81 3e
       0.0002483498 0.14272173 1.0219342e-38 0.25242412
000340 66 9d aa 00 0b 28 59 00 38 c0 ba 3d a4 e2 34 3d
       1.5668498e-38 8.187724e-39 0.09118694 0.044161454
000350 f1 a0 46 be a8 ea 8d bc 5a 97 65 bd 77 a5 d0 3d
       -0.19397332 -0.017323807 -0.056052543 0.1018781
000360 c0 de cf 3d 0f 92 0c be 67 71 a5 3d 39 fe 93 bd
       0.10149908 -0.13727592 0.080782704 -0.072262235
000370 7c 3b 46 3d a6 d8 4c 01 5e b5 59 3e ed 67 22 00
       0.048396572 3.762432e-38 0.21260592 3.159688e-39
000380 c7 f9 1b 00
       2.569162e-39

encoder_x.out.bias f4 [15]
000000 39 28 85 bc 3d ff 25 3e 4e e5 92 3e 7a ba 36 bc
       -0.016254531 0.16210647 0.2869057 -0.011152858
000010 19 76 ec 80 7f bb 1a 3d e3 35 69 3e 98 26 2d 00
       -2.1715543e-38 0.037776466 0.22774462 4.146442e-39
000020 f8 13 04 00 6e 82 6b 80 b9 bb 90 3e 3a de 71 b4
       3.74505e-40 -9.873187e-39 0.2826822 -2.252572e-07
000030 01 88 d3 af 27 a2 9b 3d 1e 3c 0d 3e
       -3.8477313e-10 0.075992875 0.13792464

encoder_x.fc_mu.weight f4 [5, 15]
000000 2f 63 80 bd 38 dc 62 be 05 ae b5 3d 32 f3 2b b9
       -0.06268918 -0.2215432 0.08871082 -0.00016398428
000010 72 01 e9 00 d7 e6 3f ba 1c f5 e7 3d d0 ca ae 00
       2.1398189e-38 -0.00073204696 0.11326048 1.6052132e-38
000020 ec 9d 4c 80 94 b3 81 81 43 6d ac bd a7 23 6b a4
       -7.03615e-39 -4.76448e-38 -0.084192775 -5.09877e-17
000030 84 5b 45 00 ee 51 09 3d e0 ad e4 3d 74 2e b2 3d
       6.369479e-39 0.0335254 0.111659765 0.087002665
000040 5c fd 1e be 69 be 61 bc 59 15 ce 37 d8 8f 86 01
       -0.15526336 -0.0137783075 2.4567054e-05 4.943023e-38
000050 8b 73 c1 bd c6 86 11 3e 2c 91 94 01 22 4b 8d 01
       -0.09445866 0.14211568 5.4574925e-38 5.190303e-38
000060 ee 5a 06 81 17 8d 14 3e 96 2b dd 8d 97 41 09 80
       -2.4677152e-38 0.14506947 -1.36306695e-30 -8.50049e-40
000070 0a b6 70 3e 4b 39 32 bc 39 e3 88 3d 99 a4 9b bd
       0.23506942 -0.0108779175 0.06683964 -0.07599754
000080 5f 8d b5 3c 36 f1 85 b8 e6 9e 74 01 68 ac 09 bd
       0.022162138 -6.386863e-05 4.4929726e-38 -0.033611685
000090 c0 8b 0f 3e 82 2b b4 80 57 b7 7b 81 54 23 6b 81
       0.14018154 -1.6545997e-38 -4.623296e-38 -4.318803e-38
0000a0 5b 5a 84 be e8 69 0a 20 92 73 70 81 7c 9c 60 3c
       -0.25850186 1.1724096e-19 -4.4163956e-38 0.013709184
0000b0 3d a8 03 3e 80 3d 3c bc 67 a9 e8 3d e8 1e 82 be
       0.12857147 -0.011489272 0.11360436 -0.25414205
0000c0 70 ef 15 b5 99 69 88 81 2e c0 bb 3b ba fd b2 bd
       -5.5855253e-07 -5.0110035e-38 0.0057296967 -0.08739801
0000d0 e7 b1 18 00 cc 42 90 81 b9 a9 3a 80 a4 62 0d 3e
       2.267871e-39 -5.2993095e-38 -5.387344e-39 0.1380716
0000e0 d8 74 9d a7 42 39 27 01 68 f6 20 3e 7a 25 f5 3d
       -4.3702936e-15 3.0714136e-38 0.15718997 0.11970039
0000f0 9e b3 0b be 24 bc 3e be 3b 8d 19 be 3c 59 a2 b8
       -0.13642737 -0.18626457 -0.14995281 -7.741383e-05
000100 94 38 93 81 04 3f df 3a 4b c6 02 3e 0d 2a b5 81
       -5.408046e-38 0.001703233 0.12770955 -6.654924e-38
000110 c6 f9 86 01 0a d2 92 00 cd fe bd bc 66 e7 00 ac
       4.9582233e-38 1.348333e-38 -0.023192788 -1.8318346e-12
000120 66 26 b7 81 f6 2c 65 3e b5 7c 35 be
       -6.727868e-38 0.22380432 -0.17723353

encoder_x.fc_mu.bias f4 [5]
000000 cb 07 bc bd 40 0d 28 be 8d 77 0c bd 0c ba 09 3d
       -0.09181174 -0.16411304 -0.0342937 0.033624694
000010 f3 10 ba 3c
       0.02271316

encoder_x.fc_log_var.weight f4 [5, 15]
000000 b9 b8 ce bd 0f 3a 18 3e 04 7c 9b 3e 1b bb ba b5
       -0.10093827 0.14865898 0.30368054 -1.3912535e-06
000010 57 78 18 01 33 63 38 bd 05 91 ae bd 6f e6 9e 01
       2.800433e-38 -0.04501648 -0.08523754 5.837069e-38
000020 98 39 7a 80 a9 44 2a 81 4a d9 bb bd dd 4d 9f 81
       -1.1224591e-38 -3.127333e-38 -0.09172304 -5.8519104e-38
000030 19 61 9d 80 97 0e a5 3e fd aa a7 3d 42 6a 95 3b
       -1.4453005e-38 0.32237694 0.0818691 0.004559786
000040 f7 52 20 be 08 e9 18 3e e5 0e 3a 19 9c 8a 96 81
       -0.15656649 0.14932644 9.6189825e-24 -5.530019e-38
000050 bf bf 35 b8 41 7e b9 bd c6 47 8c 00 e3 00 9a 81
       -4.333234e-05 -0.09057284 1.2882717e-38 -5.657194e-38
000060 7c 83 ac 00 88 04 f0 bd 91 97 57 80 76 ff 41 81
       1.5842873e-38 -0.11719614 -8.04406e-39 -3.5631786e-38
000070 ba 19 59 bc fc 53 98 3c 3a 06 00 3e d4 d1 81 bd
       -0.013250763 0.018594734 0.12502375 -0.0633885
000080 47 d0 24 3e 05 b2 a5 18 f0 c8 3c 80 d8 c0 6d 3c
       0.16095077 4.2831254e-24 -5.582213e-39 0.01451131
000090 e3 a3 02 3d 42 11 56 81 40 a0 3c 81 d4 7b 75 01
       0.031894576 -3.9317974e-38 -3.464512e-38 4.5088235e-38
0000a0 48 74 c1 3d 17 80 b4 00 4a ec 7f 80 97 99 e3 bd
       0.09446007 1.6576339e-38 -1.1747873e-38 -0.11113279
0000b0 ab 8a 96 3d 95 55 4e 3d 7d 02 ce bd df 55 e3 bd
       0.073506676 0.050374586 -0.10059068 -0.11100363
0000c0 6e ad fe b5 20 92 9e 81 28 d3 42 bd 36 8b 1d 3e
       -1.8974949e-06 -5.824971e-38 -0.047564656 0.15385136
0000d0 92 d1 92 81 d6 38 0b 81 34 3e 9b 80 0a 12 e9 3d
       -5.393265e-38 -2.5571046e-38 -1.4256816e-38 0.11380394
0000e0 26 ed 44 01 86 25 de 80 cb fc d5 3d 2e 8f e4 3d
       3.616966e-38 -2.0400941e-38 0.10448607 0.11160122
0000f0 61 8f 78 bc 8f c5 7d 3d 3a b2 5f bd 14 6f 13 b0
       -0.015170903 0.061955985 -0.05461333 -5.363614e-10
000100 c7 7a ad 00 23 dc f7 b8 e4 1d 03 be a8 aa 9d 00
       1.5931585e-38 -0.000118188815 -0.12804371 1.4479393e-38
000110 30 b2 a3 81 20 ba 3d 81 c9 c0 a1 bd ba f8 16 a3
       -6.013243e-38 -3.4847356e-38 -0.07898099 -8.184186e-18
000120 da f1 f0 00 32 fd 29 3e 77 45 32 3e
       2.2127279e-38 0.16600493 0.17409311

encoder_x.fc_log_var.bias f4 [5]
000000 16 ed 26 be 60 57 cf 3b b7 24 ed bd 12 df e5 bd
       -0.16301379 0.0063275546 -0.115792684 -0.11224188
000010 5a 5f 59 3c
       0.0132673625

encoder_t.out.weight f4 [15, 15]
000000 18 21 9e 36 1d 68 e0 00 52 bb 2a b3 21 99 bb 9b
       4.7126196e-06 2.06085e-38 -3.9751576e-08 -3.1035512e-22
000010 e4 7c 9c b4 b6 00 a7 81 79 5f 46 39 f5 dc 8a 81
       -2.9148134e-07 -6.134713e-38 0.00018918318 -5.101025e-38
000020 5f 44 19 a6 38 12 49 33 be dc 6a 00 a5 ed a3 81
       -5.31752e-16 4.681553e-08 9.81375e-39 -6.0217747e-38
000030 a4 d9 a6 ae 44 37 41 80 ae f8 62 01 52 c1 50 3e
       -7.587467e-11 -5.989133e-39 4.1688063e-38 0.20386246
000040 f6 f0 fe bb e6 95 3f be e7 92 8b ba 94 db 79 3d
       -0.0077801896 -0.18709525 -0.0010648639 0.06100042
000050 6f f1 19 bc 08 07 59 3e d8 e5 7b bc dc de 36 be
       -0.009395941 0.21194088 -0.015374623 -0.17858452
000060 d8 a5 cc bd 4f ed f3 bd be ef bf 80 ce 6f 98 3d
       -0.0999257 -0.119104974 -1.7626583e-38 0.074432
000070 51 ff 53 81 29 49 9d 01 20 60 a3 80 14 31 2f 81
       -3.893776e-38 5.777767e-38 -1.5003669e-38 -3.2177635e-38
000080 df e8 5f 00 28 74 91 81 43 c6 1a 01 0e 17 c4 00
       8.80791e-39 -5.3431264e-38 2.842758e-38 1.8008028e-38
000090 c5 c0 50 97 34 d4 5a 01 1c 96 5b 01 f4 86 9c 81
       -6.7451734e-25 4.0192525e-38 4.0331646e-38 -5.7499e-38
0000a0 f8 6d 88 01 ad 40 55 80 ca 80 fc 80 83 bc 78 00
       5.011631e-38 -7.829218e-39 -2.3188746e-38 1.1087885e-38
0000b0 6b 71 09 00 58 a9 8c b9 4f 1f b4 b8 ac 6e 1f b6
       8.67206e-40 -0.00026829052 -8.5889005e-05 -2.3757266e-06
0000c0 80 b1 49 80 0d da 63 a1 8a 0e 07 81 b7 02 98 3b
       -6.767666e-39 -7.719918e-19 -2.4806015e-38 0.0046389955
0000d0 3d 43 d5 05 57 47 f4 23 5d a6 0a 00 5d f6 22 81
       2.0055123e-35 2.6484747e-17 9.78035e-40 -2.9931458e-38
0000e0 34 d2 53 81 23 9b 2c b9 92 a9 a1 01 6f f3 ab 81
       -3.8905393e-38 -0.00016460991 5.938538e-38 -6.316479e-38
0000f0 1b c9 14 19 47 6e 02 1a 5d b6 56 19 7b d3 13 8b
       7.6920336e-24 2.697245e-23 1.1100369e-23 -2.847027e-32
000100 40 6a 15 98 2b c7 11 81 73 ed 30 22 9a 09 a6 81
       -1.9311441e-24 -2.677519e-38 2.3978152e-18 -6.0992547e-38
000110 c4 0c 9c 92 d0 fa 67 01 d6 b1 08 00 12 fc 3d 81
       -9.848131e-28 4.2607948e-38 7.9848e-40 -3.489467e-38
000120 64 22 00 9a 34 53 67 80 e8 eb 40 00 5c d7 0d 3e
       -2.649756e-23 -9.488904e-39 5.962099e-39 0.13851684
000130 20 b6 0b 3e 7b 60 23 3e 09 7e 96 39 c7 2a a5 bd
       0.13643694 0.15954773 0.00028704133 -0.080648
000140 87 d1 80 3d e9 44 43 ba c5 00 da bb 67 13 1f be
       0.06289964 -0.0007448928 -0.0066529238 -0.15534745
000150 1d c6 95 bc f5 4a 3b bd 30 c6 05 01 12 ff 10 be
       -0.018282944 -0.04572578 2.4570435e-38 -0.14159802
000160 a6 9e 91 81 fe e4 7e 00 5b 54 8c 00 ac 96 35 01
       -5.3492237e-38 1.165342e-38 1.288723e-38 3.335255e-38
000170 67 e2 4b 80 42 a2 e7 00 53 d7 b0 81 00 9a 84 81
       -6.96888e-39 2.1272207e-38 -6.4961164e-38 -4.871012e-38
000180 f2 a2 b9 81 68 28 a3 00 85 16 8e 01 54 46 67 01
       -6.819208e-38 1.4983681e-38 5.2194876e-38 4.2478457e-38
000190 8c f0 8d 80 6a 22 b6 01 67 05 90 81 7c 63 44 00
       -1.3035097e-38 6.6905623e-38 -5.2905e-38 6.280502e-39
0001a0 bf c7 40 80 0e 36 a1 80 78 db 6e 81 77 f0 40 81
       -5.949127e-39 -1.4804906e-38 -4.3871157e-38 -3.5437356e-38
0001b0 b4 ce 5a 81 98 20 a0 81 3a 2e 68 01 22 4a 23 81
       -4.0188579e-38 -5.882149e-38 4.2644836e-38 -2.999156e-38
0001c0 20 06 86 80 9c cb ba 81 04 0d 25 01 df dc 0c 00
       -1.2308154e-38 -6.8617774e-38 3.0315052e-38 1.18126e-39
0001d0 64 80 10 00 e2 b4 5f 81 0a f9 26 81 f6 f0 8d 81
       1.515426e-39 -4.1088408e-38 -3.0668061e-38 -5.214098e-38
0001e0 7f ad 9d 81 06 ce 8e 81 6e 3e 5e 00 c0 f0 48 01
       -5.7921646e-38 -5.245819e-38 8.654932e-39 3.6906928e-38
0001f0 e6 e4 40 01 98 96 29 01 dc cf 57 81 c0 27 23 80
       3.5429057e-38 3.1148443e-38 -3.9638395e-38 -3.228502e-39
000200 38 71 92 81 e8 8b 40 80 d7 4b a9 81 07 48 68 01
       -5.379439e-38 -5.92766e-39 -6.218962e-38 4.2663347e-38
000210 f2 38 ab 81 ce 53 11 81 41 4d 08 00 56 17 46 3e
       -6.289719e-38 -2.669242e-38 7.62397e-40 0.1934484
000220 42 36 28 3e 9d a3 70 3d 0d ee 2b 3a 7a f2 0c 3c
       0.16426948 0.058749784 0.00065586047 0.008602733
000230 09 65 14 bd ea df 3b bd ac 5b 15 39 89 ab 04 be
       -0.036229167 -0.045867838 0.00014243898 -0.1295606
000240 46 b5 9b bd 83 8b 25 3c 9b 8f 22 00 55 02 03 be
       -0.076029345 0.010104063 3.173923e-39 -0.12793858
000250 fc 3b 61 01 eb f8 a3 81 65 bf 0c 3e 36 13 79 3d
       4.136901e-38 -6.0233923e-38 0.13744886 0.060809337
000260 c9 e7 88 3d c8 ca 80 bb fd 71 a1 3d 6e c7 6d b8
       0.066848345 -0.0039304234 0.0788307 -5.6690937e-05
000270 e0 03 b5 3d ec 6f 08 b8 60 fa 00 be 5c fb 78 bd
       0.0883863 -3.2529162e-05 -0.1259551 -0.06078659
000280 d4 4a 3b 3d bd 2a 28 00 7e 70 02 bd 4d e5 fb 00
       0.04572566 3.688751e-39 -0.031845562 2.3132967e-38
000290 71 1a 67 80 93 3a 61 bd 3e fe 37 bd f9 90 a2 bd
       -9.468541e-39 -0.0549875 -0.0449202 -0.079378076
0002a0 c0 8d ba 3c 9e b0 12 be cb 43 c2 bc cf d6 09 3e
       0.02277267 -0.14325187 -0.023713967 0.13460849
0002b0 0a 71 a1 b9 cb 81 ff bd 92 87 a1 3d 5c 81 53 3d
       -0.00030792534 -0.12475928 0.07887186 0.05163704
0002c0 a5 d2 84 00 0b b7 8f 3d 03 8e 39 81 18 17 7e 01
       1.219785e-38 0.070173346 -3.4081022e-38 4.6669e-38
0002d0 6a 1e 12 16 ac 8d 48 14 eb a6 eb 15 50 de 9a 06
       1.1803383e-25 1.01253594e-26 9.5179094e-26 5.825502e-35
0002e0 2e 72 b9 94 00 55 60 80 17 9e 05 17 0d c6 98 80
       -1.8725262e-26 -8.8467e-39 4.3174155e-25 -1.4030043e-38
0002f0 a0 17 65 8a cd 52 dc 90 7b 46 34 81 42 56 a8 01
       -1.1030392e-32 -8.6902274e-29 -3.3111346e-38 6.183723e-38
000300 58 b4 5c 95 ba 39 08 81 d2 77 8c 81 3a 65 20 3e
       -4.4570912e-26 -2.5020672e-38 -5.159981e-38 0.15663615
000310 f0 85 ed 3d 2d 73 20 3e c2 9c ca 37 0e 80 76 bb
       0.11597812 0.15668936 2.4153273e-05 -0.0037612948
000320 b5 01 84 01 8b b5 15 3e fd 3e fb 00 8a 52 50 b9
       4.849159e-38 0.14620034 2.3073305e-38 -0.00019867174
000330 e9 aa 92 bb c8 3e e4 38 e0 ad ad 01 a3 e0 fa bc
       -0.0044759405 0.00010883581 6.379966e-38 -0.030624693
000340 e6 3f 07 00 59 1a bf 01 bd 03 b0 b8 89 a9 a4 b8
       6.65771e-40 7.0200126e-38 -8.39303e-05 -7.851708e-05
000350 3f 49 27 38 2f 9f b4 31 1a ed 06 37 0c 71 2f 80
       3.988412e-05 5.2567866e-09 8.042227e-06 -4.356822e-39
000360 9a d3 f6 b8 8c af 02 af b6 54 68 31 ae 8e d8 a4
       -0.00011769608 -1.1885798e-10 3.3808596e-09 -9.3916776e-17
000370 b7 db 9e 01 b4 12 f9 00 63 b8 95 b8 cb d1 b4 81
       5.835531e-38 2.2873748e-38 -7.139218e-05 -6.6422595e-38
000380 08 ad 51 01
       3.851138e-38

encoder_t.out.bias f4 [15]
000000 3a f8 f5 ba a5 04 8c bc 28 22 9e ab 58 82 92 bb
       -0.0018765994 -0.017092058 -1.1236055e-12 -0.0044711046
000010 3a a9 aa b3 a4 68 c5 3d b8 c0 29 01 bc 8c 90 81
       -7.947024e-08 0.09639099 3.1178667e-38 -5.309919e-38
000020 43 46 90 81 5d a9 3a 3e ba 6c 97 3c ea 75 6d 3e
       -5.2998066e-38 0.1822867 0.018484462 0.23189512
000030 13 de 86 aa 0a 0f 42 be 07 e5 89 b9
       -2.3957277e-13 -0.1895105 -0.00026301315

encoder_t.fc_mu.weight f4 [1, 15]
000000 4e bd 02 80 b3 26 2c be ee 24 8e 9e 57 31 62 31
       -2.51581e-40 -0.16811638 -1.5050109e-20 3.2915375e-09
000010 b0 7c ce 97 78 84 dc bd 90 81 02 80 04 ba 73 01
       -1.3343914e-24 -0.10767454 -2.30149e-40 4.476551e-38
000020 d0 0f 85 00 ca 28 1c 3e a7 c6 7b 3e d2 f5 cf bd
       1.2219793e-38 0.15249935 0.24587499 -0.101543084
000030 1c 56 43 95 6a 70 80 bd 2e 06 35 38
       -3.9447865e-26 -0.06271441 4.3159518e-05

encoder_t.fc_log_var.weight f4 [1, 15]
000000 ac 13 39 81 09 bf d8 3d e7 14 e2 80 36 c6 2b 2a
       -3.3993247e-38 0.10583312 -2.076232e-38 1.5256619e-13
000010 67 5a 6b 97 0b bd 81 3d 20 6f ee 80 f0 7f 66 81
       -7.60467e-25 0.06334885 -2.1896712e-38 -4.233612e-38
000020 6a b2 2b 80 66 34 31 be 6e 09 06 be b1 06 85 3e
       -4.012929e-39 -0.17305145 -0.13089535 0.25981668
000030 78 c8 60 15 e3 7c 25 3d 3a 21 85 b7
       4.5394582e-26 0.040402304 -1.5870308e-05

encoder_yf.out.weight f4 [15, 15]
000000 b6 cd 39 80 54 ae 80 81 85 dc 87 01 70 55 33 01
       -5.308418e-39 -4.726992e-38 4.99076e-38 3.2938406e-38
000010 50 bf 4f 80 7a 9f 6d 80 51 bd 5f 00 f9 3d 90 81
       -7.323634e-39 -1.0067278e-38 8.792286e-39 -5.298617e-38
000020 a0 bf 40 81 d4 68 73 01 aa 71 3a 80 5e cc 3a 01
       -3.5402315e-38 4.4707262e-38 -5.367234e-39 3.430943e-38
000030 3f e2 87 81 10 c6 05 81 a8 16 76 01 b2 21 54 3e
       -4.9915815e-38 -2.4570345e-38 4.519932e-38 0.20715979
000040 e7 48 a7 bd 37 e3 02 3e 72 de aa bc 89 26 0b 3e
       -0.08168202 0.12781988 -0.020858023 0.13588919
000050 91 26 09 3d 41 db 89 be e9 7a e4 3c b5 e0 a9 bd
       0.033484045 -0.2692509 0.02789064 -0.082948126
000060 33 41 0a bd cb ae 2a 3e 57 4b a4 01 f5 37 4b bd
       -0.033753585 0.1666824 6.0352193e-38 -0.04961391
000070 8a 1a 6a 01 fa 3c 06 80 55 39 20 be 5d db 70 3e
       4.2998053e-38 -5.72887e-40 -0.1564687 0.2352118
000080 f0 2c 8f 3d d6 a9 71 3a ef 6f 10 be 7a db ab 3d
       0.06990993 0.0009218728 -0.141052 0.08391471
000090 14 d3 2f bd 45 94 56 3d 62 e5 fe 3d f6 a4 d1 3d
       -0.04292591 0.052387495 0.12446095 0.10236542
0000a0 66 ec 25 3e fe f7 80 01 c4 b9 a4 3d 64 17 12 81
       0.1620346 4.7375625e-38 0.080432445 -2.6832747e-38
0000b0 6a 85 5a 81 35 44 3b b6 1d b6 e2 b6 31 09 0a ae
       -4.0135996e-38 -2.7904873e-06 -6.7565256e-06 -3.138573e-11
0000c0 80 3c 30 08 b1 1d b9 8c db 63 3b 01 be 71 01 b9
       5.303419e-34 -2.8521633e-31 3.4418118e-38 -0.00012344771
0000d0 53 c8 99 01 61 6d b7 07 10 e0 84 85 3b ab 01 00
       5.6490775e-38 2.7599067e-34 -1.2495528e-35 1.53261e-40
0000e0 56 f6 58 81 4d 4c 32 b7 5d 0c c5 00 cd 6a 92 01
       -3.9849672e-38 -1.0627392e-05 1.8096028e-38 5.378518e-38
0000f0 83 cf 0f be 75 5f a2 bd 65 aa 09 bd 69 62 5a bb
       -0.14044003 -0.07928363 -0.033609767 -0.0033322817
000100 71 e4 06 bc c4 7f 0c 3d aa 22 38 3d 94 33 0a 3a
       -0.008233176 0.034301534 0.044954933 0.0005271968
000110 58 55 6c 3d b3 0e de bc 78 bb 50 bc dc 1b 1e 00
       0.057698578 -0.027106619 -0.0127400085 2.765059e-39
000120 5a db e8 3d 38 89 95 00 63 f1 8f 01 ca 44 00 b4
       0.11369963 1.3732714e-38 5.2876277e-38 -1.1945954e-07
000130 0e 2b 29 b5 4c af 16 a4 62 da cc 87 94 30 f4 22
       -6.302006e-07 -3.2674547e-17 -3.0822862e-34 6.6187767e-18
000140 c8 54 5c 81 cd ea 89 b8 64 43 4b 00 d4 7f ad 81
       -4.0468446e-38 -6.576404e-05 6.911837e-39 -6.373359e-38
000150 b8 61 16 96 b4 6a 51 80 b5 21 86 81 6a 07 a9 b5
       -1.2147738e-25 -7.476953e-39 -4.9272193e-38 -1.2593639e-06
000160 6d e7 74 01 14 db 20 01 62 68 21 b0 f8 c4 31 b0
       4.4981762e-38 2.954454e-38 -5.8719796e-10 -6.4672134e-10
000170 d3 15 b0 af a7 14 00 1f 34 07 01 af 9d 61 80 81
       -3.202972e-10 2.7122138e-20 -1.1735041e-10 -4.715984e-38
000180 68 36 39 b0 75 7f a8 81 f5 ee 41 20 2a 2c 95 1b
       -6.7379924e-10 -6.1896345e-38 1.64268e-19 2.4678523e-22
000190 1d 59 34 01 2e b6 64 81 d6 18 32 b0 7c 76 15 81
       3.3124714e-38 -4.2007694e-38 -6.4791317e-10 -2.7451986e-38
0001a0 ae 8b 28 80 98 fc 59 be 73 92 00 be 14 22 28 3e
       -3.723527e-39 -0.21287763 -0.12555866 0.1641925
0001b0 66 ff e0 3c 7c 56 8b 3d 2f 92 a6 3d 47 0a 7b 3d
       0.027465533 0.06803605 0.08133351 0.061289098
0001c0 b0 ff ad bb 21 eb 88 bd 61 ef 1e 3e 64 57 80 bd
       -0.0053100213 -0.06685472 0.15521003 -0.062666684
0001d0 27 37 fc 00 ff 34 2f be fc 87 82 80 3a 3f 6f 00
       2.316233e-38 -0.1711006 -1.1987397e-38 1.0216421e-38
0001e0 96 e2 23 81 b6 55 21 80 b9 14 ab 81 1a 99 f3 80
       -3.010094e-38 -3.061319e-39 -6.2845215e-38 -2.2370948e-38
0001f0 03 05 77 80 38 a4 06 00 62 72 11 81 1c 8c 73 81
       -1.0930222e-38 6.09924e-40 -2.671436e-38 -4.4732575e-38
000200 9e 0e 5a 80 f5 bc 3c 81 3e cf a4 80 2a 20 55 80
       -8.270438e-39 -3.4665717e-38 -1.5135366e-38 -7.817555e-39
000210 fa 01 44 80 24 c3 1e 01 0b bc 2f 00 b2 82 53 bd
       -6.245523e-39 2.9160023e-38 4.383725e-39 -0.051638313
000220 5e 9c ad 3d 60 af 0d bd a7 e3 bd 3c 07 52 3b 3e
       0.0847709 -0.03459108 0.023179842 0.1829301
000230 e6 1c e7 3d 83 e9 4b 3e b1 11 c1 bc 76 67 16 3e
       0.11284809 0.19913296 -0.023568006 0.14687905
000240 f3 ac df 3d 00 35 b2 3c 34 6c be 81 55 91 87 3e
       0.10921659 0.021753788 -6.995024e-38 0.26478067
000250 30 7e 77 00 ab 60 49 81 36 0d 02 aa 26 32 df ad
       1.0973692e-38 -3.6987225e-38 -1.1550903e-13 -2.5374435e-11
000260 04 f6 34 21 a0 09 11 81 7d 55 94 21 68 ff 58 80
       6.131197e-19 -2.66392e-38 1.0051499e-18 -8.173146e-39
000270 4c 13 23 b5 6e 58 2b 00 16 a9 c0 1a 39 0f 94 9b
       -6.075031e-07 3.980649e-39 7.968251e-23 -2.4494384e-22
000280 2d 60 86 80 2a 1e a8 01 cd ad 33 af 90 95 33 01
       -1.2340458e-38 6.1756737e-38 -1.6341702e-10 3.2984413e-38
000290 bc 83 21 81 6d a8 29 bd a6 2a db bc a4 7f 10 bc
       -2.9665545e-38 -0.04142039 -0.026753735 -0.008819494
0002a0 9f bb 0f 38 f0 ea 54 ba 1c 31 5f 3c d7 af f9 bd
       3.4268593e-05 -0.00081221666 0.013622548 -0.12191742
0002b0 09 95 93 39 bb 9c 82 bd 53 53 16 bb ad 51 d2 3a
       0.00028149065 -0.0637755 -0.0022937849 0.001604607
0002c0 8c 81 96 00 48 c0 cc bc 3a bd 3e 81 34 f4 77 01
       1.3821797e-38 -0.02499403 -3.5033252e-38 4.5541942e-38
0002d0 3f 54 13 3c a6 0c 0a 81 09 91 01 bb 10 bf 81 37
       0.008992254 -2.5355672e-38 -0.0019770286 1.5466969e-05
0002e0 8a 72 bd 3a 3a 11 2e 39 3e 74 d9 3c d3 be 97 81
       0.0014453691 0.0001660035 0.026544686 -5.574246e-38
0002f0 35 ab 2b 3c f4 d6 47 ba fd 32 19 39 f6 da 83 81
       0.010477831 -0.0007623278 0.00014610212 -4.8435994e-38
000300 cb ca 26 39 48 f5 3a 81 40 47 e7 80 c8 0d 99 96
       0.0001590654 -3.4338785e-38 -2.1239559e-38 -2.472718e-25
000310 23 9d ad 96 fe c0 ed 95 6c ae b1 06 5d 9c 9d 13
       -2.8048825e-25 -9.6028026e-26 6.683629e-35 3.9786558e-27
000320 c1 73 85 01 99 6c ff 96 df cb 93 81 f6 7c 51 8c
       4.902258e-38 -4.1266007e-25 -5.429181e-38 -1.6138378e-31
000330 18 1f 81 80 54 9e 16 01 db 73 a7 01 43 c8 b2 96
       -1.1857933e-38 2.7664244e-38 6.1512356e-38 -2.8883834e-25
000340 4d e4 0b 01 48 45 21 01 b5 26 0b be 5b 79 f8 bd
       2.5694066e-38 2.9620737e-38 -0.13588984 -0.12132522
000350 51 00 e8 ba 5f 78 2f 3b c0 94 3b bd e4 69 26 bd
       -0.001770029 0.0026774628 -0.045796156 -0.04062833
000360 1c cc d8 3d 62 2e 63 3a 51 14 81 3c 5a 66 45 3d
       0.10585806 0.00086662744 0.015756758 0.048193313
000370 b7 cd 66 b9 a1 b3 fd 80 c0 f4 07 3e a7 04 be 81
       -0.00022011144 -2.3298819e-38 0.13276958 -6.9801653e-38
000380 7a ee 0e 01
       2.625238e-38

encoder_yf.out.bias f4 [15]
000000 ba 1c c6 a2 ce a0 dc 3d 6e b3 91 3c dd 62 95 ba
       -5.3698423e-18 0.107728586 0.017785754 -0.0011397261
000010 95 b0 7f 3d fe 11 df ba 4b 47 5b b0 2e 1f 87 3e
       0.06242426 -0.0017018912 -7.977305e-10 0.26390976
000020 d2 02 0d 81 ce 7e 84 3e b6 a1 57 b9 60 29 ab 3d
       -2.5899633e-38 0.25877994 -0.0002056424 0.08357501
000030 28 27 c8 bd e8 0c 71 97 73 a1 66 3e
       -0.097730935 -7.788759e-25 0.22522525

encoder_yf.fc_mu.weight f4 [1, 15]
000000 2f a3 9f 02 49 ea 3c be 94 92 2f 3e 0a a3 74 ba
       2.3456613e-37 -0.18448748 0.17145759 -0.0009332156
000010 03 67 cf 3d 4a b8 9c 3b 2c 9a 49 2e 9f 01 44 3e
       0.1012707 0.004782711 4.583904e-11 0.19141243
000020 bc c9 2d 80 4f 29 8b 3e d3 26 cb 3a f5 84 9f bc
       -4.204966e-39 0.27179953 0.0015499241 -0.019472579
000030 a3 52 e4 38 50 3a 16 17 78 8a 8a bd
       0.000108872795 4.8541215e-25 -0.06764692

encoder_yf.fc_log_var.weight f4 [1, 15]
000000 b2 b1 b4 81 a5 36 09 be a4 c7 25 3e 18 77 8a b5
       -6.637654e-38 -0.13399751 0.16189438 -1.0316462e-06
000010 1f 68 39 bd b7 8b 2b 37 4f 33 30 ad 41 60 c2 bc
       -0.045265313 1.0224924e-05 -1.00158345e-11 -0.023727538
000020 96 84 07 01 65 3f 92 3e 7f bb ca 38 75 dc 0b bc
       2.489071e-38 0.2856399 9.6670345e-05 -0.008536448
000030 4f 3b 63 b4 76 a3 a0 16 90 73 f5 3d
       -2.1162599e-07 2.5952552e-25 0.119849324
