DR_Info_CFR/IHDP/Models/adversarial_vae.pth (torch, 25195 bytes, 32 tensors)

encoder_shared.shared1.weight f4 [15, 25]
000000 31 e1 8d 3b 73 b0 3c 3c dd 75 bc 3c 69 07 a2 bb
       0.0043298234 0.011516678 0.02300542 -0.004944731
000010 d8 72 42 bc f7 fe 16 bc ec 62 ec 3b 5e 57 72 39
       -0.011868201 -0.009216062 0.007213941 0.00023111465
000020 d6 b7 62 3b db 74 cf ba c2 be 0d 3b 81 39 f2 3a
       0.0034594438 -0.0015827672 0.0021628593 0.0018480272
000030 aa 46 dd ba 8c 28 9e bd 2a 5f 3c b5 11 e2 6d bc
       -0.0016882021 -0.077225775 -7.017394e-07 -0.01451923
000040 c5 e3 d5 bb ac cc 80 bb 80 4a 79 38 d1 9c 1b b1
       -0.0065273964 -0.003930649 5.943561e-05 -2.2644608e-09
000050 d4 ce 4d 38 a2 b0 01 b3 13 63 47 38 22 e3 37 39
       4.9068432e-05 -3.01958e-08 4.7537567e-05 0.00017536854
000060 a7 03 24 39 8f 30 e4 bc 5c 7c cb 3c 01 12 54 3d
       0.0001564162 -0.027855186 0.024839573 0.051774982
000070 96 32 8d 3c 49 32 a0 bd d2 d3 88 bd 08 96 c3 3d
       0.017236035 -0.07822091 -0.066810265 0.095501006
000080 21 e9 98 bb f1 48 0a be 73 7b 3e bd 1e 58 90 3d
       -0.004666463 -0.13504387 -0.04650445 0.07048057
000090 14 dc 94 3c f6 0e cd bd 06 41 b3 3c a1 96 0e 3c
       0.018171348 -0.10012619 0.021881592 0.008702905
0000a0 42 ce 7c bd 8b c6 84 3d bd 81 ca bc 2f 54 0f bb
       -0.06172014 0.064831816 -0.024720067 -0.0021870246
0000b0 52 07 29 bc cd a7 7e 3d ce f8 24 bc 4a b8 fd bb
       -0.010316687 0.062171746 -0.010069085 -0.0077429162
0000c0 2e 04 28 bb 89 29 22 3d b6 00 db 3b fb 25 db 3d
       -0.0025637257 0.039590392 0.0066834344 0.107006036
0000d0 af 2b 8b bd c9 ec 8f bc 96 9f 8d bd 91 ff b9 bd
       -0.06795441 -0.017568963 -0.06915204 -0.090819485
0000e0 e7 38 8c 3c 8c 24 92 bb 7f ed 04 3e 43 64 41 bc
       0.017116977 -0.004459923 0.12981223 -0.011803689
0000f0 85 ed 15 bd 95 32 0f 3c a4 d5 10 3d dd 16 22 3e
       -0.03660347 0.008740087 0.035359994 0.15829034
000100 fe d6 71 3c 46 4d 1f 3b f2 92 97 bb ff 2d ac bd
       0.014760731 0.0024307533 -0.0046256715 -0.084072106
000110 fe 22 73 3c f0 ec 85 3d 7f 92 ac 3c fd f4 08 3d
       0.014839886 0.06539333 0.021065949 0.033436764
000120 19 14 2f bb f1 fe 22 3d 9e c2 a1 3c d1 92 85 3c
       -0.002671486 0.039793912 0.019746121 0.01630536
000130 ca 15 bd bc 9a 27 06 3c 02 12 f3 bc 9b 1e db bc
       -0.023081679 0.008188153 -0.029671673 -0.026747992
000140 60 e5 07 3d 8b 35 28 bc 82 14 97 b7 5e 56 98 bd
       0.033177733 -0.010266672 -1.8010152e-05 -0.07438348
000150 09 27 a5 bc 4e 90 52 bc 5c f0 42 bc 1a 62 97 bc
       -0.020160215 -0.012851788 -0.011898126 -0.018479396
000160 bd c5 ff 3b b6 2c 1b 3a 0b 5d 2a bd 3b ab 83 bd
       0.0078055547 0.0005919443 -0.04159264 -0.06429144
000170 a5 75 71 3c 1f 6d 50 3b e4 dd d7 bb 58 53 23 bc
       0.014737521 0.0031803322 -0.0065877307 -0.009968601
000180 fc 7c 1c 3a fb 74 df ba 1c cc ab ba 91 96 ad 3c
       0.0005969552 -0.0017048413 -0.0013107094 0.02118996
000190 9c 86 18 bd f9 ea a9 bd 95 bd 80 3d 8c 9b 01 3e
       -0.03723775 -0.082967706 0.0628616 0.12656993
0001a0 c0 96 d4 3c 34 97 9d 3d ab 33 6d 3d 0c 2d 7c 3c
       0.02595079 0.07694855 0.057910603 0.015391599
0001b0 39 98 4d 3d b0 c0 59 3d 14 00 19 3d ce cf 66 bc
       0.050194 0.053162277 0.03735359 -0.01408763
0001c0 6e 73 14 3d b8 28 05 bd 57 85 6f 3d 58 74 4b 3d
       0.036242895 -0.032509536 0.058476772 0.0496715
0001d0 f1 db 12 bc b2 b3 75 bc 22 a5 b0 3a ab 37 0d 3d
       -0.008963571 -0.014996456 0.0013476948 0.034476917
0001e0 f5 31 a6 bb 1d fa bb bb e1 e0 28 3c 10 0a 21 bc
       -0.0050718733 -0.005736603 0.010307522 -0.009829059
0001f0 3e 4a d0 3b 5b 4e 34 3d 6e 4d ef bc c5 bc 48 3c
       0.0063565066 0.044020038 -0.029211726 0.012252037
000200 ff 36 cd ba 2b 82 28 3d d1 8c 1a 3c cf c0 3e bd
       -0.0015656649 0.041139763 0.009432987 -0.046570595
000210 ec cb 00 ba c9 33 da bc b0 19 12 bd 8e 4c be bc
       -0.0004913199 -0.026636021 -0.03566903 -0.023229863
000220 18 e7 51 bc 16 7a ee 3a 31 dd ae 3d 1a 62 3f bc
       -0.012811445 0.0018194343 0.08538283 -0.011681104
000230 f7 a4 e9 bd b8 ac 6a bd ce ab 1d 3d df 06 26 ba
       -0.11408418 -0.057293624 0.038493924 -0.00063334213
000240 af bf a5 bb e2 48 c0 3c 76 e4 82 37 a4 80 b9 3a
       -0.005058251 0.023472253 1.5603593e-05 0.0014152718
000250 28 b1 34 bb 0d 3c c1 3b 9c 4f d3 3c c0 f7 70 3b
       -0.0027571414 0.005897051 0.025794797 0.0036768764
000260 51 65 03 3d f8 77 03 bc ba 6b 37 3d 7d 66 4e 3c
       0.032079045 -0.008024208 0.04478047 0.012597677
000270 b0 13 39 3c 65 9a 3b b9 e9 a5 b5 bc 29 d8 84 3c
       0.011296198 -0.00017891226 -0.022173839 0.016216354
000280 22 41 18 39 59 4b db 3c 45 f6 48 bb 1d 6f 94 bd
       0.00014520113 0.026769327 -0.0030664366 -0.07247756
000290 b9 1e 9d b9 61 ea 00 3d b4 65 25 3d 07 f4 a1 bd
       -0.00029968264 0.03147352 0.040380195 -0.07907873
0002a0 0c 48 37 39 ca 14 89 ba 16 22 97 ba a1 7a f0 39
       0.0001747908 -0.0010458466 -0.0011530544 0.00045867733
0002b0 2b 10 b4 35 7f e2 1e 3c 39 a9 54 b9 80 18 d7 bc
       1.3415751e-06 0.009697556 -0.00020280936 -0.0262568
0002c0 79 ac a2 bc b1 eb 1a 3d 2b c6 8d 3a be 0e a8 3b
       -0.019857632 0.03782243 0.0010816505 0.0051287105
0002d0 f0 c2 04 3d c6 ac 93 3b 57 e7 0c ba 60 bc 03 bd
       0.03241247 0.00450668 -0.00053750485 -0.03216207
0002e0 dc c0 08 bd 5c 92 20 bc 1a 32 29 bc a4 e5 b9 bc
       -0.03338705 -0.00980052 -0.010326887 -0.022692509
0002f0 2f 7b ca bd ed ff d1 3b 64 cf 51 bd 7a aa 1c bd
       -0.09886777 0.0064086826 -0.051223174 -0.038248517
000300 e7 8b a3 3c 08 68 de b9 c9 a9 b9 3b 4a 78 fd ba
       0.019964172 -0.0004242065 0.005665992 -0.0019338217
000310 30 25 99 39 df e3 2c ba 3c 71 b1 ba 8f b9 2f ba
       0.0002921014 -0.0006595235 -0.0013537775 -0.00067033706
000320 e5 34 b7 bd bc 3f 16 3a fc 87 5e 3d 18 ab 93 bd
       -0.08945636 0.0005731543 0.054328904 -0.07210368
000330 f4 70 b5 bd e7 de db bd 9c d4 0c 3d f5 b9 8a 3b
       -0.08859435 -0.107358746 0.034382448 0.0042335936
000340 b0 88 3d 3d 64 82 08 3e 5a a2 19 3d b0 7f 33 3d
       0.046272933 0.1333099 0.037508346 0.043822944
000350 f5 a8 24 bd 52 83 e6 bd c9 ee 35 bb f8 75 4b 3e
       -0.040200192 -0.11255516 -0.0027760735 0.1986922
000360 2e 9b 56 3c 4e 9e 4b bb b0 5f dc 3c 44 0e 0f bb
       0.013098521 -0.0031069699 0.026901096 -0.0021828571
000370 84 0f 88 3c 01 a9 73 bb 19 43 4f 3b df 73 4f 3d
       0.01660896 -0.0037179592 0.0031625687 0.050647613
000380 85 93 68 bb 63 1a 88 3d a5 08 2b bd 77 64 0b 3d
       -0.003548832 0.06645658 -0.04175629 0.034031358
000390 45 2b bf bc 0c bb 82 3c 74 d2 a2 3b f9 8e 5b 3d
       -0.023336062 0.015958332 0.0049689356 0.053603146
0003a0 5f cf 8b b3 f8 e1 9e 3c 07 66 2a 3d 30 52 68 bc
       -6.5104125e-08 0.01939486 0.041601207 -0.014179751
0003b0 6d 8a b3 bc 9b 7d 32 bd 33 5e 9a bd ed 87 41 3b
       -0.021916592 -0.043576818 -0.07537498 0.002953048
0003c0 e9 a5 80 3d 7f e5 4e bd 2b fe cb 3b 52 5a b9 bb
       0.06281645 -0.050511833 0.0062253675 -0.005656519
0003d0 88 3a 71 3a a8 cc 1e bc 58 b5 62 bb b6 3e a0 ba
       0.0009202142 -0.009692349 -0.0034592953 -0.001222572
0003e0 76 32 12 bc 10 77 10 bc ae da e5 3c a9 09 65 bb
       -0.008923164 -0.008817449 0.028058376 -0.0034948385
0003f0 5d 40 9e 3b 9f 2e 1e 3d 6a 4d de 3c 5d b9 25 3d
       0.00482945 0.03861868 0.027136523 0.04045998

encoder_shared.shared1.bias f4 [15]
000000 1b 5d 4b bd 4c d9 6b 3d 2f 93 21 3e d9 10 49 bd
       -0.04964934 0.057580277 0.15778802 -0.049088333
000010 2d f1 6d bc 98 4d dd bd bd f0 8d 3b ff 53 c6 3c
       -0.014522833 -0.108058155 0.0043316768 0.024209974
000020 9c 0a d0 3b f9 8d 25 be 63 98 4c 3d fd 78 77 3c
       0.006348921 -0.1616744 0.049950015 0.015104529
000030 71 f2 10 3e d7 0e 74 3e 36 26 4b bd
       0.14154984 0.23833786 -0.049596988

encoder_shared.shared2.weight f4 [15, 15]
000000 63 e3 25 39 d7 e2 ac 3c 30 0f 8c 3b f8 c3 fd 3b
       0.00015820334 0.02110426 0.0042742714 0.0077443086
000010 0d e1 a4 39 e0 d5 8d b7 46 55 09 2a dc 35 33 3c
       0.00031448193 -1.6908103e-05 1.219763e-13 0.010938134
000020 98 46 96 af 29 26 39 3a d2 ac 86 01 3e da 5a b5
       -2.7335e-10 0.0007062876 4.947181e-38 -8.152891e-07
000030 5a f4 1d 81 48 6f aa b6 f3 03 8f b2 f3 50 83 bd
       -2.901166e-38 -5.0793496e-06 -1.6649187e-08 -0.06411924
000040 2b 4c 25 3c 1c aa b8 3d 34 e7 02 3e d8 66 0a 3e
       0.010088961 0.09016821 0.1278351 0.13515794
000050 0e a6 88 bd b1 c7 5e 3c da 62 80 bd 6d c5 40 3e
       -0.066722974 0.013597415 -0.062688544 0.18825312
000060 f4 b1 09 bd 90 38 75 3d 48 9a 59 3e 18 bd be 3d
       -0.033616975 0.059868395 0.2125026 0.093134105
000070 b1 d2 92 3e 9f df 44 3d c7 f6 d9 3c 1d df 5d 3d
       0.2867637 0.048064824 0.02660693 0.054167856
000080 f1 3e 54 bd 10 7e 42 3d e6 b2 f5 3c fe c9 d7 3c
       -0.051817838 0.047483504 0.029992532 0.026341435
000090 77 be c7 bb 33 de 78 bd 01 ef a5 ba 5d 01 e4 bb
       -0.006095703 -0.06075878 -0.001265973 -0.0069581703
0000a0 af cc 79 38 c1 c8 b6 bc f1 d3 a6 3a 99 d1 68 bd
       5.9556853e-05 -0.022312524 0.0012727958 -0.056840513
0000b0 73 36 61 bd de c4 6a 3c 43 9e d4 bb 79 46 21 3e
       -0.054983567 0.014329163 -0.006488593 0.1574954
0000c0 70 b1 e2 bc 93 de dc 3d 70 45 1c 3d 94 d5 4a 3c
       -0.0276725 0.1078464 0.03815216 0.012380023
0000d0 b5 a3 49 3b 63 18 e4 3d d8 93 ce bb ce bc d9 3d
       0.0030767743 0.11137464 -0.0063042454 0.10631715
0000e0 f9 cd 70 3e 39 20 a3 3d 04 52 5b 3d a6 f3 be 3d
       0.23516072 0.0796513 0.053545013 0.09323816
0000f0 05 cd ea bd c2 ce 1d 3e 19 b5 35 3e 5a 39 e5 bd
       -0.114648856 0.15410903 0.17744865 -0.111925796
000100 f3 99 48 bb 54 1a 5b bd 72 b1 24 3d d9 0a b0 bd
       -0.003060934 -0.053491905 0.040208288 -0.08595819
000110 de 68 0e bd 7a a4 3c 3d a8 70 10 3e f2 e5 32 3e
       -0.034767978 0.046055295 0.14105475 0.1747053
000120 6c 0a 5e be 74 6a 92 bc e5 2a f8 3d 3e 2f 4c 01
       -0.21683663 -0.017873026 0.121175565 3.7502777e-38
000130 6c 2f 84 00 92 ae ce 80 20 f3 c6 80 58 3a 59 81
       1.2139297e-38 -1.8980736e-38 -1.8270645e-38 -3.9898465e-38
000140 48 21 67 00 50 3d 8b 81 e8 2d 28 81 0f 96 59 01
       9.470995e-39 -5.1148515e-38 -3.0889663e-38 3.9964267e-38
000150 58 a9 28 00 18 c8 0c 81 d6 de 76 80 ac cf 5c 80
       3.734169e-39 -2.58575e-38 -1.0916527e-38 -8.523364e-39
000160 53 d5 21 81 57 90 0d 00 43 42 8b b2 1a 08 79 3d
       -2.9724082e-38 1.245641e-39 -1.6211862e-08 0.060798742
000170 1f 49 65 3e 44 ec 5a bc 15 19 09 bc fe 19 0e 3c
       0.22391175 -0.013361994 -0.008367796 0.008673189
000180 a9 9e 3f 3c 2e 46 96 bb 98 53 0f 3e 22 27 dc b0
       0.011695542 -0.004586003 0.13996732 -1.6018229e-09
000190 07 6f 30 3e 09 44 1d 3e a1 3e 5b be f9 c8 aa 3d
       0.17229854 0.15357985 -0.2141061 0.08339114
0001a0 9f 17 1b 3d 70 02 08 b8 60 41 7a 3d e8 4b 03 bd
       0.037864324 -3.2427197e-05 0.061097503 -0.03205481
0001b0 29 12 6b 3b d2 a0 95 bb 09 ec 3e b3 4c 7b 1c 33
       0.0035868979 -0.0045662904 -4.4452495e-08 3.643372e-08
0001c0 7f f3 73 ba 80 b2 ac bc ba 8b 7c 3a aa 59 40 b9
       -0.0009305998 -0.02108121 0.0009633858 -0.0001834395
0001d0 52 46 5e bb 61 de a7 b9 62 08 30 bd 20 46 59 3d
       -0.0033916426 -0.00032018407 -0.042976744 0.053045392
0001e0 d4 8f 58 bb c3 a3 f1 3c f4 2c c6 bc bf f1 2f bd
       -0.0033044713 0.029497033 -0.024191357 -0.042955156
0001f0 e1 95 c6 3d 73 20 16 3d db ae 85 b9 f9 da 0f 3e
       0.09696556 0.03665204 -0.00025498014 0.14048375
000200 24 24 ce 3d c4 3f ad 3c 16 c0 1d 3d ad 8a 86 bc
       0.10065487 0.02114857 0.038513266 -0.016423548
000210 63 8c 0e be c3 80 83 3e 8c c0 1f 3e 2c f9 ad 39
       -0.13920741 0.25684175 0.15600795 0.0003318278
000220 44 f6 00 bc 57 88 c5 bd e8 41 98 3d fa f6 86 bc
       -0.007871214 -0.096451454 0.074344456 -0.01647519
000230 ea 89 80 ba 3a 57 eb ba 62 77 d9 3c bb 7d cc 3a
       -0.0009806727 -0.0017955073 0.026546184 0.0015601435
000240 93 48 dd bb 4e bd 0a bb f8 63 ce bb 6a fe 5b 3d
       -0.0067530363 -0.0021169963 -0.0062985383 0.053709425
000250 19 63 a7 3d 33 ef ac bd fe 0a 88 bb 51 e2 b4 bb
       0.08173198 -0.08444061 -0.004151701 -0.005520143
000260 8d a0 99 bd 88 4d 02 3d f3 36 4c 3e 35 1a 60 bc
       -0.07501326 0.03181222 0.19942836 -0.013678123
000270 f1 c5 91 bb d2 82 1b 3d d5 b9 b4 3c 7c 90 78 bb
       -0.0044486453 0.037966557 0.022061268 -0.0037927916
000280 7e 94 2a bd ab 7f 01 3e 72 95 5e 3e 0f 43 34 3e
       -0.04164552 0.12646358 0.21736696 0.17603706
000290 05 9c 33 3e 74 86 7d 28 b5 48 d1 b9 7e f9 0d 0c
       0.17539985 1.4073476e-14 -0.00039917757 1.0937324e-31
0002a0 20 d6 a3 b8 86 44 43 3b 4d b2 11 36 99 51 0f b1
       -7.8123296e-05 0.0029795482 2.1710468e-06 -2.0855622e-09
0002b0 ba 98 9d 3b d5 c9 a4 b8 28 17 81 37 35 78 84 aa
       0.004809466 -7.8577235e-05 1.5388781e-05 -2.353132e-13
0002c0 a4 3f 5c b8 49 cd 52 8f 2d 2b 9b b5 3a 33 e7 b5
       -5.2511357e-05 -1.0393336e-29 -1.1560966e-06 -1.722575e-06
0002d0 45 40 59 3d 7c be 8c 3d f9 a5 7a 3e 8f f8 f7 bd
       0.053039808 0.068722695 0.24477376 -0.12107956
0002e0 5a 0e 87 3d 76 a7 b6 3c db f1 26 3d 8e f8 72 bd
       0.06594534 0.022296648 0.040757995 -0.05931907
0002f0 74 c2 87 3d 6d 1a 81 bc 71 c7 2b 3e a7 86 97 3e
       0.06628886 -0.015759671 0.167753 0.2959492
000300 d3 84 04 bd c1 87 a8 bc 4e 6d e3 3d e6 1c 6b 3c
       -0.032353234 -0.020572545 0.111048326 0.014350152
000310 93 fe d6 3d d5 0e 06 3d 27 d7 71 3d 11 40 bb bb
       0.10497775 0.03272899 0.059043076 -0.0057144244
000320 62 a0 c2 3b 55 d0 5c 3a c0 42 46 bb 4a 6e 85 bb
       0.0059395293 0.0008423378 -0.0030252188 -0.0040719854
000330 45 44 40 3c ed 41 ac b7 fa 86 02 3c 42 5a 02 3c
       0.011735027 -2.0534697e-05 0.007966751 0.007956089
000340 8c d7 1d be 28 dc 5e bd e5 84 b0 9e 8f 53 1f bd
       -0.15414256 -0.054409176 -1.8689689e-20 -0.038898047
000350 91 bf f3 3c 02 a1 0d b9 44 4c 94 3c 12 58 a6 39
       0.029754432 -0.00013506788 0.018102773 0.00031727605
000360 12 11 08 3b fe ae 0a 3c 24 8d 28 3d 1b 88 e5 b5
       0.0020762128 0.008464573 0.041150227 -1.7101441e-06
000370 a4 0e 70 3b 95 fe b0 3a 78 13 8d 3c 15 63 29 bd
       0.003662982 0.0013503606 0.017221197 -0.041354258
000380 a3 ef cb 3c
       0.024894541

encoder_shared.shared2.bias f4 [15]
000000 c0 ce 32 bd 03 4b 82 3e 58 25 25 3c b2 0e 68 be
       -0.043654203 0.25447854 0.010079704 -0.22661856
000010 56 3d a5 3a 0c 8e aa 80 a1 00 df bd 2a fd 26 bc
       0.001260678 -1.5662991e-38 -0.10888792 -0.010192195
000020 11 28 00 3e ac fe 4d bd ad ed a9 3d f6 e3 8e bb
       0.12515284 -0.050291702 0.08297286 -0.004360671
000030 41 3e 70 3e cd 65 59 3d aa 53 ca 3c
       0.23461248 0.0530756 0.024698097

encoder_shared.shared3.weight f4 [15, 15]
000000 8a e0 19 00 15 26 95 3d 7e 18 0d 81 d4 2c fe 37
       2.376437e-39 0.07282654 -2.5915182e-38 3.0300034e-05
000010 29 6e 29 bb 44 02 0c 81 1b 5d cb 39 5a 0b f8 a4
       -0.0025853014 -2.5715564e-38 0.00038788546 -1.07572086e-16
000020 99 d0 42 3c b1 6f 03 9e 0a 80 53 3b 64 77 7e 81
       0.011890554 -6.9581795e-21 0.0032272362 -4.673809e-38
000030 6f 72 d8 bc f6 10 0f 81 05 4f 81 00 52 7e 91 3c
       -0.026421754 -2.627712e-38 1.1875126e-38 0.01776043
000040 12 56 bd 3a 72 01 ba 3d e5 cb 6d 3d b8 eb 87 3d
       0.0014445207 0.09082307 0.058055777 0.06636757
000050 64 ad 66 81 8f f2 9b 3b 8f ec 5a 2d 4e cd 40 be
       -4.236873e-38 0.00475914 1.2444392e-11 -0.18828318
000060 f3 cc 84 bb e7 02 e4 3c 14 85 ea 2c ad 69 46 3d
       -0.004052752 0.027833415 6.6654546e-12 0.048440624
000070 3b b0 4a 3d b0 55 3a 00 65 bb d3 bc 6d 71 19 be
       0.049484473 5.357198e-39 -0.025846193 -0.14984675
000080 27 2b 55 3c a8 a9 de 3c 3b d3 41 3e 4f 91 29 80
       0.013010777 0.027180508 0.18928234 -3.817382e-39
000090 d5 44 bd bb a8 72 32 b7 e8 c2 30 3e 06 5d 3c ba
       -0.0057760277 -1.0636322e-05 0.17261851 -0.00071854924
0000a0 7b 71 c0 bd af ac 0b ba fc 1a 60 bc 83 4a c4 3c
       -0.09396645 -0.0005328161 -0.013678309 0.023961311
0000b0 d1 ad a8 00 55 c7 c1 3a f9 08 6a bc cb f0 40 3c
       1.5490717e-38 0.0014784137 -0.014284366 0.0117761595
0000c0 ec d7 cf 3c 4e 99 6e bd ba 8d 10 01 a3 19 38 3e
       0.025371514 -0.05825167 2.6550307e-38 0.1797853
0000d0 f0 20 dd b7 c1 75 7c 3e 83 96 8b 39 b6 6c 72 3e
       -2.636059e-05 0.24654295 0.00026624286 0.23674282
0000e0 fd 5a 37 b2 1b c5 12 3e 22 ff 18 3e 8c 93 57 bd
       -1.067269e-08 0.14333002 0.14941075 -0.052630946
0000f0 03 6f f1 bb fe 8e 4a be 7b 46 16 bd 53 35 27 be
       -0.00736797 -0.1978111 -0.03668831 -0.16328935
000100 5e e8 1d be 80 f5 0b 01 3e 10 49 3d 93 6f ed b9
       -0.15420672 2.5706406e-38 0.049087755 -0.00045287292
000110 17 7f 5c 3e 78 eb df 3b bd fb 33 be 1c f3 14 b5
       0.21532856 0.00683349 -0.175765 -5.5488067e-07
000120 aa b4 4f 3e a5 a0 4b bd 40 98 22 bd 78 64 cc 00
       0.20283762 -0.04971375 -0.03969598 1.8770483e-38
000130 0c db fd a6 28 59 39 81 a1 20 1d a5 2e c3 02 a6
       -1.7614774e-15 -3.40431e-38 -1.3628634e-16 -4.536733e-16
000140 5f 1f 39 01 ac 76 b9 a5 e2 3c d3 8b 8e b8 c8 a6
       3.400164e-38 -3.21728e-16 -8.136585e-32 -1.3927811e-15
000150 b8 4a 0d 21 83 8f bf a6 38 f5 a0 01 c0 3a dc a6
       4.787155e-19 -1.3292186e-15 5.912659e-38 -1.5281491e-15
000160 96 74 87 81 fd 45 fb 24 64 8e 66 39 99 78 16 3e
       -4.975846e-38 1.0897246e-16 0.00021987554 0.14694442
000170 52 c6 cc 3c c2 51 b7 3d 7d 79 47 bd 8c f3 a2 01
       0.02499691 0.08951141 -0.048699845 5.9858874e-38
000180 c4 ce 85 be 5f 08 ab 3a 35 04 d1 bd 44 05 a3 ba
       -0.26134312 0.001304876 -0.102058806 -0.0012437482
000190 8b ef fe bd 1a 03 64 b3 e7 2f d7 3d 36 ce 9b 3d
       -0.12448033 -5.3088208e-08 0.105071835 0.07607691
0001a0 75 6c 8a bd ef 3a e1 38 5b 4e 81 3e b9 af 3c bc
       -0.06758968 0.00010739813 0.25255093 -0.011516505
0001b0 8e d5 5b bd 14 5f 54 bb 26 3c 32 01 05 0e 35 3c
       -0.05367046 -0.0032405304 3.273659e-38 0.011050706
0001c0 90 7f 86 3b 78 3b 8c 3e de 44 1d bc 59 68 3b 3e
       0.004104562 0.2738912 -0.009598939 0.18301524
0001d0 51 fb 19 36 69 ed 97 3e e8 d1 e3 bc 2e f0 eb 3c
       2.2945062e-06 0.29673317 -0.027810052 0.02880105
0001e0 a0 e2 e7 3a 68 03 60 3e 66 25 ae 3d b3 05 0b be
       0.0017691441 0.218763 0.08503227 -0.13576393
0001f0 a0 26 df bd 75 03 92 81 7c 4f 21 3e c3 b6 24 3c
       -0.10896039 -5.363689e-38 0.15752977 0.010053339
000200 93 37 3d bd de cd 06 bd 92 6d 85 3e e2 3d e1 30
       -0.046195578 -0.032911174 0.26060158 1.6388493e-09
000210 e3 24 74 3e 7b 2e 17 3e 2e 46 d4 bc 52 4c 20 b4
       0.23842196 0.14763825 -0.02591237 -1.4928926e-07
000220 1c 10 2b be 57 30 20 b9 25 67 0f bd 90 99 5c 3d
       -0.16705364 -0.00015276797 -0.035010476 0.053857386
000230 60 57 2f 00 bc b1 69 bd 09 5b a7 39 99 b2 65 3e
       4.347613e-39 -0.057054266 0.0003192055 0.22431411
000240 3b 65 8c 3a 26 c0 61 3e 21 3f 4a 30 22 1d b1 3c
       0.0010711321 0.22045955 7.3576883e-10 0.021620337
000250 61 5f f5 3c c6 f2 ed 3c 69 40 21 b7 a7 c1 38 be
       0.029952707 0.029046427 -9.6113445e-06 -0.18042623
000260 9c 42 bd 3c 7c 71 85 be b0 7a 4e be bd 0e 63 01
       0.02310305 -0.26063144 -0.20163989 4.170389e-38
000270 73 37 2e 3e c9 81 c8 38 ed 20 1f bd 22 45 04 b9
       0.1701334 9.5609175e-05 -0.03884976 -0.00012614255
000280 a8 c2 86 3d 04 c4 56 b3 57 22 2c 3e a8 47 b2 bd
       0.065800965 -5.0004033e-08 0.16809975 -0.087050736
000290 b0 be 4e bd 8a cd a4 b2 f0 87 b9 b2 6d 8c 6b b4
       -0.050474823 -1.9185581e-08 -2.1598652e-08 -2.1937167e-07
0002a0 de 88 45 00 b4 b6 e9 af 28 7d 48 01 cc 0a d1 80
       6.385748e-39 -4.2512271e-10 3.6823994e-38 -1.9197492e-38
0002b0 82 51 13 01 9f 0a 60 b4 06 2d 7a 8e d2 34 93 00
       2.7058115e-38 -2.086549e-07 -3.0836557e-30 1.3518766e-38
0002c0 58 77 9b 01 c3 77 82 ac 5c a3 92 3c e8 de 4f 01
       5.710926e-38 -3.7081184e-12 0.017900161 3.8179823e-38
0002d0 90 d6 b7 00 15 ed 3f 9d 60 97 53 00 65 8d 9c 80
       1.6882866e-38 -2.5401208e-21 7.676649e-39 -1.437706e-38
0002e0 8f c4 90 80 27 25 8b 01 96 3b 03 81 d4 15 73 81
       -1.3294823e-38 5.1113847e-38 -2.410365e-38 -4.4647712e-38
0002f0 11 51 42 80 1b 89 0c 01 3f c0 1e 80 19 82 92 81
       -6.090224e-39 2.5812307e-38 -2.82403e-39 -5.381861e-38
000300 9b 97 f1 05 94 e3 5d 80 f2 4d 3d 80 a2 8d bf b9
       2.2719222e-35 -8.622341e-39 -5.629927e-39 -0.00036535884
000310 4e 94 51 3e ae 4b 66 bd 88 60 50 be 7e 76 60 3b
       0.2046673 -0.056224518 -0.20349324 0.0034250314
000320 0c e5 06 81 3c 5d f7 bd 25 e2 fb 3b 2a b8 5e 3a
       -2.4776246e-38 -0.1207833 0.0076868706 0.00084960705
000330 89 ed 13 bd 0f 80 6c bd 9c 15 6f b7 8d c9 4b 3e
       -0.036115203 -0.057739314 -1.4250541e-05 0.19901104
000340 e3 c1 fd bd 4b 67 bd 3d 82 8c 29 01 a6 71 dd 98
       -0.123904966 0.09248217 3.1141207e-38 -5.7241917e-24
000350 00 0f 52 00 0e 95 21 98 1a 05 86 98 d0 9e 5a 00
       7.535892e-39 -2.0884016e-24 -3.464334e-24 8.322166e-39
000360 ce 08 72 98 b8 a5 0d 01 0a 03 d0 98 80 2f 6f 81
       -3.1282212e-24 2.6016507e-38 -5.376981e-24 -4.3931447e-38
000370 64 55 c4 98 b4 a0 2b 81 b9 64 cd 98 68 22 2a 01
       -5.0751035e-24 -3.1523039e-38 -5.309296e-24 3.1248754e-38
000380 b5 32 a6 97
       -1.0740299e-24

encoder_shared.shared3.bias f4 [15]
000000 fc f2 db bd 74 14 9f bd aa 03 33 bd b0 e0 b8 bd
       -0.10739705 -0.07767573 -0.043704666 -0.09027231
000010 0a 67 87 3e 28 e4 0d a7 68 87 b2 3b d9 da 6b 3d
       0.264458 -1.9691365e-15 0.0054482706 0.057581756
000020 bb 2f 5b 3d 85 ed 8e 3d 99 09 e4 3d 22 5b 09 bc
       0.053512316 0.06978897 0.11134643 -0.008383544
000030 42 ff c2 9e a1 38 48 3e 4a 20 0c 99
       -2.0646121e-20 0.19552852 -7.244351e-24

encoder_x.out.weight f4 [15, 15]
000000 64 c2 2e 00 91 8c 92 81 b6 b0 4e 81 1b 0c a1 81
       4.294167e-39 -5.383363e-38 -3.7963008e-38 -5.915943e-38
000010 ac 10 d1 00 f7 d4 93 81 08 98 d1 00 f0 af 3b 00
       1.91996e-38 -5.430486e-38 1.9248157e-38 5.481409e-39
000020 83 a7 00 01 32 c3 c2 00 c0 75 35 81 35 f5 67 80
       2.363007e-38 1.7886109e-38 -3.332893e-38 -9.54702e-39
000030 d9 1b 3c 00 e8 e6 90 00 b4 d0 c8 00 21 bd de 00
       5.52012e-39 1.3307145e-38 1.8441968e-38 2.0455327e-38
000040 bb 7a 4f 81 c4 e5 64 81 f0 12 ea 00 24 c2 05 81
       -3.810795e-38 -4.2041835e-38 2.14963e-38 -2.456753e-38
000050 84 22 cd 80 b4 8c 09 01 58 2d a6 00 1f 49 ab 00
       -1.8838659e-38 2.5263875e-38 1.5260959e-38 1.5730101e-38
000060 eb 18 75 00 ec c2 19 80 9d 8d 28 01 13 5a ac 80
       1.0753692e-38 -2.365812e-39 3.095833e-38 -1.5828018e-38
000070 4c 4e 28 00 fa a4 7d 81 34 bc 0e 38 6a 24 6d bd
       3.701507e-39 -4.6587126e-38 3.4030716e-05 -0.057896055
000080 0c 84 2f be 04 da 77 3c 26 07 99 3d 13 bc fd a5
       -0.17140216 0.015127663 0.074720666 -4.4015948e-16
000090 d8 c4 88 39 5e e4 5d bd c0 42 0e 3d 7b 01 b4 3d
       0.000260866 -0.054172866 0.034731627 0.08789345
0000a0 6c 8e fb 3c 7e 2b 81 a9 f9 c7 84 00 28 0c 8a 3e
       0.03070756 -5.7362955e-14 1.2194022e-38 0.269624
0000b0 48 10 11 9b 82 06 ef 94 36 89 2d bb 3e 80 25 bc
       -1.199938e-22 -2.41354e-26 -0.002647949 -0.010101376
0000c0 46 39 59 3e 00 ec 95 bc b8 c5 97 a4 70 15 90 3b
       0.21213254 -0.01830101 -6.582076e-17 0.004397087
0000d0 98 eb 17 be 04 f9 73 bd 3d 73 0c bc 5b 63 8c bd
       -0.14835966 -0.05956365 -0.008572397 -0.06854888
0000e0 77 4b 96 81 3e f6 6b 01 2e 96 00 3e 14 ba 39 1a
       -5.5209584e-38 4.3339353e-38 0.12557289 3.8407416e-23
0000f0 0d c2 94 99 13 7a 7b 3c 48 52 f9 bc 5d 27 31 be
       -1.5381218e-23 0.015348929 -0.030434743 -0.17300172
000100 40 87 00 3e af 1e 11 a5 94 a4 24 be 02 0d 32 3d
       0.12551594 -1.2587141e-16 -0.16078407 0.043469436
000110 cb 5e 4f 3e 8c 79 0f 3e dc 37 4b 3e 76 02 9c 81
       0.20251004 0.1401121 0.19845527 -5.730888e-38
000120 97 2d 92 80 70 df fe bc 7f a0 ac 9a e1 eb e2 24
       -1.3424337e-38 -0.031112403 -7.139683e-23 9.841147e-17
000130 0f 88 41 3a 4d 23 b1 80 e2 a9 a1 bc d7 55 42 bd
       0.000738264 -1.6267546e-38 -0.019734327 -0.047445145
000140 b1 2e 0e 00 13 84 f8 37 28 53 dd 3d 19 5a f6 3c
       1.302447e-39 2.9625406e-05 0.108068764 0.030072259
000150 71 5d 4a bc 1d 8d f4 ad cf 0e 98 01 28 bf 17 00
       -0.01235138 -2.7802255e-11 5.585723e-38 2.18079e-39
000160 1b ce 14 3e c8 ee 2b 00 7e f6 1c 00 80 fc 46 01
       0.14531748 4.034585e-39 2.659819e-39 3.6548016e-38
000170 90 29 76 81 24 32 8f 01 05 ed 4a 00 e4 4c 97 01
       -4.5212884e-38 5.260185e-38 6.880853e-39 5.557897e-38
000180 15 71 86 81 be 9a 10 80 ee 19 29 81 50 f8 53 00
       -4.938609e-38 -1.524879e-39 -3.1059e-38 7.711424e-39
000190 88 df 63 00 67 94 5d 00 0d 10 2f 00 a5 05 d6 80
       9.171902e-39 8.593938e-39 4.322026e-39 -1.9654821e-38
0001a0 dc ce 10 80 38 4c e2 2a b0 b3 67 37 29 e2 24 01
       -1.543575e-39 4.0198552e-13 1.381051e-05 3.0284305e-38
0001b0 55 90 9a bc 07 c6 71 bd 65 b7 7c 01 bb 37 3b 3a
       -0.018867651 -0.059026744 4.641667e-38 0.00071417884
0001c0 4a 90 3c 3e 95 33 35 be 1b 22 c4 bb c1 7a 3b 00
       0.18414417 -0.17695458 -0.005985511 5.46233e-39
0001d0 74 db 21 80 be d3 b5 01 71 c0 ad 3d b6 1e 31 00
       -3.109296e-39 6.6792734e-38 0.08483971 4.510956e-39
0001e0 ad b7 29 a2 e8 a3 e6 3c 82 65 ca 3c f0 c8 b1 bc
       -2.3001008e-18 0.028154328 0.024706606 -0.02170226
0001f0 48 38 c5 bd 19 02 a5 94 d3 cb 7a 3d 4a 6d 1a 3d
       -0.096298754 -1.666157e-26 0.06122954 0.037701882
000200 2e aa 7b 3d 9e b1 f9 bb dc d4 1a be 53 75 ae 80
       0.061441593 -0.0076200506 -0.15120262 -1.6021464e-38
000210 13 85 8d 81 ff df 32 be 40 95 a3 86 50 b1 30 a9
       -5.198617e-38 -0.1746826 -6.153309e-35 -3.9233645e-14
000220 bf 86 80 bd f6 2b ed 3c fa 51 93 bd 82 cd c5 bd
       -0.06275701 0.028951626 -0.0719337 -0.09658338
000230 78 54 09 80 cb 4f 7f 3d 09 55 bd bd 0c 48 8b be
       -8.56821e-40 0.062331956 -0.09244735 -0.27203405
000240 68 65 6b bd 81 72 ec 3d 3d 4e 72 80 4c 6d 3a 80
       -0.057469755 0.115452774 -1.0497313e-38 -5.365667e-39
000250 73 52 df bb 45 0c 89 97 bd 64 58 37 60 99 b5 bd
       -0.0068152486 -8.856515e-25 1.2898058e-05 -0.088671446
000260 f4 fd 63 bd 16 2d 49 bd ea 5f 4b 3c 6f 78 95 a5
       -0.05566211 -0.049115263 0.012413004 -2.592899e-16
000270 f6 9f 94 bb bc 46 a5 bd 91 8c 2f 3e 9e 1a 1a bd
       -0.0045356704 -0.08070132 0.17143466 -0.03762304
000280 e9 ec 01 be 43 e7 ef 14 d4 09 0e 01 96 72 3f be
       -0.1268803 2.422405e-26 2.6088332e-38 -0.18696055
000290 9f 75 d5 9a ff 64 6a ad de a2 91 3d ca 78 c0 3c
       -8.828476e-23 -1.3323786e-11 0.071111426 0.023495097
0002a0 8e a0 12 3d b8 f7 86 bb 44 b2 b3 80 50 04 f3 3d
       0.035797648 -0.004118886 -1.6502503e-38 0.11866057
0002b0 92 c4 91 be 67 1c 7e 3d ea 33 87 3c a8 d6 40 3d
       -0.28470284 0.062038805 0.016504247 0.047079712
0002c0 62 93 b0 95 db 75 e2 00 44 d3 0b be 0e eb 66 81
       -7.131836e-26 2.0797101e-38 -0.1365481 -4.2412972e-38
0002d0 ac e1 89 80 2c 56 87 81 6a c0 4d 01 1e 68 0b 01
       -1.2662419e-38 -4.971482e-38 3.7790604e-38 2.5604968e-38
0002e0 3c 21 83 81 84 6c e9 80 8c 90 e0 00 3e 58 4b 81
       -4.816949e-38 -2.1436599e-38 2.0623005e-38 -3.7348522e-38
0002f0 5f 04 68 00 2e b5 1c 00 78 0b ae 00 ec b1 1b 81
       9.55246e-39 2.636389e-39 1.598349e-38 -2.8596656e-38
000300 4a ab 95 81 8c 99 5d 01 b7 08 ca 00 34 88 fc a3
       -5.4979743e-38 4.0701454e-38 1.8553897e-38 -2.7379579e-17
000310 e0 a1 03 3d 52 a3 55 bc fc 90 4d 3e 66 2b 36 3e
       0.032136798 -0.013039427 0.20074838 0.17789993
000320 bd d4 63 a4 a5 8c 2b 3e 45 e7 d2 3a 55 c2 2e be
       -4.9402975e-17 0.1675287 0.0016090652 -0.1706632
000330 63 e1 ba 3d 5a 28 82 3d 14 9d 6f 81 46 84 85 80
       0.0912502 0.06355353 -4.4010065e-38 -1.2261572e-38
000340 f8 20 68 3e 0d ed 62 19 cd d9 95 ab 79 11 17 bc
       0.22668827 1.1731798e-23 -1.0647539e-12 -0.009220474
000350 a2 3d 80 3a f7 2a 3c 3d 86 58 3a bc d1 b3 6c a5
       0.0009783993 0.045939412 -0.011373645 -2.0530661e-16
000360 3f d2 4a 3d 8b bc 9b bd 98 bb 0d 3e 00 cb bd bc
       0.049516913 -0.07604321 0.13841093 -0.023168087
000370 ea 1f 2b 3e ef f7 1f 81 72 fe 85 00 dc 04 8c 3d
       0.16711393 -2.9381571e-38 1.2305399e-38 0.06836864
000380 23 6e 65 9a
       -4.7445058e-23

encoder_x.out.bias f4 [15]
000000 39 4f 50 81 02 7c a8 9a 97 76 3c 3e 37 dc 1b 3e
       -3.8260406e-38 -6.968352e-23 0.18404613 0.15220724
000010 2b a9 a3 3d 1a fb 32 be 59 c3 3a 00 a9 d0 e6 bd
       0.079912506 -0.174786 5.396536e-39 -0.112702675
000020 52 c2 23 3d 71 3d 3a 3e 6b b3 90 3e 82 48 25 3e
       0.03998024 0.181875 0.28261885 0.16140941
000030 dd 61 f4 80 99 54 48 3e a2 87 63 3d
       -2.2442968e-38 0.19563521 0.05554927

encoder_x.fc_mu.weight f4 [5, 15]
000000 60 d9 ab 80 bc 59 ba 80 e8 ad 88 be 93 2c 64 3d
       -1.578185e-38 -1.7113593e-38 -0.2669518 0.05570657
000010 9a a5 e8 bd 2f 7a 95 3b eb 1b 08 80 e1 93 5c bd
       -0.11359711 0.0045616846 -7.44699e-40 -0.053851966
000020 43 94 0b 3d d8 7f c3 3c 02 15 d1 bc b7 b5 21 3d
       0.03407694 0.023864672 -0.025522713 0.039479937
000030 76 59 55 81 87 1f 93 3c 7d 72 47 be 14 52 70 81
       -3.9186106e-38 0.01795937 -0.19477268 -4.4139926e-38
000040 2a 03 96 81 f9 98 22 be be ff 74 3d 24 33 15 3e
       -5.510584e-38 -0.15878667 0.059814207 0.1457029
000050 2c 85 e8 b9 b3 02 99 01 c9 2d b9 ba f0 d2 f6 3d
       -0.0004434971 5.6207197e-38 -0.0014128025 0.12051952
000060 27 4e 2f be f5 d3 94 bd 1e ad 6b 3d 41 b3 90 81
       -0.17119657 -0.0726699 0.057538144 -5.315446e-38
000070 fb 14 1c be 84 0d bf bb 6c 7f ac 80 b6 ae 89 81
       -0.15242378 -0.0058304686 -1.5841416e-38 -5.057655e-38
000080 a0 f0 07 bc 9b df 56 bd 23 40 81 bd 58 6f 44 bb
       -0.008297116 -0.05245934 -0.06311061 -0.0029973593
000090 86 9e fa 00 c8 af 18 3c 91 a9 a6 bc 78 81 ce bd
       2.3015742e-38 0.009319253 -0.020344527 -0.10083288
0000a0 52 fc 3b bd 6d 70 90 3d 2f 75 11 81 7c 9e 08 3d
       -0.04589493 0.070526935 -2.671637e-38 0.033354267
0000b0 9e f1 98 bc 6d f1 43 01 cc 73 f2 00 c5 77 02 3e
       -0.0186699 3.5989058e-38 2.226573e-38 0.12741001
0000c0 fc 1f b4 3d 2d 0a 0b be 55 87 67 3a 26 1f 89 81
       0.08795163 -0.135781 0.0008832117 -5.037055e-38
0000d0 ce 4d 1b 39 4d a5 43 bb 33 54 4d 3c eb 07 cc 3c
       0.00014810936 -0.0029853166 0.012532282 0.02490612
0000e0 0a 68 0c bd f1 92 77 01 2c ca 2d 3e 79 db 0b 3e
       -0.034278907 4.547216e-38 0.16971654 0.13657941
0000f0 a8 7f 25 00 dc 89 a0 01 4d 23 78 be 0d 96 7e bd
       3.443708e-39 5.8972536e-38 -0.24232216 -0.06215482
000100 2e ff e8 bc 29 2b cf bd a9 5b 56 80 60 e1 78 3c
       -0.028441992 -0.10115654 -7.930734e-39 0.015190452
000110 61 3b dc 3d b6 9a 07 3e b3 e2 8d be 2e 02 d1 3d
       0.10753513 0.13242611 -0.2771202 0.10205494
000120 a2 26 ae 00 ba a5 4f bd cb b5 08 3d
       1.5993235e-38 -0.05069516 0.033376496

encoder_x.fc_mu.bias f4 [5]
000000 21 49 f1 3d 7e 3f 9d 3d 2c 8b b9 3c 72 cd c5 bd
       0.11781526 0.07678126 0.02264937 -0.09658326
000010 76 cd 22 3e
       0.1589869

encoder_x.fc_log_var.weight f4 [5, 15]
000000 c8 5c 7a 81 b2 5b 83 01 b8 aa 74 3d de 96 ae bd
       -4.5984315e-38 4.8253376e-38 0.059733123 -0.085248694
000010 ef 15 22 be 31 e4 8c bb ae 6c 79 81 ff aa b0 b9
       -0.1582868 -0.0042996635 -4.581205e-38 -0.00033696738
000020 29 eb 02 38 d3 d0 16 3d b5 bd 24 bd f0 6c 2a bd
       3.1213425e-05 0.036820244 -0.04021998 -0.041607797
000030 91 5d 82 80 a0 86 31 3e 7c 4f 81 3d 90 7e 56 81
       -1.197218e-38 0.17336512 0.063139886 -3.9396396e-38
000040 06 c2 15 80 47 f1 df bd c8 93 2d 3c 86 bd 3a be
       -1.998148e-39 -0.10934692 0.010594316 -0.1823636
000050 d5 6c a8 bc 51 b4 31 00 8b 28 ce bb 03 af 38 bd
       -0.020559708 4.564625e-39 -0.006291454 -0.04508878
000060 50 c6 c0 bd ab c9 67 be 89 b4 40 be 66 8b b2 81
       -0.09412825 -0.22635524 -0.18818869 -6.55869e-38
000070 e9 01 2d bc 11 d9 e3 bd 60 18 41 00 30 9f 20 01
       -0.010559537 -0.111253865 5.978051e-39 2.950157e-38
000080 da ec 11 3e 34 ba a8 bd de db 84 be cf d7 5a 3c
       0.14250508 -0.082386404 -0.25948995 0.013357117
000090 d4 a0 18 81 c3 66 93 3a b9 10 e3 3d 4e 2a 74 be
       -2.803338e-38 0.0011245835 0.11087174 -0.23844263
0000a0 01 b4 44 be 08 b0 a9 3c 13 d4 06 81 d0 f0 31 3e
       -0.19209291 0.020713821 -2.476407e-38 0.17377019
0000b0 f2 ac fa 3d a4 28 fc 80 31 ce f6 80 f8 94 83 3d
       0.12240018 -2.3157124e-38 -2.26655e-38 0.06424898
0000c0 84 29 ba 3d ba 29 0c be 60 9e 4d bd 52 5f 5a 01
       0.0908995 -0.13687792 -0.050199866 4.0108665e-38
0000d0 9e f8 19 3c d7 7a 14 3e de 52 ed 3d ff 19 00 be
       0.009397654 0.14499985 0.11588071 -0.12509917
0000e0 00 e9 f5 bc dc 9b 7e 80 d5 d3 5f 3e 5e c4 8e 3e
       -0.03001833 -1.1627184e-38 0.21858151 0.2788419
0000f0 84 f2 5c 80 84 a9 b5 81 74 47 35 be e5 e2 79 3d
       -8.535864e-39 -6.673214e-38 -0.17703038 0.0610074
000100 79 12 4a be 98 35 69 b8 e0 e9 90 00 1f 85 ce 35
       -0.1973361 -5.5601442e-05 1.330821e-38 1.5386939e-06
000110 f8 ac 3a bd 5e 6c d3 bd f1 8a 5e be ff 31 1e be
       -0.045575112 -0.10323404 -0.2173269 -0.1544876
000120 f0 a2 0f 01 af e1 8a 3d 89 5a 71 3a
       2.6381854e-38 0.06781327 0.0009206911

encoder_x.fc_log_var.bias f4 [5]
000000 0b 3a f1 bc dd b3 06 3e 7e 14 19 bc 00 6b 9b bd
       -0.029446622 0.1315455 -0.009343265 -0.07588768
000010 19 fb e1 3d
       0.11034221

encoder_t.out.weight f4 [15, 15]
000000 35 71 9a 81 f8 79 32 81 af 90 db 00 46 42 68 1d
       -5.673311e-38 -3.2780945e-38 2.0163876e-38 3.0739207e-21
000010 5a 6c 27 9d 46 a9 41 01 30 d2 0a 9a 67 3f 22 9c
       -2.2158282e-21 3.556995e-38 -2.870752e-23 -5.368325e-22
000020 56 f6 e9 9c b6 d0 37 9d 58 f2 42 9c d1 1c 80 01
       -1.5482323e-21 -2.432775e-21 -6.450244e-22 4.7061124e-38
000030 bc e3 6e 81 12 43 c7 1d 24 ea 44 01 03 fe 20 81
       -4.3877088e-38 5.274421e-21 3.6167502e-38 -2.9569603e-38
000040 86 cb 82 81 2e db 12 01 1f f8 b5 33 bd c9 57 34
       -4.80465e-38 2.6973219e-38 8.473602e-08 2.0096827e-07
000050 68 08 10 00 ff 26 ae b2 d6 14 cf b2 e7 85 60 b4
       1.472384e-39 -2.0274e-08 -2.4107447e-08 -2.0910339e-07
000060 6b 48 1a 34 1c 1b 26 31 32 10 5e 01 a9 26 43 81
       1.4368713e-07 2.417159e-09 4.078658e-38 -3.584358e-38
000070 84 81 6c b4 d8 44 b2 80 80 f5 c9 80 c6 15 8b 01
       -2.202633e-07 -1.6371415e-38 -1.8547004e-38 5.109178e-38
000080 29 d0 9e 01 36 7a ac 38 6c c2 99 38 f0 83 9d 01
       5.833873e-38 8.224363e-05 7.3318224e-05 5.786201e-38
000090 cb ca b8 b7 9a b9 0f b7 51 b5 a2 38 80 5e 21 38
       -2.2028942e-05 -8.566678e-06 7.758535e-05 3.84734e-05
0000a0 01 ef d6 b7 ca 22 b1 01 fd d0 d6 80 2f 27 e2 38
       -2.5622083e-05 6.506945e-38 -1.9727767e-38 0.00010783818
0000b0 e8 f8 2e 00 3f d0 f8 00 d0 86 90 35 33 57 3f 36
       4.313724e-39 2.2849908e-38 1.0768072e-06 2.8511975e-06
0000c0 38 ca aa 39 98 a0 0a 3d 7a 16 a9 08 a6 9a ee bb
       0.00032575591 0.03384456 1.0176602e-33 -0.007281619
0000d0 00 05 32 3d 9b 08 9e bc e4 9e 67 38 1c 1e ec 3a
       0.0434618 -0.019291213 5.522267e-05 0.0018014344
0000e0 c4 32 f5 00 52 47 1c 01 d6 d6 7f bc 58 3f cd 00
       2.2517908e-38 2.8703845e-38 -0.015615186 1.8849e-38
0000f0 7b f8 8a 80 32 25 52 37 3d d7 9a b8 17 47 71 bd
       -1.2762436e-38 1.2525636e-05 -7.3833835e-05 -0.058905687
000100 70 37 b1 bc 48 01 4e 22 48 82 e9 bb 09 0f 2b 3e
       -0.02163288 2.7918884e-18 -0.0071261264 0.16704954
000110 f9 33 10 be 04 b8 08 3e ce e4 6e bc 6a d3 b4 00
       -0.14082326 0.13351446 -0.0145809185 1.660623e-38
000120 46 42 9d 81 04 67 0c 3e 1b 81 85 98 55 f1 43 81
       -5.776779e-38 0.13711172 -3.4510057e-24 -3.598899e-38
000130 39 e6 19 a4 4f e1 3a 9f 48 b8 9d 3d cd 0f df 3d
       -3.3371593e-17 -3.9573403e-20 0.077011645 0.10891686
000140 0e 6c 66 24 fe ea 18 3c 98 a5 60 3e 76 a9 63 3d
       4.9964826e-17 0.00933337 0.21938169 0.055581532
000150 37 fc bf b9 2b 45 ce 3b 63 b3 13 01 39 a6 74 00
       -0.00036618274 0.0062948666 2.712834e-38 1.0712547e-38
000160 7c 99 06 3e 02 11 c3 98 1a 50 62 01 41 d3 99 80
       0.13144487 -5.0423492e-24 4.1567114e-38 -1.4126615e-38
000170 b6 7f 1b 81 00 15 bd 3c 78 77 a3 3c a9 ce 44 a4
       -2.8560632e-38 0.023081303 0.019954428 -4.2675773e-17
000180 49 c9 8c 3c 36 ad 0c 3e 7e b6 19 3e e4 97 a8 bd
       0.017185824 0.1373795 0.15011021 -0.08232096
000190 ce f4 22 3c 2a bc a8 01 a3 4a 27 00 85 7f 59 3c
       0.009946061 6.1983456e-38 3.608359e-39 0.013275032
0001a0 51 c1 42 19 69 8e 19 9a 73 ac 47 bc 76 4a 1a 3d
       1.0068605e-23 -3.1754696e-23 -0.012187111 0.037668668
0001b0 92 70 e4 3b 7e 27 84 3e 7c 6b 0a a4 46 ce 95 3d
       0.0069714272 0.2581138 -3.0015023e-17 0.07314734
0001c0 ca 66 47 be c1 82 69 3e 84 69 75 bd 21 e7 9d bb
       -0.19472805 0.22803785 -0.05991508 -0.0048188125
0001d0 e3 de 67 00 e8 ee 09 81 4c 22 55 3c 83 32 08 9a
       9.539013e-39 -2.5334333e-38 0.013008665 -2.8164944e-23
0001e0 1b 9e bf 00 0b b4 a2 00 39 d6 ab 81 9e ec c7 02
       1.7597297e-38 1.4941938e-38 -6.3122874e-38 2.9376234e-37
0001f0 38 2f 24 03 c4 dd 4a 01 92 5e 39 82 d4 7b 94 83
       4.8249473e-37 3.726065e-38 -1.3618794e-37 -8.727088e-37
000200 5f 44 d8 82 4c 15 d7 02 30 2d 43 82 7e 11 86 81
       -3.177759e-37 3.1603634e-37 -1.4339306e-37 -4.9248926e-38
000210 f0 fc cc 00 f8 65 0a 82 d8 78 d4 80 06 a5 20 00
       1.8825178e-38 -1.0167902e-37 -1.9512476e-38 2.997935e-39
000220 6f ba b4 34 7c b6 87 00 ac 61 20 3e 55 d1 91 bd
       3.366326e-07 1.2463255e-38 0.15662259 -0.07120005
000230 84 0b 0e 23 60 ce 2c bd b2 81 b0 bd e2 32 83 3e
       7.700274e-18 -0.042189002 -0.086184874 0.25624758
000240 5b 1f 0b 3e d9 40 8e bc 07 f5 30 80 a2 f4 05 81
       0.1358618 -0.017364906 -4.496003e-39 -2.4603757e-38
000250 b5 44 22 3e 86 e0 95 99 7e 04 65 81 f9 7d 24 38
       0.15846522 -1.5496923e-23 -4.206388e-38 3.9217968e-05
000260 8e 6e 6c 38 19 9e cd bb 7f 85 1d bd 4b ed 8b a0
       5.6369747e-05 -0.00627495 -0.03845739 -2.3704543e-19
000270 b8 de 34 bc a3 d2 a2 bc 2f 68 73 bc 86 88 f1 bb
       -0.011039428 -0.01987583 -0.014856382 -0.007371011
000280 c1 bd d1 b7 99 2b 14 01 7e e0 34 01 04 70 e4 bc
       -2.5003103e-05 2.7214587e-38 3.3221844e-38 -0.027885444
000290 b2 16 e3 15 3c 99 14 00 c0 a9 22 bb b9 7e 8b bb
       9.1720377e-26 1.89168e-39 -0.0024820417 -0.00425705
0002a0 1f f1 aa bc 5d 5f 60 be 1f 0a 18 a2 62 4b 85 bd
       -0.020866929 -0.21911378 -2.06052e-18 -0.06508519
0002b0 a3 b1 e4 3c fe f4 2d be 68 0f a6 bc a1 b4 51 bd
       0.027916735 -0.16987988 -0.020271018 -0.05119765
0002c0 72 56 9d 01 40 b1 7a 81 22 bf df 3d 2a ad 7f 88
       5.7796735e-38 -4.604492e-38 0.109251276 -7.6939825e-34
0002d0 5c ac 7e 80 fb 1a 1b 01 e6 ea 1a 81 a0 fc 7b 36
       -1.1633103e-38 2.848836e-38 -2.8453864e-38 3.7548962e-06
0002e0 a7 23 3c b5 5e 32 8b 81 25 32 45 00 9c 31 82 b9
       -7.008734e-07 -5.113281e-38 6.354638e-39 -0.00024832494
0002f0 90 7e b2 3a 46 9b 0e 36 89 1c 40 00 ea cf 2e 01
       0.0013618041 2.125003e-06 5.887708e-39 3.2107924e-38
000300 98 5e 13 01 27 c3 19 b8 7f 61 c0 00 d0 c6 24 19
       2.7067504e-38 -3.6659792e-05 1.766739e-38 8.518751e-24
000310 d3 ff 80 3b ed 25 36 3d 89 e1 2e be b1 3b cc 3d
       0.0039367466 0.044469763 -0.17078222 0.09972323
000320 22 ee fa 24 7c 0f cf 3d 78 91 16 3e 18 c9 2b bd
       1.0882363e-16 0.10110375 0.1470393 -0.041939825
000330 1d 42 d4 3d 80 da c6 bd 56 2b ac 81 ef c4 58 01
       0.103641726 -0.09709644 -6.3245005e-38 3.9814227e-38
000340 63 4f 90 bd 5c 4c f9 99 09 4e 24 81 ec 8b f8 80
       -0.07046392 -2.5776838e-23 -3.017803e-38 -2.2825398e-38
000350 14 f0 62 01 97 80 76 81 61 0a b3 80 68 6f bd 81
       4.1681892e-38 -4.5275323e-38 -1.6442277e-38 -6.9587495e-38
000360 32 32 42 80 c3 43 a0 9d 7d e3 21 8c 78 31 d3 80
       -6.07915e-39 -4.242171e-21 -1.2471446e-31 -1.9395036e-38
000370 0c 53 70 01 a2 39 17 01 3c e0 2e 01 6e f7 5e 80
       4.414062e-38 2.777567e-38 3.2119633e-38 -8.721298e-39
000380 78 02 19 80
       -2.296773e-39

encoder_t.out.bias f4 [15]
000000 b7 15 d8 aa f8 52 91 30 1b fa 1e b9 49 15 c9 bc
       -3.8384375e-13 1.057372e-09 -0.00015161226 -0.024546282
000010 b9 f8 4d 3e b9 52 61 3d 2c f7 04 be 17 01 30 3e
       0.20114411 0.05501053 -0.12984914 0.17187916
000020 1a 69 10 84 88 9d 10 3d 00 15 19 3d ba d0 88 3d
       -1.6975379e-36 0.035306484 0.037373543 0.066804364
000030 b6 dd 39 bc c0 c3 e2 3d 1c f2 d0 a5
       -0.011344364 0.110724926 -3.6246308e-16

encoder_t.fc_mu.weight f4 [1, 15]
000000 e0 46 4d 36 dd 3d a8 b1 d5 27 7f b6 c1 b7 29 bb
       3.0588635e-06 -4.8964766e-09 -3.8021146e-06 -0.002589688
000010 55 ff 20 be 54 71 33 3d 50 a3 0e 3d 39 c2 44 be
       -0.15722401 0.04380925 0.034823716 -0.19214715
000020 0d 36 a0 84 f7 32 f6 bd 36 2f af b9 b2 77 28 bb
       -3.7665457e-36 -0.120214395 -0.00033413776 -0.002570611
000030 57 42 3a 32 07 5c 04 3e f2 63 83 01
       1.0841709e-08 0.1292573 4.8265214e-38

encoder_t.fc_log_var.weight f4 [1, 15]
000000 8a 8c 58 9f 90 2a 20 b3 e0 3f ef 36 4f 03 9d bc
       -4.585603e-20 -3.7291613e-08 7.130191e-06 -0.019166617
000010 f6 48 32 bc cf 50 65 3d 04 e5 a0 bd d4 81 6c 3e
       -0.010881653 0.05598527 -0.07856181 0.230964
000020 57 1c c3 03 7f 05 e2 3d 17 d5 d2 bc af fa 0b be
       1.1467576e-36 0.110362045 -0.025736375 -0.13669847
000030 16 6a 15 ba 7c 8c 8e 3e 97 79 05 01
       -0.0005699707 0.27841556 2.4515478e-38

encoder_yf.out.weight f4 [15, 15]
000000 3b f3 40 38 39 78 e0 bd 2d 34 37 bd 6f e1 8f bd
       4.6002893e-05 -0.10960431 -0.044727493 -0.0702542
000010 76 4d 40 be 30 22 8e 01 d2 1b ec 3c 10 32 d2 bc
       -0.18779549 5.221162e-38 0.02882186 -0.025658637
000020 37 78 78 be ec d3 ba bd c5 5f 2c bb 30 2c a5 a7
       -0.24264608 -0.09122452 -0.00263022 -4.584461e-15
000030 24 a0 c3 80 f4 d4 95 3c a3 19 84 80 d5 11 99 b5
       -1.796537e-38 0.01829002 -1.2131482e-38 -1.1404578e-06
000040 70 46 bb bc 4b 63 2f bd 88 7c 3f 3e 65 49 1a be
       -0.022860736 -0.042819303 0.18699849 -0.1506706
000050 7a 66 3a 25 5e 96 01 3d bd 01 a6 3e c6 be c5 3c
       1.6167649e-16 0.031637542 0.324232 0.02413882
000060 29 ed b4 3d 89 0c 8f 3d 9b 2e 30 81 1b d4 88 80
       0.08834297 0.06984813 -3.2359532e-38 -1.2565717e-38
000070 f4 da b4 bd c1 66 12 9b f0 c3 5e 00 9a 35 68 81
       -0.088308245 -1.2110039e-22 8.702826e-39 -4.2650127e-38
000080 59 b7 b1 01 f3 12 89 04 5f 87 00 84 c5 fb 98 01
       6.528262e-38 3.2225947e-36 -1.5108487e-36 5.6197253e-38
000090 9b 5f 0b 04 76 42 f2 84 8c 8f be 04 95 ae 47 04
       1.6383271e-36 -5.695496e-36 4.4800612e-36 2.3472502e-36
0000a0 9a 74 13 04 0d a5 ce 80 80 ae 0e 80 78 00 bc 04
       1.7333308e-36 -1.8977321e-38 -1.348296e-39 4.4199018e-36
0000b0 00 ac 3f 00 ac 53 bd 34 59 08 12 3e ec a7 78 3d
       5.847338e-39 3.5264873e-07 0.14260997 0.060707018
0000c0 5e a2 31 bd ed 4b 1b 3e a2 2e 5c 01 da 26 00 be
       -0.043367736 0.15165682 4.0441076e-38 -0.1251482
0000d0 52 2f 0d be 65 17 90 bd 89 e2 65 3b 71 f0 41 bd
       -0.13787583 -0.07035712 0.0035077652 -0.047348443
0000e0 2f 92 12 a9 58 a6 0a 01 29 8e 3e be dc a5 ab 01
       -3.2545306e-14 2.5465943e-38 -0.18608917 6.3053476e-38
0000f0 0f 65 08 b6 bf 28 a8 3c 89 45 96 01 35 63 96 bb
       -2.0324403e-06 0.020527242 5.5201076e-38 -0.004589463
000100 85 5a ce bd b8 16 46 26 93 bd 4d bc d2 47 a1 3e
       -0.10075859 6.872584e-16 -0.012557405 0.31500107
000110 6b e8 86 3e 5a 08 1a 3e ca 39 86 3d 1e a9 9c 01
       0.26349196 0.15042248 0.06553991 5.754802e-38
000120 80 1f 88 84 4a 71 91 3e 2c bc 33 9b 6b 7d 00 a5
       -3.2002375e-36 0.28406745 -1.4867335e-22 -1.1144724e-16
000130 d7 c2 93 bd 4c 76 91 3c 65 ad 10 bd e1 ea 1c be
       -0.07214897 0.017756604 -0.035321612 -0.15323974
000140 6c be 0f a2 19 5b 9d 3c 07 86 4f 3d 42 4c 51 be
       -1.9480922e-18 0.019208478 0.050664928 -0.20439246
000150 7d e9 e5 bb 6d 9d 70 bc fd d6 25 00 52 15 45 01
       -0.0070163594 -0.014685971 3.475037e-39 3.6198482e-38
000160 5a 01 8e be f1 a2 84 95 3e 5a 92 80 b9 d5 a2 b4
       -0.27735406 -5.357145e-26 -1.3440355e-38 -3.0330355e-07
000170 d8 d4 b7 01 6c d7 5c 3e 75 b6 19 be e8 d2 42 a6
       6.7529e-38 0.21566552 -0.15011008 -6.75931e-16
000180 58 e3 07 bd 20 41 21 3d ac 8c c0 3c c9 79 3e bb
       -0.033175796 0.03936875 0.023504578 -0.0029064289
000190 ed 0e b3 bd fe f0 92 81 9b 0d 0b 99 27 46 49 3e
       -0.08743081 -5.3977737e-38 -7.188879e-24 0.19655667
0001a0 20 ce 5d 1b 91 1c a5 01 18 df 5b 81 c3 2b 5c 01
       1.8347294e-22 6.065242e-38 -4.038401e-38 4.0439016e-38
0001b0 09 1f d7 96 a8 6b 56 0a f0 e1 10 80 d8 21 79 04
       -3.475471e-25 1.0323973e-32 -1.550419e-39 2.928535e-36
0001c0 b6 af a2 b2 b8 e3 7a ad d8 d9 86 05 94 61 53 82
       -1.8939186e-08 -1.42614184e-11 1.2681323e-35 -1.5529835e-37
0001d0 70 69 72 80 b6 da 06 81 b3 0b 03 aa 54 3a b1 01
       -1.050707e-38 -2.476883e-38 -1.1639196e-13 6.510323e-38
0001e0 ef 33 ae 14 38 29 40 b8 0b e6 1d 36 f7 c5 81 3c
       1.7589994e-26 -4.5814755e-05 2.3528726e-06 0.015841467
0001f0 d4 ec 95 3e 52 5a 62 25 6f 30 ee 3d d2 e5 8e 3e
       0.29282248 1.9632977e-16 0.11630332 0.27909714
000200 cf d1 18 3d cf 4f 50 3e 0f e4 a2 3d f4 cc 21 01
       0.037309464 0.20342945 0.07953655 2.9718076e-38
000210 86 3d 3c 01 a1 0b e9 3d 12 7c b0 9a 7f bd 06 2e
       3.4574287e-38 0.11379171 -7.299234e-23 3.063638e-11
000220 26 37 67 33 a4 6a 4c 00 6c ff 3e 3e 64 81 4d bd
       5.3834036e-08 7.017753e-39 0.18652123 -0.050172225
000230 70 d6 0c a6 9b 8f ac bd eb 6a 09 3e dc f2 40 3e
       -4.8862874e-16 -0.08425828 0.13419692 0.18842643
000240 1a ae ff 3d ea 6e 40 be 22 9b 8d 00 3f b8 89 97
       0.12484379 -0.1879231 1.3004456e-38 -8.899928e-25
000250 26 c3 1d be a2 e3 59 1b 48 13 ba 81 76 cb 84 81
       -0.15406474 1.8023371e-22 -6.8353276e-38 -4.8781094e-38
000260 7c c0 64 00 7e 85 88 81 a2 5b 12 81 b0 99 8f 00
       9.2526e-39 -5.015006e-38 -2.6881708e-38 1.3187609e-38
000270 60 1b f9 00 cb ea 83 81 e4 27 8a 81 5d d6 96 81
       2.2876859e-38 -4.845871e-38 -5.0750434e-38 -5.5408894e-38
000280 ec 8f 16 81 51 38 af 00 a0 37 33 00 1b 87 b2 81
       -2.7653908e-38 1.6091414e-38 4.703565e-39 -6.558074e-38
000290 95 86 3a 00 f2 af a3 96 11 ea 9d bd 99 95 25 3e
       5.374738e-39 -2.6445107e-25 -0.0771066 0.16170348
0002a0 18 dc 62 3c bc bc 78 be c9 4d 49 81 fc c3 84 bd
       0.01384642 -0.24290746 -3.6973678e-38 -0.064826936
0002b0 c1 23 75 be d5 34 24 3e 91 10 44 b7 77 20 dd bd
       -0.2393942 0.16035779 -1.16863675e-05 -0.10797208
0002c0 98 ec bc a1 de fe 9a 01 09 22 30 3d 0c 48 13 81
       -1.2802001e-18 5.693638e-38 0.04300121 -2.7051327e-38
0002d0 9d b7 7b 00 1f fb 0c 01 c8 61 9b 00 13 37 e2 3c
       1.1361634e-38 2.589411e-38 1.4269579e-38 0.027614152
0002e0 d1 90 09 be 56 39 8b a4 c1 52 9b 3d 80 94 3d 3b
       -0.1343415 -6.037877e-17 0.075841434 0.0028927624
0002f0 ee 26 af 3d 60 7a 20 3c a9 c7 5e bc dd 41 0a 01
       0.08552347 0.0097948015 -0.013597407 2.5393852e-38
000300 e5 f1 a9 01 f0 9a b8 3c cf b6 ef 19 ba 0b b5 81
       6.2427897e-38 0.022534817 2.4785857e-23 -6.6505726e-38
000310 28 2d 39 0e 22 bc 7e 00 ac 60 5c 00 5c 07 2d b6
       2.2824752e-30 1.1638762e-38 8.483545e-39 -2.5783293e-06
000320 60 a6 29 01 4a f4 02 89 ef 90 1f 3a 8e ef a1 b6
       3.1159766e-38 -1.5763045e-33 0.00060869654 -4.8260617e-06
000330 0b c0 12 11 9a 09 4c 01 94 8d cf 00 cc ab 72 80
       1.1576547e-28 3.747577e-38 1.9060736e-38 -1.0530876e-38
000340 ac fb 2f 39 d5 36 a0 81 da 81 22 81 39 9d a9 01
       0.00016783056 -5.88534e-38 -2.9847865e-38 6.23064e-38
000350 9b fe d1 80 85 07 d8 9b c2 cc 26 04 88 a8 57 81
       -1.9284954e-38 -3.5739062e-22 1.9607226e-36 -3.9610179e-38
000360 da a8 93 81 a5 14 01 b1 08 0b a8 ab ea 10 5f 80
       -5.424156e-38 -1.8783706e-09 -1.194018e-12 -8.73044e-39
000370 57 80 07 00 79 0d 49 80 30 de 92 80 92 53 9e a7
       6.88888e-40 -6.708824e-39 -1.3487688e-38 -4.3944417e-15
000380 5a 23 1b 81
       -2.8494367e-38

encoder_yf.out.bias f4 [15]
000000 0d 43 1a 3e dc 68 a4 3e c0 82 89 85 f8 82 87 3d
       0.1506464 0.3211125 -1.2931448e-35 0.06616777
000010 e4 4c e9 bc ed 7f 4a 3e 85 3f c3 bd c9 18 0c b6
       -0.028479047 0.19775362 -0.095336 -2.0876053e-06
000020 98 30 69 3d a3 0b c8 bd 91 5d 98 81 2d 3e 44 3d
       0.05693111 -0.097678445 -5.5970243e-38 0.047910858
000030 75 9e 95 bc 17 bf 0b bc da a9 10 b4
       -0.018264035 -0.008529446 -1.3472837e-07

encoder_yf.fc_mu.weight f4 [1, 15]
000000 71 b3 3a be 44 47 9f 3d 9c db 16 05 fa b9 55 be
       -0.18232514 0.07777265 7.093302e-36 -0.20871726
000010 fe 28 65 3e ad 2b 12 bd 0b 43 9b be 17 6a f4 98
       0.22378919 -0.035686184 -0.30324587 -6.3179645e-24
000020 a4 b7 23 3e 19 f3 81 be 50 10 02 00 e3 b4 44 be
       0.15988022 -0.2538078 1.89523e-40 -0.19209628
000030 00 41 12 3d 51 fc 2d a7 ae 67 99 36
       0.03570652 -2.4145354e-15 4.5718252e-06

encoder_yf.fc_log_var.weight f4 [1, 15]
000000 69 cd bb bd a6 5f 98 3e b5 91 d7 04 a3 6b a3 bd
       -0.09170038 0.29760474 5.0680068e-36 -0.079795144
000010 3e fb ab 3d 9e 28 2e bb 97 68 08 be ac 53 b1 01
       0.0839753 -0.0026574503 -0.13321148 6.5139595e-38
000020 63 e1 03 be 55 d8 5b be 82 09 62 81 02 83 74 3d
       -0.12878947 -0.21469243 -4.1516466e-38 0.05969525
000030 9d 4e 39 be a4 bd f1 80 37 ed 71 1b
       -0.18096395 -2.2200385e-38 2.0011701e-22
