DR_Info_CFR/IHDP/Models/adversarial_vae.pth (torch, 22635 bytes, 32 tensors)

encoder_shared.shared1.weight f4 [15, 10]
0	0xbdef7e6b	-0.11694034
1	0xbd966fce	-0.07345544
2	0xbdfe12e9	-0.124059506
3	0x3e8659c6	0.26240367
4	0x3d48e32d	0.049044777
5	0xbe36bb2a	-0.17844835
6	0x3e256497	0.16151653
7	0xbe517df8	-0.2045821
8	0xbe7e356a	-0.24825063
9	0xbe12b456	-0.14326605
10	0xbe09376f	-0.13400052
11	0x3e3ca0b0	0.18420672
12	0xbd459a0e	-0.04824262
13	0x3d2acb68	0.04169789
14	0x3df7e75d	0.12104676
15	0xbc5e2e61	-0.013560862
16	0xbd639a6b	-0.055567186
17	0xbb08feaf	-0.0020903756
18	0xbdbf226c	-0.09332737
19	0x3d8a7ccd	0.06762085
20	0xbd88c692	-0.06678499
21	0xbdc88e93	-0.09792819
22	0xbe1a5652	-0.15071991
23	0x3e3f3698	0.1867317
24	0x3d34ffeb	0.044189375
25	0xbe03d4c1	-0.12874128
26	0x3e12918c	0.14313334
27	0xbe1bd9d6	-0.15219817
28	0xbe7349a2	-0.23758557
29	0xbe3760f0	-0.17908072
30	0x3e02411c	0.1272015
31	0xbe0bcd7c	-0.13652605
32	0xbe576d97	-0.21037899
33	0xbd77e326	-0.06051936
34	0xbb7055dc	-0.003667227
35	0xbe1020b6	-0.14074978
36	0xbd1317fb	-0.03591154
37	0xbe31d546	-0.17366514
38	0x3d2bb532	0.04192085
39	0x3e6e4e38	0.23272026
40	0x3e240ad4	0.16019756
41	0xb986261c	-0.00025586865
42	0xbd5ef4ad	-0.05443256
43	0xbe1f5b65	-0.15562208
44	0x3be2d2aa	0.006922086
45	0xbe02fe27	-0.12792264
46	0x3d5cc898	0.05390224
47	0xbe40493f	-0.18777941
48	0x3d8be28c	0.0683032
49	0x3d64ddaf	0.055875476
50	0x3c9679bd	0.018368596
51	0xbe1584e1	-0.1460147
52	0x3dc6ddb2	0.09710254
53	0xbc4e2738	-0.012582593
54	0x3d9aceed	0.07558999
55	0x3d9cfeca	0.07665785
56	0xbdeff599	-0.11716766
57	0x3e39cdb2	0.18144873
58	0xbe1bae5f	-0.15203236
59	0xbe2acbee	-0.16679356
60	0x3d64c2f9	0.055850003
61	0xbc3c89d4	-0.01150747
62	0x3e28e67f	0.16494177
63	0x3e17e20e	0.14832327
64	0xbe29548d	-0.1653616
65	0xbe315409	-0.17317213
66	0xbb5229a4	-0.0032068277
67	0xbe2faad1	-0.17155005
68	0x3e4480cb	0.19189756
69	0x3d80f7b7	0.06297248
70	0xbc5d8633	-0.013520765
71	0xbcec497a	-0.02884363
72	0x3cf57bf9	0.029966341
73	0x3e30d8bd	0.17270179
74	0x3e6b2d8a	0.2296659
75	0x3e51a030	0.20471263
76	0xbde8b5ac	-0.11362776
77	0x3de5b6c5	0.11216501
78	0x3e81eff5	0.25378385
79	0x3e255bdf	0.16148327
80	0xbe197025	-0.14984186
81	0x3e3774ce	0.17915651
82	0x3e658db6	0.2241734
83	0xbe47e152	-0.19519547
84	0xbc33c260	-0.010971636
85	0xbd8c3ad8	-0.06847161
86	0xbdf4221b	-0.119205676
87	0xbdad5e05	-0.084651984
88	0xbe451e7e	-0.19249913
89	0xbe2d7585	-0.16939361
90	0x3c4f12d0	0.012638763
91	0x3e6337d6	0.22189268
92	0x3e832a0b	0.25618014
93	0xbe16ec2f	-0.14738534
94	0xbe61323c	-0.21991819
95	0xbc80656b	-0.01567336
96	0x3dc49475	0.095986284
97	0x3d88cf83	0.06680205
98	0xbdac8bae	-0.08425079
99	0xbe46b320	-0.19404268
100	0x3d50b5d4	0.050954655
101	0xbdf2fadc	-0.11864254
102	0x3e05d297	0.13068615
103	0x3e1b2dd8	0.15154207
104	0xbe711d11	-0.23546244
105	0xbe1c5403	-0.15266423
106	0xbd62534e	-0.055255227
107	0xbdf6d273	-0.12051859
108	0xbde74796	-0.11292951
109	0xbbe704f5	-0.0070501515
110	0x3c9475d4	0.018122591
111	0x3e1ad5de	0.15120646
112	0x3e1d690f	0.15372108
113	0x3df74e01	0.12075425
114	0x3e832d49	0.25620487
115	0x3e22b0c7	0.15887748
116	0xbe50c9a7	-0.20389424
117	0x3bf75eca	0.0075491415
118	0x3e47b296	0.19501719
119	0x3e690242	0.22754768
120	0x3c9683ef	0.018373458
121	0x3d32dd5a	0.04366813
122	0xbd8725ef	-0.06599032
123	0xbd1dacb2	-0.038494773
124	0xbde4ec6f	-0.11177909
125	0xbd5c0dd2	-0.053724118
126	0x3e1c360b	0.15254991
127	0xbcd9d69e	-0.026591595
128	0xbe3bb023	-0.1832891
129	0xbe764611	-0.24050166
130	0x3e2f58d7	0.17123733
131	0xbe21850c	-0.1577341
132	0x3db02809	0.08601386
133	0xbd4416af	-0.047873195
134	0xbdf35272	-0.118809596
135	0xbe435f64	-0.19079357
136	0x3e23f8af	0.16012834
137	0xbe7c2998	-0.24625242
138	0xbe0fa51f	-0.14027832
139	0xbe3f890e	-0.18704626
140	0x3df8606f	0.12127768
141	0xbdde0928	-0.1084159
142	0x3e62950d	0.22127171
143	0x3de953c4	0.1139293
144	0xbe046b5a	-0.12931576
145	0xbdf1e11a	-0.11810513
146	0x3d56c615	0.052435
147	0xbe69bb2d	-0.22825308
148	0x3dbff235	0.09372369
149	0xbe3479fb	-0.17624657

encoder_shared.shared1.bias f4 [15]
0	0xbdc62f4f	-0.09676992
1	0x3de8d149	0.11368043
2	0x3d48de91	0.04904038
3	0x3e822528	0.25418973
4	0x3e0ba5a5	0.13637407
5	0xbdc191a1	-0.09451605
6	0xbeb9307b	-0.361698
7	0x3df7755e	0.12082933
8	0xbe39e19f	-0.18152474
9	0xbe66bb69	-0.22532429
10	0xbe53f688	-0.20699513
11	0x3d7ef099	0.06224117
12	0x3e12956d	0.14314814
13	0x3e3f0d84	0.186575
14	0xbe0d1dcf	-0.13780902

encoder_shared.shared2.weight f4 [15, 15]
0	0xbe1a9f89	-0.1509992
1	0x3d807073	0.06271448
2	0x3dc88619	0.09791202
3	0xbdca3311	-0.098730214
4	0x3e33b4d0	0.17549443
5	0xbd9d715e	-0.07687639
6	0x3e319249	0.1734096
7	0x3e0d6811	0.1380923
8	0xbdbcae47	-0.09212928
9	0x3ab180c3	0.0013542402
10	0xbcff5457	-0.031168146
11	0xbe1db488	-0.15400898
12	0x3d4c9333	0.049945068
13	0xbdb9b309	-0.09067351
14	0xbdea78f3	-0.114488505
15	0x3e347873	0.17624073
16	0x3e62bac1	0.22141553
17	0x3d3445d9	0.044011924
18	0xba490bcf	-0.0007669301
19	0x3e1ee776	0.15517983
20	0x3df1fac1	0.11815406
21	0xbe4bebab	-0.19914119
22	0xbd24ac56	-0.040203415
23	0x3e1322f7	0.14368807
24	0x3e03325e	0.12812182
25	0xbe3d6deb	-0.18498962
26	0xbe0d0200	-0.13770294
27	0x3dbc2a5f	0.09187769
28	0x3d917e51	0.07104171
29	0x3e124fe3	0.14288287
30	0xbe3cc24a	-0.1843349
31	0x3e3be976	0.18350777
32	0x3e601ac4	0.2188521
33	0x3e394389	0.18092169
34	0x3e2987e6	0.16555747
35	0xbdc2d36a	-0.0951298
36	0xbdfecbaa	-0.124411896
37	0x3d7f78fd	0.062371243
38	0x3e465d08	0.19371426
39	0x3db3f158	0.08786267
40	0xbc3f0672	-0.0116592515
41	0xbe1199e8	-0.14218867
42	0xbe1ff59f	-0.15621041
43	0x3da008b1	0.07814158
44	0xbe57f7ee	-0.21090671
45	0x3d4ee462	0.05051077
46	0x3ca8c584	0.020601995
47	0xbd4cb272	-0.049974866
48	0x3ab736d5	0.0013978133
49	0xbd9cde46	-0.07659583
50	0x3cac84c9	0.02105941
51	0xbdc08292	-0.09399904
52	0xbdc764d5	-0.09736029
53	0x3e0cfe4b	0.1376888
54	0x3dd3ea49	0.10347421
55	0xbd916bc6	-0.07100634
56	0x3ccc6ebe	0.02495515
57	0x3d93ec3d	0.07222793
58	0x3e3d4bf4	0.18486005
59	0xbe24f859	-0.16110362
60	0x3e03cfae	0.12872192
61	0x3d07dbbf	0.03316855
62	0xbd147231	-0.036241714
63	0x3e02c79e	0.1277146
64	0x3e13feb3	0.14452629
65	0x3ddf97a5	0.10917596
66	0xbdab727d	-0.08371446
67	0xbd8f75af	-0.07004868
68	0x3c66e3e6	0.014092421
69	0xbd3a9497	-0.045551863
70	0x3bdbe2af	0.0067103724
71	0xbb3f203f	-0.0029163507
72	0xbd805e9d	-0.06268046
73	0xbdcca299	-0.099919505
74	0xbcb411a4	-0.021981068
75	0x3e0e4455	0.13893254
76	0xbd874d0d	-0.06606493
77	0x3e351c52	0.17686585
78	0x3e46a45b	0.19398634
79	0x3e236a96	0.15958628
80	0x3e13a05b	0.1441664
81	0x3c290334	0.010315705
82	0xbe72710a	-0.23675933
83	0x3dd0e25c	0.101994246
84	0xbe69439c	-0.22779697
85	0xbdf32c27	-0.11873656
86	0x3e327051	0.17425658
87	0xbe10d5b1	-0.14144017
88	0xbe1d26c0	-0.15346813
89	0xbe399021	-0.18121387
90	0xbde6f0bc	-0.11276385
91	0x3c3766bd	0.011193928
92	0x3e0af569	0.13570179
93	0xbd4aa21a	-0.049471
94	0xbccdf068	-0.025139049
95	0xbcc96700	-0.024585247
96	0xbdf7936f	-0.120886676
97	0xbcacda5a	-0.021100212
98	0x3e171260	0.14753103
99	0xbd666d61	-0.056256656
100	0xbe04b222	-0.12958577
101	0x3b914148	0.004432831
102	0xbba74a73	-0.0051053106
103	0x3cf16eaf	0.029471723
104	0xbe8a42d8	-0.27004123
105	0x3e27a0de	0.1636996
106	0xbd815fef	-0.06317126
107	0xbe1c3ef0	-0.15258384
108	0x3c1e881f	0.0096760085
109	0xbe57dba7	-0.21079884
110	0x3d6165c7	0.055028703
111	0xbe51a6aa	-0.20473734
112	0xbd834841	-0.06410266
113	0xbc09df66	-0.008415079
114	0xbad58802	-0.0016291144
115	0x3dcc8ba3	0.09987571
116	0x3e363794	0.17794639
117	0xbe836922	-0.25666147
118	0xbcdb93ea	-0.02680393
119	0xbc304316	-0.010758182
120	0x3e23497c	0.15946001
121	0x3dea2081	0.11431981
122	0xbe27fd13	-0.16405134
123	0xbe10b227	-0.1413046
124	0x3e6765e0	0.22597456
125	0xbd3a8e97	-0.04554614
126	0x3d9ccf29	0.076567
127	0x3d37e2c5	0.044894
128	0xbc1fff0f	-0.009765401
129	0x3e3deabe	0.18546578
130	0x3e2ff33d	0.17182632
131	0xbe1fb17e	-0.15595052
132	0xbe5ae8a8	-0.21377814
133	0x3a19a8a1	0.00058616145
134	0xbdc80aca	-0.09767683
135	0xbe046439	-0.12928857
136	0x3dc5de02	0.09661485
137	0xbbd7baf7	-0.0065835672
138	0xbdb59542	-0.08866359
139	0xbe7d25a1	-0.24721386
140	0xbd79eeb2	-0.061018653
141	0x3e02114f	0.12701915
142	0xbdd3ff41	-0.1035142
143	0x3cdf75e3	0.027277892
144	0x3e29625b	0.16541426
145	0xbe6fb615	-0.23409303
146	0x3e285cc4	0.16441637
147	0xbba4e405	-0.005032065
148	0x3ccfa59c	0.025347523
149	0xbd817695	-0.06321446
150	0x3e1444b1	0.14479329
151	0x3d84df2f	0.064878814
152	0x3d855323	0.06509998
153	0x3d8736af	0.06602227
154	0x3e15408d	0.14575405
155	0x3dccf048	0.100067675
156	0xbd51f3fe	-0.05125808
157	0xbded0b4f	-0.115744226
158	0x3d095b1a	0.033534147
159	0xbe55d170	-0.20880675
160	0xbd5beab9	-0.053690646
161	0xbddfa51c	-0.10920164
162	0xbdfe9d64	-0.12432364
163	0xbdae7e18	-0.08520144
164	0x3c815ab3	0.01579032
165	0x3d7d7aa1	0.061884526
166	0x3d677a89	0.056513343
167	0xbe16e33f	-0.14735125
168	0x3deb14bb	0.114785634
169	0x3d1e22b8	0.03860733
170	0x3d158a7d	0.036509026
171	0xbde5f07c	-0.112275094
172	0xbd1c7b1e	-0.03820335
173	0xbca99174	-0.02069924
174	0x3e8da428	0.27664304
175	0x3e6ff926	0.23434886
176	0x3d4b06d9	0.049567077
177	0xbdbe41da	-0.09289904
178	0xbd8a9df4	-0.067684084
179	0x3d2f6afa	0.04282663
180	0x3cd4831a	0.02594142
181	0x3d6769fc	0.05649756
182	0x3e05822c	0.13037938
183	0x3dde2fde	0.10848974
184	0xbd173578	-0.036916226
185	0x3d33fd81	0.043942932
186	0xbe18a428	-0.1490637
187	0x3d18c35d	0.037295688
188	0x3d4ebf54	0.050475433
189	0xbe0d55de	-0.13802287
190	0x3c9daf6e	0.01924869
191	0x3e382cf3	0.17985897
192	0x3d9d2242	0.0767255
193	0xbd24d1b4	-0.04023905
194	0x3e1b30e1	0.15155365
195	0x3d334a4f	0.043772038
196	0x3dc70b74	0.097189814
197	0xbdb4c871	-0.08827294
198	0xbe0946a8	-0.1340586
199	0xbe2aabd0	-0.16667104
200	0xbe4c8dea	-0.19976011
201	0x3cc22d0c	0.02370312
202	0xbe691768	-0.22762835
203	0xbe287672	-0.16451433
204	0xbe71365d	-0.23555894
205	0x3d9e8445	0.07740072
206	0xbe899cb9	-0.26877382
207	0xbe2fb340	-0.17158222
208	0xbdc7ce54	-0.09756151
209	0x3d622138	0.05520746
210	0x3d69076b	0.05689184
211	0x3de139d2	0.109973565
212	0x3d8252d6	0.06363456
213	0xbdd243c4	-0.102668315
214	0x3e0afe6e	0.1357362
215	0x3dc8817f	0.097903244
216	0xbd8112c8	-0.0630241
217	0xbe0cec3f	-0.13761996
218	0x3dc8d4aa	0.098061875
219	0x3e2c9e99	0.16857375
220	0x3d955683	0.072918914
221	0x3c93ddc5	0.018050084
222	0xbc4c3fdb	-0.012466396
223	0x3e00b337	0.12568365
224	0xbe55b7eb	-0.2087094

encoder_shared.shared2.bias f4 [15]
0	0x3e05802d	0.13037176
1	0x3e3129db	0.17301123
2	0xbe868935	-0.26276556
3	0x3ea0114e	0.31263202
4	0x3d3ca668	0.046057135
5	0xbe8fb0ec	-0.28064668
6	0x3d89d0b2	0.067292586
7	0xbd04852e	-0.032353573
8	0x3e744982	0.23856166
9	0xbe963cc3	-0.29343233
10	0x3e80f9bc	0.25190532
11	0x3e83183e	0.25604433
12	0x3e99ef30	0.30065298
13	0xbd68e603	-0.05685998
14	0xbe8d2a53	-0.27571353

encoder_shared.shared3.weight f4 [15, 15]
0	0xbe93fb97	-0.28902885
1	0xbe2ea373	-0.17054538
2	0xbd58c600	-0.052923203
3	0x3df99e58	0.12188405
4	0x3d22811b	0.039673906
5	0xbe92dd36	-0.28684396
6	0xbe86f21e	-0.26356596
7	0xbe8cc022	-0.27490336
8	0x3d5fba1d	0.05462085
9	0x3e116a18	0.14200628
10	0xbe48f039	-0.19622888
11	0xbdea0be5	-0.1142805
12	0xbdbdcd71	-0.092677005
13	0x3ca9175b	0.02064102
14	0xbe45e8e2	-0.19327119
15	0x3c799951	0.015234307
16	0x3e413c85	0.18870743
17	0x3d423311	0.047411982
18	0xbcb35c49	-0.02189459
19	0xbe36e221	-0.17859699
20	0x3d49a81f	0.0492326
21	0x3e324f13	0.17412977
22	0xbd96051e	-0.07325195
23	0x3e29a6c7	0.16567527
24	0x3e3bf33e	0.18354508
25	0x3e555da8	0.20836508
26	0x3e646fdc	0.22308296
27	0x3e6ddfbd	0.2322988
28	0xbe0d2842	-0.13784888
29	0x3e1a37f9	0.15060414
30	0x3e84060e	0.2578587
31	0x3e1c4e39	0.15264215
32	0x3d69befe	0.05706691
33	0x3e3672c8	0.17817223
34	0x3df143a9	0.11780483
35	0xbd9bc6c8	-0.07606274
36	0x3c213c55	0.009841044
37	0xbd11e7f5	-0.035621602
38	0x3dc35e85	0.095395125
39	0x3d202a17	0.03910264
40	0x3c85449e	0.01626807
41	0x3df98193	0.121829174
42	0xbc8ed5fe	-0.017436024
43	0x3e405436	0.18782124
44	0xbe3a50ed	-0.18194933
45	0x3ddd12a1	0.10794569
46	0xbc32b4a8	-0.01090733
47	0x3cf43248	0.029809132
48	0x3df63263	0.12021329
49	0x3cd3192c	0.025768839
50	0xbdc3209c	-0.09527704
51	0x3dbe9632	0.09305991
52	0xbd960465	-0.07325057
53	0xbbf19406	-0.007372382
54	0xbd67b1fa	-0.056566216
55	0x3de7cbec	0.11318192
56	0x3de19cb2	0.110162154
57	0x3d9b541a	0.075844005
58	0xbd87bc19	-0.06627674
59	0xbd88a715	-0.06672493
60	0x3dc0f6c6	0.09422068
61	0xbe5ba45f	-0.21449421
62	0x3db028f9	0.08601565
63	0x3e27e507	0.16395961
64	0x3d6fcabc	0.058542952
65	0x3da47234	0.08029595
66	0xbe2c4317	-0.16822468
67	0x3e259d60	0.16173315
68	0x3c700d36	0.014651587
69	0x3dedb2c8	0.116063654
70	0x3dc0afa7	0.09408503
71	0xbe5ed508	-0.21760952
72	0xbcb52896	-0.02211408
73	0xbe89ee8e	-0.26939815
74	0xbe38a37e	-0.18031117
75	0xbe571184	-0.21002775
76	0x3e7bcff0	0.2459104
77	0x3daba075	0.08380214
78	0x3db470ae	0.088105544
79	0xbe5deb3c	-0.21671766
80	0x3e8c5d68	0.27415013
81	0x3e3b2cf5	0.18278868
82	0x3df8e87a	0.121537164
83	0x3e804c6c	0.25058305
84	0xbcbe55cf	-0.023234276
85	0xbdd3d6fd	-0.1034374
86	0x3e71090e	0.2353861
87	0x3e8e1c25	0.27755848
88	0xbdd6ec72	-0.10494317
89	0xbe2228f0	-0.15835929
90	0x3db27243	0.087132
91	0xbe0e8f08	-0.1392175
92	0x3dc97c9b	0.0983822
93	0xbd238dcb	-0.039930146
94	0xbda6c22f	-0.08142506
95	0xbd888bc0	-0.0666728
96	0xbe3f3345	-0.18671902
97	0x3d059e15	0.032621462
98	0xbd95003c	-0.07275435
99	0x3ac42e58	0.0014967425
100	0x3d6ba286	0.05752804
101	0xbd8bdff3	-0.06829824
102	0x3c576819	0.013147377
103	0x3e2cfad5	0.1689256
104	0x3e42c9b5	0.19022258
105	0xbe679741	-0.22616293
106	0x3c5b5747	0.013387508
107	0x3da9d4cd	0.08292542
108	0xbe701bfe	-0.23448178
109	0xbe572932	-0.21011809
110	0xbe64683a	-0.22305384
111	0xbe4b34f6	-0.19844422
112	0xbd09c8e0	-0.033638835
113	0xbc2d1b50	-0.010565594
114	0x3c829ec9	0.015944855
115	0xbdb97ac0	-0.09056616
116	0xbda88226	-0.08227949
117	0xbd2977d7	-0.041374054
118	0xbc33f251	-0.010983066
119	0xbe555ac5	-0.20835407
120	0x3d12430f	0.035708483
121	0xbe294307	-0.16529475
122	0xbe5d9062	-0.21637109
123	0x3e2d19c8	0.16904366
124	0xbdcab4c7	-0.09897762
125	0x3e5af4d7	0.21382461
126	0x3dff77b6	0.12474005
127	0xbd3247ca	-0.043525495
128	0xbdb41cde	-0.087945685
129	0x3e31e00f	0.17370628
130	0x3e415017	0.18878208
131	0xbe6fff4c	-0.23437232
132	0xbd06d785	-0.03292038
133	0x3ded0ae4	0.11574343
134	0xbdaa76e1	-0.083234556
135	0xbd8e9814	-0.069626
136	0xbdbd7f14	-0.09252754
137	0xbd7b9ac0	-0.061426878
138	0x3d4733ba	0.048633315
139	0x3da23032	0.07919349
140	0xbd846dab	-0.0646623
141	0xbc64b02d	-0.013958019
142	0xbe04a239	-0.12952508
143	0x3c80b87c	0.015712969
144	0x3d73181f	0.059349176
145	0x3e5154fc	0.20442575
146	0xbc83bb7a	-0.016080607
147	0x3e2bc678	0.16774929
148	0x3c990fc9	0.018684285
149	0x3e2629dd	0.16226907
150	0xbe13e5ff	-0.14443205
151	0xbd446c11	-0.047954623
152	0xbe9d5b76	-0.30733842
153	0xbe12f45c	-0.14351028
154	0x3e0a3ae2	0.13499025
155	0xbe6800fb	-0.22656624
156	0x3e56cd9a	0.20976868
157	0xbe3c1b6b	-0.18369834
158	0xbe4f5793	-0.2024825
159	0x3e258c2f	0.16166757
160	0xbdffe2ab	-0.12494405
161	0xbea99f0a	-0.3312915
162	0x3e2c4162	0.16821817
163	0xbe59dc79	-0.2127551
164	0x3cf74540	0.030184388
165	0x3e5b6337	0.21424566
166	0x3e1bfcaa	0.15233102
167	0xbe1137fa	-0.1418151
168	0x3c0f2db9	0.0087389285
169	0x3d5fd2d1	0.05464441
170	0xbcebfb41	-0.02880633
171	0x3e22b859	0.15890636
172	0x3dc6f40d	0.09714518
173	0x3dc4ac3a	0.09603162
174	0x3d5e9271	0.054338876
175	0xbdf0b853	-0.11753907
176	0x3d4c21cb	0.049836915
177	0xbdd1e35f	-0.10248446
178	0xbd96c72c	-0.07362208
179	0xbe23d368	-0.15998614
180	0x3dd463df	0.103706114
181	0xbdb0df59	-0.0863635
182	0xbe8cd24e	-0.275042
183	0x3d629489	0.055317435
184	0x3e451d89	0.19249548
185	0xbe28e5fc	-0.16493982
186	0x3dc9d8cb	0.09855803
187	0xbe14c14b	-0.1452686
188	0xbe0501ee	-0.12989017
189	0x3d610906	0.054940246
190	0x3e1b642a	0.15174928
191	0x3d9ffdf5	0.0781211
192	0x3c477482	0.012173774
193	0xbd9181a3	-0.07104804
194	0xbdb7055b	-0.08936568
195	0xbd41ffa2	-0.04736293
196	0x3dbebacf	0.09312975
197	0xbe13e9dd	-0.1444468
198	0x3c846b01	0.016164305
199	0x3e009325	0.12556131
200	0xbd1b67fe	-0.03794097
201	0x3e43ae34	0.19109422
202	0xbd40db13	-0.047083925
203	0x3e457edb	0.19286673
204	0x3e39f9b5	0.18161662
205	0xbe6f10e8	-0.23346293
206	0x3acb6f63	0.0015520867
207	0xbd99232c	-0.07477412
208	0x3e31d6ac	0.17367047
209	0xbdccffa1	-0.10009695
210	0x37bde854	2.2638742e-05
211	0x3e172f67	0.14764176
212	0xbe4d07b0	-0.20022464
213	0xbe18830d	-0.14893742
214	0x3dc80ca4	0.09768036
215	0x3e2ac1c6	0.16675481
216	0x3d492790	0.049109995
217	0xbe04b22e	-0.12958595
218	0x3b34c5b2	0.0027583656
219	0xbe029d9f	-0.1275544
220	0x3d442510	0.047886908
221	0xbe0437eb	-0.12911956
222	0xbc916f1d	-0.017753178
223	0x3e4821a0	0.19544077
224	0x3d8aa4be	0.06769703

encoder_shared.shared3.bias f4 [15]
0	0x3e13fe0c	0.1445238
1	0xbe442518	-0.19154775
2	0x3e314b69	0.17313923
3	0x3dffa3f3	0.12482443
4	0x3d30b22e	0.043138675
5	0xbd8839b7	-0.06651633
6	0x3ec0a432	0.3762527
7	0x3e655626	0.22396144
8	0xbe57f68f	-0.21090148
9	0x3e3cc255	0.18433507
10	0xbe426aa4	-0.18985993
11	0x3d805921	0.06267
12	0x3e01649f	0.1263604
13	0x3e3b5e47	0.18297683
14	0x3d8bcfc9	0.06826741

encoder_x.out.weight f4 [15, 15]
0	0x0ba44b74	6.328403e-32
1	0x0f0f6ad0	7.071016e-30
2	0x1cf3e407	1.6139335e-21
3	0x31fb3933	7.3115642e-09
4	0xa653cea4	-7.348538e-16
5	0x06d745f0	8.0976775e-35
6	0x930f6b83	-1.8102145e-27
7	0x8e0242f2	-1.605597e-30
8	0x17367c14	5.896398e-25
9	0xa2d96d54	-5.8933724e-18
10	0x8fbca986	-1.860353e-29
11	0x8b3b6642	-3.609182e-32
12	0x18fa9f97	6.478463e-24
13	0x0f310a7e	8.7287945e-30
14	0xb32b1093	-3.9829114e-08
15	0x3e8903c7	0.26760694
16	0x3e3634ec	0.17793626
17	0xbe7097e6	-0.23495445
18	0x3e5994ab	0.21248119
19	0x3d53a038	0.05166647
20	0xbe5762d7	-0.21033798
21	0x3c935426	0.017984461
22	0x3d0c3c09	0.03423694
23	0x3d5ab899	0.053398702
24	0x3c07e04c	0.008293223
25	0x3c80afe9	0.01570888
26	0x3dffd09e	0.124909624
27	0x3dc6767b	0.09690567
28	0x3dacd04f	0.08438169
29	0x3e37c3dd	0.1794581
30	0xbe1224a7	-0.14271794
31	0x3e13c345	0.14429958
32	0xbe24b9f9	-0.16086568
33	0xbe562ff8	-0.20916736
34	0x3e47ac6c	0.19499367
35	0xbe93790c	-0.2880329
36	0x3d5d0914	0.053963736
37	0xbe09ba04	-0.13449866
38	0x3e0ebb87	0.13938724
39	0xbe8c3c11	-0.27389577
40	0xbdee1291	-0.11624635
41	0x3be242b6	0.006904925
42	0xbe2cbe30	-0.16869426
43	0x3dbd7c77	0.092522554
44	0xbdefcaa1	-0.1170857
45	0xbdaa0885	-0.08302406
46	0xbe807a66	-0.25093383
47	0x3e0af1f2	0.13568857
48	0xbd0cb7c6	-0.034354948
49	0x3e183701	0.14864732
50	0x3c51fd98	0.012816809
51	0x3e664159	0.22485866
52	0x3ead3550	0.33829737
53	0x3de62366	0.112372205
54	0xbd19d8e1	-0.037560347
55	0x3df5cebd	0.12002323
56	0xbe2d527a	-0.16925994
57	0x3dbb7962	0.09154011
58	0xbdf4555d	-0.11930344
59	0xbd69d80e	-0.05709081
60	0x3e300922	0.17190984
61	0xbea1ac06	-0.31576556
62	0x3dfca1ff	0.12335586
63	0xbe389bce	-0.18028185
64	0xbe90bab4	-0.28267443
65	0x3dda8ec2	0.1067176
66	0xbe1940fd	-0.14966197
67	0x3d7c88f3	0.061654042
68	0xbe1cc87e	-0.15310857
69	0x3e02a076	0.12756523
70	0xbd3b6ae6	-0.045756243
71	0x3d8287ef	0.063735835
72	0xbdbf768c	-0.09348783
73	0xbe9fd062	-0.3121367
74	0xbe0ca86a	-0.1373612
75	0xbb1befa0	-0.002379395
76	0xbe526126	-0.20544872
77	0x3d677fae	0.05651825
78	0x3daa48d7	0.08314674
79	0x3c04270a	0.008065948
80	0x3e1339ce	0.1437752
81	0xbb9e3f8e	-0.0048293537
82	0x3e1a488b	0.15066735
83	0xbe0a292d	-0.1349227
84	0x3d47b19c	0.048753366
85	0x3e28a37d	0.16468616
86	0x3d0eb945	0.034844656
87	0x3dc04328	0.09387809
88	0x3cf19b50	0.029493004
89	0x3dc069da	0.093951896
90	0x3df8ba84	0.1214495
91	0xbc8ef353	-0.01745001
92	0x3d6cd742	0.057822473
93	0xbe742f0c	-0.23846072
94	0x3d2a3d21	0.041562203
95	0x3d4288f1	0.04749388
96	0xbe76d8ce	-0.24106142
97	0xbde020c6	-0.10943751
98	0x3e101eba	0.14074221
99	0x3c82b32e	0.01595458
100	0x3e178d0a	0.14799896
101	0x3ca55d27	0.02018602
102	0x3e0e834b	0.13917272
103	0x3da5a873	0.0808877
104	0xbc5827dd	-0.013193098
105	0x3d8a27a9	0.06745846
106	0x3dbbeaa6	0.09175615
107	0xbe63e284	-0.22254378
108	0xbe9e990b	-0.30976138
109	0xbdac4b3b	-0.084127866
110	0xbe548f05	-0.20757683
111	0xb8fc64dc	-0.00012035083
112	0x3e0fdff1	0.1405027
113	0x3d23fa10	0.0400334
114	0xbc744ae0	-0.01491043
115	0xbd401d33	-0.046902847
116	0xbd5fdb8d	-0.05465274
117	0x3e1b81f4	0.15186292
118	0xbe2e2a72	-0.17008379
119	0x3df1b7c4	0.11802629
120	0xbe2b30a9	-0.16717781
121	0x3d6b4900	0.057442665
122	0x3e1a7cba	0.15086642
123	0xba42edb8	-0.00074359355
124	0x3cf31e74	0.029677607
125	0x3ca9ab88	0.020711675
126	0x3e354e3c	0.17705625
127	0xbbc09262	-0.005876825
128	0x3e6448f5	0.22293456
129	0xbd72ab07	-0.059245136
130	0x3d2a5d6f	0.04159301
131	0xbdb0cbd0	-0.08632624
132	0x3da6a4fb	0.08136936
133	0xbcc42440	-0.023943067
134	0xbcbba663	-0.022906488
135	0xbbed763a	-0.0072467597
136	0xbd1dc92b	-0.038521927
137	0x3df89547	0.121378474
138	0xbdbe3a44	-0.09288457
139	0x3e1b7104	0.15179831
140	0x3d6eec45	0.058330793
141	0xbca7a09a	-0.020462323
142	0x3d3e0f9a	0.046401598
143	0x3e568465	0.20948942
144	0xbde0ab9d	-0.10970233
145	0xbd310e86	-0.04322674
146	0xbe6a66ca	-0.22890773
147	0x3df1c434	0.11805001
148	0x3d927228	0.0715068
149	0x3d4ebbf3	0.05047221
150	0xbdd4f041	-0.10397387
151	0xbe75a160	-0.23987341
152	0x3e3e9182	0.18610194
153	0x3ea40051	0.3203149
154	0xbc1863a7	-0.009301103
155	0x3e27f8e8	0.16403544
156	0x3ebd0404	0.36917126
157	0x3e618803	0.2202454
158	0xbe0eced9	-0.13946094
159	0x3e6a07d9	0.22854556
160	0xbd7d5c07	-0.061855342
161	0x3d7adc20	0.061245084
162	0x3da2751b	0.07932492
163	0x3e271e5c	0.16320175
164	0x3e12ef32	0.14349058
165	0xbce130d6	-0.027489107
166	0xbd449bf9	-0.04800031
167	0x3e6548c7	0.22391044
168	0xbd344a3b	-0.044016104
169	0x3d9b0a19	0.07570285
170	0x3cf81c7b	0.030287018
171	0x3e16b784	0.14718443
172	0x3e09ef8f	0.1347029
173	0x3d80f87c	0.06297395
174	0x3e6dbcf7	0.23216616
175	0xbd08def6	-0.033415757
176	0x3c4256f9	0.011861556
177	0x3cddc96b	0.027073583
178	0x3c9d3d1e	0.019194182
179	0xbd8f36c1	-0.06992865
180	0x3d41b3ec	0.047290727
181	0xbe149e40	-0.14513493
182	0xbe050a13	-0.12992124
183	0x3e81be0b	0.25340304
184	0x3d5d2c4a	0.053997315
185	0x3d51691c	0.05112563
186	0xbd0eb55f	-0.034840938
187	0x3cc05fbf	0.023483155
188	0xbda00a9b	-0.07814523
189	0x3db3e817	0.08784502
190	0x3d8834a3	0.06650665
191	0x3dcabffe	0.09899901
192	0xbd87e02d	-0.06634555
193	0x3dcb904f	0.09939634
194	0x3dcfada1	0.10140539
195	0xbdeb15d0	-0.1147877
196	0xbe6ce6a9	-0.23134865
197	0x3e20689e	0.15664908
198	0xbdd6b99f	-0.10484623
199	0x3e3022dd	0.172008
200	0x3e0ba9d7	0.13639008
201	0xbba07397	-0.004896592
202	0x3dcdb942	0.10045101
203	0x3e45f1a8	0.19330466
204	0x3e25b3b3	0.16181831
205	0xbb60ad8b	-0.0034283127
206	0xbdeef769	-0.116682835
207	0x3d3c8822	0.046028264
208	0x3e1ecc87	0.15507708
209	0x3da48a3b	0.08034178
210	0xbe7462b7	-0.23865782
211	0x3d2a3527	0.041554596
212	0x3d9705a4	0.07374123
213	0xbe93bf92	-0.28857094
214	0xbe41bc72	-0.18919542
215	0xbe87e388	-0.2654078
216	0x3e316185	0.17322357
217	0xbe0e8b74	-0.13920385
218	0x3e633e01	0.22191621
219	0x3e390ec0	0.18072033
220	0x3df90b85	0.121604
221	0xbe09861d	-0.13430066
222	0x3b7f19dd	0.0038925328
223	0x3ba1a112	0.004932531
224	0x3e5802a0	0.21094751

encoder_x.out.bias f4 [15]
0	0xb19faccd	-4.647154e-09
1	0xbe02708a	-0.12738243
2	0x3e30437c	0.17213243
3	0xbdf5ca18	-0.12001437
4	0x3d83b5e0	0.06431174
5	0x3dcf6988	0.1012755
6	0xbde36574	-0.11103335
7	0x3e1c042c	0.15235966
8	0xbdcfd160	-0.10147357
9	0x3e2c0cbe	0.16801736
10	0xbd8f886c	-0.07008442
11	0x3d2f297b	0.04276417
12	0x3e003102	0.12518695
13	0x3e210245	0.15723522
14	0xbd5b3ae6	-0.053522967

encoder_x.fc_mu.weight f4 [10, 15]
0	0x8df6c3b6	-1.5208036e-30
1	0x3ddc029a	0.10742684
2	0x3e24f95b	0.16110747
3	0x3dda0561	0.10645557
4	0x3e0859b6	0.13315472
5	0x3e03d579	0.12874402
6	0xbd3652a2	-0.0445124
7	0x3e217c4f	0.15770076
8	0x3d03a531	0.03213996
9	0xbde9b4c9	-0.11411435
10	0x3e09993a	0.13437358
11	0xbb194b04	-0.002339066
12	0xbe2cb606	-0.16866311
13	0x3e88d79f	0.26727006
14	0x3da64b55	0.08119837
15	0x2f84022c	2.4012203e-10
16	0x3cc65fcf	0.024215607
17	0xbd2f9a2d	-0.042871643
18	0x3e00fe63	0.12597041
19	0x3e25d45d	0.16194291
20	0x3e907dc2	0.28220946
21	0xbd703ecc	-0.058653638
22	0x3db7ec36	0.089806005
23	0xbe360470	-0.1777513
24	0x3dbdc5c1	0.09266234
25	0xbd9ff85f	-0.07811045
26	0x3ea5dc94	0.3239485
27	0xbd79281e	-0.060829274
28	0xbcd51225	-0.026009629
29	0x3e5884f3	0.21144466
30	0x8e577706	-2.6558104e-30
31	0x3d076c4a	0.033062257
32	0xbc2f1db6	-0.010688236
33	0xbe2c09d6	-0.16800627
34	0x3ca50cdd	0.020147735
35	0x3b4ab6f8	0.0030931812
36	0xbe075397	-0.1321548
37	0x3db3ea78	0.08784956
38	0xbdc9fa04	-0.0986214
39	0x3d34c630	0.04413432
40	0xbcef942b	-0.029245457
41	0xbe4855e1	-0.1956401
42	0xbe793f15	-0.2434047
43	0xbe7d3d07	-0.24730311
44	0xbd4c49b7	-0.049874987
45	0x989008ce	-3.7232018e-24
46	0xbbcd1831	-0.0062589874
47	0xbe3ed4e2	-0.18635896
48	0x3e80e5f3	0.25175437
49	0xbd6d965a	-0.058004715
50	0x3e88c642	0.2671376
51	0xbe5d4749	-0.21609224
52	0xbe026145	-0.12732418
53	0x3d8a3cf8	0.0674991
54	0xbc8b11d6	-0.016976278
55	0x3c917fd9	0.017761158
56	0x3e384c5e	0.17997882
57	0x3e17cee5	0.14825018
58	0xbdfccdfe	-0.123439774
59	0x3d66aeba	0.056318976
60	0x932e99b5	-2.2037671e-27
61	0x3bf68c41	0.007524044
62	0xbe65c43c	-0.22438139
63	0x3d39afb4	0.04533358
64	0xbd1e6f1d	-0.038680185
65	0x3d378149	0.04480103
66	0xbda75bbb	-0.08171793
67	0xbdc4e9e1	-0.09614921
68	0x3e0d9357	0.13825737
69	0xbdee75cb	-0.11643561
70	0xbdb4b031	-0.08822668
71	0xbd9a6f50	-0.075407624
72	0x3cfe1940	0.0310179
73	0xbd47f5e1	-0.048818473
74	0x3d89b660	0.067242384
75	0x0e3f7e2a	2.3603313e-30
76	0x3e2a2dad	0.16618986
77	0x3e50f72f	0.20406793
78	0xbe1f361f	-0.1554799
79	0xbe5d114a	-0.21588627
80	0xbda6f960	-0.08153033
81	0x3e07e66b	0.13271491
82	0xbd94b8c9	-0.072618075
83	0xbe1bac0b	-0.15202348
84	0xbe97cfaf	-0.29650638
85	0xbe8cea97	-0.27522728
86	0x3df8648e	0.12128554
87	0xbe3cd832	-0.18441847
88	0x3e120ad2	0.1426194
89	0xbd8dde14	-0.06927124
90	0x8d2b717e	-5.2830055e-31
91	0x3e877271	0.264545
92	0xbe5edeb8	-0.21764648
93	0xbc8d3a19	-0.017239617
94	0xbe3aacd2	-0.18229988
95	0x3e2e1995	0.17001946
96	0xbe1a9e35	-0.15099414
97	0xbe5e0259	-0.21680583
98	0xbdf15f72	-0.11785783
99	0xbd116dc8	-0.035505086
100	0x3e823ec2	0.25438505
101	0x3e46fd3f	0.19432543
102	0xbd20d2cb	-0.039263528
103	0xbe0ba3a4	-0.13636643
104	0xbe16b681	-0.14718057
105	0xa063e724	-1.9304126e-19
106	0x3dbbbb9c	0.09166643
107	0xbd903737	-0.070417814
108	0x3e075e22	0.13219503
109	0x3e4acf6f	0.19805692
110	0x3cff11d2	0.031136427
111	0xbe20c678	-0.1570071
112	0xbd3631ac	-0.044480965
113	0x3dcd65a2	0.100291505
114	0xbc366e1e	-0.011134652
115	0xbaad195d	-0.0013206411
116	0x3d97c8cf	0.07411348
117	0x3e14865f	0.14504384
118	0x3d83571e	0.06413101
119	0x3e601ca5	0.21885927
120	0x8e929766	-3.613757e-30
121	0x3e4b50b8	0.1985501
122	0x3e1bb524	0.15205818
123	0x3e1d2420	0.15345812
124	0xbd81df5d	-0.06341431
125	0xbd09d15d	-0.03364693
126	0x3d93b774	0.07212725
127	0x3d8fd4f7	0.07023042
128	0xbda7518f	-0.08169853
129	0x3e6f0523	0.23341803
130	0xbbe2f334	-0.0069259647
131	0x3dcc5d39	0.09978718
132	0x3e0c14e2	0.13679841
133	0xbe0736f8	-0.13204563
134	0xbcd57442	-0.026056413
135	0x9cd292e0	-1.3934601e-21
136	0xbe261053	-0.16217165
137	0x3dc42a74	0.0957841
138	0x3d20d060	0.039261222
139	0xbe53721a	-0.20648995
140	0xbdac7e22	-0.084224954
141	0x3d17f717	0.037100878
142	0x3e31bd3b	0.17357342
143	0xbd9b461f	-0.07581734
144	0x3cf9609e	0.030441578
145	0xbde0189b	-0.10942193
146	0x3e1ddde8	0.15416682
147	0x3e12dd21	0.14342166
148	0xbdbdfdca	-0.09276922
149	0xbd81f053	-0.06344666

encoder_x.fc_mu.bias f4 [10]
0	0xbdbf7c63	-0.09349897
1	0xbdd93a98	-0.10606879
2	0x3e225cfe	0.15855786
3	0xbdc10836	-0.09425394
4	0x3d86bb25	0.06578664
5	0x3e029219	0.12751044
6	0xbdf1eb87	-0.118125014
7	0xbd85b6ca	-0.06529005
8	0xbd31cfd2	-0.043411084
9	0x3c40ce46	0.011767929

encoder_x.fc_log_var.weight f4 [10, 15]
0	0xa65c865b	-7.650992e-16
1	0x3e3f5947	0.186864
2	0x3e457a0b	0.19284837
3	0xbe139627	-0.14412747
4	0x3c99e12f	0.018784134
5	0xbdc3fb74	-0.09569445
6	0x3e6d7f99	0.23193206
7	0xbc079dca	-0.008277366
8	0xbd877562	-0.06614186
9	0x39e726f3	0.00044088773
10	0x3d0021bb	0.031282168
11	0x3ddc498a	0.10756214
12	0x3dcabc79	0.098992296
13	0x3e10bd20	0.14134645
14	0x3e3787df	0.17922924
15	0x9274cd64	-7.724599e-28
16	0xbdf64145	-0.12024168
17	0xbd26b00b	-0.04069523
18	0x3e17afaa	0.14813104
19	0x3b6fef2b	0.003661106
20	0xbcf53ba6	-0.02993567
21	0xbe559da7	-0.20860921
22	0x3bd5ccd4	0.0065246616
23	0x3c2480de	0.01004049
24	0x3d3de93b	0.046365004
25	0xbe026e98	-0.127375
26	0xbc80bea0	-0.015715897
27	0x3d91f207	0.07126241
28	0xbe32623b	-0.17420284
29	0xbd9dab8b	-0.07698735
30	0x8f10c6a3	-7.138004e-30
31	0x3e83fe56	0.2577998
32	0x3dfecfe0	0.12441993
33	0xbcbf41cd	-0.023346806
34	0x3e8fbad9	0.2807224
35	0x3e2e501b	0.17022745
36	0xbe6a60d2	-0.22888497
37	0xbdfe31d1	-0.124118455
38	0x3d8f0e1c	0.06985113
39	0xbe3d4520	-0.184834
40	0x3e396b47	0.1810733
41	0x3e1ffd0f	0.15623878
42	0x3dba77e4	0.091048986
43	0x3e5c0b7b	0.21488754
44	0x3e3647e1	0.17800857
45	0x19feeabb	2.6357791e-23
46	0xbe232717	-0.1593288
47	0x3e653d99	0.22386779
48	0xbe08d7d3	-0.1336358
49	0xbd143a31	-0.03618831
50	0xbe35400b	-0.17700212
51	0x3e71f90c	0.2363016
52	0xbd7e201e	-0.062042348
53	0x3da0e3b7	0.07855933
54	0x3cf9bb1a	0.030484725
55	0xbc998adb	-0.01874297
56	0x3d1313d4	0.03590758
57	0x3e283d50	0.16429639
58	0x3e4f3909	0.20236601
59	0x3dbfe9b3	0.093707465
60	0x1190fb49	2.287406e-28
61	0xbe44d513	-0.19221906
62	0xbe694c75	-0.22783072
63	0x3ca27c13	0.019834554
64	0x3e9d4436	0.30716103
65	0xbdf15779	-0.11784262
66	0x3e0c03f7	0.13673387
67	0x3e211e23	0.15734152
68	0x3bb79845	0.0056028687
69	0x3e3385a0	0.17531443
70	0xbd920c79	-0.07131285
71	0xbcf2ec42	-0.029653672
72	0x3e01e73e	0.12685868
73	0xbe0803ad	-0.13282652
74	0x3d70a38d	0.058749724
75	0xa0d75151	-3.6476227e-19
76	0xbcf9471d	-0.030429417
77	0xba9f9458	-0.0012174947
78	0xbdd3bcb8	-0.103387296
79	0xbbc38ebf	-0.0059679444
80	0x3c6ad8c9	0.014333912
81	0xbe1f34da	-0.15547505
82	0xbd69a785	-0.057044525
83	0x3e37e621	0.17958881
84	0xbd6d6d9c	-0.05796586
85	0xbd840ca4	-0.064477235
86	0xbe1cd75c	-0.15316528
87	0x3e03ab62	0.12858346
88	0xbe3c76f2	-0.18404749
89	0x3e3e07c5	0.18557651
90	0x32ed3a12	2.7616839e-08
91	0x3d49e5fc	0.049291596
92	0x3e4ecdce	0.20195696
93	0x3d074173	0.0330214
94	0xbd95e3e4	-0.07318857
95	0xbbdd8824	-0.006760614
96	0x3e2ef528	0.17085707
97	0xbe49e84f	-0.19717525
98	0x3ce66bfb	0.028127661
99	0xbd6fd291	-0.05855042
100	0x3d925e6c	0.07146916
101	0x3cfc779e	0.030818757
102	0x3bd5753b	0.006514219
103	0x3e278691	0.16359927
104	0x3e683d50	0.22679639
105	0x133384bb	2.2658417e-27
106	0xbe64fc84	-0.22361952
107	0x3e2a9c36	0.16661152
108	0xbc284f59	-0.010272824
109	0xbe1a3a53	-0.15061311
110	0xbe10e6d1	-0.1415055
111	0xbdc22c98	-0.09481162
112	0xbe009c82	-0.12559703
113	0xbdbc44c7	-0.09192806
114	0x3c8f8b88	0.017522588
115	0x3a4c0406	0.0007782582
116	0x3e0d86c6	0.13820943
117	0x3ddc3ef9	0.107541986
118	0x3dbb118f	0.091342084
119	0xbdca3d48	-0.0987497
120	0x949fa9ec	-1.612192e-26
121	0x3ce93dff	0.028471945
122	0xbe40772a	-0.18795457
123	0x3e12a572	0.14320925
124	0xbba86f3c	-0.0051402133
125	0xbda2d91f	-0.07951569
126	0x3e843120	0.2581873
127	0xbe4b990b	-0.198826
128	0xbd81986b	-0.063278995
129	0x3da87aa7	0.08226519
130	0x3ebcbdc9	0.36863545
131	0xbdaeed59	-0.08541364
132	0xbe2fe39c	-0.1717667
133	0x3e90b1bc	0.282606
134	0xbba4625d	-0.0050166086
135	0x0a658f9d	1.10529596e-32
136	0x3d49e08f	0.04928642
137	0xbe597841	-0.2123728
138	0xbd74bf0f	-0.05975252
139	0xbdaabdae	-0.0833696
140	0x3d5f943e	0.054584734
141	0xbe2add26	-0.16685924
142	0x3d3282d4	0.0435818
143	0xbc5ff55d	-0.013669339
144	0x3e8339ee	0.25630134
145	0x3e949fcc	0.29028165
146	0xbe0f9aa3	-0.14023833
147	0x3ba881e6	0.005142438
148	0xbcfaa22a	-0.030594904
149	0x3dc5b352	0.09653343

encoder_x.fc_log_var.bias f4 [10]
0	0xbd92f603	-0.07175829
1	0x3da1fefe	0.07909964
2	0xbe33d585	-0.1756192
3	0xbd62cc50	-0.05537063
4	0x3d1c15ba	0.038106658
5	0x3dbb8aab	0.09157308
6	0xbd85cc6b	-0.0653313
7	0xbd4f8780	-0.050666332
8	0xbe178fd4	-0.1480096
9	0xbde6326a	-0.112400845

encoder_t.out.weight f4 [15, 15]
0	0xbe2aea8e	-0.16691038
1	0x3da537c3	0.08067276
2	0x3e55a53e	0.20863816
3	0x3cbb809e	0.022888478
4	0x3d01dc41	0.03170419
5	0x3e8ec5a9	0.27885178
6	0x3e81d3d2	0.2535692
7	0xbdb7a0d6	-0.08966224
8	0x3c85b6a4	0.016322441
9	0xbdecc33c	-0.115606755
10	0x3d986075	0.07440273
11	0x3dac8fb8	0.0842585
12	0xbc1a9be1	-0.0094365785
13	0x3de81c32	0.11333503
14	0xbd6bf65a	-0.057607986
15	0xbd5eb880	-0.05437517
16	0x3e2a4dca	0.16631237
17	0xbe003b9e	-0.12522742
18	0x3e3dc1b4	0.18530923
19	0x3da9aece	0.082852945
20	0xbe29d18f	-0.16583847
21	0xbd12e791	-0.03586537
22	0x3e17cee2	0.14825013
23	0x3e39c660	0.1814208
24	0xbda141ff	-0.07873916
25	0x3de89d51	0.11358131
26	0xbdb2540c	-0.08707437
27	0x3e4270a4	0.18988281
28	0x3d7c5ec9	0.06161383
29	0x3d4278ed	0.047478605
30	0xbceea054	-0.029129185
31	0xbdb997e8	-0.09062177
32	0x3da89f10	0.08233464
33	0x3e5195f0	0.20467353
34	0x3e377931	0.17917325
35	0xbdd64fc6	-0.10464434
36	0xbd007740	-0.031363726
37	0xbe418921	-0.18899967
38	0x3dc08451	0.09400237
39	0xbc8c578f	-0.017131595
40	0x3ca12839	0.0196725
41	0xbdd27fb6	-0.10278265
42	0xbdf0a674	-0.117504984
43	0x3e064458	0.13112009
44	0x3e429322	0.19001439
45	0xbc8c6b27	-0.017140938
46	0xbe3438b2	-0.17599753
47	0xbe488332	-0.19581297
48	0xbdcf52f3	-0.10123243
49	0xbe35c6e9	-0.1775166
50	0x3d615a80	0.05501795
51	0x3e85ec06	0.26156634
52	0xbe4a2496	-0.19740519
53	0xbd9de311	-0.07709325
54	0x3e762926	0.24039134
55	0x3d59a87d	0.0531392
56	0xbc5c3618	-0.013440631
57	0xbe40efe8	-0.18841517
58	0x3e1b6da5	0.15178545
59	0xbd4f2311	-0.05057055
60	0x3e39c374	0.18140966
61	0xbd960d04	-0.07326701
62	0x3e2c4fc0	0.16827297
63	0xbe388a4c	-0.18021506
64	0xbd5080c3	-0.050904047
65	0xbe631f5e	-0.22179934
66	0xbe2d028b	-0.16895501
67	0xbd3d046e	-0.046146803
68	0xbe8a11b3	-0.26966628
69	0xbdeaf81e	-0.11473106
70	0x3c9669e5	0.018361041
71	0x3e4f5a94	0.20249397
72	0xbd8fb165	-0.07016257
73	0x3daf3da3	0.08556678
74	0x3e2e5a5d	0.17026658
75	0x3cf09661	0.029368581
76	0xbdd0f080	-0.10202122
77	0x3e947771	0.28997377
78	0xbdee5628	-0.11637527
79	0xbdac456b	-0.08411678
80	0xbe354574	-0.17702276
81	0xbe06e3d6	-0.1317285
82	0x3dfd9ca8	0.123833954
83	0x3dd50508	0.1040135
84	0x3de79ddf	0.113094084
85	0xbd03fee1	-0.032225493
86	0xbd21b10e	-0.039475493
87	0x3e7ddf4b	0.24792211
88	0xbd9fda46	-0.07805304
89	0xbdab141d	-0.08353446
90	0x3e75efa7	0.24017201
91	0x3e1a6c1a	0.150803
92	0x3e078d2a	0.13237444
93	0x3e592b9f	0.21208046
94	0x3e2a0b6c	0.1660592
95	0xbddb63fc	-0.1071243
96	0xbd2ad3ae	-0.04170578
97	0xbe1b9536	-0.15193638
98	0x3dbf2f60	0.09335208
99	0x3aa61d0b	0.001267345
100	0x3c296eef	0.01034139
101	0x3e315ee5	0.17321356
102	0x3d14c679	0.03632209
103	0x3d96825f	0.07349085
104	0x3db5f4e2	0.08884598
105	0x3d427a72	0.047480054
106	0x3e1dca40	0.15409184
107	0x3e3f288b	0.1866781
108	0x3db00fdc	0.08596775
109	0x3d44aeef	0.048018392
110	0x3def6182	0.1168852
111	0xbe66a93a	-0.22525492
112	0xbd9eed0c	-0.07760057
113	0xbe0ce001	-0.13757326
114	0x3e054b80	0.13017082
115	0xbd10d522	-0.03535951
116	0x3c86dc7f	0.016462563
117	0x3de09fc0	0.1096797
118	0x3e3130ca	0.17303768
119	0xbe1eb49b	-0.15498583
120	0xbde19666	-0.11015014
121	0xbe320b4a	-0.17387119
122	0xbe2b549a	-0.16731492
123	0x3e39265f	0.18081044
124	0xbd51ea25	-0.05124869
125	0x3e5f3ad0	0.21799779
126	0xbdbf2604	-0.09333423
127	0x3d9568b6	0.07295363
128	0x3e81bd4a	0.2533973
129	0x3c8efedd	0.017455513
130	0xbe10abf2	-0.14128092
131	0xbe229b8c	-0.15879649
132	0xbe7526e8	-0.23940623
133	0x3e256964	0.16153485
134	0x3da5c697	0.08094519
135	0xbe44399a	-0.19162598
136	0xbe12bae5	-0.14329107
137	0x3df28b77	0.11843007
138	0x3e4babb1	0.19889714
139	0x3e53d8ba	0.20688143
140	0xbe40af3f	-0.18816851
141	0xbcaa9997	-0.02082519
142	0xbe11bc81	-0.14232065
143	0xbe74f1e0	-0.23920393
144	0x3e1f87be	0.15579125
145	0x3e4ca20c	0.19983691
146	0x3dfdb196	0.123873875
147	0xbd4869eb	-0.048929136
148	0x3ddd6b11	0.10811437
149	0x3e81419c	0.25245368
150	0x3dfcdbaf	0.12346589
151	0xbcd1ac95	-0.025594989
152	0x3e2e22d9	0.17005481
153	0x3e28d5a2	0.16487744
154	0x3df86ed2	0.12130512
155	0x3e3b271d	0.1827664
156	0xb8120eaa	-3.482277e-05
157	0x3e1d6378	0.15369976
158	0x3dfbddfd	0.122982
159	0xbe849618	-0.25895762
160	0x3e2b51fb	0.16730492
161	0xbe097fb4	-0.13427621
162	0x3e63e8be	0.22256753
163	0xbd86a7b0	-0.065749526
164	0x3e557c1b	0.20848124
165	0xb93789fd	-0.00017503645
166	0xbdc77fae	-0.0974115
167	0x3e0a712d	0.13519736
168	0xbdb4dc86	-0.08831124
169	0xbdcb2abe	-0.09920262
170	0xb8230aa9	-3.8872156e-05
171	0x3dc83d5d	0.09777329
172	0xb07bf7a8	-9.166521e-10
173	0xb201e7de	-7.561509e-09
174	0xbc9c78a8	-0.019100502
175	0xad1c45e6	-8.883094e-12
176	0xbc885456	-0.016641777
177	0x3bba8dad	0.0056931586
178	0x3d7716a7	0.060324337
179	0xbe09316f	-0.13397764
180	0x3e70628a	0.2347509
181	0xbc1e1644	-0.009648863
182	0x3d7ace87	0.061232116
183	0x3d2673be	0.040637724
184	0x3d66b20a	0.056322135
185	0xbe19b364	-0.15009838
186	0x3e6d972d	0.232022
187	0x3d7b0800	0.061286926
188	0xbc681cda	-0.014167035
189	0x3d3b52c5	0.045733232
190	0xbe768dbb	-0.24077503
191	0x3e2a5a8b	0.16636102
192	0xbd851274	-0.0649766
193	0xbd8a189e	-0.067429766
194	0xbe4143d6	-0.18873534
195	0xbe2d5c88	-0.16929829
196	0x3ddf4715	0.1090223
197	0xbdeac029	-0.11462433
198	0x3e8b1efa	0.2717207
199	0x3d8879cf	0.06663858
200	0x3e44a6da	0.19204274
201	0x3d8d5908	0.06901747
202	0x3e82dd62	0.25559527
203	0xbd42663a	-0.047460772
204	0xbd9ede51	-0.07757247
205	0x3d96e5a9	0.07368023
206	0x3c7d81b4	0.015472818
207	0x3e7fdef4	0.24987394
208	0x3d43dfbc	0.04782079
209	0x3e3f1178	0.18659008
210	0xbb210431	-0.0024569149
211	0x3e47ec7a	0.19523802
212	0xbd9ce23b	-0.076603375
213	0xbe8adb9f	-0.27120683
214	0x3daa6ed6	0.083219215
215	0xbe0ca1c1	-0.13733579
216	0x3d83b8d4	0.064317375
217	0xbcce3a04	-0.025174148
218	0x3e6261ef	0.22107671
219	0x3e500f6b	0.20318381
220	0x3e769970	0.2408197
221	0xbdfce867	-0.12349015
222	0x3e592536	0.21205601
223	0xbe5358d1	-0.2063935
224	0x3e213ebd	0.15746589

encoder_t.out.bias f4 [15]
0	0xbe432f81	-0.1906109
1	0xbd45f99c	-0.04833375
2	0x3d89a97c	0.0672178
3	0x3e2caa96	0.16861948
4	0xbbbd7abe	-0.0057824543
5	0x3e713c67	0.23558198
6	0xbd1fceab	-0.039015453
7	0x3d92d46e	0.07169424
8	0x3e5fa273	0.21839313
9	0x3dcc8345	0.09985975
10	0xbdb57931	-0.08861006
11	0xbe149aae	-0.1451213
12	0x3e884c64	0.2662078
13	0xbc998737	-0.018741233
14	0xbe0698f2	-0.13144282

encoder_t.fc_mu.weight f4 [1, 15]
0	0x3de69896	0.11259572
1	0x3e0adc8b	0.13560693
2	0x3e30b663	0.17257075
3	0xbb5a01a9	-0.003326515
4	0xbe2d069c	-0.16897053
5	0x3e04c306	0.1296502
6	0x3e0f0e3c	0.13970274
7	0xbe396215	-0.18103822
8	0xbc73d92c	-0.014883321
9	0xbe54449c	-0.20729297
10	0xbe2141c8	-0.1574775
11	0xbc9dde63	-0.019271081
12	0xbe13d285	-0.14435776
13	0x3d5ff2ba	0.05467484
14	0xbe4dcfdd	-0.20098825

encoder_t.fc_log_var.weight f4 [1, 15]
0	0xbe0f046b	-0.13966529
1	0xbd3a0951	-0.04541904
2	0xbe73536d	-0.23762293
3	0xbd6afbaf	-0.05736893
4	0x3dc1bdf2	0.09460057
5	0xbe7cab64	-0.24674755
6	0x3d4c2e4d	0.049848843
7	0x3d54ffe5	0.052001853
8	0xbe253a2d	-0.16135474
9	0x3c831124	0.015999384
10	0x3d7cec2e	0.061748676
11	0x3c6acba6	0.01433078
12	0xbd9c944e	-0.076454744
13	0xbe838975	-0.2569081
14	0xbd415b78	-0.047206372

encoder_yf.out.weight f4 [15, 15]
0	0x3c36ea04	0.011164192
1	0x3e60551b	0.21907465
2	0xbcad99f0	-0.021191567
3	0xbe2551c8	-0.16144478
4	0x3d94fef7	0.07275193
5	0xbdcad09e	-0.09903072
6	0xbc180b38	-0.0092800185
7	0xbdab8e2e	-0.08376728
8	0xbd8366f6	-0.064161226
9	0xbda29b0c	-0.07939729
10	0xbdf832fa	-0.12119098
11	0xbdcd26b4	-0.10017148
12	0xbdd88c90	-0.10573685
13	0x3e5fe4a9	0.2186457
14	0x3e56241d	0.20912214
15	0xbe55490c	-0.20828646
16	0xbe155509	-0.1458322
17	0x3cf6aebe	0.03011262
18	0x3d80e874	0.06294337
19	0xbe1ff971	-0.15622498
20	0xbd536e61	-0.051618937
21	0x3e572dda	0.21013585
22	0x3d89855c	0.067148894
23	0xbd0b10ca	-0.03395156
24	0x3d7d8aca	0.061899938
25	0x3d479e8b	0.048735183
26	0x3d26dde6	0.040738963
27	0x3d097b95	0.033565123
28	0x3e0bf744	0.13668543
29	0x3d10a393	0.035312247
30	0xbd9c38f0	-0.076280475
31	0xbc9f08ad	-0.019413317
32	0xbe7a02a3	-0.24415068
33	0x3d9c6f84	0.076384574
34	0xbe43494d	-0.19070931
35	0x3e2f0fab	0.1709582
36	0x3e1783a0	0.14796305
37	0x3d28f599	0.041249845
38	0x3d0659c1	0.03280044
39	0xbe03f7a7	-0.1288744
40	0x3cdfbeb8	0.027312621
41	0xbd911b04	-0.07085231
42	0x3e180aa0	0.14847803
43	0xbd833c5b	-0.06407996
44	0xbe8664a1	-0.2624865
45	0xbd352cfc	-0.044232354
46	0xbd55c000	-0.05218506
47	0x3e14e846	0.1454173
48	0xbe32b91f	-0.1745343
49	0x3e1ae0ef	0.15124868
50	0xbdc3634e	-0.09540425
51	0x3dbacd48	0.091211855
52	0x3de50adc	0.11183712
53	0x3dff5c93	0.12468829
54	0xbdfc8799	-0.12330551
55	0xbe08ad49	-0.13347353
56	0xbe30da5a	-0.17270795
57	0x3e45a040	0.19299412
58	0x3d489a24	0.048975125
59	0xbe23733b	-0.15961926
60	0xbe2ec130	-0.17065883
61	0xbdd5c0c8	-0.10437161
62	0x3dffbf87	0.12487703
63	0xbca4b3a0	-0.020105183
64	0xbe36ea58	-0.17862833
65	0x3df2ea19	0.11861057
66	0xbdde4bd8	-0.1085431
67	0xbe084eec	-0.13311356
68	0x3e742cce	0.23845217
69	0x3e246e8b	0.16057794
70	0x3e057ec9	0.13036646
71	0x3dc7b510	0.09751332
72	0xbe36114a	-0.17780033
73	0x3e039ef2	0.12853602
74	0x3d6f6cd8	0.05845341
75	0x3e1a1ced	0.15050097
76	0xbe14afe1	-0.14520217
77	0xbd054fc3	-0.03254677
78	0x3e0231df	0.12714337
79	0x3d6eb8bf	0.058281656
80	0x3d76c497	0.060246076
81	0xbc01cfb2	-0.007923054
82	0x3e0ae807	0.13565074
83	0xbdd9c17e	-0.10632609
84	0x3c85400e	0.016265895
85	0x3de0446a	0.10950549
86	0x3e409499	0.18806686
87	0xbd1d837c	-0.03845547
88	0xbdcbdbb1	-0.09954012
89	0xbcb5185a	-0.022106338
90	0x3e317936	0.17331395
91	0xbddb767d	-0.10715959
92	0x3d0b641c	0.03403102
93	0x3e84afcb	0.2591537
94	0xbe0aa02c	-0.13537663
95	0xbc4091bb	-0.011753495
96	0x3e1b036c	0.15138024
97	0xbd9747ab	-0.073867165
98	0x3e6a9fef	0.22912572
99	0x3e1406e1	0.14455749
100	0x3dd5efee	0.104461536
101	0xbcd66e5d	-0.026175672
102	0x3e3cb587	0.18428622
103	0x3d91193a	0.0708489
104	0xbcffd25e	-0.03122824
105	0xbd94b0ae	-0.072602615
106	0xbdb19867	-0.086716466
107	0xbd65a59c	-0.05606614
108	0xbe86fd64	-0.26365197
109	0x3baa2673	0.005192572
110	0x3e35b0a7	0.17743169
111	0x3df5006f	0.11962973
112	0x3d6e0777	0.058112588
113	0x3dac0c08	0.08400732
114	0xbe394359	-0.18092097
115	0xbb3dba27	-0.0028950067
116	0xbce4e33e	-0.027940389
117	0xbe5f198d	-0.2178709
118	0x3def6587	0.11689287
119	0xbd694400	-0.056949615
120	0x3e2eccaa	0.1707026
121	0xbe4af146	-0.19818601
122	0xbe06afe3	-0.13153033
123	0xbe0c9c91	-0.137316
124	0x3df87653	0.121319436
125	0x3dbb4013	0.091430806
126	0x3d805aea	0.062673405
127	0x3e7ffdea	0.24999204
128	0xbbd5690b	-0.0065127662
129	0x3c648572	0.0139478315
130	0xbdebbc33	-0.115105055
131	0xbcfc973e	-0.030833837
132	0xbc348394	-0.011017699
133	0xbddb657a	-0.107127145
134	0x3e46e3bf	0.19422816
135	0x168b7ca2	2.2535316e-25
136	0x10045497	2.6097576e-29
137	0x0ff660ba	2.429473e-29
138	0x8c071766	-1.0407063e-31
139	0x0f516a12	1.0324924e-29
140	0xb07b4635	-9.141304e-10
141	0x8ad05aa0	-2.0063761e-32
142	0x241196f2	3.156972e-17
143	0x0def3d56	1.4744278e-30
144	0xaa14f840	-1.323117e-13
145	0x0c6da305	1.8306873e-31
146	0x2029ef73	1.4394084e-19
147	0x23398e91	1.005906e-17
148	0x8e0b40e7	-1.7164322e-30
149	0x255afb8f	1.8993717e-16
150	0x3d9f1a57	0.07768696
151	0x3d8bfa5e	0.06834863
152	0xbdf42cdc	-0.11922619
153	0x3a07b747	0.0005177152
154	0x3e42fe41	0.19042303
155	0xbe59df0d	-0.21276493
156	0x3e52633f	0.20545672
157	0x3e19ecc6	0.15031728
158	0x3dc3e439	0.095650144
159	0x3e1b9e96	0.15197214
160	0x3e6d4be0	0.23173475
161	0x3b521a07	0.003205897
162	0xbd86cc18	-0.065818965
163	0xbdd01327	-0.10159903
164	0x3e08b220	0.133492
165	0xbab0689e	-0.0013458913
166	0x3d9e5682	0.07731344
167	0x3db18d14	0.08669487
168	0xbdb0eeb0	-0.08639276
169	0xbe2c159f	-0.16805123
170	0xbe46880d	-0.19387837
171	0x3e38259b	0.17983095
172	0xb16b461a	-3.423685e-09
173	0x29b6f50e	8.124934e-14
174	0xbe2a342e	-0.16621467
175	0xbe18e14d	-0.14929695
176	0x3d312131	0.043244544
177	0x3e55400a	0.2082521
178	0xbd827e98	-0.06371802
179	0xbe44c674	-0.19216329
180	0xbda52504	-0.08063701
181	0xbce8c096	-0.028412145
182	0x3d392585	0.045201797
183	0x3e8c7993	0.27436504
184	0x3ddb019d	0.10693667
185	0x3dde8db6	0.10866873
186	0xbdbe626e	-0.09296118
187	0xbd1192f9	-0.035540555
188	0xbca41ad1	-0.020032318
189	0x3e4cde9c	0.20006794
190	0xbe09b799	-0.13448943
191	0xbe3a4ed2	-0.1819413
192	0xbcc5a78c	-0.024127744
193	0x3df22278	0.11822981
194	0x3c93bd38	0.018034562
195	0xbd3332e5	-0.04374971
196	0x3e3fffe2	0.18749955
197	0x3ddcb5cf	0.10776865
198	0x3e713789	0.23556341
199	0x3e13842b	0.14405887
200	0xbcd1808a	-0.025573988
201	0x3d12f680	0.035879612
202	0x3e494bbc	0.19657797
203	0x3c234375	0.0099648135
204	0xbdceb0d2	-0.100923195
205	0xbe17de5d	-0.14830919
206	0x3c6ca983	0.014444712
207	0xbde4f125	-0.11178807
208	0x3c9190a0	0.017769158
209	0xbd682650	-0.056677163
210	0x3d90257f	0.07038402
211	0xbe1e80cf	-0.15478824
212	0xbe3d39a7	-0.18479024
213	0x3e54d89d	0.20785756
214	0x3de05bcd	0.109550096
215	0xbcd582c1	-0.026063325
216	0xbcce3afe	-0.025174614
217	0x3e67ad67	0.22624741
218	0x3dd51ae8	0.104055226
219	0xbdca5fe3	-0.0988157
220	0x3e29be44	0.16576487
221	0x3cbf24fa	0.023333061
222	0xbdf11567	-0.1177166
223	0xbdc369e3	-0.09541681
224	0x3e03c7f6	0.12869248

encoder_yf.out.bias f4 [15]
0	0x3d5b8a9f	0.053598996
1	0x3e079ad2	0.13242653
2	0xbe4c2051	-0.19934203
3	0xbe022914	-0.12710983
4	0x3e097583	0.13423733
5	0x3dde9e7c	0.10870072
6	0x3c8dc1d9	0.017304348
7	0x3bd8693b	0.0066043413
8	0x3e8554ce	0.26041263
9	0xa2d7913e	-5.8429648e-18
10	0xbe865837	-0.26239178
11	0xbe3780c6	-0.17920217
12	0x3d9441e2	0.07239129
13	0x3e080984	0.1328488
14	0x3e898910	0.26862383

encoder_yf.fc_mu.weight f4 [1, 15]
0	0x3e21b06b	0.15789954
1	0x3d2d8a0f	0.04236799
2	0x3ca08995	0.019596854
3	0x3c8723d8	0.016496584
4	0xbe106481	-0.14100839
5	0x3e5b36aa	0.21407571
6	0xbdb0199d	-0.08598635
7	0x3cd30998	0.02576141
8	0xbe3503ce	-0.17677233
9	0x26dc4199	1.5283347e-15
10	0xbe60e83d	-0.21963592
11	0x3d94a1f9	0.07257456
12	0x3e17f607	0.14839946
13	0xbdc5a441	-0.096504696
14	0x3dc2e81a	0.09516926

encoder_yf.fc_log_var.weight f4 [1, 15]
0	0x3daec63a	0.085339025
1	0x3e0ed0af	0.13946794
2	0x3e033cea	0.12816206
3	0xbda3a2ed	-0.0799006
4	0x3de25812	0.11051954
5	0x3e5d4ba3	0.21610884
6	0x3e0e3f5c	0.13891357
7	0xbe21fcf2	-0.15819147
8	0x3d8cd57a	0.06876655
9	0xb0454065	-7.175969e-10
10	0xbd6c1e3c	-0.05764602
11	0x3e24f319	0.1610836
12	0x3e2823aa	0.16419855
13	0x3db5ba69	0.088734455
14	0x3d7d6061	0.061859492
