DR_Info_CFR/IHDP/Models/netD.pth (torch, 9451 bytes, 5 tensors)

hidden1.weight f4 [30, 27]
00000000: 5882 d23d d33d 3f3c f095 babd d575 373e
00000010: 1a2d 8c3d 74e4 4dbe de12 533c e061 053c
00000020: 42e1 6c3e 6c2f 383e 1aba 283e 8909 113e
00000030: 5c9a 3a3e 9aca e23c 50d7 063e 54e4 3e3e
00000040: 1382 953e 1851 823e c567 2e3e edfa 0a3e
00000050: 53ed ab3c 56a2 243e 72a4 273d 3ca5 0cbb
00000060: 196e ce3d 6550 803e 0d03 93be 0de7 06be
00000070: 089e ad3d b097 62bc fd11 2e3e 4ffb da3d
00000080: 9955 9b3d a28b 633c 70d1 e03d cbf3 3a3e
00000090: 4a6a 17bc fd51 043e 77ed 4b3e 745d 893e
000000a0: c3f8 b7bc ea49 103e 1188 f7bc d15b 6f3e
000000b0: 9f9b 4b3e 0fb2 523e fa52 423e 9f0b 433e
000000c0: 0922 b8b9 6314 643b aa30 8b3e 5748 fa3d
000000d0: 4782 523e 7d75 88be e982 b3bd ca93 ba3d
000000e0: 183b ca3d 304b c83d fb61 b03d 9046 b23d
000000f0: aa46 04bd 7b9f de3d 5bc2 cc3d a6c8 173e
00000100: 86a2 013e c2cd c03d 5245 d93b dd26 283e
00000110: 30a3 dfbd 7df7 873d 4fa5 453d ba8f 52bc
00000120: bc7e 99bd 8c09 dabd 8bdb ba3d 02e9 8cbd
00000130: f162 b43d 8251 353d abc5 98bd 096e babd
00000140: bc18 103d d5dd c2bd ede1 053b 6bcc 32bd
00000150: 6188 12be fde7 233e 07ae 8f3b 46e6 8b3d
00000160: 0ab2 963c f626 0b3e 8719 a03e cd50 103e
00000170: 8001 a03b a24c 123d d9bb 6f3d 0e6f 3c3e
00000180: 7f78 f23d 20f1 613e 10c1 ae3e 682f 553e
00000190: a4bc 833d 829f 1b3d ab92 153e 462b bf3c
000001a0: 03a9 6a3c 2a4c b9bd 1268 663e 1f81 b53e
000001b0: f188 dc3c 4a23 19be 16ed b6bd d8e4 4f3e
000001c0: 0f67 a13d ebc6 26bb ff32 76bb e306 323a
000001d0: 2d10 733e 9e21 1a3e 9c45 24bd 56d5 7e3e
000001e0: 5410 503e 33cf e83d 1c1a 263e f13a 2f3b
000001f0: 6a81 703e c74f 993e 242b c6bc 72cd f73d
00000200: 0252 c03d 5fdd 803e 870d 813d d071 b63d
00000210: 411b 703e fd01 313d 4ef6 17be 5758 813d
00000220: cf9d 9cbc a160 5bbd 0795 a4bc 1cc4 c53a
00000230: 97d1 1fbc eb44 7fbb cdae 7e39 ceec 19ba
00000240: eae7 dcbc 4f86 f4bb fdac 383c 895c 343c
00000250: d555 8abd 74fd e73b 4fd2 b83c 3647 09bd
00000260: 5cd7 4bbd 83fc 1eba d596 ec3b 24a8 5883
00000270: 60bb 8ab5 fa28 9c3c 02a2 263b 84a9 4f83
00000280: 67d4 49bc 245d 29bd 0a9a 013e 7e50 b3bd
00000290: 2b3b 4e3d 56c7 013e 87bb 1abd 7945 2bbe
000002a0: dbe1 073e c6c6 093e 56a9 583e 7c25 283e
000002b0: 7018 4e3e a8f1 443e e6c3 ac3d c300 82bc
000002c0: 9668 1e3e aef3 503d 206a 0c3e 9c7c 873e
000002d0: 8c1d 873d 7c90 8f3e da92 07bd 2ca0 1e3e
000002e0: 45ff 463e 441c 7a3e 7e36 273e b3a7 3b3e
000002f0: 5ea1 92be d2fd 813c 8918 7dbc 8dad a8bd
00000300: 3f58 d73d ecab 32be 7770 23be ce74 673d
00000310: e9ea 1f3e 3994 febd 5bb8 853e 436b 63bd
00000320: 8557 cb3d 92aa 7b3e 4896 a43e f1fe 773d
00000330: 18b2 833e 521c c83c 287e 443e eb75 873d
00000340: 2c81 583e b891 debc 22ff d43d 15de 8a3e
00000350: e3c8 71bc d70e 2a3e a595 3e3d 9c5e 76be
00000360: 16a0 633c f985 97bc dc03 87bd d898 40be
00000370: 66f2 473d 2778 993d 5320 e23d 020d b13d
00000380: f70d 013e 2ebc 723d f385 b43d 5edf ffbd
00000390: a619 52bc a773 0cbe 04e4 c6bb cb6b 5bbb
000003a0: f062 d13d b7ab 573c 5232 653d b453 1fbe
000003b0: d38b 0f3d 61dc 6abb 338b 25bd 09eb 5e3d
000003c0: 0fce c0bd 3db6 e8bd 47f2 c03e 611f 8c3d
000003d0: b330 abbd 87b1 a93d ce2e 263e 7cc6 6fbd
000003e0: 2f68 8dbe eee4 443e 233a 8b3d 0302 293e
000003f0: 7b42 b63d 6d26 493e c407 023e e702 993e
0.10278767 0.011672455 -0.091106296 0.17916043 0.0684454 -0.20106679 0.012882916 0.008141011
0.23132804 0.1798684 0.16477242 0.14163794 0.18222946 0.027684499 0.13168073 0.18641788
0.292008 0.25452495 0.17031772 0.13572283 0.020987188 0.16077551 0.04092831 -0.0021460792
0.10079593 0.25061336 -0.28713265 -0.13174076 0.08477408 -0.01383011 0.1699905 0.106924646
0.07584686 0.0138882715 0.10977447 0.18257062 -0.00924165 0.12921901 0.19914804 0.26829112
-0.022457486 0.14090696 -0.030216249 0.23374869 0.19883583 0.20575736 0.18976966 0.19047402
-0.00035120573 0.003480219 0.27185565 0.12220829 0.2055751 -0.26652136 -0.087652035 0.0911022
0.098745525 0.09779966 0.08612438 0.08704865 -0.032293953 0.10870262 0.09998008 0.14822635
0.12659654 0.09414245 0.006630578 0.16421075 -0.109197974 0.066390015 0.048253354 -0.01285165
-0.07494876 -0.10646352 0.09123906 -0.0688038 0.08807934 0.044267185 -0.07459577 -0.09103019
0.03517984 -0.09514967 0.0020428852 -0.04365198 -0.14309837 0.16006465 0.0043847593 0.068310305
0.018395443 0.13589081 0.31269476 0.14093323 0.0048829913 0.035717614 0.058528755 0.18401739
0.11839389 0.22064638 0.3413167 0.20818865 0.06432465 0.037993915 0.1460673 0.023336064
0.014322522 -0.0904773 0.22500637 0.35450074 0.026920768 -0.14954868 -0.08931939 0.2030214
0.07880985 -0.0025448154 -0.0037567017 0.00067911873 0.2373664 0.15051886 -0.040105447 0.24886069
0.20318729 0.11367645 0.16220897 0.0026738013 0.23486868 0.29943678 -0.024190493 0.120997325
0.09390642 0.25168893 0.06301408 0.08908427 0.23447897 0.043214787 -0.14840052 0.063156776
-0.019118218 -0.05355895 -0.020090593 0.0015088352 -0.00975456 -0.003895099 0.00024288446 -0.00058717735
-0.026966054 -0.0074623 0.011271712 0.01100839 -0.067546524 0.0070797745 0.02256122 -0.033515178
-0.04976593 -0.0006064849 0.007220129 -6.366971e-37 -1.0336335e-06 0.019062508 0.0025426154 -6.1026427e-37
-0.012318707 -0.04134859 0.12656417 -0.08755587 0.050349396 0.12673697 -0.037776496 -0.1672572
0.13269751 0.13454732 0.21158347 0.16420549 0.2012651 0.1923281 0.08435802 -0.015869504
0.15469584 0.05101364 0.13712358 0.26462257 0.065974325 0.2803992 -0.033099033 0.15490788
0.19433315 0.24424845 0.16329381 0.18325691 -0.28638738 0.015868101 -0.015447744 -0.08236227
0.105148785 -0.17448395 -0.1596087 0.056507878 0.15616955 -0.12430615 0.26117215 -0.055522215
0.099288024 0.24576786 0.32145905 0.060545865 0.25721812 0.024427567 0.1918875 0.06614288
0.21143025 -0.027169093 0.10400225 0.2712256 -0.014757368 0.16607223 0.04652943 -0.24059528
0.013893148 -0.0184965 -0.06592533 -0.18808305 0.048815154 0.0749362 0.110413216 0.08645059
0.12602983 0.059261493 0.08814611 -0.12493776 -0.012823498 -0.13715993 -0.006069662 -0.0033480998
0.10223949 0.013163499 0.055956192 -0.15559274 0.035045456 -0.0035836922 -0.040415954 0.054423366
-0.094143026 -0.11362884 0.37684843 0.068419226 -0.08358898 0.08285814 0.16228792 -0.0585389
-0.27618548 0.19227955 0.06798198 0.16504674 0.08899399 0.19643565 0.12698275 0.29885027

hidden1.bias f4 [30]
00000000: 0217 b13e f977 a93e 54af 9c3d 7813 193e
00000010: 927b 753e 9eec cb3c e3a7 ad3e 8348 8f3e
00000020: 0c9e 28be 6cfd 6d3e c05b ab3e b52a c13c
00000030: aeae b33b cb3a 493e 083e 543d 0431 503e
00000040: 3377 88bd a5f4 8c3e fd2c c03e 53df 323e
00000050: 4feb 863d 4bd8 7b3e c59c 31bd 7072 f63d
00000060: 13f8 093e d725 76bd 495c 053e 80f2 33bd
00000070: 196b 873e fef9 bfbd
0.34587866 0.33099344 0.07650629 0.14948833 0.2397292 0.024893101 0.3391715 0.2798501
-0.1646654 0.23241204 0.33468437 0.023579935 0.00548347 0.19651334 0.05181697 0.20331198
-0.066633604 0.275304 0.37534323 0.17468004 0.0658785 0.24594228 -0.043362398 0.12033546
0.13473539 -0.06009468 0.13023485 -0.043932438 0.26448897 -0.09373854

hidden2.weight f4 [30, 30]
00000000: 704b 26be 3bf7 6abe 913f 77bd ed4e 893e
00000010: 836b 113d 7663 d6b6 f839 36be d750 96be
00000020: 6cbf 553e b86b 823e 8bff 6ebe 2d09 a73d
00000030: ffa8 933e ca8b 84bd 08aa ee3d 7be7 9cbe
00000040: 6e26 e83d 3eb6 303e a9e8 5b3e ed35 ecbd
00000050: 2c3f a8be 1d0e ed3b 7cec a63d e4bd a7bd
00000060: 3955 1c3e 69ce 8e3e 9443 a6be 5dc8 103e
00000070: 157d 92be e96b 0e3d 6894 253c d354 37bd
00000080: c7b5 40ba fe2b 15bd a3e5 9fb9 2f6d 3233
00000090: 1e66 4fbc fe9b 7abd 1d41 733b 22a4 6dbb
000000a0: 583d 0d3c 3911 44bd f368 2d3b 77e2 35bd
000000b0: 8391 c5bd 5959 e33d 7b83 6f3b 5a05 efbd
000000c0: 5224 24bd ac66 843d fe5f da2d e98f 433d
000000d0: 862a b1bd 4cee 3fbd f52a c93d 7fee 71bd
000000e0: 0ac0 203d d2bd 5403 2240 9a3d 2399 d8b9
000000f0: cce3 29bd 544a 81be 9152 053e 856c 0a3e
00000100: 70a9 d33a f313 8e37 a7c6 d9bd b97c 60be
00000110: 833b 413e 0b8c 083d 4941 20be 4d9b 063e
00000120: 5534 023e 0bf8 88bd a993 abbd aded 33be
00000130: 271e 9e3d 0f64 4b3e 7313 a43d bc4d 50be
00000140: 4f04 bfbd 36b4 2b3d 8f5b e53d 9388 06be
00000150: 58b4 c83c be67 923e 0ecc 76bd 0558 6c3e
00000160: ae58 963d 70a9 323d 5228 71b9 e529 dabb
00000170: f570 293d 437c 2cbc 8ac6 a53b 290f 5083
00000180: e39b 11b9 41f7 87b9 484c a6b9 8ed9 baba
00000190: 33a2 a4b9 34ab a03c b9d9 c4bb 79c0 8b3b
000001a0: 77e0 7bbb 0398 7f3b 9008 da3a 7f4c 99bc
000001b0: 8580 453c 4a38 813c 8da6 82b8 0bce cab9
000001c0: 24a2 863b b635 893c fead 35bc 732c 3fb8
000001d0: 4685 b3b9 74a7 eab6 957e 933c 88c6 0fb7
000001e0: ad8a 25be 6886 04bd df44 003e 637f 713e
000001f0: 1e2b 13be 48ac 95b8 34b7 0bbb 2f69 68bc
00000200: 730e f63c d91f c03c 5600 4cbe 9b1d c7bd
00000210: 4ebf 7b3e 5f83 40be a589 1ebe eb95 e63c
00000220: 8878 823e 26ba 763e 9835 e43d cfdd 41be
00000230: 4ded 98be 4ff0 f93d a9f5 393e 56b0 733b
00000240: 5582 1b3d dae3 873e 49a0 31be 04a8 203e
00000250: da24 83be 1a7c 5d3e fffc 17be 722a 8fbe
00000260: 9418 843d dd93 923e 56c0 10be abba 88b6
00000270: 02dd 21bd 396a 79be 50f9 483e 05e4 443e
00000280: aff4 a1be 6c69 423c 8859 7a3d 3b53 9bbd
00000290: a0f3 bdbd 57ba 0bbe a477 743e fdde 583e
000002a0: 3c62 3c3e ebd4 57be 788a a8be 85b2 ef3c
000002b0: 5649 af3e 6ac1 08be 409c ca3c 69fe 9e3e
000002c0: c7c1 a3bd 7239 813e cc9a 4fbe 8ffa 173e
000002d0: 1c9b 9f3e 37ac 283e 29a9 503e d2ef 703e
000002e0: 8713 513e d1bf 5e37 b39b 143e fe2e ce3d
000002f0: 675b 0fbe 88ce f83d c5f5 f53e 407c 1c3e
00000300: 2e2c 19bd deec 8a3d 5eae a53e 6cc8 c33e
00000310: a8de 93be c041 d73d b009 ca3e 3e54 473e
00000320: 6110 d33e c79e fc3d 40bb f83d 27a5 4c3e
00000330: 1a06 b63e 3f0d b2bd 166c 6d3e 8ac3 c5be
00000340: 074d 0d3e 547f 8abe b291 02be 8ab5 88be
00000350: 3f52 80bd 9316 043e 1b35 c2bd d7b1 d739
00000360: b878 14be 2606 89be 5bad 4f3e 6dc0 283e
00000370: e6f7 c3be d7dc 6d3e 7162 9f3d 7b13 dcbc
00000380: b1db 423e 1a61 e7bd 95ed 803d 1cdf 8a3e
00000390: 954d 063e 0303 10be d0a7 bfbe dd78 5f3e
000003a0: dfdc 273e ac03 adbe 708f bd3d b6d5 053e
000003b0: 74ac 86be 6aaa 9f3e 5b49 4abe ba17 173e
000003c0: 873f 3f83 cff6 2803 3284 4183 71e7 2183
000003d0: 4e9a 4383 863b 2d03 c8e1 bb83 a301 5883
000003e0: 7afa 2d83 87e5 3883 88f9 0c85 e158 2183
000003f0: 9e17 1c83 9748 8384 087e 4f83 e13d 2183
-0.16239715 -0.22945873 -0.060363356 0.26818028 0.03550292 -6.3892758e-06 -0.17795551 -0.2935855
0.20873803 0.25472808 -0.2333967 0.08156047 0.2883987 -0.06471975 0.11653525 -0.30645356
0.11335455 0.1725702 0.21475472 -0.11533723 -0.32860696 0.0072343484 0.081505746 -0.08190516
0.15266885 0.27891853 -0.32473433 0.14138933 -0.28611055 0.03477088 0.010106184 -0.04475863
-0.00073513057 -0.036418907 -0.00030497936 4.1543156e-08 -0.012658624 -0.061183922 0.0037117668 -0.003626116
0.0086205825 -0.047867987 0.002646026 -0.044405427 -0.09646895 0.11101026 0.0036546874 -0.116709426
-0.0400737 0.064648956 2.482636e-11 0.047744665 -0.08650689 -0.046858117 0.098226465 -0.05906534
0.039245643 6.2519104e-37 0.075317636 -0.00041312826 -0.04147701 -0.2525202 0.13019778 0.1351796
0.0016148519 1.6937009e-05 -0.10633593 -0.21922578 0.18870358 0.03333668 -0.15649904 0.1314518
0.12715276 -0.066879354 -0.08377773 -0.17571135 0.07720595 0.19862388 0.08011522 -0.20342153
-0.09326994 0.04191991 0.11199104 -0.13138036 0.024500057 0.28594774 -0.060253195 0.23080452
0.07341133 0.04361862 -0.00022998572 -0.0066578262 0.04136749 -0.010527673 0.005059068 -6.114311e-37
-0.0001388635 -0.00025933425 -0.0003171882 -0.001425551 -0.00031401365 0.019612886 -0.0060074 0.004264888
-0.0038433352 0.0039000518 0.0016634632 -0.018713234 0.012054567 0.015773911 -6.2299056e-05 -0.00038681956
0.004108684 0.016749244 -0.011088846 -4.5579345e-05 -0.00034240837 -6.9932375e-06 0.018004695 -8.569688e-06
-0.16166182 -0.032354742 0.12526272 0.2358375 -0.14371917 -7.1369635e-05 -0.0021318914 -0.014185234
0.030036187 0.023452686 -0.19922003 -0.09722444 0.24584696 -0.18800114 -0.15482195 0.028147658
0.25482583 0.24094447 0.11143035 -0.1893227 -0.29868546 0.12204038 0.18160118 0.0037183962
0.03796609 0.26541024 -0.173463 0.15689093 -0.25614053 0.21629372 -0.14842604 -0.2796207
0.064500004 0.28628436 -0.1413587 -4.074847e-06 -0.03951741 -0.24356927 0.19626355 0.19227608
-0.3163199 0.011865955 0.06112054 -0.07584234 -0.092749834 -0.13645302 0.23873764 0.21178813
0.18396848 -0.21077316 -0.32918143 0.02925993 0.34235638 -0.13355032 0.024732709 0.31053475
-0.079959445 0.2523914 -0.20273894 0.14841674 0.31173027 0.16471945 0.2037703 0.23528984
0.20417605 1.3276892e-05 0.1451252 0.10067557 -0.13999711 0.12148768 0.4803907 0.15281773
-0.03739565 0.0678346 0.32359594 0.38238847 -0.2888081 0.10510588 0.39460516 0.1946573
0.41223434 0.12334972 0.1214509 0.19984876 0.3555153 -0.08693933 0.23185763 -0.38625747
0.13798915 -0.2705027 -0.12750891 -0.26701003 -0.06265687 0.12899236 -0.09482785 0.00041140497
-0.14499176 -0.26762503 0.20280974 0.16479655 -0.3827507 0.23228775 0.07782448 -0.026864758
0.19029118 -0.112978175 0.06295315 0.27123344 0.13115533 -0.14063649 -0.37432718 0.2182345
0.1639285 -0.33791864 0.09255874 0.13069806 -0.26303446 0.31184703 -0.19754545 0.14755145
-5.620278e-37 4.9654085e-37 -5.6869355e-37 -4.757933e-37 -5.7482483e-37 5.090846e-37 -1.1042709e-36 -6.3478574e-37
-5.1127664e-37 -5.4336225e-37 -6.6286e-36 -4.7415676e-37 -4.587139e-37 -3.0864615e-36 -6.097651e-37 -4.738468e-37

hidden2.bias f4 [30]
00000000: bd8f ccbd 0cbf 4e3c df6b a03b 0b42 b6bd
00000010: 2f3b 19bd a646 233c 7be2 433e 9ce2 3dbd
00000020: 04f8 2485 8dfd c9bb b753 00be aa5f 583e
00000030: dc4b 713d bcd4 563e 4c1e 843e 2c23 943d
00000040: 49e7 083e fac5 d3bd 7049 e9bd 56f1 d73b
00000050: 5fbd 4c03 1c50 923e 0445 d83d 838e 41be
00000060: c03d b63d 188e 19be 5af1 acbd 6ca8 323e
00000070: 089b 343e b9f0 59bd
-0.099883534 0.012618791 0.0048956717 -0.088993154 -0.037409957 0.009965574 0.19129364 -0.04635869
-7.756796e-36 -0.006164259 -0.12531935 0.21130243 0.058910236 0.20979589 0.25804365 0.07233271
0.13369478 -0.103404954 -0.1139096 0.006590049 6.01676e-37 0.28576744 0.10560039 -0.1890202
0.08898497 -0.1499561 -0.08444472 0.1744706 0.17637265 -0.053208087

out.weight f4 [1, 30]
00000000: 3357 863e 2199 6b3d 8e5e 973e 6f96 9d3c
00000010: 5f01 933e 11c1 8f3e 696c 78be 82ca c23e
00000020: 30e4 2d03 e634 953e bcd0 913e 30c2 6fbe
00000030: acea 23be 0cfe bbbe 65e0 86be 1015 663d
00000040: dc54 943e cca8 5f3e d22d 9b3e 219e 9b3d
00000050: 8c92 4c03 6b37 9cbe 79a6 933e 85ba f93d
00000060: 8438 a33e dabb a03e 22ed ac3e 44a7 85be
00000070: 2d36 20be d296 8c3e
0.26238403 0.057519082 0.29564327 0.019236771 0.28711984 0.28076985 -0.24260105 0.38045126
5.1102077e-37 0.2914192 0.28479564 -0.2341392 -0.16007489 -0.3671726 -0.26343074 0.05617243
0.28970993 0.21841735 0.30308396 0.0759852 6.011844e-37 -0.3051103 0.28837946 0.12193779
0.31879056 0.3139332 0.33774668 -0.26104176 -0.15645666 0.27458817
