DR_Info_CFR/IHDP/Models/netD.pth (torch, 9451 bytes, 5 tensors)

hidden1.weight f4 [30, 27]
0	0x3dc05a16	0.093921825
1	0x3e0b5af1	0.1360891
2	0xbb34fa35	-0.0027614955
3	0x3e004386	0.12525758
4	0xbd06b496	-0.032887064
5	0xbd9569bd	-0.072955586
6	0xbd90f8ec	-0.07078728
7	0x3c1a8a64	0.009432409
8	0x3d1841e8	0.037172228
9	0x3e1ae132	0.15124968
10	0xbcd4f107	-0.025993837
11	0x3c801e9f	0.015639601
12	0x3dd91460	0.10599589
13	0xbde0030d	-0.10938082
14	0xbcb8c78f	-0.022556094
15	0xbc90f10d	-0.017693067
16	0xbccb50b2	-0.024818752
17	0xbd985d65	-0.074396886
18	0xbd118338	-0.03552553
19	0x3c09fd36	0.008422187
20	0xb9892a03	-0.00026161977
21	0xbc07afe1	-0.008281679
22	0x3c8e119b	0.01734238
23	0x3cf246bb	0.029574743
24	0x3dcb5f70	0.09930313
25	0xbdd4bb28	-0.1038726
26	0xbcf46e3c	-0.02983772
27	0x3e0e0ad9	0.13871326
28	0xbe775437	-0.24153219
29	0xbd8124aa	-0.06305821
30	0xbdc1d4f5	-0.094644465
31	0x3c90cea8	0.017676666
32	0xbd5ecd40	-0.05439496
33	0x3e0ed12f	0.13946985
34	0x3d1bdc0b	0.038051646
35	0xbd60ca7a	-0.054880597
36	0xbd2eb1f2	-0.04265017
37	0x3e50b838	0.20382774
38	0x3d674de1	0.056470755
39	0x3e9158be	0.28388017
40	0x3d837bb9	0.064200826
41	0x3d8a1c7c	0.06743714
42	0x3db63d90	0.08898461
43	0x3e5cc0bf	0.21557902
44	0x3e0e8517	0.13917957
45	0x3e7900eb	0.24316756
46	0x3e78b05e	0.24286029
47	0x3d314594	0.043279245
48	0x3e3da493	0.18519811
49	0x3e04a2ec	0.12952775
50	0x3df4a1ca	0.11944921
51	0x3e2f753a	0.17134562
52	0xbd35d3e3	-0.044391524
53	0xbe6f1d51	-0.23351027
54	0xbdd2358b	-0.10264119
55	0xbcdea11c	-0.027176432
56	0xbcfdd359	-0.030984567
57	0x3e44b7d9	0.19210757
58	0xbdd8abc1	-0.105796345
59	0xbe31fe99	-0.17382278
60	0x3c0e81bf	0.008697926
61	0xbde27f69	-0.11059458
62	0xbd95e94d	-0.07319889
63	0xbd8ef792	-0.06980814
64	0x3dc58d95	0.09646145
65	0xbd7f5fbd	-0.062347163
66	0x3d993f57	0.07482784
67	0x3c9521dc	0.018204622
68	0x3c96c24a	0.018403191
69	0xbcab4b55	-0.020909945
70	0x3d7613c7	0.060077455
71	0x3e7ce242	0.24695686
72	0x3d69aaf1	0.057047788
73	0xbd3f7c64	-0.046749488
74	0x3cbd7280	0.023125887
75	0x3d85ebdb	0.065391265
76	0x3dc155b9	0.094401784
77	0xbcaf632e	-0.021409597
78	0x3e1a2dff	0.15056609
79	0x3da4082c	0.08009371
80	0xbd93312c	-0.07187113
81	0x3b697a26	0.0035625785
82	0xbe27cdbf	-0.1638708
83	0x3e1b7d27	0.1518446
84	0x3d3a3a25	0.045465607
85	0x3dfd8b7f	0.123801224
86	0x3dbac80b	0.091201864
87	0x3ddb1fa9	0.10699398
88	0x3cffc645	0.031222472
89	0xbda4216f	-0.080141895
90	0xbd21c743	-0.03949667
91	0x3cdd9eed	0.02705332
92	0x3c23655c	0.009972896
93	0x3e5f5cd1	0.2181275
94	0x3c2a3996	0.010389706
95	0x3e199855	0.14999516
96	0x3e2ed1a8	0.17072165
97	0x3db897e6	0.09013347
98	0x3b615340	0.0034381896
99	0x3c585900	0.013204813
100	0x3e48e2ea	0.19617811
101	0x3c4fd649	0.012685367
102	0xbd3fd12e	-0.04683035
103	0x3db5db5f	0.08879732
104	0x3e20562f	0.15657876
105	0x3d57f3c4	0.052722707
106	0x3e93df25	0.28881183
107	0xbdc5a0e2	-0.096498266
108	0xbe1670d4	-0.14691478
109	0xbd96404c	-0.073364824
110	0x3e254fcf	0.16143726
111	0xbc9553b2	-0.018228386
112	0x3de85dbf	0.11346006
113	0xbe7001a3	-0.23438124
114	0xbccd7f4d	-0.025085116
115	0xbd0531ad	-0.032518078
116	0x3e7533b3	0.23945503
117	0xbce81013	-0.028327977
118	0x3e7c1fc5	0.24621494
119	0xbd07aed2	-0.033125706
120	0x3dd9e0f5	0.1063861
121	0x3da56e45	0.08077673
122	0x3e3e9356	0.18610892
123	0x3e7fb171	0.24970032
124	0xbc2f9cc1	-0.010718525
125	0x3e26c624	0.16286522
126	0x3da4f1fd	0.08053968
127	0x3e009380	0.12556267
128	0x3dd46549	0.10370881
129	0x3e5e8a89	0.21732534
130	0x3e675873	0.22592334
131	0xbba6db40	-0.0050920546
132	0x3d472545	0.048619527
133	0xbd67ecba	-0.056622244
134	0xbe4ec726	-0.20193157
135	0x3ddad64c	0.10685405
136	0x3b423764	0.0029635066
137	0x3d8cd09d	0.06875727
138	0x3de49c60	0.11162639
139	0xbe18eb7f	-0.14933585
140	0x3ced569b	0.02897196
141	0x3e6b48ae	0.22976944
142	0x3d884d60	0.06655383
143	0x3d7ca7d4	0.06168349
144	0xbd3c3253	-0.04594643
145	0x3d87e60e	0.06635676
146	0x3d3d0bae	0.046153717
147	0x3e53f3e8	0.20698512
148	0x3e17d0ba	0.14825717
149	0xbd35fbe2	-0.044429667
150	0x3d84de31	0.06487692
151	0x3d00662c	0.03134744
152	0x3e59fd7e	0.21288106
153	0x3e217a4b	0.15769307
154	0x3dfb1bb2	0.12261142
155	0x3e2af10e	0.16693518
156	0x3dcb6724	0.09931782
157	0xbaccb2b6	-0.0015617225
158	0x3e1b1b96	0.15147242
159	0x3d146b0c	0.0362349
160	0x3df80b93	0.121115826
161	0x3da5bf50	0.080931306
162	0x3cdf2285	0.02723814
163	0xbe40c149	-0.18823732
164	0x3de13b46	0.10997634
165	0x3d9cbc0c	0.076530546
166	0xbd9215f6	-0.07133095
167	0xbe161f13	-0.14660291
168	0x3dfcf572	0.123515025
169	0x3dc29908	0.09501845
170	0x3ddf79e8	0.10911924
171	0x3e319af5	0.17344268
172	0x3e22aa99	0.1588539
173	0x3d13efa6	0.03611722
174	0x3b346f0a	0.0027532005
175	0x3e093146	0.13397703
176	0x3c37e004	0.011222843
177	0x3e37c679	0.17946805
178	0x3d2af960	0.04174173
179	0x3e42bb8e	0.19016859
180	0x3d758aae	0.05994671
181	0x3d625eec	0.055266306
182	0xbcc3e12d	-0.023911083
183	0x3c11f80a	0.008909235
184	0x3d80cd79	0.06289191
185	0xbcbb98fe	-0.0229001
186	0x3d19d565	0.037557025
187	0x3e498402	0.19679263
188	0x3db07280	0.08615589
189	0x3dd60dda	0.10451861
190	0xbd8eee80	-0.06979084
191	0xbc9ade26	-0.018904757
192	0xbe0774cb	-0.13228147
193	0x3de9a204	0.11407855
194	0xbcf2fc06	-0.02966119
195	0x3e0245d4	0.1272195
196	0x3de0a7d8	0.10969514
197	0x3bd1805f	0.006393477
198	0x3ddaf745	0.10691694
199	0x3db76c1f	0.08956169
200	0x3e07c124	0.13257271
201	0x3dfcf43e	0.12351273
202	0xbe05d542	-0.13069633
203	0xbd49b8c4	-0.04924847
204	0xbda20d8a	-0.079127386
205	0xbc9aa9f2	-0.018879864
206	0xbc2afce5	-0.010436271
207	0xbb3c1786	-0.0028700544
208	0xbe00c331	-0.1257446
209	0x3dd1d58c	0.10245809
210	0xbdf3b23d	-0.11899231
211	0xbd48fe4b	-0.049070638
212	0xbdf49f2f	-0.11944424
213	0x3e1a9d6b	0.15099113
214	0xbc0d38f9	-0.00861954
215	0x3ea7fad6	0.3280856
216	0xbc8529ef	-0.016255347
217	0x3e470453	0.19435243
218	0x3d0686a6	0.032843255
219	0xbc1eb842	-0.009687485
220	0x3dd7b66b	0.1053284
221	0xbce18146	-0.027527463
222	0x3e0fb531	0.14033963
223	0x3df0fd5a	0.11767073
224	0x3d2f5ab9	0.04281113
225	0x3d9a1939	0.07524342
226	0xbd769876	-0.06020399
227	0xbdc7cc61	-0.09755779
228	0x3e28014a	0.16406742
229	0x3e211a6b	0.15732734
230	0xbc65eedc	-0.014033999
231	0x3e3aebfb	0.18254082
232	0x3d71c9e6	0.059030436
233	0x3d07bbf6	0.033138238
234	0x3decfd62	0.115717664
235	0xbe220b21	-0.15824558
236	0x3e1b4442	0.15162757
237	0x3cc28d37	0.023748977
238	0x3c809685	0.015696773
239	0x3d8ceb64	0.06880835
240	0xbd29a449	-0.04141644
241	0x3c153583	0.0091069965
242	0x3e9ca2ae	0.30592865
243	0xbd016d91	-0.03159863
244	0x3e0ee3d9	0.13954104
245	0x3e1b1a99	0.15146865
246	0xbd9e87ae	-0.077407226
247	0xbdfb1b9f	-0.12261128
248	0xbdaf7b8a	-0.08568485
249	0x3e60b590	0.2194426
250	0x3d901a17	0.07036226
251	0x3e1aa6e1	0.15102722
252	0x3e4ded16	0.20109972
253	0x3d8562ce	0.06512986
254	0x3e697117	0.22797047
255	0xbcd7b10a	-0.026329536

hidden1.bias f4 [30]
0	0x3e1feefd	0.1561851
1	0x3e908f91	0.28234532
2	0x3e5ddc1e	0.21666
3	0x3e6d0cd0	0.23149419
4	0x3e954a34	0.29158175
5	0x3db848de	0.08998273
6	0x3e452e3f	0.19255923
7	0xbdb3a5a1	-0.087718256
8	0xbe0616a8	-0.1309458
9	0xbcc8dd48	-0.024519578
10	0xbbfe28b3	-0.0077563166
11	0x3e08fc55	0.13377507
12	0x3d0137be	0.0315473
13	0x3cd2f16a	0.02574988
14	0xbd0fe330	-0.035128772
15	0x3e8fb7c1	0.2806988
16	0x3dbce2b2	0.09222926
17	0xbda1f6e2	-0.07908417
18	0xbd45fb1b	-0.048335176
19	0x3e2cbc0d	0.1686861
20	0x3e4a5817	0.19760166
21	0x3e877c78	0.2646215
22	0x3d831ad3	0.06401601
23	0x3cdf826e	0.027283873
24	0x3e78ba7b	0.24289887
25	0x3e59d697	0.21273266
26	0x3df9ba9c	0.12193796
27	0xbd83d364	-0.06436804
28	0xbd8b9566	-0.06815605
29	0xbbee551f	-0.007273331

hidden2.weight f4 [30, 30]
0	0x3d0eded6	0.03488048
1	0x3e3aca3b	0.18241207
2	0x3e336d8c	0.17522258
3	0x3ec2115c	0.3790387
4	0x3ee6df75	0.4509236
5	0x3df5c484	0.12000373
6	0xbe49bfc6	-0.19702062
7	0xbd818679	-0.06324477
8	0xbee07f20	-0.4384699
9	0x3ebea2b9	0.37233523
10	0xbd4b28a8	-0.04959932
11	0x3e21f405	0.15815742
12	0x3dacc480	0.08435917
13	0x3e920347	0.28518125
14	0x392be556	0.00016393265
15	0x3e576e9c	0.21038288
16	0x3e897392	0.26845986
17	0xbdcaf03a	-0.09909101
18	0x3dc08fe7	0.09402447
19	0x3ee15b8f	0.44015166
20	0x3f08b9d4	0.5340855
21	0xbd83ba15	-0.06431977
22	0x3dd6ecff	0.10494422
23	0x3e294002	0.16528323
24	0x3e2c4a6f	0.16825269
25	0x3ea4ffb2	0.3222633
26	0x3cded11c	0.02719932
27	0xbe989d2b	-0.2980741
28	0xba4171e6	-0.0007379338
29	0xbd882a53	-0.06648698
30	0x3da0f645	0.07859472
31	0x3e5ef5f7	0.21773516
32	0x3ee3deed	0.44506016
33	0xba9a452c	-0.0011769882
34	0x3e0c67a8	0.13711417
35	0x3e875d2f	0.2643828
36	0x3e1750b8	0.14776886
37	0xbe5ecfbe	-0.21758935
38	0xbdffcd99	-0.124903865
39	0x3e0420f2	0.12903193
40	0x3e71dbdd	0.23619027
41	0x3e74d047	0.23907577
42	0xbc08a54a	-0.008340189
43	0x3de1082e	0.10987888
44	0x3d70a4a5	0.058750767
45	0x3ea6678f	0.32500884
46	0x3e51f7d9	0.20504703
47	0xbcf8a114	-0.030350246
48	0xbdb58d1a	-0.088648036
49	0x3ecfe0f2	0.40601307
50	0x3df050b2	0.117341414
51	0x3e2ca330	0.16859126
52	0xbd182990	-0.037149012
53	0x3e2587cd	0.16165085
54	0x3ee67c60	0.45016766
55	0x3eaffe22	0.34373575
56	0xbd99c0da	-0.07507487
57	0xbdbe6b34	-0.09297791
58	0xbe11d2a6	-0.14240512
59	0xbe7f7899	-0.24948348
60	0x835c0651	-6.465944e-37
61	0x834f55dc	-6.0930394e-37
62	0x035287dc	6.1869412e-37
63	0x0358419f	6.3552024e-37
64	0x0359d7ac	6.4018148e-37
65	0x8358dbbb	-6.3728933e-37
66	0x992b4dc3	-8.856197e-24
67	0x0342bf7f	5.7231303e-37
68	0x8357de3b	-6.343793e-37
69	0x83566d25	-6.301424e-37
70	0x035ab343	6.4270224e-37
71	0x8350dd4e	-6.137975e-37
72	0x83514e1c	-6.1509245e-37
73	0x0355e45b	6.2857213e-37
74	0x834b1083	-5.9675293e-37
75	0x8354306a	-6.2356777e-37
76	0x8350058d	-6.113208e-37
77	0x8352e714	-6.197872e-37
78	0x8355e5dc	-6.285894e-37
79	0x83554df5	-6.2684564e-37
80	0x83589ef6	-6.3659173e-37
81	0x83554ae2	-6.2681035e-37
82	0x83514f35	-6.1510505e-37
83	0x834f2864	-6.08782e-37
84	0x83554f65	-6.2686215e-37
85	0x834cbceb	-6.016708e-37
86	0x0353413b	6.208221e-37
87	0x034a7fe8	5.9509294e-37
88	0x83582ae9	-6.3525953e-37
89	0x0357bd03	6.3399796e-37
90	0x3def75e9	0.116924115
91	0x3e99f811	0.30072072
92	0x3dc7acd2	0.0974976
93	0x3e2230c7	0.1583892
94	0x3e57f11c	0.2108807
95	0x3ec25a1b	0.3795937
96	0x3d525f50	0.05136043
97	0xbe9837c7	-0.29730055
98	0xbe18289d	-0.14859243
99	0x3eac0771	0.33599427
100	0xba2ef621	-0.00066742493
101	0x3e7f1b0d	0.24912663
102	0xbeaf625b	-0.34254727
103	0x3f023370	0.5085974
104	0x39bb5b86	0.0003573561
105	0x3d330732	0.043708034
106	0x3eeaa50b	0.45829043
107	0xbdd20a12	-0.10255827
108	0xbe5394cc	-0.2066223
109	0x3e86e31e	0.26345152
110	0xbe84ad4b	-0.25913462
111	0x3ddddf6f	0.10833632
112	0x3d9cd6ea	0.07658179
113	0x3ddb9ab9	0.107228704
114	0x3ebaad1e	0.36460203
115	0x3e353738	0.17696846
116	0x3dce85eb	0.100841366
117	0x3e051a42	0.12998298
118	0xbe490450	-0.19630551
119	0x3db9f108	0.09079176
120	0xbd9474f5	-0.0724887
121	0xbe945b5d	-0.28975955
122	0x3e0919cf	0.13388751
123	0x3d584d52	0.052808113
124	0x3e25b34f	0.16181682
125	0x3dffe526	0.124948785
126	0xbc65a032	-0.014015244
127	0x3ec34d1e	0.38144773
128	0x3e3f09f2	0.18656138
129	0xbe0d6105	-0.13806541
130	0xbe154167	-0.1457573
131	0xbe53f325	-0.20698221
132	0x3e384d69	0.1799828
133	0xbe16d101	-0.14728166
134	0xb9b2edb4	-0.00034127908
135	0xbdf08903	-0.11744883
136	0xbdbbf6aa	-0.09177907
137	0x3e88f8d7	0.2675235
138	0x3ea84483	0.3286477
139	0xbd493e84	-0.049131885
140	0xbe3ddc0c	-0.18540972
141	0xbd88c407	-0.06678014
142	0x3e981d78	0.29709983
143	0xbe440742	-0.19143394
144	0xbe1c7a62	-0.1528106
145	0x3e2eb90c	0.17062777
146	0x3d8b93b3	0.06815281
147	0x3e9873e7	0.29775926
148	0x3ead60bc	0.33862865
149	0x3e19d2f9	0.15021886
150	0x3d415cc2	0.0472076
151	0xbe26091b	-0.16214411
152	0xbe3891c2	-0.18024352
153	0x3d92a846	0.07161002
154	0xbdf67531	-0.12034071
155	0xbd2db3c8	-0.04240778
156	0x3e4257ab	0.18978755
157	0x3e24b9f7	0.16086565
158	0x3e41f1e3	0.18939929
159	0x3a8569a4	0.0010178578
160	0x3d809e08	0.06280142
161	0x3c38d442	0.011281075
162	0x3d02e541	0.031956915
163	0xbe81ef22	-0.25377756
164	0x3bbec1d1	0.0058214446
165	0xbcec1727	-0.028819634
166	0xbe5763cc	-0.21034163
167	0x3e15401b	0.14575236
168	0x3d8a4143	0.06750729
169	0x3ca3d2e2	0.019998018
170	0x3bfc6b97	0.0077032554
171	0xbe55075d	-0.2080359
172	0x3e975f0a	0.29564697
173	0x3d65920e	0.05604749
174	0xbda1feff	-0.07909965
175	0xbced3b3a	-0.028958905
176	0xbdba1a63	-0.09087064
177	0x3df9b0df	0.121919386
178	0x3deff055	0.117157616
179	0x3e84f7bf	0.25970265
180	0x3dcbd6fd	0.09953115
181	0x3ec4a873	0.38409767
182	0x3ea7f4e2	0.32804018
183	0x3e955be8	0.2917168
184	0x3ea8657e	0.32889932
185	0x3e18d8d5	0.14926465
186	0xbd03a85a	-0.032142974
187	0xbe2bf5fd	-0.16793056
188	0xbd10b3ff	-0.035327908
189	0x3e62e3c8	0.22157204
190	0x3ebba57f	0.366497
191	0x3eac1a78	0.33613944
192	0xbe17e11a	-0.14831963
193	0x3ebfb3bf	0.37441823
194	0x3a4be76c	0.000777832
195	0x3ea68ec0	0.32530785
196	0x3e7bae80	0.24578285
197	0xbe4a3e8d	-0.19750424
198	0xbe056dbf	-0.13030146
199	0x3e9d6c80	0.3074684
200	0x3e25a821	0.16177417
201	0x3e7128f4	0.23550779
202	0xbd3b896a	-0.045785345
203	0x3e8798fe	0.2648391
204	0x3eb841a4	0.3598758
205	0x3ea088a7	0.31354257
206	0x3ddf277f	0.10896205
207	0xbe7f6b0e	-0.24943182
208	0xbe1e76ec	-0.15475053
209	0xbe16260f	-0.14662956
210	0x3cc37e3e	0.023863908
211	0x3e98acca	0.29819328
212	0x3e586d6f	0.21135496
213	0x3e8fee53	0.28111514
214	0x3ebb96c2	0.36638457
215	0xb99fb0ba	-0.00030458515
216	0xbc8f8c04	-0.01752282
217	0xbdcb5e4a	-0.099300936
218	0x3d9ffd81	0.07812024
219	0x3cce1e40	0.025160909
220	0x3e8a5e2d	0.27024975
221	0x3e5edf31	0.21764828
222	0xbe5baf3d	-0.21453567
223	0x3e974241	0.29542735
224	0xb8ec28fa	-0.000112609894
225	0x3ecac2d2	0.3960176
226	0x3ea54b5c	0.32284057
227	0xbe2ae0b4	-0.1668728
228	0x3d65e926	0.05613055
229	0x3ee9454d	0.45560685
230	0x3daf3a23	0.085560106
231	0x3e6d9d6d	0.23204584
232	0x3d380ef4	0.044936135
233	0x3e1ee8fa	0.15518561
234	0x3df83c11	0.12120832
235	0x3e754009	0.23950209
236	0x3da2e27f	0.07953357
237	0xbea45f49	-0.32103947
238	0xbe19501b	-0.14971964
239	0xbe884d4a	-0.26621467
240	0x3cf62427	0.030046536
241	0xbe7248c2	-0.23660567
242	0x3c60fa0a	0.013731489
243	0x3cf12a99	0.029439257
244	0x3dd5c156	0.104372665
245	0x3e1b48d3	0.15164499
246	0xbd1972c8	-0.03746298
247	0x3e6f4a13	0.23368101
248	0x3ebdf094	0.3709761
249	0xbe2b8f3c	-0.16753858
250	0xbabfa7bf	-0.0014622136
251	0xbe13df91	-0.14440753
252	0x3df957f2	0.12174977
253	0x3e1483f0	0.14503455
254	0x391285b2	0.0001397345
255	0x3c784f62	0.015155645

hidden2.bias f4 [30]
0	0x3e009591	0.12557055
1	0x3d3d5765	0.046225924
2	0x00000000	0.0
3	0x3e1d0fdd	0.15338083
4	0xbc8fb367	-0.0175416
5	0xbd017cf8	-0.03161332
6	0x3e4614b9	0.19343843
7	0x3dbab2a6	0.09116106
8	0xbc8e5506	-0.017374527
9	0x3da42ebc	0.080167264
10	0x3d853dd2	0.06505932
11	0x3d91dbf3	0.0712203
12	0x3d6d3851	0.057915036
13	0x3d7172b3	0.058947276
14	0x3d8e57d5	0.069503464
15	0x3d4d710c	0.050156638
16	0x3bcbde45	0.006221565
17	0x3e01bf0a	0.12670532
18	0xbc886330	-0.016648859
19	0x3d962d00	0.07332802
20	0x3c78d24d	0.015186858
21	0x3e1f721a	0.1557087
22	0x3d1ef7d6	0.038810574
23	0x3cdc01d2	0.026856337
24	0x3d523d43	0.051327955
25	0xbd033f87	-0.032043006
26	0x3dd670c0	0.10470724
27	0xbc098b73	-0.008395064
28	0x3b7cbaa6	0.00385634
29	0x3cfe18c9	0.031017678

out.weight f4 [1, 30]
0	0xbe22c2a4	-0.15894562
1	0xbe8d3e5a	-0.27586633
2	0x835b58e4	-6.4460357e-37
3	0xbea6831f	-0.32521912
4	0x3e701883	0.2344685
5	0x3e523270	0.20527053
6	0xbf21a7ea	-0.6314684
7	0xbe7aedc4	-0.24504763
8	0x3e709e2d	0.2349784
9	0xbe5d9813	-0.21640043
10	0xbe8c9184	-0.2745477
11	0xbea37203	-0.31922922
12	0xbe765b96	-0.24058375
13	0xbe5d0a5d	-0.21585985
14	0xbe894abe	-0.26814836
15	0xbe18cc97	-0.14921795
16	0x3ea5f979	0.32416895
17	0xbeb18fb9	-0.34679964
18	0x3e8f86d2	0.28032547
19	0x3e939e67	0.2883179
20	0x3e58c8ad	0.21170302
21	0xbed7563e	-0.42057985
22	0xbd5b8dab	-0.053601902
23	0x3ead0285	0.33790985
24	0xbe8005c7	-0.25004408
25	0x3e85956d	0.26090565
26	0xbed5d11d	-0.41761103
27	0x3db475e8	0.08811551
28	0x3e8ae976	0.27131242
29	0x3e8c0b9f	0.27352616
