DR_Info_CFR/IHDP/Models/netD.pth (torch, 9515 bytes, 5 tensors)

hidden1.weight f4 [30, 27]
0	0xbd8f085b	-0.069840156
1	0x3de8c181	0.11365033
2	0x3dd81966	0.10551719
3	0x3d0dbd9b	0.03460465
4	0x3da7c006	0.081909224
5	0xbe1b398c	-0.15158671
6	0x3d0d30ab	0.03447024
7	0x3cec4fb8	0.028846607
8	0x3ce200e0	0.027588308
9	0xbaa41edd	-0.0012521405
10	0x3e56451a	0.20924798
11	0x3d6276ef	0.055289205
12	0x3d81040f	0.06299602
13	0x3e3dfddc	0.18553871
14	0x3b2784ee	0.002556141
15	0x3e578d77	0.21050058
16	0x3e6c3d3c	0.23070234
17	0x3e5e8866	0.2173172
18	0x3debd0f9	0.11514468
19	0xbaef4eaf	-0.0018257702
20	0x3dc81e9e	0.09771465
21	0x3db9adb0	0.090663314
22	0x3d2e9cc1	0.04262996
23	0x3e263ad9	0.16233386
24	0x3caf14bb	0.02137219
25	0x3e1d2d33	0.15349273
26	0x3eaa7179	0.33289698
27	0x3d984d9f	0.0743668
28	0xbe042aa0	-0.12906885
29	0x3d6e423e	0.058168642
30	0xbdbf1be0	-0.093314886
31	0x3e1aace0	0.15105009
32	0x3d9622e7	0.07330876
33	0xbdce740a	-0.100807264
34	0x3e480879	0.19534482
35	0x3e0dff11	0.13866831
36	0xbcdb49ed	-0.026768649
37	0xbd37fc49	-0.044918332
38	0x3e2cf947	0.16891967
39	0x3c256231	0.010094211
40	0x3e310436	0.17286763
41	0x3e21b386	0.15791139
42	0x3c20b519	0.009808802
43	0x3e2cf781	0.1689129
44	0x3ced4f4e	0.02896848
45	0x3e2f6938	0.17129982
46	0x3dd708a2	0.104996935
47	0x3bd61104	0.00653279
48	0x3e4092fc	0.1880607
49	0x3dc77f9c	0.097411364
50	0x3dce5ce1	0.10076309
51	0x3db7094b	0.08937319
52	0x3e88b064	0.26697075
53	0xbe58b68e	-0.21163389
54	0x3c59a753	0.013284522
55	0x3da28087	0.07934671
56	0x3cb0dd7f	0.021589993
57	0xbe013754	-0.12618762
58	0xbd8208bc	-0.06349322
59	0x3d394557	0.045232143
60	0x3de08a53	0.10963883
61	0x3dbf8f95	0.09353558
62	0x3d02efed	0.031967092
63	0xbc80fde8	-0.015746072
64	0xbdce7307	-0.100805335
65	0xbc33ab63	-0.010966155
66	0x3b474030	0.003040325
67	0xbde004ee	-0.1093844
68	0x3d878750	0.06617606
69	0x3df24c37	0.11830943
70	0xbc64922a	-0.013950864
71	0x3dbc6f8d	0.09200964
72	0xbc0b79aa	-0.008512894
73	0xbcb3684a	-0.021900315
74	0xbbcd3492	-0.0062623704
75	0xbe2d1233	-0.16901474
76	0xbca2cd30	-0.019873232
77	0xbdab1491	-0.08353532
78	0x3e3097fe	0.1724548
79	0xbde804eb	-0.11329063
80	0x3ea41824	0.32049668
81	0xbd3c8939	-0.046029303
82	0xbdb0edff	-0.08639144
83	0xbe17e0e8	-0.14831889
84	0xbc80ddcd	-0.015730763
85	0x3ce9bf12	0.028533492
86	0x3d132f17	0.03593358
87	0x3e34352d	0.1759841
88	0x3e1aca10	0.15116143
89	0x3e7fd5c1	0.24983884
90	0xbd3707a9	-0.04468504
91	0x3d5785c4	0.052617803
92	0xbe381f1c	-0.17980617
93	0x3d5a174d	0.053244878
94	0x3d906a3b	0.07051512
95	0x3d984c9e	0.074364886
96	0xbc4f39be	-0.012648044
97	0x3dd04e3a	0.101711705
98	0xbbda1bcc	-0.0066561457
99	0x3c868ded	0.016425097
100	0xbdf9cea5	-0.121976174
101	0xbddfeadc	-0.10933468
102	0x3d0282d3	0.031863045
103	0xbda4d34b	-0.080481134
104	0x3d39213b	0.045197707
105	0xbdc2be32	-0.09508933
106	0x3d64444a	0.055729188
107	0x3e8a08c6	0.2695982
108	0xbd3e22a4	-0.046419755
109	0x3dbd0d7d	0.09231088
110	0xbd1eef14	-0.03880222
111	0x3d650239	0.055910323
112	0xbc8ba541	-0.017046573
113	0xbcd02833	-0.025409793
114	0x3dfbd6b3	0.1229681
115	0x3e1434e6	0.14473304
116	0x3e1b2042	0.15149024
117	0xbc494637	-0.012284807
118	0xbcd5403b	-0.026031604
119	0x3e334595	0.17507012
120	0x3d4c46b9	0.049872134
121	0x3e6d6575	0.23183234
122	0xbce1f4a2	-0.02758247
123	0x3cad0f44	0.021125443
124	0x3d852089	0.06500346
125	0xbcc57832	-0.024105165
126	0xbd8d3a74	-0.06895915
127	0x3b8c470d	0.004280931
128	0x3de405ab	0.111338936
129	0xbcba2b1e	-0.022725638
130	0x3e2345e3	0.15944628
131	0x3e03474a	0.12820163
132	0x3db077e0	0.08616614
133	0x3e1b9bf4	0.1519621
134	0x3ebb1f77	0.36547443
135	0x3b4b90c3	0.0031061627
136	0xbcc991e8	-0.024605706
137	0xbcb6f48c	-0.022333406
138	0x3d45f4aa	0.048329033
139	0xbdc91907	-0.09819227
140	0xbe5756ef	-0.21029256
141	0xb914f042	-0.00014203883
142	0xbd817be2	-0.06322457
143	0xbcc27e79	-0.023741947
144	0xbc12a42c	-0.008950274
145	0x3e133322	0.14374974
146	0x3e157e2a	0.14598909
147	0x3e18c812	0.14920071
148	0x3e8392d9	0.25697973
149	0x3d8eaad0	0.06966174
150	0x3e79dd6d	0.24400873
151	0x3e5b3864	0.2140823
152	0x3e8fd323	0.28090772
153	0xbd946314	-0.0724546
154	0x3e745181	0.23859216
155	0x3d899bec	0.06719193
156	0x3dbb83a4	0.09155968
157	0x3a62d8c5	0.0008653517
158	0x3d3094f9	0.04311082
159	0x3db8772c	0.09007105
160	0xbc2bd6bb	-0.010488207
161	0xbcc23fe3	-0.023712104
162	0x3c809740	0.015697122
163	0x3b354bb4	0.002766353
164	0xbe3a8048	-0.18212998
165	0x3e6163a2	0.22010663
166	0xbdaaf561	-0.083475836
167	0xbdc89627	-0.09794264
168	0x3dfca57f	0.123362534
169	0x3b484d68	0.0030563716
170	0x3d1aa427	0.037754204
171	0x3e122f20	0.1427579
172	0x3d89b1e0	0.0672338
173	0x3e7b4ebe	0.24541757
174	0x3de94e92	0.11391939
175	0x3c461807	0.0120906895
176	0x3d977624	0.073955804
177	0x3ea6f303	0.32607278
178	0x3e521700	0.20516586
179	0x3e3f5c58	0.1868757
180	0x3c7d3b3a	0.015456015
181	0x3e715d21	0.23570682
182	0x3d149773	0.036277246
183	0x3bfe46b0	0.0077598915
184	0x3d16e03d	0.036834944
185	0x3e514680	0.2043705
186	0x384ab35d	4.8327598e-05
187	0x3e3434e6	0.17598304
188	0xbe63a897	-0.2223228
189	0xbd62aff2	-0.055343576
190	0x3e08ec0e	0.13371298
191	0x3dd97f42	0.106199756
192	0xbdf149a1	-0.11781622
193	0x3be77b3a	0.0070642503
194	0xbd86ea71	-0.06587685
195	0x3dd67d11	0.10473073
196	0xbc0fcc29	-0.008776703
197	0x3d44efb0	0.048080146
198	0x3cb8ccd1	0.022558602
199	0x3d480100	0.04882908
200	0xbdb3473d	-0.08753822
201	0xbd38adf4	-0.04508777
202	0x3e3a50f4	0.18194944
203	0xbd1c53e2	-0.038165934
204	0xbd11b0af	-0.03556889
205	0xbc622f33	-0.0138051985
206	0x3e098d27	0.13432752
207	0x3dd5913a	0.104280904
208	0xbd1f8cc9	-0.038952623
209	0xbd8fd570	-0.07023132
210	0x3d0950b8	0.033524245
211	0x3d120a1a	0.035654165
212	0x3de40087	0.11132913
213	0x3bfa5fe6	0.0076408265
214	0x3df8ce3b	0.1214871
215	0x3e365a8a	0.17807975
216	0xbdad64b5	-0.08466474
217	0x3cb4eb6d	0.022084916
218	0x3d965c0b	0.073417746
219	0xbd526ade	-0.051371448
220	0xbd8e7fce	-0.069579706
221	0xbe3e5926	-0.18588695
222	0xbd064eed	-0.032790113
223	0xbd6e2d8d	-0.05814891
224	0x3e5007c5	0.20315464
225	0xbc7fda2b	-0.01561598
226	0x3e1c8e5e	0.15288684
227	0xbd250c2e	-0.04029482
228	0x3c26d056	0.010181507
229	0x3d0be381	0.03415251
230	0x3e39937b	0.18122666
231	0x3d09b5ca	0.033620633
232	0x3dff5cc0	0.124688625
233	0x3e3b28d9	0.18277301
234	0x3dd68ea7	0.104764275
235	0x3e1306ef	0.14358114
236	0x3e129ece	0.14318392
237	0x3e51e9fd	0.20499416
238	0x3e1a18eb	0.15048568
239	0xbd16423c	-0.03668426
240	0xbcc2e19b	-0.023789218
241	0x3e7cabbd	0.24674888
242	0x3e7d17c1	0.24716093
243	0x3df6c421	0.12049127
244	0xbdbb57a9	-0.09147579
245	0x3c187c73	0.009307015
246	0xbdbf0692	-0.09327425
247	0x3d085556	0.033284508
248	0x3c88a494	0.01668004
249	0xbb263591	-0.0025361518
250	0xbca41e73	-0.02003405
251	0x3e28e90c	0.1649515
252	0xbc84d95f	-0.016216932
253	0x3ba87072	0.0051403577
254	0xbe10d88a	-0.14145103
255	0x3deaa588	0.11457354

hidden1.bias f4 [30]
0	0x3bf76660	0.007550046
1	0x3d1a64b2	0.037693687
2	0x3c886ac3	0.01665247
3	0xbdc71767	-0.097212605
4	0x3d8678a1	0.06565977
5	0x3dda51fd	0.10660169
6	0x3b63f44f	0.003478307
7	0x3e40c4a8	0.18825018
8	0x3db2b19e	0.08725284
9	0xbe0b24cf	-0.1358826
10	0xbd163d90	-0.036679804
11	0x3eb8dc21	0.36105445
12	0x3c817e64	0.015807338
13	0x3e22a56d	0.15883417
14	0xbe652661	-0.22377922
15	0x3d91f909	0.07127578
16	0xbd91a1b0	-0.071109176
17	0x3d41101f	0.047134515
18	0xbd98916b	-0.07449611
19	0x3e154d3a	0.14580241
20	0xbe0657e6	-0.13119468
21	0xbc221f42	-0.009895148
22	0x3e193478	0.14961421
23	0xbde44ceb	-0.111474834
24	0x3dbd1bdf	0.092338316
25	0x3db92e1f	0.09042
26	0x3e048caa	0.12944284
27	0xbd99feb2	-0.075192824
28	0xbd0468dd	-0.032326568
29	0x3d304954	0.04303868

hidden2.weight f4 [30, 30]
0	0xbe0f2b1e	-0.13981292
1	0x3e1e44a9	0.1545588
2	0xbe805eb5	-0.25072256
3	0xbc9dfec5	-0.019286523
4	0x3e80bcbf	0.25144002
5	0x3ead0889	0.33795574
6	0x3de712bc	0.1128287
7	0xbe7eac44	-0.24870402
8	0x3de00ce7	0.10939961
9	0xbe8dabbb	-0.27670082
10	0x3e6b32cd	0.22968598
11	0x3e964b9e	0.29354566
12	0x3e33d9e2	0.17563584
13	0x3d344fe8	0.044021517
14	0xbdeeccaf	-0.11660134
15	0x3ef0f29c	0.47060096
16	0x3dedacf9	0.116052575
17	0xbecbd734	-0.39812624
18	0x3c9196e0	0.017772138
19	0x3e7155f3	0.23567943
20	0xbe1e9ed8	-0.15490282
21	0x3ec0904d	0.37610093
22	0xbd38ffdf	-0.045165893
23	0x3c5e7fda	0.013580287
24	0x3eb9895f	0.36237618
25	0x3e2edc15	0.17076142
26	0xbe2db9ff	-0.16965483
27	0xbc090e0e	-0.008365167
28	0xbd50c1ae	-0.050965957
29	0x3d94f574	0.07273379
30	0x3e9002b6	0.28127068
31	0x3dd3d81f	0.10343956
32	0xbeabcc83	-0.33554468
33	0xbe01a3e2	-0.12660173
34	0xbc3e5818	-0.011617683
35	0x3bc5945a	0.006029648
36	0x3e732d22	0.23747686
37	0xbd3764e0	-0.044773936
38	0x3d21a4fa	0.039463975
39	0xbdc3ea5d	-0.095661856
40	0x3cd2f91d	0.025753552
41	0x3ea395fc	0.31950366
42	0x3e8be377	0.2732198
43	0x3d0eb40c	0.034839675
44	0xbe22194f	-0.15829967
45	0x3ec24d15	0.37949434
46	0xbd0de78b	-0.034644645
47	0xbe67e3e7	-0.22645532
48	0x3a27152b	0.00063736987
49	0x3e8018d3	0.2501894
50	0x3d7e0a38	0.062021464
51	0x3e9377ce	0.2880234
52	0x3dddf40e	0.10837565
53	0xbe30bd44	-0.17259699
54	0x3ea0d2af	0.3141074
55	0x3eb83f93	0.35986003
56	0x3e26e5bd	0.16298576
57	0x3e534f3b	0.20635693
58	0x3d1937ad	0.037406612
59	0xbe9b1226	-0.30287284
60	0xbd6ea727	-0.058264878
61	0x3e83b47d	0.2572364
62	0x3e4fc9d5	0.20291837
63	0x3ca63f11	0.020293744
64	0xbd45ded9	-0.048308227
65	0x3dd10c27	0.10207396
66	0x3eb43cbc	0.35202587
67	0x3def1260	0.11673427
68	0xbd879a6b	-0.0662125
69	0xbe115e0f	-0.14196037
70	0x3e78b4df	0.24287747
71	0x3e6f41d5	0.23364957
72	0x3ebf300b	0.3734134
73	0x3dadda78	0.08488935
74	0xbd1521db	-0.03640924
75	0x3d80d91c	0.0629141
76	0x3def5a94	0.11687198
77	0xbd91b3d9	-0.07114381
78	0xbc40eb52	-0.011774855
79	0x3e872ce6	0.26401442
80	0xbdac8627	-0.08424025
81	0xbe06d6a6	-0.1316782
82	0xbdd420d3	-0.10357823
83	0xbe10936c	-0.14118737
84	0x3db3a2b4	0.087712675
85	0x3e6a7981	0.22897913
86	0xba84d490	-0.0010134149
87	0x3c2ac670	0.010423288
88	0x3e15e44e	0.14637873
89	0x3e82483f	0.25445744
90	0xbcd124ae	-0.025530186
91	0x3d24549b	0.04011975
92	0x3b9a5ae7	0.0047105434
93	0xb9f8e386	-0.00047471764
94	0x3e0341f0	0.12818122
95	0xbce0dd13	-0.027449166
96	0xbcd67871	-0.026180478
97	0xbd1a245d	-0.037632335
98	0xbe1a6904	-0.15079123
99	0xb896b675	-7.186543e-05
100	0xbd73bd70	-0.059506834
101	0x3c8aaedc	0.016929083
102	0xbe2e682c	-0.17031926
103	0xb9ade179	-0.00033165122
104	0xbd2335ed	-0.03984635
105	0xbda60cbd	-0.081078984
106	0xba4dbdec	-0.000784843
107	0xba9154ae	-0.0011087859
108	0x2a456456	1.7531926e-13
109	0xbb487916	-0.003058975
110	0x3d9553e3	0.07291391
111	0x3e13ed96	0.144461
112	0x3e105ed3	0.14098673
113	0xbcb5784e	-0.022152092
114	0x3d1c1d43	0.038113844
115	0xbc4b53c6	-0.01241011
116	0xbb35b5a4	-0.0027726674
117	0xbaeed085	-0.0018220103
118	0x3d086a59	0.033304546
119	0x3a8e9166	0.0010877072
120	0x3e89f8b4	0.26947558
121	0x3e1a0bd6	0.15043578
122	0xbe09e784	-0.13467222
123	0xbe835c03	-0.25656137
124	0x3d8fcc74	0.07021418
125	0x3cb0eb9c	0.021596722
126	0xbe6ae663	-0.22939448
127	0xbd3e9b25	-0.046534676
128	0x3e1061da	0.14099827
129	0xb939ed4e	-0.00017731378
130	0x3edf3a31	0.43599084
131	0x3e324572	0.17409304
132	0x3e5cb683	0.21553998
133	0x3eb21009	0.3477786
134	0xbea88a45	-0.3291799
135	0x3e377535	0.17915805
136	0xbe83a073	-0.2570835
137	0xbe93f852	-0.2890039
138	0xbc4984ff	-0.012299775
139	0x3eeb12a2	0.45912653
140	0x3e38a173	0.18030338
141	0x3e8d6761	0.27617934
142	0xbe27eaa2	-0.16398099
143	0x3ca3b69e	0.01998454
144	0x3ce0cd94	0.027441777
145	0x3e6d0386	0.23145875
146	0xbe4acdc5	-0.19805057
147	0x3ca48a1a	0.020085383
148	0xbcc2b030	-0.023765653
149	0xbe87d0d0	-0.265265
150	0xbc503a8b	-0.01270927
151	0x3e342e5c	0.1759581
152	0x3eab2c99	0.33432463
153	0xbd582e41	-0.052778486
154	0xbd67102d	-0.05641191
155	0x3e94bf8f	0.29052398
156	0x3df8c597	0.12147062
157	0xbd70a582	-0.05875159
158	0xbe051152	-0.12994888
159	0xbd80a291	-0.06281007
160	0xbdda9476	-0.10672848
161	0x3eba2eea	0.36363918
162	0x3e8a0447	0.26956388
163	0x3e4efe33	0.20214157
164	0xbecf9515	-0.40543428
165	0x3e8fb61f	0.28068635
166	0xbe7a79a0	-0.24460459
167	0xbd822907	-0.063554816
168	0x3acf04e4	0.0015794304
169	0x3ee272d0	0.4422822
170	0xbc12dadd	-0.008963314
171	0x3efd947a	0.4952734
172	0x3ed07f27	0.4072201
173	0xbea13d7e	-0.31492227
174	0x3ec6e423	0.3884593
175	0x3ebc77cf	0.36810157
176	0x3ebf64c9	0.3738158
177	0xbd71d700	-0.05904293
178	0x3e4b6641	0.19863226
179	0xbe233fb3	-0.15942268
180	0x3e1ca2c6	0.15296468
181	0x3c8bcf6f	0.017066685
182	0x3e43e0ec	0.1912877
183	0xbcb35803	-0.021892553
184	0x3d0a4d57	0.033765163
185	0x3b29d844	0.0025916258
186	0x3de70b20	0.11281419
187	0xbe489f54	-0.19592029
188	0xbbd5edd6	-0.0065285964
189	0xbcbb4c4e	-0.022863533
190	0x3dec3ede	0.115354285
191	0xbacfb25a	-0.0015846
192	0xbe80561c	-0.25065696
193	0x3da19caa	0.078912094
194	0xbdfeb3f3	-0.12436666
195	0x3d8b0c03	0.067894004
196	0xbd5d9d8e	-0.054105334
197	0xbe14c75d	-0.14529176
198	0x3a6270a5	0.0008638001
199	0xbcfcd803	-0.030864721
200	0xbda31b0b	-0.079641424
201	0xbe4140ba	-0.18872347
202	0x3d96aabc	0.07356784
203	0xbdb21565	-0.08695487
204	0x3d4a07e4	0.04932393
205	0xbc92bb1c	-0.017911486
206	0x3de93091	0.113862164
207	0xbd124fa7	-0.035720494
208	0x3c54d0d9	0.012989246
209	0xbe36268e	-0.17788145
210	0x3eb7c8de	0.35895437
211	0xbeac419a	-0.336438
212	0x3e8fcca9	0.2808583
213	0x3e24b0ec	0.16083115
214	0x3e521aec	0.20518082
215	0xbdefc4da	-0.11707468
216	0xbdc7654a	-0.09736116
217	0x3dfd5355	0.1236941
218	0x3e86ddaf	0.26341006
219	0x3ea4abd1	0.32162336
220	0xbe147bf9	-0.14500417
221	0xbe737709	-0.23775877
222	0x3ca848c4	0.02054251
223	0xbdceeae0	-0.101033926
224	0x3e6c604d	0.23083611
225	0xbe46c99f	-0.1941285
226	0xbd525d3a	-0.05135844
227	0x3ef966b8	0.4871118
228	0xbd1f0e74	-0.038832143
229	0xbeadb759	-0.33928946
230	0xbd957222	-0.0729716
231	0xbdafc404	-0.08582309
232	0x3da58784	0.08082488
233	0x3eaab498	0.33340907
234	0xbed58126	-0.41700095
235	0xbcf67d7d	-0.030089134
236	0xbde5bdf6	-0.11217873
237	0x3e8fc0f5	0.28076902
238	0xbd69b15a	-0.0570539
239	0x3e0da61c	0.13832897
240	0x3d9bf927	0.076158814
241	0x3d48fbd4	0.049068287
242	0xbe4f524a	-0.20246235
243	0xbde0dd20	-0.10979676
244	0xbd7065d8	-0.058690876
245	0x3e9d66ce	0.30742496
246	0x3e685b2b	0.22691028
247	0x3e11eca3	0.14250426
248	0x3d2f7012	0.042831488
249	0x3b05e006	0.0020427718
250	0x3dacfe24	0.08446911
251	0x3eb360a2	0.35034662
252	0x3e4ed726	0.2019926
253	0x3dfee81a	0.124466136
254	0xbe5f57bc	-0.21810812
255	0x3eb7533e	0.35805696

hidden2.bias f4 [30]
0	0x3d97ce4c	0.07412395
1	0x3e258cbe	0.1616697
2	0x3d978260	0.07397914
3	0xbc4b29cc	-0.012400102
4	0x3d8c50dd	0.06851361
5	0x3e50ab95	0.20377953
6	0xbd0ed1e2	-0.03486813
7	0xbd056286	-0.032564662
8	0x3dcb2be9	0.099204846
9	0xbc1bef17	-0.009517453
10	0x00000000	0.0
11	0xbd5ac8fa	-0.053414322
12	0xbd2c5028	-0.04206863
13	0xbd653573	-0.055959176
14	0xbd357adb	-0.044306617
15	0xbd39c01f	-0.045349237
16	0xbc179909	-0.009252795
17	0x3e12552b	0.14290302
18	0xbb3265cb	-0.0027221318
19	0x3d996fbf	0.07492017
20	0x3dabc657	0.0838744
21	0x3dae4252	0.08508743
22	0xbd147a99	-0.03624973
23	0x3d8c0735	0.06837312
24	0x3d9d2630	0.07673299
25	0x3da9351e	0.082620844
26	0x3dd58f85	0.10427765
27	0x3e1aa833	0.15103225
28	0x3e02e66d	0.12783213
29	0x3d096710	0.033545554

out.weight f4 [1, 30]
0	0xbe8bdb4b	-0.27315745
1	0xbe7d5a7c	-0.24741548
2	0xbe1f176e	-0.15536281
3	0x3d8f64cb	0.070016466
4	0xbe90591c	-0.28192985
5	0xbf20f0c3	-0.62867373
6	0x3ab75105	0.0013985938
7	0x3ea6aca2	0.32553583
8	0xbe8ec990	-0.27888155
9	0x3eb04e1b	0.3443459
10	0x8358fcde	-6.376697e-37
11	0x3e8bff8a	0.27343398
12	0x3ea7820e	0.3271641
13	0x3ea2f748	0.31829286
14	0x3eae895b	0.3408917
15	0x3e1a5d2f	0.15074609
16	0x3e84ef7c	0.25963962
17	0xbe490717	-0.19631611
18	0xbbf21311	-0.007387527
19	0xbe92e353	-0.2868906
20	0xbe5e1d16	-0.21690783
21	0xbe7ae34d	-0.24500771
22	0x3df2f266	0.1186264
23	0xbe96d0b0	-0.2945609
24	0x3ebfe2d4	0.37477744
25	0xbe96cf0b	-0.29454836
26	0xbea5c081	-0.3237343
27	0xbf05b592	-0.5223018
28	0xbe3f015a	-0.1865286
29	0x3ea4d5c6	0.32194346
