DR_Info_CFR/IHDP/Models/netG.pth (torch, 27623 bytes, 10 tensors)

shared1.weight f4 [30, 100]
000000 35 c5 94 bd c9 05 8a 3d 7d ba e4 3c f8 03 c9 3d
       -0.07264177 0.06739385 0.027920956 0.0981521
000010 d4 93 dd bd 3a e6 bf bb f8 4d ef 3d 8c 2e 1a bc
       -0.108192116 -0.0058563026 0.11684793 -0.009410512
000020 cc 67 b2 bd 79 3c 4a bd 8d c1 93 bd 5e 58 3f 3d
       -0.08711204 -0.049374077 -0.07214651 0.046715133
000030 37 d9 62 bb 50 b9 2f bb ae 3e c5 3d ec bb 74 bd
       -0.0034614333 -0.0026813336 0.09631096 -0.05974953
000040 3c 91 0a 3d b1 39 e2 3c 6a a6 71 3d d3 d1 ec 3d
       0.033829913 0.0276154 0.058996595 0.11563458
000050 b1 e5 dd 3b 26 e7 21 3d d4 cf 9e bd 67 8b da bd
       0.006771766 0.03952708 -0.07754484 -0.1067112
000060 20 84 b5 bd 13 d2 e2 3d cd d7 81 bd c7 0f 8a bd
       -0.088630915 0.11075225 -0.06339989 -0.067412905
000070 26 41 b9 bd 3d 96 d3 bd 12 b3 35 bc 73 77 bf bc
       -0.09045629 -0.1033139 -0.011090057 -0.023372388
000080 23 50 db 3d 01 05 bd bc c7 7f 50 bd 1b da 60 3d
       0.10708644 -0.023073675 -0.050903108 0.0548955
000090 59 3c 22 3c 91 3b 90 bd 14 1e af 3c 0a b1 b7 bd
       0.009902083 -0.070426114 0.021376647 -0.089693144
0000a0 dc 48 d0 bd 32 18 fb bc be 20 db 3d 81 cf b4 3d
       -0.10170147 -0.030651186 0.106996045 0.08828641
0000b0 d1 22 7d 3d 1f 60 d5 3c 3c 8b 83 3d 2b 2e 5c bd
       0.06180078 0.02604681 0.06423041 -0.053754967
0000c0 24 24 e4 3d 8d b2 59 bd 5e b1 70 3c a6 31 00 3e
       0.11139706 -0.053148795 0.014690725 0.1251894
0000d0 7a f0 cd 3c f0 09 dd bd 2d cd 1c bd 77 dc 95 bd
       0.025139082 -0.10792911 -0.03828161 -0.07317441
0000e0 bd bf d0 bd ed 55 52 3d 04 10 cf 3d bf b7 33 3d
       -0.10192821 0.051351476 0.101104766 0.043876406
0000f0 cc 97 a7 3d 1d 98 2c 3d f5 2c eb bc f2 ff 17 bc
       0.0818325 0.042137254 -0.02870796 -0.009277331
000100 c2 c7 d9 bd 1a 62 11 bd 4c 78 cf 3d 76 69 e2 3d
       -0.10633804 -0.035493948 0.10130367 0.11055271
000110 72 29 a4 3d dd 1a 1b 3d 6f 40 a6 bd a5 f4 b2 3c
       0.080157176 0.037867416 -0.081177585 0.021845171
000120 62 e6 c6 3c ca a1 a9 bd 02 2d af bd ac 32 60 3d
       0.024279777 -0.08282812 -0.085535064 0.054735824
000130 a2 b2 14 bc 7a 81 9d bd 98 71 91 bd 7b 7e 20 bd
       -0.0090757925 -0.07690711 -0.071017444 -0.03918312
000140 73 ec b2 3c d0 c0 f0 3c 52 6d c1 bd c3 b1 c3 3c
       0.021841263 0.029388815 -0.09444679 0.023888474
000150 26 e9 a2 bd de 75 d5 bd b4 7d 17 3d cd 75 05 be
       -0.07954626 -0.10422872 0.036985114 -0.13033219
000160 85 4e b4 bd d5 dd cb 3b 4f 5f f1 bd 5a 3e 01 3e
       -0.08804039 0.006221513 -0.11785757 0.12621441
000170 f0 79 96 3d 1d 30 6e 3d e7 cd b4 3d 14 23 a3 3d
       0.073474765 0.058151353 0.08828335 0.07965675
000180 e8 9a 4e 3c da 12 01 be c3 a1 91 bd c9 27 ab bc
       0.012610175 -0.12604848 -0.07110932 -0.020892994
000190 35 5b 87 bd 81 f8 55 3d 25 72 b1 bb fd 11 69 3d
       -0.06609193 0.052238945 -0.0054152184 0.05690192
0001a0 63 10 b3 bc 86 86 05 3d e1 cc 6e 3c aa dc fe 3d
       -0.0218584 0.032598995 0.014575214 0.12444432
0001b0 39 c5 99 bd 9b b6 d2 bd 42 31 c3 3d e3 1a 28 3c
       -0.0750832 -0.102887355 0.095308796 0.010260317
0001c0 49 03 b1 3d fd 1c cd bc fc b9 80 bc 77 ce 95 bd
       0.08643205 -0.025038237 -0.015713684 -0.07314771
0001d0 f4 fc 66 bd 0f ce c7 3c 50 0e 9c 3d 00 1e 7d bd
       -0.05639358 0.024390249 0.076199174 -0.06179619
0001e0 7e 69 06 bd ae 12 89 3c ae fe 3a 3d 77 32 c9 bd
       -0.03281545 0.01673254 0.045653038 -0.098240785
0001f0 09 5e d2 3d fc 51 96 bd 31 af b7 3d 87 c4 d2 bd
       0.10271842 -0.07339856 0.08968962 -0.10291391
000200 ea 22 39 3d 5d 13 a6 bd 3d 7c 85 3d 70 2f a9 3d
       0.045199312 -0.08109162 0.06517837 0.08261001
000210 2d bd e8 bc 60 4f b3 3d 5f ac 91 3d 06 c3 5d 3c
       -0.028410519 0.08755374 0.07112955 0.013535267
000220 f5 3e a8 3d 6c cf 7c bd 41 a6 8a bd 1a 6b 2e 3d
       0.08215133 -0.06172125 -0.06769992 0.04258261
000230 cb 57 42 bd 3a 3a aa 3d 5a f1 90 3d 78 e8 b9 3d
       -0.047447007 0.08311887 0.07077284 0.09077543
000240 2c 80 07 bd 4b 3a b8 3d 42 de d5 3b 51 a8 5b 3d
       -0.03308122 0.089954935 0.0065267393 0.053627316
000250 9f b4 8b bd e9 1f 8f bd 5f e8 0c 3d 50 22 87 bd
       -0.0682156 -0.06988508 0.034401294 -0.065983415
000260 cf eb b4 3d 45 e2 89 bd ee d9 ea bc 22 44 49 3d
       0.088340394 -0.067326106 -0.02866837 0.049137242
000270 1d 9d 89 3d 96 50 46 3c fd 81 cd bd 2a b5 93 bd
       0.0671942 0.012104174 -0.10034559 -0.07212289
000280 05 cb 90 bd 91 ee 60 bd 34 28 ab 3d b5 48 eb bc
       -0.07069973 -0.054915015 0.083572775 -0.028721193
000290 09 37 47 3d dd d5 45 bd c9 24 f8 bc 36 74 68 bd
       0.04863647 -0.04829966 -0.030290978 -0.056751452
0002a0 9e 66 f3 3d 68 4d 76 3d 6d cb 06 3d 69 e0 2c bd
       0.11884807 0.060132414 0.032908846 -0.0422062
0002b0 00 b5 74 bd 8f fc 8e 3d 6b 89 b3 3c 90 da f1 bc
       -0.059742928 0.069817655 0.021916112 -0.029523164
0002c0 6c fe 61 3d 28 2d 90 3d 9e 9a 8d bd 62 da 61 3d
       0.055174276 0.07039863 -0.069142565 0.055139907
0002d0 a8 c8 87 bb 54 c4 3c 3d fd f9 6a 3d 44 af 93 3b
       -0.004143793 0.04608567 0.057367314 0.0045069773
0002e0 75 ef 9d 3b f4 a5 af 3d 99 b5 35 3d 91 2a b3 3d
       0.0048198053 0.08576575 0.04436264 0.08748353
0002f0 ac db ba 3d b1 b7 bf 3c 05 12 47 bd d4 ca b0 3d
       0.0912393 0.02340302 -0.04860117 0.086324364
000300 b7 e4 40 bc 06 bd cd 3d 31 4e 83 bd 64 b6 64 3d
       -0.01177328 0.10045819 -0.06411398 0.055838004
000310 c5 6b ec 3c 42 6b 78 3d 74 d3 dd ba 45 0f c1 bd
       0.028859982 0.060649164 -0.001692398 -0.094267406
000320 25 11 18 ba 67 6c 08 3e df 02 5a bd d7 7a d1 bb
       -0.00058008946 0.13322602 -0.053225394 -0.0063928175
000330 74 f3 80 3d cb 1f 3e 3d 9c 82 d3 bd 3e a5 e5 3d
       0.06296435 0.04641704 -0.10327646 0.11213158
000340 f1 49 1d bb b3 8e d2 3d 09 fb e8 bd bb ad 63 3c
       -0.0024000371 0.10281124 -0.11376006 0.013896401
000350 89 8f da bc a9 a3 00 bd 57 fd ae bd 48 d5 e3 3d
       -0.026679771 -0.03140608 -0.085444145 0.111246645
000360 d0 4d ae bd 57 87 a7 bd 0a 23 f7 3d 2e 60 08 bd
       -0.08510935 -0.08180111 0.1206723 -0.03329485
000370 86 ef 3f 3d e8 db 2e 3d b3 e4 89 3d 82 35 c3 bb
       0.046859287 0.042690188 0.06733074 -0.0059573064
000380 51 4d c4 bd a2 9b 84 bd 9b 3a 6c 3d a0 1d 8f bd
       -0.095850594 -0.06474997 0.057673078 -0.069880724
000390 b3 2e f2 3d 94 f8 ae bd 5d 6b 02 3e b4 b9 41 3c
       0.118253134 -0.08543506 0.12736268 0.01182406
0003a0 6e 90 45 3b 14 6f f1 bd e2 af 7f bb 7d 22 b9 3d
       0.0030145901 -0.117887646 -0.0039014746 0.09039781
0003b0 6a 04 a2 bc dc 37 b1 3c be 0b 33 bd c4 03 d7 3c
       -0.019777495 0.021633081 -0.04371237 0.026246913
0003c0 d0 98 02 3e ca f3 30 3d 0c cf 84 bd de 5d 8a 3c
       0.12753606 0.043201245 -0.064848036 0.016890462
0003d0 fa 30 70 bd 79 83 12 bd e7 99 85 3d 1d 24 5b bd
       -0.058640458 -0.035769913 0.06523495 -0.053501237
0003e0 ab 6a 33 bd 60 02 28 3d c3 e9 92 3d d5 f6 93 bd
       -0.0438029 0.04101789 0.07173493 -0.07224814
0003f0 bf d9 92 bd 59 98 bc 3c a7 e6 64 bd 7c 9e 8b bd
       -0.07170438 0.023021864 -0.05588403 -0.06817338

shared1.bias f4 [30]
000000 f7 13 8b 3e 4c c3 4b 3e 71 db 47 3e 16 29 a8 3e
       0.2716367 0.19898719 0.19517304 0.32843846
000010 8d c9 32 3e 7d b6 c3 3d 68 85 26 3e b2 59 1a 3e
       0.17459698 0.09556291 0.16261828 0.15073279
000020 05 01 44 3e 98 cf 72 3e ae d1 6d 3e 20 2d 7e 3e
       0.19141014 0.23712003 0.23224518 0.24821901
000030 43 d4 44 3e 71 18 66 3e 48 3c 80 3e 4b 39 8b 3e
       0.19221596 0.22470261 0.2504599 0.2719215
000040 b3 48 cf 3d 26 97 3d 3d 27 5f 00 3e a0 72 d3 3d
       0.10121288 0.046286725 0.12536298 0.10324597
000050 4b 9f 7e 3e 21 f8 9f 3e 1f 4f 9c 3e 42 88 9b 3e
       0.24865453 0.31243995 0.30529115 0.30377394
000060 2e de 09 3e 83 0f cc 3d d8 1b 9d 3e ea 52 2c 3e
       0.13463661 0.09963896 0.30685306 0.16828504
000070 50 08 74 3e 05 5d 47 3e
       0.23831296 0.19469078

shared2.weight f4 [30, 30]
000000 c4 75 43 3e 45 fe a9 bd f3 76 3c 3e df 58 43 bc
       0.19087893 -0.08300451 0.1840475 -0.011923044
000010 ca f1 55 3e ea 91 df bd 40 0a 56 bc 96 b8 4a 3d
       0.20893016 -0.10916503 -0.013063967 0.04949244
000020 dd e4 05 be 99 96 66 3d cb 31 45 3e 2e 94 91 bc
       -0.13075586 0.056295965 0.19257276 -0.017770853
000030 39 4c e5 bd 13 10 61 3e ea ea 0c 3e b7 e7 46 3e
       -0.11196179 0.21978788 0.13761488 0.1942433
000040 6b 41 44 3e 69 67 c5 ba 43 a2 09 3e f2 47 89 bc
       0.1916558 -0.0015060726 0.13440804 -0.016757939
000050 ba 23 ce bd c8 85 72 bc 3a df be bd 92 e0 7c 3e
       -0.10065408 -0.014802404 -0.09319921 0.24695042
000060 c7 4c 52 bd 0c 4d 69 3e 87 fa 3c 3e 4b ec 2b 3e
       -0.05134275 0.22783297 0.18454944 0.16789357
000070 90 41 08 3e e7 a0 03 3e fc 53 ef bd 64 cb b8 3d
       0.1330626 0.12854348 -0.116859406 0.09023169
000080 04 41 c9 bd 0b 45 b3 bd 87 96 31 3e 53 98 5b bb
       -0.09826854 -0.08753403 0.17342578 -0.003350754
000090 89 70 11 be 20 3d fa 3d c4 fc e3 bd 52 a4 c9 bd
       -0.14203085 0.1221869 -0.111321956 -0.09845795
0000a0 0c 17 fd bd 93 5b a4 bd f2 d7 fb 3d 1a de dc bd
       -0.123579115 -0.08025279 0.12297048 -0.1078455
0000b0 4e 47 1e 3d 2b cc f9 3d 49 8b 61 3c 10 38 96 3d
       0.03864222 0.12197145 0.013766118 0.07334912
0000c0 aa 76 b1 bd ac 4b 76 3d ca bd 7d 3c 24 cc 26 3e
       -0.086652115 0.06013076 0.015487144 0.16288811
0000d0 39 67 41 3d f1 27 02 3e bd 9a f9 3d 59 b9 ac 3b
       0.04721758 0.12710549 0.12187717 0.0052711186
0000e0 8a 89 db bd 1b 08 9a bd bc f8 5c bd 15 fe a9 bd
       -0.10719593 -0.07521077 -0.05394815 -0.083004154
0000f0 27 dd 4c 3c a7 56 15 3d 47 2e 16 3e 4a f5 5e 3e
       0.012503899 0.03645959 0.14666091 0.21773258
000100 59 95 84 bd af 69 f7 3d 73 43 e0 3c 5b 8b 0a 3e
       -0.06473798 0.120807044 0.027375912 0.13529722
000110 6c 36 48 3e 93 34 5f 3d c8 cb 67 3d 60 c6 91 bd
       0.1955201 0.054493498 0.056590825 -0.07117915
000120 81 d2 cb 3d f4 81 f1 bd d3 da 24 3d f8 4c 83 bc
       0.0995226 -0.11792365 0.04024775 -0.016027912
000130 96 94 52 3e b9 2a b3 bc d0 3a 51 3e ee 66 8f bd
       0.20564494 -0.021870958 0.20432591 -0.07002054
000140 30 bf 02 be 22 c5 7b 3e 1e 4b 90 3d 99 43 5e bd
       -0.12768245 0.24586919 0.070455775 -0.054263685
000150 41 61 53 3b d2 2c db bc a4 8d 7e 3d f9 83 86 3d
       0.0032254013 -0.02675477 0.062146798 0.065681405
000160 a7 f8 23 3e 52 46 25 3e 08 c5 c8 bd 4f 7a 1c 3a
       0.16012822 0.16140106 -0.09803206 0.0005969153
000170 f8 6d ae bd 6c 3b 30 3e 09 c5 3c 3d 1b 07 ad 3c
       -0.085170686 0.17210168 0.046086345 0.021121552
000180 3c 10 cc bd e7 a1 f5 bd e6 4d 9d 3d 21 3a df 3d
       -0.09964034 -0.11993771 0.076808736 0.10899759
000190 95 89 95 bd 41 23 27 3e 6f 7b 0f be 39 e8 d2 3d
       -0.07301632 0.16322042 -0.1401193 0.10298199
0001a0 3c ef 17 3e c5 e3 f9 3d 16 fe 30 3e 50 1e c4 bd
       0.14837354 0.12201647 0.17284426 -0.09576094
0001b0 f1 67 f5 3d b0 36 c3 3d 80 62 e9 3d c6 5d 57 3e
       0.11982716 0.09531915 0.113957405 0.21031865
0001c0 a1 87 83 3d 36 c6 9e 3d 2e a5 e1 3d 20 a9 c9 bd
       0.064223535 0.077526495 0.11017834 -0.09846711
0001d0 09 37 11 bd db 8f 05 bc fb 8c 84 bc c0 3a 09 3e
       -0.035452876 -0.008151974 -0.016180506 0.13401318
0001e0 75 6d 2f 3e 96 10 c5 3d 06 3b 8e 3c a9 4a 65 bd
       0.17131598 0.09622304 0.017362129 -0.055979405
0001f0 92 76 94 3c b7 91 bf bd 29 3a 7e 3d be 1d 47 3e
       0.018122945 -0.09353965 0.062067185 0.1944494
000200 08 5f 3b 3c 43 18 24 bc 89 db 5f bd ac b2 fa 3d
       0.011436231 -0.01001555 -0.054652724 0.1224111
000210 25 82 68 3d 06 fb 55 3e c6 d9 83 3d 3d 33 18 3e
       0.05676474 0.20896539 0.06438021 0.14863296
000220 fd b1 03 be bd 56 0a 3c 24 d8 1f 3e 3c 88 08 be
       -0.12860866 0.008443532 0.15609795 -0.1333322
000230 79 20 56 bd 3e 61 3c bd 28 79 ae 3d 8e 29 2b bd
       -0.052277062 -0.045991175 0.085192025 -0.041787677
000240 70 ac cf 3d f4 b0 39 3e 5d 29 aa 3c b5 c1 79 3c
       0.10140312 0.18133909 0.020771677 0.015243937
000250 17 4a 02 3e e7 19 d1 bd 69 29 e7 ba 63 e2 0c 3e
       0.12723576 -0.102100186 -0.0017636243 0.13758235
000260 ba 4f da 3d 62 cb 2e bd be f2 e1 bd 69 fa d8 3c
       0.10659738 -0.04267443 -0.110326275 0.026486592
000270 d1 47 58 bd d7 74 85 bd 10 9b b8 3d 77 40 c6 bc
       -0.052802864 -0.06516426 0.09013951 -0.024200661
000280 6a 2d ad 3c 10 a4 21 3e d8 6e e3 3d ec 4a c1 3c
       0.02113982 0.15785241 0.11105126 0.023595296
000290 30 89 1e bd 5a 96 02 3e 5b 0a bb bd 93 05 7d bd
       -0.03870505 0.12752667 -0.091328345 -0.061772894
0002a0 c8 e2 04 3e a7 b0 24 3d 00 6a 29 bd dd fc 5a bd
       0.12977135 0.04020753 -0.041360855 -0.053463805
0002b0 d8 a2 e5 3d 6b 21 3a 3e d6 69 4e 3e 66 eb 52 bd
       0.112127006 0.1817681 0.2015756 -0.051494025
0002c0 bc e3 6e 3c f4 2d 05 bd 1a c8 a4 3d 6e 18 56 3d
       0.014580663 -0.032514527 0.08045979 0.05226939
0002d0 3d 5a d6 bd dc a2 65 3e cf 2d 45 3e 95 66 24 bc
       -0.1046643 0.22425407 0.19255756 -0.010034223
0002e0 b3 05 22 3e b9 b0 a4 bd 9b 70 e4 bd c5 cc 4c 3e
       0.15822487 -0.0804152 -0.1115429 0.19999988
0002f0 53 0d 30 3e 84 d9 c5 3d 83 cb 56 bd bb e6 6a 3c
       0.17192583 0.096606284 -0.052440178 0.014337237
000300 61 28 a6 3d 84 a3 61 3e 89 2c ba 3d a8 f3 35 3e
       0.081131704 0.22035033 0.09090526 0.17768729
000310 b8 cd 40 bd c7 0d 3f 3e ca bc 20 ba f6 14 ee bc
       -0.04707119 0.186576 -0.00061316474 -0.02906273
000320 81 7d 12 3e 9a 2f db bc 3c bd 1c 3e a0 fc da bc
       0.14305688 -0.026756097 0.15306562 -0.02673179
000330 88 ca e2 3c 69 6e 03 3e f7 47 c0 b9 90 7a 4a 3e
       0.027684465 0.12835087 -0.00036674712 0.19773316
000340 c1 80 13 3e 2b e9 ef 3c 1f 3f ee bd 81 75 3d 3e
       0.14404584 0.029285988 -0.11633133 0.18501855
000350 7a 75 9d 3d f4 25 ff 3d 2a bc 93 39 e3 67 56 3c
       0.076884225 0.12458411 0.00028178218 0.013086292
000360 27 b3 94 3c a6 77 1f 3e 9e 89 2a 3e a8 c4 b0 3d
       0.018151833 0.15572986 0.1665406 0.08631259
000370 f6 68 0d 3c 4a 56 44 bd d8 0a 1c 3e bc cf 60 3e
       0.008630982 -0.047933854 0.15238512 0.21954244
000380 8d 58 50 3e 1b 37 c1 3d fd dc cd bc d8 35 7e 3d
       0.2034628 0.09434339 -0.02512979 0.06206307
000390 d0 9a 13 3d 53 75 39 3e cc 7c e9 bd 83 b8 96 3b
       0.036036313 0.18111162 -0.11400756 0.004599632
0003a0 bb 34 d3 3d 7a 76 64 3d 8c 03 fc 3d 5d 08 02 3e
       0.10312792 0.05577705 0.12305364 0.12698503
0003b0 42 27 9f 3d 83 a0 40 3e 7f 54 e5 bc b6 c1 f8 bc
       0.0777116 0.1881123 -0.027994392 -0.030365806
0003c0 ee 99 1c 3e 10 1c 1b bd b9 6b 00 bd 52 2c 2d 3e
       0.15293095 -0.03786856 -0.031352732 0.16911438
0003d0 b3 cd 15 3d 84 7c 03 3e e5 83 14 3e 45 49 d9 bd
       0.036573123 0.12840468 0.14503439 -0.10609678
0003e0 db 30 6c bd c2 a1 01 3e b1 01 cf 3d 93 02 d3 3d
       -0.05766378 0.12659362 0.101077445 0.10303225
0003f0 4e ce de bd 5b ed ea bd ab d9 ce 3d 51 f2 8d bc
       -0.10879193 -0.11471053 0.101001106 -0.01732746

shared2.bias f4 [30]
000000 83 c3 42 3e 35 6b 4c 3e b3 17 e3 3c ca 75 63 3e
       0.19019894 0.19962771 0.027721262 0.22212902
000010 ce 62 82 3e 1a ea bf 3e 4f f0 6c 3d 4d 86 8e 3e
       0.25466007 0.37483293 0.057846364 0.27836838
000020 36 54 73 3e 52 f6 13 3e 0c 1a 19 3c 0a 8f b1 3e
       0.23762593 0.14449432 0.009344589 0.34679443
000030 c8 d3 96 3e 4c ac 90 3e 17 40 95 3e 54 aa c0 3d
       0.2945845 0.28256452 0.2915046 0.094074875
000040 67 1d 36 3d 26 66 65 bd 03 cf be 3d 30 10 17 3d
       0.044461634 -0.05600562 0.09316828 0.036880672
000050 53 a7 57 3e 8c d9 b4 3e ff 91 a2 3e 07 f8 b3 3d
       0.21059923 0.35322225 0.3175201 0.08787542
000060 57 3e c4 3e 27 68 91 3e 11 54 c0 3e 54 3a b0 3e
       0.38328812 0.28399774 0.37564138 0.344195
000070 92 54 32 3d 75 3d 82 3d
       0.043537684 0.06359378

hidden_y0.weight f4 [30, 30]
000000 79 b4 cb bd 8d 94 dd bd c6 fe 8d 3d 90 83 dc 3d
       -0.09946532 -0.108193494 0.0693336 0.10767281
000010 9a 3a bc 3c ca ae bf 3d 0d 78 f7 bd 7f d0 00 be
       0.022977162 0.0935951 -0.12083445 -0.12579535
000020 75 77 1f bd 55 f4 39 3c 20 b1 f9 bd 67 43 17 3e
       -0.038932282 0.011349757 -0.12191987 0.14771806
000030 6a 5a 0d bd 76 99 4c bd 55 7d 6e 3d 2c 9c 54 3b
       -0.034510054 -0.04995104 0.058224995 0.0032441719
000040 18 56 0f be 7b 2d 0c bd df 95 59 3d c9 9b 83 3d
       -0.13997686 -0.03422306 0.053121444 0.06426198
000050 bd 43 2d be 4f 04 06 be ca de b8 3d 59 29 f0 bd
       -0.16920371 -0.13087581 0.09026869 -0.117266364
000060 ef 58 fa bd 24 7f da bd 42 a3 2b be b6 87 3b be
       -0.12223994 -0.106687814 -0.16761497 -0.18313488
000070 0f 0f e5 bc c9 00 01 be 69 84 02 3e 7c c1 1f 3c
       -0.027961282 -0.12597956 0.12745823 0.00975072
000080 80 29 a8 3c 09 7b 6f bd 8d d9 e8 3b 91 65 65 3d
       0.020527601 -0.058466945 0.007106012 0.056005064
000090 a6 2b be bb 97 16 15 3e a3 c5 0b be ee 84 82 bd
       -0.005803543 0.14559399 -0.13649611 -0.063730106
0000a0 da 5a 0e 3e 01 b4 22 3d 8f ba ef 3d 6b ab 99 bb
       0.13901845 0.039722446 0.11705505 -0.004689624
0000b0 2d e7 e4 3d ab 12 1c ba 73 a8 83 bd 03 db c8 3d
       0.11176906 -0.00059537095 -0.064286135 0.09807398
0000c0 83 62 4b 3c 86 1a c4 3b 30 cb b7 bd 59 4e a0 3d
       0.012413624 0.005984607 -0.08974302 0.07827444
0000d0 62 8a 67 bc 2d 6f 0c be b5 de f8 3d d6 6f 02 3e
       -0.014132114 -0.13714285 0.12151853 0.12737975
0000e0 cb a7 ab 3d 8d d2 6d 3d 5f 8c ab 3d 33 ed 52 3d
       0.08381613 0.058062125 0.08376383 0.051495742
0000f0 5c 02 89 bd 0a 7c 82 bc a5 90 da bd 41 6e 61 bd
       -0.06689903 -0.015928287 -0.1067212 -0.055036787
000100 25 f7 c8 bd f7 6e 59 bc ac bb 77 3b 3c 19 4c bd
       -0.09812764 -0.013271085 0.003780107 -0.049828753
000110 fc 39 e3 3d ca 93 01 be 92 cf 22 3e 18 0c b4 3d
       0.11095044 -0.12654033 0.15899494 0.08791369
000120 37 53 cd bb ab b8 08 3e e6 3c 2e 3e c5 9c 8c bd
       -0.0062660235 0.13351695 0.17015418 -0.06865839
000130 2e 4a 30 1a b0 55 aa 3d fa ad 87 bd 8f ca 62 bd
       3.645587e-23 0.08317125 -0.0662498 -0.055368956
000140 dd 61 e0 bd e3 9f ad 3b ec c5 86 bd 0b 61 4a bb
       -0.10956166 0.005298601 -0.06580719 -0.0030880596
000150 f3 6a 9d 3c 78 85 b7 bd 1b b4 2e 3d d4 ca 08 be
       0.019216036 -0.08961004 0.04265223 -0.13358623
000160 42 02 b6 bd be a2 fb 3d e2 36 e1 bc f2 15 e0 3b
       -0.088871494 0.122869 -0.02749199 0.0068385536
000170 04 a4 c1 bc f3 c3 9e 3c ef 6e a2 3d 74 c6 c0 bd
       -0.023637779 0.019380545 0.07931315 -0.09412852
000180 f9 9d 27 bd e9 4b b7 3c 84 73 5c 3e ec 6d 78 bd
       -0.04092214 0.022375064 0.2152844 -0.060651705
000190 c1 02 bf 3c 5d 39 3c 3e fd e9 65 3e 80 7f 90 3d
       0.023316743 0.18381257 0.2245254 0.07055569
0001a0 66 c2 b8 3d 7e cf 29 3d f1 0d 83 bd fc 88 2e be
       0.090214536 0.041457646 -0.063991435 -0.17044443
0001b0 e8 38 a3 bd 60 76 a8 3d 44 f6 30 3e 02 f8 0f 3e
       -0.079698384 0.08225703 0.17281443 0.14059451
0001c0 af 78 92 3d 1c 8a 33 3b ba 7e 6e 3e 74 bc e3 3d
       0.07151925 0.0027395552 0.2329053 0.11119929
0001d0 e8 f1 a4 3d 26 29 c6 bd 33 c3 06 3e ef 56 f7 3d
       0.080539525 -0.09675817 0.131604 0.12077128
0001e0 97 85 0e 3d 36 bd 61 3e 3c 7f e9 3d 33 d8 0a 3e
       0.03479537 0.22044834 0.11401221 0.13559036
0001f0 b7 52 29 3e f0 27 37 3d 91 3c e4 3d d5 9b b3 3d
       0.1653546 0.04471582 0.111443646 0.08769957
000200 13 3e e2 3c 50 f2 4a 3e b6 ea 76 3c 96 53 97 3d
       0.02761749 0.19818997 0.015070608 0.073889896
000210 cb b2 86 bd 60 b4 0a 3e 77 b4 f0 3d 56 7a f2 3d
       -0.06577071 0.1354537 0.11753171 0.1183974
000220 92 34 b0 3c 50 5e ad 3d 72 12 b9 bd eb d9 7f bc
       0.021509442 0.08465254 -0.09036721 -0.015615921
000230 d7 ca fe bd a7 dc 81 bd 9a ac 8e 3d 16 35 ca bd
       -0.124410324 -0.06340914 0.06966515 -0.098734066
000240 bc f8 38 3e 89 2c 91 3b f0 56 c4 3d 2a 64 46 3e
       0.18063635 0.004430358 0.095868945 0.19374147
000250 b1 1e ce bd d4 a5 e0 3d 6b 09 02 3e ee bb dd bd
       -0.10064448 0.10969129 0.12698905 -0.1082686
000260 2d 09 00 bd e7 29 d2 3d 1c 68 80 bd 08 a9 c0 bd
       -0.03125875 0.102618985 -0.06269857 -0.0940724
000270 3e f8 88 3d ed 87 a9 3c 8a d1 fb 3c 0b 91 4c 3d
       0.066879734 0.020694697 0.030739564 0.04994301
000280 8a 78 7e bd 4b d0 0f 3e fe 5f ac bc ec 06 06 3e
       -0.062126674 0.14044301 -0.021041866 0.13088578
000290 75 ba 61 3d 34 27 4b be 0d 1e 8e bd 35 b0 30 bd
       0.05510946 -0.19839174 -0.069393255 -0.043136794
0002a0 52 49 39 3e 63 49 80 3d e7 67 c4 3d b8 61 27 3e
       0.18094376 0.062639974 0.0959013 0.1634587
0002b0 c9 86 2f 3c 97 45 4b bd ba 09 05 be ba 2b 10 be
       0.010713288 -0.049626913 -0.12991992 -0.1407918
0002c0 75 fc ae bb a4 e0 16 3e 01 28 6f bd 3a 46 0f be
       -0.005340154 0.14734131 -0.05838776 -0.13991633
0002d0 d2 07 25 3d 55 9e 71 bd aa 9d 1b be bb b9 14 3e
       0.04029066 -0.058988888 -0.15196863 0.14523976
0002e0 9e 3d 05 3e 3d 5b 17 3e 9b c5 99 3d ba 3c f4 3d
       0.13011786 0.14780898 0.075083934 0.11925645
0002f0 ed da 44 3c 6c 4f b0 bd e9 86 08 3d 6b b6 8a bd
       0.012015087 -0.086088985 0.033331785 -0.06773075
000300 be a5 d2 3c e0 bb 56 bd 97 b6 82 3c ec d4 46 bd
       0.025713798 -0.052425265 0.015956206 -0.048542902
000310 7e c2 44 bd 41 27 80 bd d8 f3 03 be f9 a3 96 3c
       -0.048037045 -0.06257487 -0.12885988 0.018388735
000320 0a 9c 3d 3e 45 6e 0b 3b 3e 49 6c 3d 8a 88 13 3d
       0.18516555 0.0021275443 0.057687037 0.036018886
000330 4f 0b 2b bd e6 cb 57 3e 67 32 e8 bd 48 15 56 3e
       -0.04175883 0.21073875 -0.113377385 0.20906556
000340 d7 08 e6 3d 98 ed 66 bd 9a 7d 34 3e 98 aa 42 3e
       0.11232155 -0.05637893 0.17626038 0.19010389
000350 e1 6e 22 be 36 39 ea 3d 95 64 ff bd 69 b1 07 3e
       -0.1586261 0.11436693 -0.124703564 0.1325127
000360 45 f1 d8 3d 27 d7 d9 bd 77 75 ce 3b e6 59 f2 bb
       0.105928935 -0.1063674 0.006300624 -0.0073959706
000370 60 3c ec bd ae 2a 8b 3d a2 90 35 3d 39 7a 6c 3d
       -0.11534953 0.0679525 0.044327386 0.057733748
000380 11 0e 3f 3e 9e 19 f1 bc 9a b0 97 bd af 4f 8c 3d
       0.1865771 -0.02943116 -0.07406731 0.06851136
000390 69 0c 98 3a 26 cc 0a 3e 27 52 0e 3e 4b 8f 06 be
       0.0011600378 0.13554439 0.13898526 -0.131406
0003a0 46 dc 2a 3e 60 40 ec bc a3 dc 48 3e cb 5c 7a 3d
       0.1668559 -0.02883929 0.19615416 0.06112365
0003b0 9d a4 04 bd c2 79 b1 3c bd df 54 3c f5 9a 37 3e
       -0.03238355 0.021664504 0.0129927965 0.17930205
0003c0 fb 82 66 bd f0 3d 81 bd cc 57 7d bd cb e2 00 3e
       -0.056277256 -0.06310642 -0.061851308 0.12586515
0003d0 38 44 0f 3c 89 07 4d bc 58 0a 8f 3d 16 5c be bd
       0.008744292 -0.012514004 0.06984395 -0.09294908
0003e0 3d c6 85 3d b4 4c 27 3e c3 6e 25 bd 34 9a b5 3b
       0.065319516 0.16337854 -0.040388834 0.005542064
0003f0 ce dc ea 3d 03 61 17 3e a7 7c e4 3d d4 bf dd 3c
       0.114678964 0.14783101 0.11156588 0.02706901

hidden_y0.bias f4 [30]
000000 47 30 ea 3d 20 64 49 be 8e 17 a9 bd e8 fe 04 3e
       0.114349894 -0.19667101 -0.08256446 0.12987864
000010 73 93 62 bd 99 d1 7d 3e bd 05 81 3d 1e 54 ad 3d
       -0.0553164 0.24786986 0.062999226 0.0846331
000020 6c 9c 7a bd 98 57 37 be 91 b2 6b bd cd ba bc 3d
       -0.06118433 -0.17904508 -0.05754334 0.09215317
000030 cd 71 4f bd 30 25 28 be 5f 3c 25 3e 73 b7 be 3d
       -0.05064564 -0.16420436 0.16136311 0.09312334
000040 90 92 7d 3b 81 93 78 bd c0 65 27 3e 9e db 34 3d
       0.0038692094 -0.060687546 0.16347408 0.044154756
000050 01 4a 1d 3e eb 21 70 3e ea b6 42 3e cf 84 14 be
       0.15360261 0.23450439 0.19015089 -0.14503787
000060 1a 7f a8 bd 7f eb 51 bb 62 4a 94 3d 42 64 2e 3e
       -0.08227368 -0.0032031236 0.0724075 0.17030433
000070 d4 b2 0a be f5 dc 8a 3e
       -0.1354478 0.27121702

out_y0.weight f4 [1, 30]
000000 a2 01 1b be e6 32 26 be 3b 29 04 3d 60 d3 5c 3d
       -0.15137342 -0.16230354 0.032265883 0.05391252
000010 26 33 2a 3e 05 2c 69 3e e2 3e 5c 3e 29 20 45 3e
       0.16621074 0.22770698 0.21508363 0.1925055
000020 e3 30 8b bc 4b d1 94 bd d2 e8 15 3e 5f dd 43 3e
       -0.016991084 -0.07266482 0.14639595 0.19127415
000030 9a 9e 9e 3d 03 c5 cf bc f1 4d b8 3d bb 11 ab bd
       0.077450946 -0.025362497 0.08999241 -0.08352991
000040 bf b6 2e 3e 6c d8 fa bd 1c 50 83 3e 14 45 4f 3e
       0.170619 -0.122483104 0.25647056 0.20241195
000050 ff c1 d4 3d 74 f4 89 3d 31 c1 4e 3e 44 8c 9b bd
       0.10388564 0.06736079 0.20190884 -0.07595113
000060 8e b0 9f bd 49 89 1a be 59 36 8c bd bd 9f 28 3e
       -0.07797347 -0.15091433 -0.068463035 0.16467185
000070 c3 b3 1c be 79 38 1e 3e
       -0.15302949 0.1545123

hidden_y1.weight f4 [30, 30]
000000 42 d5 e7 bd 3d 01 6e 3d 3f 18 4a 3e 14 35 0d 3e
       -0.113199726 0.05810665 0.19735812 0.13789779
000010 db 98 2b 3e 0d 3a 15 be 8f d7 43 3e 12 48 19 be
       0.16757528 -0.14572926 0.19125198 -0.14968899
000020 5f 1d 66 be 85 b3 cb 3d fa 3b e0 3d 56 58 7c 3d
       -0.22472142 0.0994635 0.109489396 0.06160768
000030 5d c3 2a 3d cd b4 5e 3d 80 4c 18 bc 69 1c e5 3d
       0.04169022 0.054371644 -0.009295583 0.111870594
000040 f5 05 29 be 33 60 26 3e 84 eb 13 bd 35 52 9c 3d
       -0.16506179 0.16247635 -0.036113277 0.07632867
000050 71 f7 24 3e 19 06 25 3e 0f fe d0 3c 4d ad 31 bd
       0.16110016 0.16115607 0.02551177 -0.043378163
000060 a6 63 7a bc af 39 f5 bd c5 23 d2 bd 2b f3 da bd
       -0.015282547 -0.11973893 -0.10260729 -0.10690912
000070 aa af cf bc 9f 08 c3 3d de 49 5e 3e 0f 96 59 bd
       -0.025352318 0.09523129 0.21707866 -0.053121623
000080 94 30 e6 3d 51 5a 80 bd c2 43 5d 3e 81 9f d9 bc
       0.11239734 -0.062672265 0.21607879 -0.026565315
000090 9d 22 2e 3e 37 5e ae bd 85 a2 5b 3e ce 78 e3 3d
       0.17005391 -0.08514064 0.21448715 0.11107026
0000a0 da 78 48 3e 88 8c 70 3c ac 10 c6 bc e3 2c 47 3e
       0.19577351 0.014681943 -0.024177872 0.19450717
0000b0 1f 5b 57 3e 54 1a 2d 3e ed 58 03 3d 84 6b a1 bc
       0.21030854 0.16904575 0.032067228 -0.019704588
0000c0 7e 67 d5 3c d9 58 c6 bd 71 a9 2b 3e 66 37 57 3e
       0.026050325 -0.09684915 0.16763856 0.21017227
0000d0 58 b4 9b bc 22 89 30 3e 13 d4 8e 3e a4 8c 88 3e
       -0.019006893 0.17239812 0.27896175 0.266698
0000e0 aa 04 26 3e e3 67 5a 3e 49 b2 84 3d b9 f3 69 3e
       0.16212717 0.21328692 0.06479318 0.22846879
0000f0 29 22 89 bd ca 36 b7 3d 54 14 a3 3d dd da 5e bc
       -0.06695969 0.08945997 0.07962862 -0.013601986
000100 31 2c 18 3e cd c3 cc 3d 50 97 46 3d ce 2c 5f bd
       0.14860608 0.099982835 0.048484147 -0.05448609
000110 74 cb 30 3e 92 b3 fe 3b 92 72 11 3d fb 6d b2 3c
       0.17265111 0.0077728713 0.035509653 0.021780958
000120 94 73 73 3d 5b d8 bd bc af a8 9e 3d 9b fa 2b 3c
       0.059436396 -0.023174455 0.077470176 0.010496761
000130 4e 48 0c 3e 5b 01 bb 3c c3 40 fd 3d 45 4f 9e bd
       0.13699457 0.022827795 0.12365868 -0.07729963
000140 1a 59 80 3d 0e b8 36 3e fb 03 90 3d 91 b2 63 3d
       0.06266995 0.17843649 0.07032009 0.055590216
000150 b4 ab 27 3e c5 1e c4 3d b1 1b ad 3d 91 29 f0 3d
       0.16374093 0.09576181 0.08452547 0.11726678
000160 85 47 f6 3d 57 d1 4c 3d 65 32 5c 3d 22 27 9f bc
       0.1202536 0.05000433 0.053758997 -0.01942784
000170 22 7b e8 3d 0b 59 bf bd 40 86 1d 3e 00 43 09 be
       0.11351611 -0.093431555 0.15383244 -0.13404465
000180 82 70 0d be b5 39 18 bd 52 ba af 3d 20 47 c9 3d
       -0.1381245 -0.03716441 0.0858046 0.09828019
000190 54 6b 0e 3e bf 9c 9e bd 2f a9 f9 bb 8f e8 ee 3d
       0.1390813 -0.07744741 -0.007619045 0.11665451
0001a0 fc 67 27 3e f1 56 92 3d 7f 3a 1f be f2 6f 33 3d
       0.1634826 0.07145489 -0.15549658 0.04380793
0001b0 ea 27 0b 3e 54 c6 e0 bd 06 70 0e 3e 42 ff 8e bd
       0.13589445 -0.10975328 0.13909921 -0.0698228
0001c0 f9 c2 93 3d cf 92 40 be c5 e6 b6 bd b1 08 08 bd
       0.072149225 -0.18806003 -0.089307345 -0.033211414
0001d0 38 20 a1 bc a6 ad c3 bd d4 b1 8c bd 72 e9 62 3d
       -0.019668683 -0.09554605 -0.068698555 0.055398412
0001e0 f8 3d f2 bd 30 6b c1 bd e9 12 01 3e bc e2 68 bd
       -0.11828226 -0.094442725 0.1260487 -0.056856856
0001f0 18 05 1e be 8c 28 10 3d 1f ef 01 bd 7d 0f eb 3d
       -0.1543163 0.03519492 -0.031722184 0.114775635
000200 ab f5 1a be ca e2 93 3d 30 75 06 3e b7 9a 94 bd
       -0.15132777 0.07220991 0.13130641 -0.07256072
000210 72 8c db 3c f8 3d de 3d 8e 0d c4 bd 7b d8 64 bd
       0.026800368 0.10851663 -0.09572898 -0.055870514
000220 16 40 97 bd 0f 49 86 bd 45 ae 8c bd fe 77 73 3d
       -0.0738527 -0.065569036 -0.06869177 0.059440605
000230 37 fc 31 be 67 f3 90 bd b4 3f 31 be a1 4f ee 3d
       -0.17381369 -0.07077675 -0.17309457 0.11636282
000240 a8 d5 1d be 52 f4 07 3e a6 2d ed bd e7 b8 7f bd
       -0.15413535 0.13276795 -0.115809724 -0.062432196
000250 df f6 47 3d 9c ce 36 be 97 21 49 3d 26 42 89 bd
       0.04881942 -0.17852253 0.0491043 -0.0670207
000260 50 09 0e 3e 18 6e 08 3d e8 f0 fc 3d e0 d0 45 3e
       0.1387074 0.03330812 0.12350637 0.1931796
000270 83 d4 1e 3e a0 e0 5c 3e 00 c6 0e 3e aa 9f 99 bc
       0.15510754 0.21570063 0.13942719 -0.018752892
000280 55 53 28 bd 61 2f f6 bc 1e 0f 62 3e 06 cf f8 3d
       -0.041095097 -0.030051889 0.22076079 0.121488616
000290 87 ea 69 3e 1e e1 ae bd 28 9b d8 bc 1b 42 ed 3d
       0.22843371 -0.085390314 -0.026441172 0.11584874
0002a0 a6 09 b0 3d 06 60 99 3d 70 a7 b8 bd 9c 45 6e 3e
       0.0859559 0.07489018 -0.09016311 0.23268741
0002b0 37 3b 56 3e bf 75 68 bd 82 d6 9a 3e 5a 44 c5 3c
       0.20921026 -0.056752916 0.3024178 0.024080444
0002c0 ea e1 19 3e 13 8f f4 3d 77 1b 72 bd cc 8d 1c bb
       0.15027586 0.11941352 -0.059108224 -0.0023888228
0002d0 21 88 6b 3e d6 6a 71 3e 35 0b 96 3d dc 64 86 3b
       0.23001148 0.23575911 0.07326356 0.004101379
0002e0 68 ab c9 3d 5e fa 11 3c bb 4e b8 bd 2a 4f 94 3d
       0.09847146 0.00890979 -0.08999392 0.07241662
0002f0 1a 22 66 3c e7 47 44 3e e5 4e 05 bc 5e 74 4b bd
       0.014046216 0.19168054 -0.008136486 -0.049671523
000300 d1 ef 19 3e f8 0e 4c bd 03 87 63 3e df b6 5e 3e
       0.15032889 -0.049818963 0.22219472 0.21749447
000310 8b 76 fc 3d 48 66 87 bd b4 2f 6b bd 78 01 7e 3d
       0.12327298 -0.066113055 -0.05741854 0.06201312
000320 be f6 74 3d 86 8d 29 3e 5e 67 4a 3e 50 4b b5 bd
       0.059805624 0.16557893 0.19765994 -0.08852255
000330 d3 52 fc bc bc b1 2f bd ee 0e 92 3c 29 df 8f 3c
       -0.030801212 -0.04289411 0.017829385 0.017562466
000340 73 59 a3 3d e0 fe ea 3d 05 a8 2e be 33 fd 32 bd
       0.079760455 0.11474395 -0.17056282 -0.0436985
000350 d0 98 7f bd ce ee f0 bd b3 c0 58 3d f0 98 64 3d
       -0.062401593 -0.117642984 0.052918147 0.055809915
000360 1c 1e c4 3d b1 93 0e be 37 e7 81 3d dd 04 14 be
       0.095760554 -0.13923527 0.06342929 -0.1445498
000370 bc 96 75 bd 79 a0 a0 bd a5 1d b1 3d 65 d5 86 3c
       -0.059958205 -0.07843108 0.08648232 0.016459176
000380 c7 16 10 be 04 95 cf 3b 9d f4 e6 3d 13 94 a7 bd
       -0.14071189 0.0063349027 0.11277125 -0.0818254
000390 d5 10 ad bd fd 3b 59 3d 63 82 14 3e 94 7e f2 3d
       -0.08450476 0.053035725 0.14502864 0.11840549
0003a0 bc 40 16 be c0 b4 b1 bc 90 c8 c3 3c 84 0d cb bd
       -0.14673132 -0.021692634 0.023899347 -0.09914687
0003b0 0e 50 aa bd b7 93 1b 3e e3 a8 c1 3d be 73 b3 bc
       -0.083160505 0.15193067 0.09456041 -0.021905776
0003c0 10 58 14 3e ec 22 92 3d 7a 26 3e 3e 8c a7 21 3e
       0.14486718 0.07135567 0.18569365 0.1578657
0003d0 78 78 6a 3e 9d fe 9c 3e 6b ca 45 3e 16 98 92 bd
       0.22897518 0.30663005 0.19315498 -0.07157914
0003e0 6f 5e 93 3e a1 e3 f5 3d ec 97 32 3e f1 20 f8 bc
       0.28782985 0.120063074 0.17440766 -0.030289145
0003f0 24 c6 61 bd d6 fa 8b 3e c2 c8 79 3e 9f aa 01 3e
       -0.055120602 0.2733981 0.2439299 0.12662743

hidden_y1.bias f4 [30]
000000 30 13 8f be 41 6f a1 3e 62 d3 13 3e e9 16 20 be
       -0.27944326 0.31530192 0.14436105 -0.1563374
000010 b7 30 23 3e 1b cc 11 3e 22 78 5b 3e 2a e7 78 bc
       0.15936552 0.14238016 0.21432546 -0.015191833
000020 b4 b5 42 3e e4 03 92 3e 69 d6 da bd 31 de 8a bd
       0.19014627 0.28518593 -0.10685427 -0.06780661
000030 84 9b fe bc b2 e7 62 3c 75 12 a9 bd ed 4f 16 3d
       -0.031080015 0.013849186 -0.082554735 0.036697317
000040 5c 3e 14 3e 55 74 93 3e 87 3c 2a be ca 1e 16 3e
       0.14476913 0.28799692 -0.16624652 0.14660183
000050 0b a7 94 3e 03 98 51 bd c1 e0 4c 3e 7c d4 2e 3e
       0.29033694 -0.05117036 0.20007612 0.17073244
000060 77 c4 f6 bc 42 31 19 3e fe 76 35 3e 74 80 22 3e
       -0.030122979 0.14960197 0.17721173 0.15869313
000070 dc d8 3f 3e 3b ac b6 3e
       0.18735069 0.35678276

out_y1.weight f4 [1, 30]
000000 1d c6 82 be 20 34 80 3e ff dd a1 3d c6 fc 4f be
       -0.25541773 0.25039768 0.079036705 -0.20311269
000010 8e a3 1f be f0 7f 8c 3e fe cf 8c 3e 0c 7d 17 be
       -0.15589735 0.2744136 0.27502435 -0.14793795
000020 06 ef 2d 3e f1 d5 2c 3e 54 89 b4 bd 5d b4 b3 bd
       0.16985711 0.16878487 -0.08815256 -0.08774636
000030 eb 46 3c bd 97 81 5d 3e e8 e0 10 be 9e 17 fe bd
       -0.04596607 0.21631466 -0.14148295 -0.12406848
000040 16 27 24 3e 26 b4 90 3e 43 fb 1b be cb 3d 0c be
       0.16030535 0.28262442 -0.15232567 -0.13695447
000050 82 e0 aa 3d a5 0e ca bd af 11 76 3e 79 95 94 3e
       0.08343603 -0.098660745 0.24030183 0.2902029
000060 b4 5b 77 bd f9 ef 3b 3d cb c3 14 3e 41 c7 b6 bc
       -0.06039019 0.045883153 0.14527814 -0.022311809
000070 b4 e9 8a 3d 99 56 08 3e
       0.067828566 0.13314284
