DR_Info_CFR/IHDP/Models/netG.pth (torch, 27559 bytes, 10 tensors)

shared1.weight f4 [30, 100]
0.035324708 -0.038747784 -0.015704105 0.047684044 -0.09827904 0.035587184 0.042459466 0.0036851931
-0.024646768 -0.025355183 -0.04932986 -0.038443808 0.1407952 0.020037347 -0.113359734 0.025216464
-0.008309733 0.11279166 -0.123173125 0.06301995 0.06928145 -0.048104126 -0.059823535 0.097188555
-0.07180105 -0.010702203 -0.038782865 -0.040970966 -0.09389769 -0.036352582 0.084603876 0.11597045
-0.021107638 0.08686133 0.009485308 -0.030957825 -0.071477056 -0.07741119 0.09986555 -0.1261321
0.0047399686 0.0724585 0.0683083 0.06910217 -0.10150574 -0.12351127 0.054981273 0.057644013
0.030379087 -0.06157674 0.055270687 -0.048933662 -0.037116416 -0.06231222 -0.043110583 0.061670765
0.06416731 0.08521003 0.0049412576 -0.060994156 -0.030467225 0.09254464 0.0001676894 0.0028425462
-0.028639872 -0.08893258 0.058567032 -0.0090552205 -0.022124214 -0.0035707364 0.08893939 0.057734136
-0.08582687 0.015502649 -0.067007795 0.111249916 -0.0035264709 -0.08963076 -0.013348475 0.09099686
-0.06603377 -0.015782548 -0.09991911 0.033033647 -0.0068543926 0.07627622 0.10556429 -0.044870652
-0.020590652 -0.06628659 -0.022992156 -0.045591153 0.06078409 -0.09964537 -0.10824037 -0.086003095
-0.055978492 0.084896095 -0.10183816 -0.07720288 0.022888137 0.09518032 -0.045708053 -0.044526074
0.042158686 0.090599485 -0.11262169 -0.09390717 -0.08802289 -0.07558855 0.08826084 -0.007933989
-0.06070869 0.0057063503 0.06718826 -0.06879045 0.08861689 -0.055878475 -0.033145163 0.051556364
-0.036329158 -0.0041600536 0.01028216 -0.05267376 -0.10274263 -0.08528917 0.06699169 -0.110427886
-0.037143163 -0.06946991 -0.100318275 -0.029950067 0.022568446 0.11508395 0.09252822 0.02175192
0.007815829 0.118804455 0.005254192 0.079161674 0.07898219 -0.061027534 -0.06290823 0.12026007
0.030965814 -0.11681173 -0.028398952 -0.07662222 -0.089279905 -0.10613956 0.015245297 -0.0381575
0.037090126 0.0025994976 -0.04076584 0.035213854 -0.0990418 -0.08188304 0.08892996 -0.016098227
-0.07507101 -0.004768418 -0.11691354 -0.006737139 0.04162497 0.01765944 0.10671577 0.06600457
-0.09041325 0.1073087 -0.11205329 0.07516085 0.04882101 -0.025240097 -0.04288068 0.033270724
-0.04383506 0.09213676 -0.06616091 -0.109312534 -0.01995597 -0.077391654 -0.03422222 -0.075171895
0.06117535 -0.10662197 0.07159437 -0.07552205 -0.08631161 -0.029990802 -0.08933817 0.09441571
0.056436084 -0.07115134 -0.11274863 -0.01036504 0.054451983 0.025887325 -0.074715264 -0.078494765
0.07178391 0.022851462 -0.09154524 0.0027716814 0.030076297 -0.02793184 -0.074860975 0.012649005
0.054605197 0.07345175 -0.042056885 -0.08663571 -0.028727992 -0.1071451 0.084631756 0.03297101
-0.041822568 -0.0031843684 -0.09279769 0.09278002 0.059268434 0.10121044 0.03411705 -0.14281814
-0.05109891 0.08302637 -0.09833694 -0.02016951 -0.041428756 0.0695478 -0.019700645 0.04156257
-0.0100583015 -0.110818036 0.030188385 -0.12349263 0.09256533 0.07726015 0.115312055 0.10572182
-0.08119984 -0.0049695116 -0.040421158 0.07296234 -0.07378055 0.09447702 -0.01314735 0.0858749
0.05551094 0.053034298 0.0029977572 0.019834932 -0.07034077 0.001982293 0.10284959 0.021449609
00000000: a4b0 103d ffb5 1ebd e5a5 80bc 5850 433d
00000010: 8546 c9bd dec3 113d fae9 2d3d 4883 713b
00000020: 05e8 c9bc acb5 cfbc 1b0e 4abd 4177 1dbd
00000030: 9e2c 103e 5d25 a43c 2629 e8bd c292 ce3c
00000040: 8c25 08bc 50ff e63d 3142 fcbd 9b10 813d
00000050: 6fe3 8d3d d508 45bd 8609 75bd cb0a c73d
00000060: 6e0c 93bd 4b58 2fbc c8da 1ebd 2cd1 27bd
00000070: 6f4d c0bd 72e6 14bd cc44 ad3d ea81 ed3d
00000080: ede9 acbc 5ae4 b13d 4468 1b3c 449b fdbc
00000090: 9062 92bd c289 9ebd 4f86 cc3d c628 01be
000000a0: bd51 9b3b 1f65 943d 39e5 8b3d 7085 8d3d
000000b0: 3ee2 cfbd 7af3 fcbd 0b34 613d 211c 6c3d
000000c0: 90dd f83c e437 7cbd 8463 623d aa6e 48bd
000000d0: 6207 18bd 193b 7fbd b994 30bd 7c9a 7c3d
000000e0: 276a 833d 9982 ae3d 46ea a13b 02d5 79bd
000000f0: 6796 f9bc 0b88 bd3d c8d5 2f39 034a 3a3b
00000100: 2a9e eabc 4922 b6bd fce3 6f3d 595c 14bc
00000110: d73d b5bc 0403 6abb db25 b63d a17a 6c3d
00000120: ffc5 afbd d3fe 7d3c 623b 89bd ffd6 e33d
00000130: 5d1c 67bb 5590 b7bd 90b3 5abc 905c ba3d
00000140: b73c 87bd 674a 81bc 64a2 ccbd 4a4e 073d
00000150: d09a e0bb b536 9c3d 1732 d83d 4aca 37bd
00000160: baad a8bc 44c1 87bd 0c5a bcbc cabd 3abd
00000170: bdf8 783d df12 ccbd 21ad ddbd 6422 b0bd
00000180: b449 65bd 01de ad3d 8690 d0bd 8b1c 9ebd
00000190: e77f bb3c e6ed c23d 5e38 3bbd f960 36bd
000001a0: 96ae 2c3d 398c b93d 33a6 e6bd 6752 c0bd
000001b0: 5845 b4bd 2bce 9abd 19c2 b43d 90fd 01bc
000001c0: ada9 78bd 56fc ba3b 009a 893d 02e2 8cbd
000001d0: c67c b53d d4e0 64bd 39c3 07bd c42c 533d
000001e0: e2cd 14bd 0f51 88bb 8176 283c 71c0 57bd
000001f0: ba6a d2bd 17ac aebd f032 893d 0428 e2bd
00000200: 6e23 18bd 3d46 8ebd ab73 cdbd d859 f5bc
00000210: 76e1 b83c 22b1 eb3d 6f7f bd3d 1531 b23c
00000220: f60d 003c c04f f33d 5b2b ac3b 841f a23d
00000230: 6ac1 a13d 02f8 79bd 08d6 80bd e94a f63d
00000240: 05ac fd3c fd3a efbd eba4 e8bc 1cec 9cbd
00000250: 62d8 b6bd b35f d9bd 69c7 793c 0a4b 1cbd
00000260: d1eb 173d 555c 2a3b 15fa 26bd 673c 103d
00000270: 6dd6 cabd 4cb2 a7bd e920 b63d 6ee0 83bc
00000280: d4be 99bd 6440 9cbb 5e70 efbd 38c3 dcbb
00000290: f27e 2a3d 88aa 903c cc8d da3d 672d 873d
000002a0: 952a b9bd aac4 db3d 327c e5bd efed 993d
000002b0: 8af8 473d 52c4 cebc a7a3 2fbd e246 083d
000002c0: 648c 33bd 33b2 bc3d 5f7f 87bd 40df dfbd
000002d0: b47a a3bc 847f 9ebd 992c 0cbd b9f3 99bd
000002e0: 0193 7a3d 9f5c dabd 12a0 923d 4eab 9abd
000002f0: 24c4 b0bd 45af f5bc eef6 b6bd 065d c13d
00000300: 8629 673d cbb7 91bd c1e8 e6bd 21d2 29bc
00000310: 0b09 5f3d a811 d43c 5104 99bd ddc1 a0bd
00000320: 7103 933d fd32 bb3c 127c bbbd 19a5 353b
00000330: 9162 f63c 50d1 e4bc b650 99bd c63d 4f3c
00000340: b3a9 5f3d df6d 963d d743 2cbd 106e b1bd
00000350: f756 ebbc e46e dbbd 6a53 ad3d 9c0c 073d
00000360: 244e 2bbd d6b0 50bb b70c bebd 7303 be3d
00000370: 75c3 723d 6b47 cf3d 52be 0b3d eb3e 12be
00000380: 174d 51bd bb09 aa3d e164 c9bd 873a a5bc
00000390: 33b1 29bd 146f 8e3d 3f63 a1bc 833d 2a3d
000003a0: 93cb 24bc 91f4 e2bd a24d f73c b4e9 fcbd
000003b0: e492 bd3d 923a 9e3d ba28 ec3d ae84 d83d
000003c0: 1a4c a6bd 49d7 a2bb a890 25bd 486d 953d
000003d0: 421a 97bd 2b7d c13d fc67 57bc 2edf af3d
000003e0: 705f 633d 7e3a 593d 0576 443b de7c a23c
000003f0: d20e 90bd 5ce9 013b cea2 d23d 17b7 af3c

shared1.bias f4 [30]
0.32693973 0.16998203 0.19142951 0.1128017 0.17665076 0.24222189 0.28569198 0.25121891
0.30210003 0.12666354 0.22277696 0.11524989 0.14321579 0.28165826 0.2628244 0.04767906
0.029855832 0.2763169 0.15738304 0.20167398 0.16146065 0.27954143 0.22253564 0.27276158
0.14361745 0.25986275 0.26555982 0.1194169 0.24382046 0.2663803
00000000: a564 a73e c50f 2e3e 1906 443e 9404 e73d
00000010: f0e3 343e 0409 783e 3846 923e c49f 803e
00000020: dbac 9a3e 16b4 013e a51f 643e 2208 ec3d
00000030: 29a7 123e 8335 903e eb90 863e 1e4b 433d
00000040: 3894 f43c 6979 8d3e 0529 213e a083 4e3e
00000050: f155 253e 0e20 8f3e 62e0 633e 68a7 8b3e
00000060: 7410 133e bb0c 853e 75f7 873e d990 f43d
00000070: 12ac 793e 0063 883e

shared2.weight f4 [30, 30]
-0.05240264 -0.15602672 0.12339618 0.15420878 -0.1376207 0.046252552 0.006758843 0.0025425754
-0.15137051 0.04280072 0.08817714 -0.14718199 0.10433313 0.015708635 0.10899522 0.20262933
0.020965014 -0.14298375 0.024635669 0.17042695 0.01118311 -0.14740473 0.1435533 -0.1122455
-0.0101109035 0.11025518 -0.16730855 0.067888215 0.112609565 0.11600431 -0.060145337 0.09322187
0.08227725 0.19681397 -0.10619799 -0.06637558 0.18006371 0.14830552 -0.08389508 0.091859825
0.032575574 0.23721229 0.04654392 0.12717304 0.14086112 -0.03289825 0.07479718 0.09006052
0.1994181 -0.018375454 0.22323065 0.24235597 -0.10014422 -0.044550285 -0.008578983 0.1749327
0.13074718 0.17080411 0.13851123 -0.04609683 0.16568236 0.007393142 -0.046707224 -0.013632894
-0.041776627 0.22005981 0.03519016 -0.048198596 0.12926008 0.13535814 0.07109342 0.109720446
-0.0034592897 0.13953884 0.10324568 0.121813454 -0.05383093 0.06607981 0.017250251 0.20562668
0.09872135 -0.035359517 0.1541706 0.04964234 0.09357053 0.1977548 -0.07779651 -0.039149106
0.17745726 0.005283967 0.10441518 -0.057756558 -0.10157678 -0.11455931 -0.14454982 0.08683113
0.17170303 0.11632826 0.12865925 0.14740422 0.18848902 -0.08890993 0.20035659 -0.038121708
0.11970914 0.06068138 -0.0051746755 0.022234151 -0.024513336 0.032923628 0.16518287 0.15898351
0.02214202 0.12709339 0.19860205 0.1983262 0.1270497 -0.005613119 -0.048153546 0.11495453
0.11102588 0.18209606 0.2210284 0.015375163 0.039583374 0.011697284 0.09203103 -0.015354781
0.053967264 -0.036386527 0.071281336 0.20506977 -0.026990991 0.16833562 0.19920644 0.05149813
-0.075229846 -0.022825718 0.04950175 -0.011776424 0.20487541 0.22784175 0.18012351 0.042031057
-0.07074787 0.04965799 0.22416037 -0.03239599 0.019956911 -0.08114421 0.18879905 0.00178115
0.1405619 0.031114304 0.14784904 0.052582815 -0.036445882 -0.012449082 0.02155907 -0.028658751
0.00610256 0.12386729 0.021331968 0.0027602129 0.034656152 0.024256222 0.07664874 0.15547769
0.089645766 0.045634262 -0.07557468 0.18718366 0.089932434 -0.062128372 0.017947001 0.06310746
0.10318075 0.20835589 0.11969746 0.14600325 0.14930554 0.15892479 -0.027042225 0.20327385
0.06088183 0.19600193 -0.094635464 0.20460229 0.018904863 0.15838033 0.048753165 -0.03576729
-0.06707491 -0.11546337 -0.090357244 0.09002969 0.10023068 0.12889259 0.11168316 -0.097949915
0.08733278 -0.10855234 0.03498784 -0.10262624 0.016600318 0.13253237 0.017940251 0.13459145
0.053308483 -0.088171795 0.18062039 0.12338351 0.021493727 0.15127145 0.032619163 -0.092685886
0.24825384 0.070369594 0.0074505303 0.04222441 0.20035705 -0.08644036 0.16650152 0.108905666
-0.101574644 -0.038626585 0.231129 0.21343702 -0.07295608 0.17902094 0.014762073 -0.10384424
0.18396063 0.1801027 0.040819924 0.016221479 0.06121627 0.115109906 0.16886784 0.012377252
-0.08394772 0.10912247 -0.015446222 0.051020972 0.19493043 -0.04167927 0.23243602 0.15621878
0.14471504 0.124572285 0.061570264 0.13508199 0.050425116 -0.01897447 0.02910675 0.19278318
00000000: 27a4 56bd 78c5 1fbe 23b7 fc3d e8e8 1d3e
00000010: 71ec 0cbe 5173 3d3d 4979 dd3b 56a1 263b
00000020: df00 1bbe cf4f 2f3d 3796 b43d e0b6 16be
00000030: 9cac d53d 65af 803c e338 df3d 107e 4f3e
00000040: d2be ab3c 556a 12be bed0 c93c 6784 2e3e
00000050: 5d39 373c 44f1 16be a3ff 123e f8e0 e5bd
00000060: 34a8 25bc 78cd e13d ef52 2bbe fa08 8b3d
00000070: d89f e63d ab93 ed3d f55a 76bd 1ceb be3d
00000080: fa80 a83d 9a89 493e 557e d9bd ecef 87bd
00000090: 9f62 383e 67dd 173e 2fd1 abbd 0121 bc3d
000000a0: f76d 053d c7e7 723e d6a4 3e3d a639 023e
000000b0: e63d 103e 51c0 06bd 442f 993d a671 b83d
000000c0: 4234 4c3e 1f88 96bc 9396 643e 2a2c 783e
000000d0: 6a18 cdbd 5c7a 36bd dd8e 0cbc 8f21 333e
000000e0: 97e2 053e 46e7 2e3e e3d5 0d3e 08d0 3cbd
000000f0: a3a8 293e 2c42 f23b 1350 3fbd 805c 5fbc
00000100: f81d 2bbd 5c57 613e 8f23 103d e46b 45bd
00000110: c15c 043e 539b 0a3e 6d99 913d 1db5 e03d
00000120: 40b5 62bb 45e3 0e3e 7972 d33d 5579 f93d
00000130: d27d 5cbd da54 873d 6650 8d3c cd8f 523e
00000140: 6b2e ca3d 24d5 10bd e6de 1d3e c455 4b3d
00000150: e8a1 bf3d 3c80 4a3e c753 9fbd d05a 20bd
00000160: 5bb7 353e 2125 ad3b a0d7 d53d 2492 6cbd
00000170: 7d07 d0bd 129e eabd de04 14be 85d4 b13d
00000180: ebd2 2f3e 833d ee3d 40bf 033e 22f1 163e
00000190: 4403 413e 6916 b6bd 472a 4d3e 8225 1cbd
000001a0: 112a f53d 0a8d 783d 5390 a9bb 6524 b63c
000001b0: 31d0 c8bc edda 063d b325 293e 93cc 223e
000001c0: 2e63 b53c c524 023e 565e 4b3e 0616 4b3e
000001d0: 5119 023e 41ee b7bb a73c 45bd 486d eb3d
000001e0: 8961 e33d 6477 3a3e 4555 623e 1ce8 7b3c
000001f0: 2d22 223d f7a5 3f3c c47a bc3d 9f92 7bbc
00000200: c70c 5d3d 0a0a 15bd f3fb 913d cffd 513e
00000210: 361c ddbc 2c60 2c3e c6fc 4b3e b4ef 523d
00000220: 1b12 9abd 00fd babc 59c2 4a3d e7f1 40bc
00000230: dcca 513e 594f 693e 4c72 383e c228 2c3d
00000240: 42e4 90bd 2d66 4b3d 4c8a 653e a8b1 04bd
00000250: ad7c a33c f02e a6bd 8a54 413e 7a75 e93a
00000260: 75ef 0f3e 6de3 fe3c bd65 173e 1461 573d
00000270: 4748 15bd 3cf7 4bbc a69c b03c c2c5 eabc
00000280: fcf7 c73b 22ae fd3d 61c0 ae3c b0e4 343b
00000290: 9cf3 0d3d fcb4 c63c 04fa 9c3d 8b35 1f3e
000002a0: 3398 b73d feea 3a3d e6c6 9abd 13ad 3f3e
000002b0: 7f2e b83d 527a 7ebd 9705 933c 7c3e 813d
000002c0: 6e50 d33d 3f5b 553e f123 f53d e081 153e
000002d0: 8de3 183e 2ebd 223e a887 ddbc 0527 503e
000002e0: 3a5f 793d bbb4 483e 3dd0 c1bd 4383 513e
000002f0: 5fde 9a3c 742e 223e 66b1 473d b980 12bd
00000300: 925e 89bd 0f78 ecbd 380d b9bd 7c61 b83d
00000310: be45 cd3d 6bfc 033e 24ba e43d f799 c8bd
00000320: 87db b23d b050 debd 694f 0f3d b52d d2bd
00000330: 64fd 873c 91b6 073e 6ff7 923c 57d2 093e
00000340: ff59 5a3d 6a93 b4bd 8df4 383e 7eb0 fc3d
00000350: 9d13 b03c e7e6 1a3e ac9b 053d 19d2 bdbd
00000360: 4136 7e3e ef1d 903d 9423 f43b 81f3 2c3d
00000370: 662a 4d3e a507 b1bd 607f 2a3e ef09 df3d
00000380: 5e06 d0bd e936 1ebd 15ad 6c3e 3c8f 5a3e
00000390: ff69 95bd 4451 373e 9fdc 713c 4aac d4bd
000003a0: 2d60 3c3e d86c 383e cb32 273d e8e2 843c
000003b0: e9bd 7a3d bebe eb3d b1eb 2c3e f5c9 4a3c
000003c0: c8ec abbd 9a7b df3d 2712 7dbc 5efb 503d
000003d0: d89b 473e e2b7 2abd b503 6e3e d1f7 1f3e
000003e0: 2e30 143e c11f ff3d 1a31 7c3d ef52 0a3e
000003f0: 918a 4e3d 5970 9bbc 4771 ee3c f468 453e

shared2.bias f4 [30]
0.26280767 0.11774197 0.13493991 0.27695882 0.36219683 0.061290972 0.14437088 0.15468979
0.14378196 0.113723665 0.34928873 0.3385413 -0.05196717 -0.14505439 -0.03317385 0.14088234
0.21373598 0.2361762 0.25068045 -0.044603705 0.18365979 0.11840858 0.28604165 0.16694129
0.27207378 -0.10726836 0.014556119 0.04252828 0.3417452 0.109270915
00000000: ba8e 863e b422 f13d b02d 0a3e 8ccd 8d3e
00000010: dd71 b93e 3e0c 7b3d f6d5 133e 0067 1e3e
00000020: 943b 133e f4e7 e83d f9d5 b23e 4955 ad3e
00000030: 87db 54bd 2389 14be 4ee1 07bd 7643 103e
00000040: 9bdd 5a3e 2cd8 713e 3059 803e 60b2 36bd
00000050: 5011 3c3e 3380 f23d 0d74 923e a8f2 2a3e
00000060: 414d 8b3e 84af dbbd ca7c 6e3c 2232 2e3d
00000070: 3af9 ae3e 6ec9 df3d

hidden_y0.weight f4 [30, 30]
0.04016524 0.047557086 0.21650012 0.096758366 0.22222 0.035740532 -0.06297409 -0.07147119
-0.11542917 0.03298493 -0.089331165 0.22934474 -0.049210504 0.0811706 -0.10924538 0.0037530388
0.1896718 -0.052014116 0.14808331 -0.12215012 -0.07184071 -0.07269443 0.031776756 -0.086425655
-0.08370176 -0.08299211 -0.052239653 0.10502244 -0.02484902 0.14203134 -0.09496271 -0.12857914
-0.13153705 0.1397084 -0.0008343965 0.19295263 -0.052430585 -0.047046006 0.026829643 0.052713454
0.21640669 0.039094698 -0.113381416 0.06377097 -0.1586307 0.21885167 0.077827655 -0.1092018
0.08891492 0.13092493 -0.08465625 0.043303143 -0.07844479 0.114648476 0.010765471 0.13061257
0.043681983 0.19109257 0.09722478 0.17024402 -0.03660411 0.12923846 -0.077180415 0.05465644
-0.11316637 0.034861874 0.09691257 -0.03804973 -0.060269475 0.066714615 0.2192067 0.092429996
0.023376698 -0.119418524 0.11100511 0.05378272 0.029040799 -0.12268628 -0.0980803 0.033822306
-0.08375129 0.16177562 0.024665704 -0.018576495 0.15530896 -0.12745981 -0.040481914 -0.039371744
0.051840752 -0.022229558 0.13043952 -0.11386976 0.20501992 -0.079638176 0.056519967 0.19933887
0.1754344 -0.021931507 0.19850875 -0.10193932 -0.06325826 0.09221865 0.11468408 0.08051088
-0.03923747 0.0677293 -0.11098936 -0.050090685 0.23976102 -0.118755154 -0.014547056 0.12334545
-0.043460388 0.19049338 -0.08592958 0.15966956 0.18492742 -0.10450362 0.071567625 -0.0690276
-0.07303351 -0.08102437 0.088019565 0.029086888 0.03561632 -0.18385452 0.11811739 -0.09284254
-0.07385345 -0.016866712 -0.09676387 0.05780964 0.10986513 0.16999461 0.012322869 0.1399099
0.018660828 0.018958401 -0.14569381 0.20499225 -0.06884351 -0.00021909329 0.085425384 0.07566046
0.11465257 0.0785402 0.023153832 0.1575902 -0.04738711 -0.015730353 0.079264365 0.0073948684
-0.0038015635 -0.034902807 0.09196398 0.039145414 0.029216222 0.09876723 0.1956763 -0.01280083
0.012036922 0.20714921 -0.14584412 0.09879594 -0.053235844 0.13111344 0.19130026 0.04897759
0.023332918 -0.13641907 0.22754659 -0.04224643 -0.017982097 -0.13243735 -0.061268765 -0.16738513
-0.08395717 0.16342007 -0.08984972 0.19805628 0.1327381 -0.163279 -0.049757984 -0.035924837
0.029942425 0.09122084 -0.033818692 -0.13159801 -0.16653217 -0.02026274 -0.056030307 -0.122093186
-0.09196578 -0.01068962 0.11377316 0.117061354 -0.014597222 -0.016050594 -0.18532406 -0.07993974
0.13237219 -0.17365947 0.060506098 0.049156293 -0.018249448 -0.06688402 0.12624656 -0.013211151
-0.162936 0.07639442 0.123839326 0.116612524 -0.16840203 -0.0037192474 -0.10504883 0.06706847
-0.1250419 -0.14104438 -0.033600908 0.017390542 0.12006427 -0.06589145 0.0970916 -0.002542181
-0.14624335 0.15725717 0.15556946 0.12645659 -0.07759932 0.00242249 0.15003265 0.14744246
-0.046106927 -0.025297372 -0.004557691 0.10697183 0.052929264 0.00010571351 -0.047719844 0.09845085
-0.04319529 0.02280241 -0.06062366 0.026994655 0.18880074 0.14050862 -0.114389986 -0.14090294
0.08993768 0.0014351612 -0.026761865 0.060850363 0.00021033012 -0.12543353 -0.13057089 0.19154938
00000000: 4f84 243d 38cb 423d 35b2 5d3e 4029 c63d
00000010: a48d 633e aa64 123d 8ff8 80bd 7d5f 92bd
00000020: 2166 ecbd 351b 073d 42f3 b6bd 59d9 6a3e
00000030: f490 49bd c63c a63d 0bbc dfbd 8bf5 753b
00000040: 5339 423e c10c 55bd 27a3 173e d829 fabd
00000050: 3921 93bd d1e0 94bd 5828 023d efff b0bd
00000060: d46b abbd c4f7 a9bd 3ff9 55bd 0116 d73d
00000070: 2c90 cbbc aa70 113e cf7b c2bd 40aa 03be
00000080: a6b1 06be b80f 0f3e 67bb 5aba 6095 453e
00000090: 74c1 56bd 50b3 40bd d7c9 db3c 10ea 573d
000000a0: b799 5d3e c321 203d 8434 e8bd 5b9a 823d
000000b0: 1670 22be a71a 603e 1b64 9f3d 31a5 dfbd
000000c0: 0719 b63d 2f11 063e 4260 adbd a35e 313d
000000d0: a9a7 a0bd d2cc ea3d a861 303c 4dbf 053e
000000e0: e1eb 323d c5ad 433e c91d c73d 7354 2e3e
000000f0: 31ee 15bd 1657 043e c410 9ebd 6edf 5f3d
00000100: c5c3 e7bd 53cb 0e3d 197a c63d 09da 1bbd
00000110: 20dd 76bd aca1 883d b977 603e f04b bd3d
00000120: 7d80 bf3c b391 f4bd a656 e33d 454b 5c3d
00000130: f8e6 ed3c f242 fbbd 53de c8bd 4289 0a3d
00000140: cc85 abbd 82a8 253e bb0f ca3c bc2d 98bc
00000150: 5009 1f3e d384 02be 5dd0 25bd 4444 21bd
00000160: f856 543d c31a b6bc f091 053e 8c34 e9bd
00000170: bef0 513e 5719 a3bd 7b81 673d 7d1f 4c3e
00000180: 13a5 333e b4a9 b3bc e145 4b3e 90c5 d0bd
00000190: 8c8d 81bd 22dd bc3d 7ddf ea3d e3e2 a43d
000001a0: 78b7 20bd a9b5 8a3d 644e e3bd e42b 4dbd
000001b0: ea83 753e e735 f3bd c656 6ebc 8a9c fc3d
000001c0: 8503 32bd b210 433e d9fb afbd 6b80 233e
000001d0: 9d5d 3d3e fe05 d6bd 0c92 923d 585e 8dbd
000001e0: 9892 95bd 1bf0 a5bd 9a43 b43d a047 ee3c
000001f0: 6be2 113d 5c44 3cbe 88e7 f13d 3b24 bebd
00000200: 7a40 97bd 0f2c 8abc 232c c6bd cdc9 6c3d
00000210: f800 e13d 1113 2e3e dce5 493c 8a44 0f3e
00000220: 98de 983c a64e 9b3c c230 15be 7de9 513e
00000230: d3fd 8cbd 68bc 65b9 81f3 ae3d dff3 9a3d
00000240: f7ce ea3d afd9 a03d 1bad bd3c 535f 213e
00000250: fc18 42bd f1dc 80bc 5b55 a23d a750 f23b
00000260: a723 79bb 3ff6 0ebd 9c57 bc3d f156 203d
00000270: dc56 ef3c 7946 ca3d 5e5f 483e 93ba 51bc
00000280: 8336 453c ec1e 543e 2958 15be 8755 ca3d
00000290: d40d 5abd 9a42 063e 37e4 433e ba9c 483d
000002a0: ad24 bf3c 71b1 0bbe f901 693e 980a 2dbd
000002b0: 314f 93bc a89d 07be f5f4 7abd 0267 2bbe
000002c0: bdf1 abbd 9757 273e 2103 b8bd 44cf 4a3e
000002d0: 7fec 073e 9c32 27be 07cf 4bbd ec25 13bd
000002e0: d149 f53c fed1 ba3d 7885 0abd a1c1 06be
000002f0: 6987 2abe 0cfe a5bc 0980 65bd fe0b fabd
00000300: 8e58 bcbd 8423 2fbc e701 e93d ddbd ef3d
00000310: 3029 6fbc 897c 83bc 97c5 3dbe 72b7 a3bd
00000320: 938c 073e cad3 31be 3ed5 773d 1c58 493d
00000330: de7f 95bc 7dfa 88bd c746 013e 9573 58bc
00000340: b2d8 26be ad74 9c3d 799f fd3d 8cd2 ee3d
00000350: 9571 2cbe 9ebe 73bb d723 d7bd 325b 893d
00000360: fc0a 00be f06d 10be 1ba1 09bd 9c76 8e3c
00000370: 42e4 f53d 19f2 86bd f6d7 c63d b89a 26bb
00000380: d1c0 15be 0608 213e 9a4d 1f3e d67d 013e
00000390: 64ec 9ebd a3c2 1e3b 29a2 193e 28fb 163e
000003a0: 9eda 3cbd 6f3c cfbc af58 95bb 0c14 db3d
000003b0: 5bcc 583d 82b2 dd38 e275 43bd 99a0 c93d
000003c0: 8bed 30bd 1fcc ba3c 8450 78bd e523 dd3c
000003d0: fb54 413e 7ee1 0f3e 4c45 eabd dc48 10be
000003e0: 3f31 b83d 051c bc3a b33b dbbc 3b3e 793d
000003f0: 108c 5c39 a671 00be 60b4 05be 8525 443e

hidden_y0.bias f4 [30]
0.12266147 0.25207064 0.27804542 0.23330685 -0.053048056 0.18227918 0.13339077 -0.06703905
0.1962321 -0.23551957 0.12698025 0.17614146 0.11758887 -0.065120995 -0.029727595 0.21132626
0.098927565 -0.1787854 0.13026133 -0.09568297 0.25253847 -0.0037314442 0.046246525 0.018295381
0.027549038 0.13517526 0.14384443 -0.00035439624 0.008114972 -0.07383347
00000000: f035 fb3d 670f 813e f85b 8e3e fee7 6e3e
00000010: eb48 59bd 65a7 3a3e 9797 083e c54b 89bd
00000020: 11f1 483e 0b2c 71be 1c07 023e 6d5e 343e
00000030: 6fd2 f03d 285e 85bd 4987 f3bc e965 583e
00000040: 899a ca3d 8513 37be 3a63 053e 6ff5 c3bd
00000050: b94c 813e 3f8b 74bb ff6c 3d3d 32e0 953c
00000060: 85ae e13c 626b 0a3e f44b 133e 42ce b9b9
00000070: a9f4 043c 0136 97bd

out_y0.weight f4 [1, 30]
0.14128365 0.1971769 0.25057536 0.07792422 -0.17372027 0.14696752 -0.115041144 -0.031299833
0.1400081 -0.13516402 0.10466711 0.12190483 0.16246785 0.04738781 0.20087603 0.13501161
-0.041322842 -0.19152346 0.17994097 -0.059062995 0.04251641 0.12647362 -0.16225345 0.0800966
0.058950797 0.046533037 0.076381154 0.0023983659 -0.00066923193 -0.118402965
00000000: a9ac 103e bee8 493e 6a4b 803e bc96 9f3d
00000010: bae3 31be a77e 163e b19a ebbd 4134 00bd
00000020: 495e 0f3e 7068 0abe b65b d63d 3da9 f93d
00000030: f95d 263e b819 423d 72b2 4d3e 7c40 0a3e
00000040: 2442 29bd ba1e 44be 7242 383e 0aec 71bd
00000050: b025 2e3d 4d82 013e c525 26be b009 a43d
00000060: 6476 713d 6d99 3e3d b96d 9c3d e72d 1d3b
00000070: 656f 2fba 417d f2bd

hidden_y1.weight f4 [30, 30]
0.029871529 -0.029554537 0.23800743 0.25961652 -0.010520234 0.22783329 0.25644547 0.25286686
0.09514969 -0.0930557 -0.06233005 9.477815e-05 -0.14071034 -0.051899333 0.1974737 -0.0019538722
-0.036613084 0.23045744 0.040705446 0.1166688 0.16494595 -0.0016247131 0.27310675 -0.00442134
0.24634455 0.040836982 0.08768132 -0.017887434 0.051355995 -0.016173784 0.009080163 0.0357886
-0.045973316 -0.017423166 -0.04837225 0.027029047 0.009515551 0.022774102 0.09566267 0.026432294
0.053459685 -0.044592045 0.044596285 0.027075037 0.04506195 0.010989256 0.08689426 0.053509217
0.023929155 0.029656958 0.032001894 0.022150002 -0.049718667 0.008582388 0.005872378 0.037679892
0.12414924 0.05512358 -0.034586303 -0.0130137615 0.15141492 0.05189522 0.094214216 0.24949393
0.24809673 0.22788458 0.12242861 0.19186097 0.043114167 0.22295892 0.22674492 0.19795322
0.19172913 -0.09065189 0.051384117 0.22335495 0.06505951 -0.0056295735 0.08337235 -0.046212286
0.032192573 0.023621334 -0.019073995 0.1862008 0.0766755 -0.1502268 0.080009334 0.0409577
-0.05771013 0.005737511 0.04794154 -0.08633951 -0.031124318 0.07038744 0.1175884 0.02777982
0.005852043 -0.09128361 -0.025602804 -0.046337545 0.011152805 0.03890645 -0.00030611322 -0.004320702
0.03979094 -0.07428164 0.03172144 -0.13583809 -0.013325571 0.11700582 -0.018260153 -0.085850455
-0.12336322 -0.05284163 0.030673197 0.01121986 -0.02192828 -0.0054211766 0.05744102 -0.01681535
0.041145116 0.13092476 -0.09383151 0.119464904 -0.09504344 0.005250255 0.003995645 -0.08608408
-0.012264085 0.13008246 0.1396861 -0.16246578 -0.12534484 -0.0073595615 -0.024760585 -0.027199527
0.011951015 -0.06119314 -0.17975046 -0.02327558 -0.07132653 -0.18146922 0.047750603 -0.05945081
-0.18379201 0.105560675 0.051363807 0.03393069 -0.09621174 0.08416832 0.012910077 0.06787168
0.07401096 -0.14100684 -0.2043413 -0.093623646 0.06940211 0.13854052 0.097366765 -0.14846753
0.08357776 0.033071842 -0.08126095 -0.122598514 -0.1931368 -0.09861324 -0.17012677 -0.063579455
0.006545305 -0.046053544 -0.05112324 -0.0093423845 -0.052708607 0.12365861 0.0993037 -0.017208032
-0.017362129 -0.009706887 -0.09993437 0.10713825 -0.019294813 0.071284376 -0.18341297 0.0021609908
0.0012076302 -0.07440688 -0.05866476 -0.022310548 0.09343083 0.120753765 -0.14040637 -0.13477027
-0.120843075 -0.004847684 -0.19333208 0.058589853 -0.040486667 0.12055237 0.036286086 0.05887751
-0.069829576 -0.114924274 -0.092029735 -0.1702289 -0.032580353 0.035136893 -0.15467907 -0.088891536
0.12687418 0.033109352 0.19687413 0.071394876 0.24405806 0.048925336 0.2695452 0.09613861
0.17143534 0.055106223 0.10949401 0.13241328 -0.04825484 -0.027156964 0.1552503 -0.07457765
0.2044901 0.1647858 -0.027137674 -0.045124788 0.037406616 0.06280395 0.04150036 0.026327308
0.21129082 -0.019228255 0.05681859 -0.017495606 0.03188891 0.13473964 0.23307878 0.10114358
0.08124626 0.23358896 0.05171282 0.02920797 0.181158 -0.037962485 0.0047840085 0.2115659
-0.017957782 -0.089764 0.14809933 0.028223608 0.09532931 -0.044664476 0.20438416 0.038637802
00000000: 23b5 f43c 5b1c f2bc 38b8 733e 75ec 843e
00000010: 0f5d 2cbc 214d 693e d24c 833e c477 813e
00000020: d7dd c23d fd93 bebd cb4d 7fbd a2c3 c638
00000030: 5f16 10be 6594 54bd 8c36 4a3e 890c 00bb
00000040: 9af7 15bd 09fd 6b3e c1ba 263d 0df0 ee3d
00000050: 97e7 283e 53f4 d4ba a6d4 8b3e e3e0 90bb
00000060: bf41 7c3e ae44 273d 4492 b33d ab88 92bc
00000070: aa5a 523d e27e 84bc f7c4 143c 1197 123d
00000080: 844e 3cbd 07bb 8ebc fb21 46bd 056c dd3c
00000090: 1de7 1b3c c190 ba3c caea c33d 8a88 d83c
000000a0: 8bf8 5a3d 26a6 36bd 98aa 363d 78cc dd3c
000000b0: e192 383d 480c 343c 9ef5 b13d 7b2c 5b3d
000000c0: 1307 c43c 26f3 f23c 6b14 033d ec73 b53c
000000d0: cda5 4bbd 259d 0c3c 146d c03b 3b56 1a3d
000000e0: f541 fe3d 43c9 613d 5eaa 0dbd ac37 55bc
000000f0: 830c 1b3e 1590 543d 62f3 c03d 567b 7f3e
00000100: 120d 7e3e 935a 693e dabb fa3d 3477 443e
00000110: 7b98 303d 584f 643e d22f 683e 40b4 4a3e
00000120: a454 443e b3a7 b9bd 2778 523d 29b7 643e
00000130: ec3d 853d 4978 b8bb 1fbf aa3d 1849 3dbd
00000140: 5cdc 033d 8781 c13c 1141 9cbc 6cab 3e3e
00000150: 0b08 9d3d 0ed5 19be efdb a33d 43c3 273d
00000160: 7561 6cbd bb01 bc3b 595e 443d c5d2 b0bd
00000170: 6df8 febc 4a27 903d 30d2 f03d 8192 e33c
00000180: 7fc2 bf3b e7f2 babd f9bc d1bc 70cc 3dbd
00000190: 41ba 363c 5f5c 1f3d d27d a0b9 ad94 8dbb
000001a0: d3fb 223d f920 98bd 57ee 013d 2419 0bbe
000001b0: 7f53 5abc bfa0 ef3d 5196 95bc 5dd2 afbd
000001c0: dba5 fcbd 7770 58bd 5b46 fb3c 81d3 373c
000001d0: f0a2 b3bc 20a4 b1bb 4647 6b3d 58c0 89bc
000001e0: c887 283d 2411 063e bc2a c0bd 04aa f43d
000001f0: 23a6 c2bd 550a ac3b e6ed 823b da4c b0bd
00000200: 4def 48bc 5634 053e df09 0f3e 6e5d 26be
00000210: 665a 00be 7a28 f1bb b6d6 cabc 8bd1 debc
00000220: 31ce 433c a8a5 7abd 8110 38be 6eac bebc
00000230: a513 92bd 11d3 39be 2396 433d b182 73bd
00000240: f933 3cbe 3230 d83d db62 523d e8fa 0a3d
00000250: a90a c5bd 7160 ac3d ca84 533c 4f00 8b3d
00000260: 0f93 973d 1964 10be d93e 51be c1bd bfbd
00000270: b222 8e3d 91dd 0d3e 3a68 c73d df07 18be
00000280: d12a ab3d 5776 073d 246c a6bd ee14 fbbd
00000290: a7c5 45be bdf5 c9bd b635 2ebe f235 82bd
000002a0: ff79 d63b a4a2 3cbd 9a66 51bd cd10 19bc
000002b0: fbe4 57bd ba40 fd3d bd5f cb3d dcf7 8cbc
000002c0: 063b 8ebc a309 1fbc 64aa ccbd 4c6b db3d
000002d0: 2810 9ebc 8bfd 913d 9cd0 3bbe 699f 0d3b
000002e0: 5849 9e3a a262 98bd 764a 70bd 9cc4 b6bc
000002f0: aa58 bf3d c04d f73d b0c6 0fbe 3801 0abe
00000300: 937c f7bd 52d9 9ebb d8f8 45be eafb 6f3d
00000310: 59d5 25bd 29e4 f63d b8a0 143d 8b29 713d
00000320: cf02 8fbd 6b5d ebbd 167a bcbd 7c50 2ebe
00000330: fa72 05bd b4eb 0f3d 3164 1ebe c40c b6bd
00000340: 4eeb 013e ac9d 073d 5f99 493e 7a37 923d
00000350: 5bea 793e ef65 483d d401 8a3e 52e4 c43d
00000360: bf8c 2f3e 10b7 613d 653e e03d 5997 073e
00000370: dea6 45bd 4878 debc eff9 1e3e 2bbc 98bd
00000380: da65 513e 9cbd 283e d44f debc c5d4 38bd
00000390: ae37 193d 5b9f 803d 48fc 293d 5eac d73c
000003a0: 9f5c 583e 9384 9dbc 9cba 683d f252 8fbc
000003b0: f29d 023d 30f9 093e 34ac 6e3e 5e24 cf3d
000003c0: 7064 a63d f231 6f3e d2d0 533d 8d45 ef3c
000003d0: 7c81 393e 8d7e 1bbd 2cc3 9c3b bba4 583e
000003e0: 331c 93bc 30d6 b7bd 5aa7 173e 3235 e73c
000003f0: 033c c33d 19f2 36bd 154a 513e ac42 1e3d

hidden_y1.bias f4 [30]
0.15330265 -0.1685957 0.088882804 -0.061177723 0.13422552 -0.015508354 0.06951608 0.20288762
0.30552107 0.19671033 0.121264145 0.26557556 0.019264922 0.068243496 0.11722034 0.14001577
0.16303565 -0.12465527 0.19356719 0.036409866 -0.29390368 0.22755888 0.061349947 -0.029955287
-0.026021475 0.1186486 0.081150785 0.04128963 -0.14550787 0.1779396
00000000: 5ffb 1c3e 5aa4 2cbe 3008 b63d 7e95 7abd
00000010: 6a72 093e c016 7ebc 725e 8e3d c6c1 4f3e
00000020: 426d 9c3e 6f6e 493e 5659 f83d 85f9 873e
00000030: 78d1 9d3c 3fc3 8b3d 3811 f03d 4b60 0f3e
00000040: d1f2 263e 434b ffbd 7a36 463e 8322 153d
00000050: 8b7a 96be 3205 693e 154a 7b3d ca64 f5bc
00000060: fd2a d5bc 0afe f23d 6232 a63d 511f 293d
00000070: 0400 15be cc35 363e

out_y1.weight f4 [1, 30]
0.12211551 -0.12360358 0.22490567 -0.06806016 -0.03989966 -0.13730504 -0.13826545 0.14604789
0.151781 0.1784544 -0.13811745 0.25388733 0.21277794 -0.08497215 0.16339388 -0.02686547
0.15183882 -0.16071391 0.13207336 -0.08486903 -0.23648225 0.2551158 0.26245707 -0.028227376
-0.09892354 -0.080497354 0.14236997 -0.044849254 -0.09092253 0.21595831
00000000: b217 fa3d e023 fdbd ac4d 663e 2063 8bbd
00000010: d36d 23bd b199 0cbe 7595 0dbe 948d 153e
00000020: 7a6c 1b3e c0bc 363e a96e 0dbe 85fd 813e
00000030: 76e2 593e e105 aebd ba50 273e f914 dcbc
00000040: a37b 1b3e 3092 24be 3d3e 073e d0cf adbd
00000050: 6728 72be 8a9e 823e c660 863e 193d e7bc
00000060: 6d98 cabd ccdb a4bd 6fc9 113e dab3 37bd
00000070: 9735 babd 2d24 5d3e
