DR_Info_CFR/IHDP/Models/netQ0.pth (torch, 10111 bytes, 8 tensors)

hidden1.weight f4 [30, 2]
00000000: b204 4abd c7a2 123e 53f0 2abf 0988 003f
00000010: 57c2 4b3e 5a82 2c3f 4928 913e 8d56 f8be
00000020: 06a0 703e 5c64 afbd 887e cdbe 6a9f c9bd
00000030: 36f1 1dbf fbbc 97be 4b09 8d3e d19a 2c3f
00000040: c045 27be 58a0 f7bd 4a93 193e 2509 813e
00000050: 15b4 113f 6237 9a3e 335b 4ebe a857 01be
00000060: 3b04 c83e 5230 b6be 4bca bb3d cd2e b73e
00000070: 2ebc 98be f056 03be bb96 24bf b73a 1e3f
00000080: aea6 b43a 200d d33e 0101 e63c dd75 c23e
00000090: a264 ebbe 5014 343f 8565 133f 0655 e2be
000000a0: b2bb 083f 3dcc 1b3f 4c74 af3e 6262 623e
000000b0: 13fb d73e 6db9 de3e 38e4 16bf c273 b13e
000000c0: b3cc d83e 39ac 22bf 9fec bf3d 6fad 00bf
000000d0: 3603 febe e07c 153f 8229 eb3e ba26 63be
000000e0: 3cf6 b9bd bf9b 933d cd93 133f 8240 163f
-0.049320884 0.14319907 -0.66772956 0.50207573 0.19898354 0.673864 0.28351048 -0.48503533
0.23498544 -0.08564064 -0.40135598 -0.09844859 -0.61696184 -0.29636368 0.27546152 0.6742373
-0.16335201 -0.1209113 0.14997593 0.2520229 0.5691541 0.3012038 -0.20151977 -0.12631094
0.39065728 -0.3558374 0.09169444 0.35777894 -0.2983107 -0.12826133 -0.64292496 0.6180834
0.0013782585 0.4122095 0.02807665 0.37980548 -0.45975214 0.70343494 0.5757678 -0.44205493
0.534114 0.6085852 0.34268415 0.22107843 0.42183742 0.43500844 -0.58941984 0.3465863
0.42343673 -0.6354404 0.09371304 -0.5026464 -0.49611825 0.5839367 0.45930105 -0.22182742
-0.090801686 0.072074406 0.576474 0.5869218

hidden1.bias f4 [30]
00000000: bcca 7b3b 6a97 073f cfd0 a4be 4830 31be
00000010: 9f8a de3e 8f1d 20bf dc61 9dbd 6f00 153e
00000020: a843 e3be b704 e8be 64f4 59bd 10af ecbc
00000030: 2828 06bd 332b 15bf f59c 943d 8e42 dabe
00000040: bdb8 203c 1d68 6cbd 93e1 023f 6602 26bf
00000050: 7029 fe3d cfe9 19bf e3a5 f63e 4baf 2b3f
00000060: ccdf 1e3e adfc 973e 22cc 0dbf 43fc 83bd
00000070: 168d 2ebd 26c5 9a3e
0.00384204 0.52965415 -0.32190558 -0.17303574 0.43465135 -0.625451 -0.07684681 0.14550947
-0.44387555 -0.45316097 -0.053211585 -0.02889207 -0.03275314 -0.5826904 0.072565 -0.42628902
0.00980967 -0.057716478 0.5112545 -0.6484741 0.12410247 -0.6012239 0.48173437 0.6706435
0.15515059 0.29684964 -0.55389607 -0.064445995 -0.04261502 0.30228537

hidden2.weight f4 [30, 30]
00000000: 7011 4a3c d326 373d 55dc cf3d 6dff 4ebd
00000010: b3a1 083e b1bc b5bd 4e70 41bc 0cac 243e
00000020: 41f2 09be 961e 16be 0381 913c 9bee e0bd
00000030: 0eb5 9dbd 04e9 263e 3fc1 1cbd fe9f 2abd
00000040: 9d6a af3d 77a0 fdbd 8863 2a3e 09bb 0e3d
00000050: 769b c0bd 2812 0b3e 636b c6bd 0664 38be
00000060: bee8 263c 66f8 3cbc a2a4 25be 8cd4 c53d
00000070: 660f 3b3c 42a6 13be e2ec f2bd db41 e53c
00000080: 87e7 13ba fab1 c53d b07e 303d 51bd e4bd
00000090: dd2a 073e e0b6 11be 38bf 75bd f291 cfbd
000000a0: e873 3cbd f314 0cbe 668f 053e 62cb ab3d
000000b0: 98c1 af3d 52a8 b8bc f016 e6bd acc3 a6ba
000000c0: a516 19be ee9b 18be 17a2 00be fdb8 e9bd
000000d0: deae ac3d e928 eb3d cdea 993d e0b9 0bbe
000000e0: 432d 1c3d 8e21 08bb 2ab6 0abe aff6 eb3d
000000f0: 5d5f bbbd 9673 babd aced 9f3d 95b1 25be
00000100: b442 243e 43cf 87bd 87c7 10be ec38 23be
00000110: e52c c63d 114e 8fbd efc3 393d 9e5d 553d
00000120: 9d19 343e b7a9 093d 0cc8 433d 3138 d239
00000130: fa27 823b 3aba 0e3e e6e8 f13d 09f9 c9bb
00000140: 8ec0 b93d e48b e1bd cd6b 823d 5397 3fbd
00000150: 9ecf 1f3e f5ab 75bd 6161 193e 2389 2a3e
00000160: c084 0cbd a9c3 32be 41f5 15ba 9a9e 0d3e
00000170: 477d fa3d 57ee b53d 6a94 743d 8101 85bb
00000180: d6ed 7b3d 85fe 1abd 38d3 3bb6 beb7 e63d
00000190: b49d 21be 142f c93d c747 1abd 3b7b 4d39
000001a0: 9fa8 b63c 5557 5a3d c6f5 f7bd 9dbd 643d
000001b0: e5be a53d 0d03 e9bd 67da 06bd 0a23 303d
000001c0: 494f 993d fd6b 24be fe5e 99bd adbf 0b3e
000001d0: 2f85 de3d 02b3 183e cfa3 e7b9 90f5 40be
000001e0: b5b2 d13a fcdf a53d 5038 163e bf0a bdbc
000001f0: b7fb f93d bcd1 223e d9ea 7b3b 7368 203e
00000200: 202f 56bd 3d05 063e bfed 273d cbe9 203e
00000210: d4de 32b4 1268 df3c 6052 10be 02b1 96ae
00000220: 81ad cfbc d956 853d c12c 18be 2c4b f03c
00000230: 947a 6fbd 2c27 84bd 507a 1cbe 2fbc c43b
00000240: 86c3 e23d cd7b 733c 75a3 0cba 1465 44bd
00000250: 6c48 d9bd 45b4 90bd 058c 853c 4ee8 103e
00000260: 25c4 aabd 3acf b0bc 9102 0dbc cae1 033c
00000270: f3ea 9639 f9b4 10be 32f2 acbd 3eaf 89bd
00000280: 92f3 fabd 2fa4 a9bd 2976 cd3d 8216 c1bd
00000290: d697 c2bd 1ea5 0abe 3657 d83d 2c6e b03d
000002a0: 3c59 9d3d d9df 91bc e207 9f3d cb31 1fbe
000002b0: a38b 183e 981a 3ebe 1e69 aa3d 9ab0 9dbd
000002c0: 9f24 1c3e 8d41 29be 3573 223e 5d2a bcbd
000002d0: 97f2 a83d 423a d23c c26c 0f3c d382 d9bd
000002e0: 6321 823d 5740 063e 7729 403d 9f79 f13d
000002f0: a448 743b 8c4a 843d d1ea 433d 0afc b3bd
00000300: d738 50bd b49e 18bd 36b9 0b3e 1294 1c3e
00000310: a634 bebd 46cb 5dbd 3a3c b43d d37a 8b39
00000320: 2b66 d13d f903 bcbd e7e7 093e c00e ecbd
00000330: ec66 7b3d bf4e e0bd 7ac3 0b3e 0f46 883c
00000340: 44e2 6d3d 3875 07be 238b e1bc 046c e1bd
00000350: 2e78 943c fb28 9dbd e9f1 a2bc ce23 6bbd
00000360: 7f31 e9bd cc40 7c3d 51d6 eb39 7919 9dbd
00000370: 5535 ce3d 00e6 8dbd e2bf 8b3c e16a d1bd
00000380: 3906 b7bc 283f 06be 7fba afbd 4772 b7bd
00000390: 1342 1bbe 3966 ef3b 81e1 c73d ddbc d2bd
000003a0: 2987 0ebe 90c0 0d3e 2813 7dbb 2226 b3bd
000003b0: 5045 a43b f968 9bbc eadf 0fbe f670 0d3e
000003c0: 90d3 043e fcc4 c5bd adea 103e 9955 debd
000003d0: 45b0 ff3d 930d bc3b 4ddb 80bd 5ec9 113e
000003e0: 3ea9 23bd ed22 0dbe 19d0 a33d 780c d2bd
000003f0: 9929 06be 27c3 fc3d a61e 043e 6325 bebb
0.012333259 0.04471476 0.10149447 -0.05053656 0.13342933 -0.08873881 -0.011806561 0.16081256
-0.13471319 -0.14660105 0.017761713 -0.109830104 -0.07700549 0.16299826 -0.03827023 -0.041656487
0.08565257 -0.12384122 0.1663953 0.03484634 -0.09404652 0.13581145 -0.09688451 -0.18006906
0.010187326 -0.011533832 -0.16176084 0.09659681 0.0114172455 -0.14418891 -0.11861588 0.027985504
-0.0005642105 0.09653087 0.04308957 -0.11168922 0.13199945 -0.14229918 -0.059996814 -0.10135259
-0.046008974 -0.13679866 0.13042983 0.083884016 0.08581847 -0.022541199 -0.11234844 -0.001272311
-0.14950044 -0.14903232 -0.12561832 -0.11412237 0.08431791 0.11482412 0.07515488 -0.13645124
0.038129102 -0.0020771953 -0.13546053 0.115216605 -0.091490485 -0.091040775 0.07809004 -0.16181023
0.1604107 -0.06631329 -0.14138614 -0.15939683 0.09676532 -0.06997312 0.045352872 0.052091233
0.17587896 0.03360912 0.0477982 0.00040096187 0.0039720507 0.13938227 0.11812 -0.0061637205
0.0906993 -0.1101301 0.063682176 -0.046775173 0.15606543 -0.059978444 0.14978553 0.16653876
-0.034306288 -0.17457451 -0.00057204446 0.13830033 0.12230926 0.0888335 0.05971185 -0.004059017
0.061506115 -0.037840385 -2.7988117e-06 0.11265515 -0.15782815 0.098234326 -0.03766611 0.0001959623
0.022297202 0.053305943 -0.121074244 0.05584489 0.08093051 -0.11377535 -0.03292313 0.043002166
0.074858256 -0.1605682 -0.074888214 0.13647337 0.108652465 0.14912036 -0.000441818 -0.18843675
0.0015998693 0.08099362 0.14669919 -0.023076413 0.12206214 0.1590032 0.003843954 0.15664844
-0.052291036 0.13087936 0.040998217 0.15714185 -1.6658606e-07 0.027271304 -0.14093924 -6.852653e-11
-0.025351288 0.065107055 -0.14860822 0.02933272 -0.05846651 -0.06452784 -0.15281034 0.0060038785
0.110724494 0.014861059 -0.0005364933 -0.047947958 -0.106095165 -0.07065634 0.016302118 0.14151117
-0.08338193 -0.021583188 -0.008606569 0.008049438 0.0002878528 -0.14131536 -0.084446326 -0.06722878
-0.122534886 -0.08283269 0.10032303 -0.09428121 -0.09501617 -0.1353955 0.10563509 0.086147636
0.07683036 -0.017806934 0.077651754 -0.15546338 0.14897017 -0.18564832 0.08320831 -0.076997
0.15248345 -0.16528912 0.1586426 -0.09187768 0.08249395 0.025662545 0.008753957 -0.10620656
0.06354024 0.13110481 0.046914544 0.117907755 0.0037274742 0.06459531 0.04783136 -0.08788307
-0.050835457 -0.037260726 0.13644871 0.1529086 -0.09287386 -0.054148935 0.0880055 0.00026603657
0.10224565 -0.09180445 0.1346737 -0.11526251 0.06137745 -0.109525196 0.13648787 0.016634969
0.05807711 -0.13228309 -0.027532166 -0.110069305 0.018123712 -0.07673832 -0.019890742 -0.057407193
-0.11386394 0.061585233 0.0004498237 -0.07670874 0.10068766 -0.06928635 0.01705927 -0.10225464
-0.022341834 -0.1311003 -0.08580493 -0.089573435 -0.15161924 0.007305887 0.09759808 -0.10289929
-0.13918747 0.13842988 -0.0038616154 -0.08747508 0.0050131455 -0.018970953 -0.1405026 0.13812622
0.1297133 -0.096567124 0.14152022 -0.1085617 0.124847926 0.005738923 -0.06291828 0.14236972
-0.039956324 -0.13782854 0.07998676 -0.102562845 -0.13101806 0.1234191 0.12902316 -0.0058027967

hidden2.bias f4 [30]
00000000: f094 283d 2d90 b33d 740b 2f3d 99d8 f53d
00000010: c9b0 09be 18cb 113e 82f5 c3bc 3b53 eabd
00000020: de46 543d 4ad2 e6bc 767a 0b3e 2f07 b13d
00000030: cc02 62bd 4cee 2a3e d311 b0bd c629 f93d
00000040: 00c6 d3bd 5d93 69bc 2d0e b03d 7888 3f3e
00000050: b806 cf3d 687e 20be e035 213c daf4 d8bd
00000060: 304c ddbc 07ac 7d3b f648 673c 49a7 ff3c
00000070: 8c88 013d 5b8a 1ebd
0.041157663 0.08767734 0.042735532 0.12004203 -0.13446344 0.1423763 -0.023920778 -0.11441656
0.051825397 -0.028176446 0.13620934 0.08643948 -0.05517845 0.16692466 -0.0859715 0.12166171
-0.103405 -0.014256326 0.08596454 0.18704402 0.101087034 -0.1567322 0.009839505 -0.10593577
-0.027013868 0.0038707273 0.014116516 0.031207697 0.031624362 -0.038706165

out_mu0.weight f4 [13, 30]
00000000: e884 a23d a9ab 12be 4314 113d 646c ef3d
00000010: 5a9c 113e cbc2 18be cf2b 9abd e91b 113d
00000020: 72cf 6d3d 8a25 f3bd a376 033e 952f bc3c
00000030: 9a4e 353e 1f94 bb3d 0eb6 403e 2c4e 7dbc
00000040: 569f f4bd f196 5a3d 400f 21ba 4698 293e
00000050: f1cb 153e 67b9 ef3d a33d 06be 7959 0fbd
00000060: ec2f b4bb f83d e63b 7b40 10be d256 88bc
00000070: 484e 2c3c 4863 033e 569c 823c ade8 36be
00000080: 7b16 1c3d 6dd9 1d3e 25db 1abe 7bfc c7bd
00000090: 87c7 3d3e a2d3 16be fa59 eebc 4c7c 023e
000000a0: d087 29be 7d42 d03d 0bea d0bd d0e6 783b
000000b0: 89d9 20be c030 453d 5dab 2d3e 63ab 553d
000000c0: a7fe 3c3e 3caa 3c3e fe27 213e 3ab0 7dbd
000000d0: bdac 063d dcfe 343e 5915 6c3b f1e9 23be
000000e0: f78a 22be 7f6e 0ebe ebaf dfbd 8ef1 26bc
000000f0: c7e4 e4bd b7b2 c2bd 5e4d 0abe 859c bf3c
00000100: 0d0a 22ba b395 073e 7297 b7bd 3629 22be
00000110: d99e 233e 2eb6 8d3c 693c afbc 5c10 6cbd
00000120: 039c 09be 1011 263e 6a6b cd3d be2a 063e
00000130: 8022 debd 2646 b3bc 2064 313e 7fae 23be
00000140: 3a32 0b3e bbac 99bd aece 053e b88a 823d
00000150: 6201 8bbd e093 15be 4aa4 b3bd 0cf6 163e
00000160: 09cc 12be cce5 8d3d ee5c 16be 01ec ebbd
00000170: ccc6 1abe 35e4 d83d af32 03bd 8409 a83c
00000180: f86f fbbd 5498 c7bd 7552 c4bd 328b 1d3d
00000190: 4be9 103e 4580 9a3d 232b 273e b2f0 153e
000001a0: 3711 8c3d daa4 a6bd 4819 e1bd 4f95 9cbd
000001b0: a6b3 033e b4a6 133e 38f2 ab3c 772f faba
000001c0: eccf 26be 731c 0a3e 4659 c9bc b43d d2bd
000001d0: 86b4 88bd cd8e aa3d 4094 02be 7362 a8bb
000001e0: 60c0 2bbd afef 11be a2e5 873a 5777 ce3d
000001f0: b7be f63c a701 593c 5403 3a3e 721f 55bd
00000200: 9b52 c23d 59e0 14be 8939 ebbc 9eb0 4f3c
00000210: b276 023e d64c 253e fe35 02be faac ad3d
00000220: 10b8 fcbd ebad debd da47 c03c 365b 1dbe
00000230: 5d84 2bbe 7e61 6ebd 2622 adbc 9137 903d
00000240: 8a8f 963d a605 053e 8a5a c63d 27e1 283e
00000250: 9764 983b dec9 23bd b663 e73b dc41 3b3e
00000260: ec90 c03d 9430 3e3e a529 9a3c ff37 84bc
00000270: 4a6c bebd 356b 82bd 7c69 38bd 1d14 11bd
00000280: 972f e4bd 5f1e 32be 3691 9c3d e637 8b3c
00000290: 9901 a0bc f798 163d 675c 013e 6a60 f63d
000002a0: 2488 84bd 5ee7 cbbd 0618 393d 7f66 b43d
000002b0: f093 873d 1d90 f73d f17d ffbd b3b3 63bd
000002c0: e9a2 873d 1913 d4bb 0f59 a4bd 7354 182e
000002d0: f204 b33d 4260 bbbd 1565 ecbd b563 bb3d
000002e0: 655b 0cbd 9e05 29be c718 d6bd af82 aebd
000002f0: d73a 183e 5223 94bc 9112 df3c e5ac e2ba
00000300: f5c0 09be 190f 073e 3867 bd3c 8581 c63d
00000310: c583 633d a398 67bd aa6e 1bbe 5c4d 313e
00000320: 7b72 d33d b8be 2abd 6c80 d3bc fd62 f53d
00000330: 028d 97bd f5ef 1dbe 31ad ddbd 7562 38bd
00000340: 5399 21be 4799 a4bd fa82 2abe 5a15 22be
00000350: 9d39 e0bd 2af9 c53d a3c7 80bd ee4a b2bc
00000360: c68b 19bc 14b1 e23d ea6a 063d 914e cebd
00000370: 5259 3b3e ce09 a43d 2587 e1bd 5cfc 0b3e
00000380: 500c 9d3d f641 04be 6ab9 88bd 862a 26bd
00000390: dc9c af3c 8e42 eabc 9997 243d a903 143e
000003a0: 41b6 3dbd 474f 11be 4e67 873c 3118 97bc
000003b0: 68db 84bd 10e8 e23c afcb 18be 5a56 15be
000003c0: fdb6 a83d 76ca 31be b93e 723d 8c7d 153e
000003d0: ef67 f43d df4b dc3d ba3b 8b3b df62 1f3e
000003e0: b3a4 febd 9da4 973d 6270 ccbb b52b 133d
000003f0: 5cef 1f3e 0808 1abe a453 83bd 8021 d93d
0.07935506 -0.14323296 0.035419714 0.11690596 0.142198 -0.14918058 -0.07527887 0.035427008
0.058059163 -0.118723944 0.12838225 0.022971908 0.17705765 0.09159111 0.18819448 -0.015460532
-0.119444534 0.053366605 -0.0006143935 0.16561994 0.14628579 0.117052846 -0.1310945 -0.034997437
-0.005498877 0.00702643 -0.14087097 -0.016642962 0.010516711 0.12830842 0.015943687 -0.17862196
0.038107377 0.15414973 -0.1512266 -0.09764954 0.18533145 -0.14729169 -0.029095639 0.12742728
-0.16555715 0.10168932 -0.1020089 0.0037979372 -0.15707983 0.048142195 0.16959901 0.0521654
0.18456517 0.18424314 0.15737912 -0.06193564 0.03287958 0.17675346 0.0036023466 -0.1600721
-0.15873323 -0.13909338 -0.109222256 -0.010189427 -0.11176448 -0.095067434 -0.13506076 0.023390064
-0.0006181307 0.132407 -0.08964433 -0.15836033 0.15978564 0.017298784 -0.02139111 -0.05763279
-0.1343842 0.16217446 0.10030253 0.13102242 -0.10846424 -0.021884035 0.17323351 -0.15984534
0.13593379 -0.07503649 0.13067123 0.06374115 -0.06787373 -0.14607191 -0.0877157 0.14742297
-0.14335646 0.06928596 -0.14683887 -0.115196235 -0.15114897 0.10590402 -0.032030758 0.02051235
-0.12277216 -0.09745851 -0.0958604 0.038462825 0.14151494 0.07543997 0.16325049 0.14642599
0.06839221 -0.08136912 -0.1099115 -0.07645666 0.12861499 0.14419061 0.020989522 -0.0019087632
-0.16290253 0.13487415 -0.024578702 -0.10265675 -0.06675057 0.08328018 -0.12751865 -0.005138689
-0.04193151 -0.14251588 0.0010368119 0.10081356 0.030120237 0.013245023 0.18165332 -0.05203194
0.09488412 -0.14538707 -0.028713958 0.012676386 0.12740591 0.16142592 -0.12715909 0.08480258
-0.12339795 -0.10873016 0.023471761 -0.15366825 -0.16749711 -0.058198445 -0.021134447 0.070418485
0.07351597 0.12990436 0.09685238 0.16492139 0.004650663 -0.039987437 0.007061447 0.18286842
0.09402642 0.18573219 0.018818686 -0.016139982 -0.09297998 -0.06368104 -0.045022473 -0.035419572
-0.111418895 -0.17394398 0.07644884 0.016994428 -0.019532012 0.036766972 0.12632905 0.12030108
-0.06471279 -0.09956239 0.045188926 0.08808612 0.06620014 0.12088034 -0.12475193 -0.055591296
0.066228695 -0.006472003 -0.08024799 3.4635805e-11 0.087411776 -0.09149219 -0.11542717 0.09149877
-0.034266848 -0.16506049 -0.10453945 -0.0852102 0.14866196 -0.018083248 0.027230533 -0.0017293958
-0.13452514 0.13189353 0.023120508 0.09692673 0.055545587 -0.05654205 -0.15178934 0.17314667
0.1032457 -0.04168579 -0.025818072 0.11981771 -0.07399942 -0.15423568 -0.10824049 -0.04501577
-0.15781145 -0.08037048 -0.16651526 -0.15828457 -0.10948489 0.09666665 -0.06288078 -0.021764245
-0.0093717035 0.11068931 0.032816805 -0.10073579 0.18295792 0.080096826 -0.11012105 0.13670486
0.07668364 -0.12915787 -0.0667599 -0.040567897 0.021437101 -0.028596189 0.040183637 0.14454521
-0.04631639 -0.14190398 0.016528752 -0.018444153 -0.06487161 0.027698547 -0.14921449 -0.14583722
0.08238027 -0.17362389 0.05914185 0.14598674 0.11933886 0.10756659 0.0042490633 0.1556506
-0.12433758 0.07404444 -0.006238983 0.035930354 0.15618652 -0.15042126 -0.064124376 0.10602093

out_mu0.bias f4 [13]
00000000: f0cb eebd 24b9 083d 4ec1 d4bd 5867 d7bd
00000010: e385 d6bd 028a 0abe a0f4 1d3c ab6b 07be
00000020: 60cd e43d 9665 49bd a7ad adbd 61b8 ddbd
00000030: 45f9 a5bd
-0.11659992 0.03337969 -0.103884324 -0.10517758 -0.104747556 -0.13529208 0.009640843 -0.13224666
0.11171985 -0.049169146 -0.08480387 -0.10826183 -0.08104185

out_var0.weight f4 [13, 30]
00000000: ba55 d23b 0721 793d 6a6e 51bc e493 e2bc
00000010: e785 b83d 499f 1bbe 248c c83c 03e7 973d
00000020: 74f6 edbd 430c a538 d8ab b3bd c1c6 10bd
00000030: b479 1cbe e529 863b 6781 093c 880e 96bd
00000040: 08b7 8f3d 3623 f4bd 25e6 1e3e 0cb3 093e
00000050: da7e 12be 4e7b 183e b83b 0d3b 0311 7abd
00000060: 27a7 ecbd b8bc d4bd eab6 563d 567a 76bd
00000070: 0868 7e3c e97c 4b3c e27c 01be c55b cabd
00000080: 09a9 7739 b852 e6bd a328 5ab3 de4d e93c
00000090: e6e9 5bbd 412d 23be fda6 383d ed18 7ebd
000000a0: 1ec9 a6bd a347 80bc 658d c13b daf6 023e
000000b0: bb3a f4bd 6384 683c 3f64 ee3c 17d5 b1bd
000000c0: 4dcd ba3d 870b ec3d ac74 a2bd e416 8e3d
000000d0: ab5e 2d3e f410 23be a723 13be bb64 5aab
000000e0: 9e8b 1f3e 559b 08be 5f4e 98bd 960e c1bd
000000f0: dfa2 343d 467a 0b3d 3d2d 2fbe 583e b83d
00000100: 6216 773d fe7b 1cbe 2765 1ebe c004 68bc
00000110: 2a47 0a3e fa33 23be 7dc7 2bbe e378 2a3e
00000120: 6432 253e 2c24 78bd b0fc df3d c9b2 bd3c
00000130: 619b c13c 6049 073d af86 58bd c46d d3bd
00000140: 0f23 b53d 830b e13d 2d2c 65bd 3aa2 213e
00000150: fc93 1d3e 0778 afbc d1b2 0d3e dec4 09bd
00000160: ce1d ca3d 5c6e f9bd af1e 69bd 3f72 2fbe
00000170: f78e bb3d 701b a33d f174 313d 9e37 283e
00000180: e825 e73d 60d1 173e 76c7 90bd 8609 85bb
00000190: 2e89 403d 1716 b93d 4952 0d3e f40f d03d
000001a0: b87f 4fbd 4ae1 6e3d b036 823d 11aa 0dbe
000001b0: c69b 59bd 2236 2fbe 13d7 9b3d 1f64 003e
000001c0: 51a2 633c 04c8 2b3e 455e 6fbd c796 00af
000001d0: 58a5 6a3d d90d 503d be59 e13d 43bc 2fbc
000001e0: d3f1 42bc 330a 3a3c 3c26 af3c 106c ab3d
000001f0: 754e 863a 6eda 60bd fbd9 93bc 1918 a9bd
00000200: ab9b dabd b1b9 4b39 11b8 eb3d 2745 7a3d
00000210: 7c7d bdbd 5ba2 54bb 24c1 24be 1701 f4bd
00000220: 51b7 a33d 81e3 d7bd 5913 51bc 633d d6bd
00000230: faa4 b43d ad98 7ebd 0300 f43d 4c71 c83d
00000240: 525f 0fbd dfdf e1bd 1020 633d 0550 d33d
00000250: dd42 0e3e f997 0cbe b396 223e 8a28 13bd
00000260: 0d84 063e 9fe6 253e 5884 d0bd fe59 cc3c
00000270: 5cfd 203e a119 183e 15b9 86bc f901 abbd
00000280: f0fe 023d e1a2 903d abb9 88bd 10ae 1c3e
00000290: c299 923d 2c99 233e b4c0 373e 6bef 71bd
000002a0: 9c47 30be 536d 3fbe 04a2 33be 30c2 f73d
000002b0: 42ce 2c3e b28f 9cbc 34e1 cebd 6444 8fbd
000002c0: bf85 abbd 8f78 46be c8dc 4f3c 61fe 0cbe
000002d0: 63da b1bb 5d85 1bbe d5fa 9b3d 6ff4 ab3c
000002e0: a16a 26be b806 3d3e 3c2c 3b3e 54e8 373d
000002f0: fdae bd3d 6546 fd3d b8d9 2e3d a79b da3d
00000300: 2760 f1bd 80cf 23be 7254 3b3d ea37 203e
00000310: e337 0f3e 8bd7 09be 3999 253e 03b1 eb3a
00000320: c9d9 fdbd bdff c8bd fe81 19bd fb2e 203e
00000330: e561 df3d 2e06 c3bb a760 213e 92e8 2c3d
00000340: f67f 0ebe 9053 b73d 16a1 183e b61c 68bd
00000350: 6719 353d 50b8 a4bc 2596 efbd ec75 0f3e
00000360: 8535 eebb ac78 e2bc 9e07 a43d 107a 993d
00000370: 6046 3c3d c355 1dbe d133 21bd fa23 25be
00000380: 01c6 5abd 49ae bdbc bcc1 933d d436 e8bd
00000390: 45a7 0f3e d866 cbbd bb1a 103d 6ddf c2bd
000003a0: 2934 133e 42ab 213e f490 863d 0bbf d0bd
000003b0: a59c 33be 8d36 08be 84f1 35bd 24c1 1e3e
000003c0: 36fe a73d f004 8dbd 2e16 55bd 67f7 813c
000003d0: 4b97 533c 4ae0 11be 2616 eebd a047 773c
000003e0: 0303 43bd 8831 d33d bbe2 b3bd bad0 07be
000003f0: 6b91 d7bc cd63 1d3e d2c2 363e e612 883c
0.006418911 0.060822513 -0.012782672 -0.02765841 0.09009915 -0.15197481 0.024480887 0.07417109
-0.11619273 7.870097e-05 -0.08773011 -0.035345796 -0.15280801 0.0040943497 0.008392668 -0.0732699
0.07017332 -0.119207785 0.1551748 0.13447207 -0.14306203 0.14890787 0.0021550488 -0.06105138
-0.11555319 -0.10387558 0.052420534 -0.060175262 0.015527733 0.012419918 -0.12645295 -0.09880785
0.00023618726 -0.11246246 -5.079404e-08 0.028479513 -0.05368986 -0.15935232 0.045081127 -0.06203549
-0.08143829 -0.015659159 0.005906748 0.12789479 -0.119252644 0.01419172 0.029100535 -0.08683222
0.09121189 0.11525636 -0.0793241 0.0693796 0.16930644 -0.15924436 -0.14369069 -7.758895e-13
0.15580603 -0.13340504 -0.07436823 -0.0942661 0.04410064 0.034052156 -0.17107101 0.08996266
0.06032408 -0.15281674 -0.15468274 -0.014161289 0.1350371 -0.15937796 -0.16775317 0.16647677
0.16132504 -0.06058137 0.10936868 0.02315654 0.02363366 0.03302896 -0.05286282 -0.103236705
0.088445775 0.10988524 -0.055950332 0.15784541 0.15388483 -0.021419538 0.13837744 -0.033635013
0.09868966 -0.121792525 -0.056914028 -0.17133425 0.09158128 0.07964218 0.043324415 0.16427466
0.11286527 0.14825964 -0.07069294 -0.004059973 0.047005825 0.090374164 0.1380092 0.10159293
-0.05065891 0.05832032 0.06358087 -0.13834406 -0.053127073 -0.17110494 0.076093815 0.12538193
0.01389368 0.16775519 -0.05843951 -1.1695099e-10 0.05728659 0.050794456 0.11003445 -0.010726037
-0.011898476 0.011354971 0.021380536 0.08370221 0.0010246771 -0.05489581 -0.018048277 -0.082565494
-0.106742226 0.00019428764 0.11509717 0.061101105 -0.0925245 -0.0032445404 -0.16089302 -0.1191427
0.07993949 -0.1054144 -0.0127609605 -0.10460927 0.08820529 -0.06215732 0.11914065 0.09787235
-0.035003014 -0.11029028 0.0554505 0.10317997 0.13892694 -0.13729848 0.158778 -0.035927333
0.13136311 0.16201256 -0.101814926 0.024945255 0.15721649 0.14853527 -0.016445676 -0.08349986
0.03198141 0.07062317 -0.06676038 0.15300775 0.07158233 0.15976399 0.17944604 -0.059066217
-0.17214817 -0.18694048 -0.17542273 0.12097585 0.16875556 -0.019111488 -0.10101548 -0.06995466
-0.083751194 -0.19381927 0.012686916 -0.13768913 -0.005427645 -0.15187593 0.07616202 0.020990578
-0.16251613 0.18459594 0.18278593 0.0448993 0.09261892 0.12366942 0.0426881 0.106742196
-0.11785918 -0.15997124 0.04573483 0.1564633 0.13986163 -0.1346113 0.16171731 0.0017981831
-0.12395055 -0.09814403 -0.037477486 0.15642922 0.10907344 -0.0059516644 0.15759526 0.042213984
-0.13916 0.08951485 0.149052 -0.056668006 0.04421368 -0.020107418 -0.1169856 0.14009827
-0.0072695636 -0.027645431 0.08009265 0.07493985 0.045965552 -0.15364747 -0.039356057 -0.16127005
-0.053411487 -0.023154395 0.07214686 -0.11338583 0.14028652 -0.09931725 0.035181742 -0.09515271
0.14375366 0.15787986 0.06570616 -0.101926886 -0.17540224 -0.1330206 -0.04441978 0.15503365
0.08202784 -0.068857074 -0.052023105 0.015865041 0.012914489 -0.14245716 -0.11625318 0.01509276
-0.047610294 0.10312182 -0.0878348 -0.13263217 -0.026314458 0.15370102 0.17847756 0.016610574

out_var0.bias f4 [13]
00000000: a90f 253d 3a1e e8bc 4c13 78bd b3ca 0ebc
00000010: 7097 2fbc 8fcb 1a3e 2c78 babd 94c6 ee3d
00000020: cdeb 39bd c46a 26be 123b 19be 68ab acbc
00000030: e84e 103e
0.040298138 -0.028334726 -0.060565278 -0.008715319 -0.010717258 0.15116714 -0.09104952 0.116589695
-0.045390893 -0.16251665 -0.1496394 -0.021077827 0.140926
