DR_Info_CFR/IHDP/Models/netQ0.pth (torch, 8895 bytes, 8 tensors)

hidden1.weight f4 [30, 2]
0	0x3f0fab68	0.5612092
1	0xbf1b2212	-0.6059886
2	0x3f1b34b6	0.60627306
3	0x3ee7cfe9	0.4527581
4	0x3f277cf6	0.6542505
5	0x3d2f2182	0.042756565
6	0x3e737287	0.23774157
7	0x3ea55ddd	0.32298175
8	0x3e90b0a2	0.2825976
9	0x3f0a01c1	0.53908926
10	0x3f2c85f8	0.6739192
11	0xbe8a5c97	-0.27023765
12	0xba06cb76	-0.00051420124
13	0xbd4a008c	-0.049316928
14	0x34be853a	3.5487193e-07
15	0xbc483d11	-0.012221591
16	0x3f0c88e5	0.54896384
17	0xbee9e04d	-0.4567894
18	0x3f05bfad	0.522456
19	0x3e8107e5	0.25201336
20	0xb8fae12c	-0.000119628705
21	0xbc01622d	-0.007896942
22	0x3c21ea78	0.009882562
23	0x3eab7b58	0.3349254
24	0x3d1a372a	0.037650265
25	0x3ed1abc9	0.40951374
26	0xb958802e	-0.00020647116
27	0xbd7026b8	-0.058630675
28	0xbe0b704d	-0.13617058
29	0x3d804a42	0.062641636
30	0x3ef08acd	0.46980897
31	0x3e9a5c01	0.30148318
32	0xbd9c5851	-0.076340325
33	0xb77b2bc7	-1.4970959e-05
34	0x3eddc3ed	0.43313542
35	0xbed5d35e	-0.41762823
36	0xbc78b8d5	-0.015180786
37	0xbbc82464	-0.0061078537
38	0xb8a10163	-7.6773365e-05
39	0x035a7fd0	6.4211164e-37
40	0xbda12e0a	-0.078701094
41	0x3e9f0db7	0.3106515
42	0x03529ff9	6.1897093e-37
43	0xb9f5033b	-0.00046732448
44	0x3f187939	0.5955997
45	0xbe869862	-0.26288134
46	0xbbd3fd30	-0.0064693913
47	0xbbb06ff0	-0.0053844377
48	0xa468c3ce	-5.0472834e-17
49	0x0355d698	6.2841416e-37
50	0xb2ea9aa8	-2.7311515e-08
51	0x83514909	-6.150342e-37
52	0x3f23b6e3	0.6395094
53	0x3f206e71	0.6266852
54	0xbccffc5d	-0.02538889
55	0x3e6ea5cd	0.23305435
56	0xbb16ab96	-0.0022990457
57	0x36a7e637	5.0037884e-06
58	0xbecd27f9	-0.4006956
59	0x3f064b6e	0.52458847

hidden1.bias f4 [30]
0	0x3e893b8f	0.26803252
1	0xbf233493	-0.63752097
2	0xbe639f7e	-0.2222881
3	0xbe46589c	-0.1936974
4	0x3e4bde5d	0.19909044
5	0xbe46e945	-0.19424923
6	0x3e04b6e5	0.12960394
7	0x3b4a7bfd	0.0030896657
8	0x3e24197a	0.16025344
9	0xbd90ec76	-0.07076351
10	0x3d09b0f8	0.033616036
11	0x3f1bc2b6	0.6084398
12	0x3f2883f8	0.6582637
13	0x3dc8e301	0.098089226
14	0x3e9561e9	0.29176262
15	0x3ef80234	0.4843918
16	0x3e3d1f67	0.1846901
17	0x3e5af326	0.21381816
18	0x3e503561	0.20332862
19	0xa7285024	-2.3358128e-15
20	0x3f00fcf1	0.5038596
21	0xb5abc802	-1.2798703e-06
22	0x3e8823bf	0.26589772
23	0x3e0bbc1e	0.1364598
24	0xa8242eca	-9.1139746e-15
25	0x9c2dae54	-5.746621e-22
26	0xbefc31a9	-0.49256638
27	0x3ea58ca0	0.3233385
28	0x3a69a0b1	0.00089121895
29	0xbf0ecd5b	-0.557821

hidden2.weight f4 [30, 30]
0	0xbd4a226e	-0.04934924
1	0xbabd0caa	-0.001442333
2	0xba6ea841	-0.0009104051
3	0xba5ca363	-0.00084166805
4	0xb9bbbfcc	-0.0003581032
5	0xba63945e	-0.0008681471
6	0x3b2bc6e8	0.0026211087
7	0xb4ac1bf1	-3.2057827e-07
8	0xbcc49c1a	-0.024000216
9	0x39c75346	0.0003801828
10	0xbc57f20a	-0.013180265
11	0x3d4cedbe	0.050031416
12	0x3d091d04	0.033474937
13	0x3a9c8248	0.0011940682
14	0x3d5f3092	0.05448968
15	0xbd020ebc	-0.031752333
16	0x3d1c454e	0.03815203
17	0xbac56b70	-0.0015061926
18	0x3cb6ec34	0.022329427
19	0x035020de	6.1163436e-37
20	0xbd30a42e	-0.043125324
21	0x835c4efe	-6.474287e-37
22	0xbc1e93ee	-0.009678824
23	0x3b59d853	0.0033240512
24	0x83507b48	-6.1267226e-37
25	0x835354d9	-6.2104727e-37
26	0xb8f8fddb	-0.00011872846
27	0xbc3c8a88	-0.011507638
28	0x363ab83a	2.7823394e-06
29	0xba522e89	-0.00080177985
30	0x835e3890	-6.5304867e-37
31	0x834f4f1f	-6.092266e-37
32	0x035475fc	6.243664e-37
33	0x035c6ac7	6.4774764e-37
34	0x835562f0	-6.270865e-37
35	0x83531432	-6.203051e-37
36	0x033c4186	5.532345e-37
37	0x0352ee88	6.1987274e-37
38	0x034a90a6	5.9528513e-37
39	0x833c34b6	-5.5308744e-37
40	0x035caebf	6.485279e-37
41	0x03568b68	6.304898e-37
42	0x035c80ad	6.47999e-37
43	0x03530da9	6.202301e-37
44	0x0342b414	5.7218196e-37
45	0x8350adbe	-6.1325152e-37
46	0x834191b2	-5.6884852e-37
47	0x83571305	-6.3204655e-37
48	0x035a5edf	6.417335e-37
49	0x035d115c	6.496599e-37
50	0x835a5998	-6.416729e-37
51	0x035c38b6	6.471729e-37
52	0x83540d08	-6.231616e-37
53	0x8357696a	-6.330383e-37
54	0x034d33c0	6.030349e-37
55	0x0357398a	6.3248873e-37
56	0x83594b38	-6.3856915e-37
57	0x83582922	-6.3523913e-37
58	0x035722e4	6.3222874e-37
59	0x035a4f9e	6.415584e-37
60	0xbc5cad36	-0.013469031
61	0xbd8353cc	-0.06412467
62	0xbd41adcf	-0.047284897
63	0x3db9c79f	0.09071278
64	0x3cf0da53	0.02940098
65	0xbd394df5	-0.04524036
66	0x35026def	4.858875e-07
67	0x834c0f85	-5.9968027e-37
68	0xbd2347c7	-0.039863374
69	0xbd214885	-0.0393758
70	0x97449ad3	-6.352643e-25
71	0x3e03080a	0.12796035
72	0xbcaed146	-0.021340024
73	0xa48986a9	-5.96424e-17
74	0x3bf190c1	0.0073719923
75	0x3d3cfe64	0.046141043
76	0xb8820a89	-6.2008454e-05
77	0xbe0832c4	-0.13300616
78	0xb957afaf	-0.00020569445
79	0x835a3df7	-6.4135574e-37
80	0xbe0e6c3d	-0.13908477
81	0x8359ebbc	-6.404118e-37
82	0x3cc93921	0.024563374
83	0x38f75c6d	0.000117950935
84	0x83505ac0	-6.122988e-37
85	0x035ce6b0	6.4917006e-37
86	0x3ccbd828	0.024883345
87	0xbdbaaa88	-0.091145575
88	0x8354eec7	-6.2575304e-37
89	0x3d9cc1f4	0.07654181
90	0xbc456aa1	-0.012049348
91	0xbc5835a4	-0.013196383
92	0x3b957361	0.0045608734
93	0x3b957eaf	0.004562221
94	0x3abe05e1	0.0014497602
95	0xbb84e616	-0.0040557487
96	0xbc069973	-0.008215296
97	0x28a01a99	1.7775103e-14
98	0x3d0d7fad	0.03454559
99	0x3b92cd2e	0.0044800257
100	0x39e57fb8	0.00043773442
101	0xbd08ee80	-0.033430576
102	0x3c710884	0.014711503
103	0xb90d245c	-0.00013460353
104	0x3b94d6d7	0.0045422125
105	0x3cfa7ab5	0.03057609
106	0xbc30e7f3	-0.0107974885
107	0x3c246b92	0.010035412
108	0x3ce28f9e	0.027656373
109	0x034f4ad0	6.0917713e-37
110	0x3c4a06d6	0.012330731
111	0x0353b48d	6.221459e-37
112	0x3b8ed68c	0.004359072
113	0xbcc8bbe4	-0.024503656
114	0x8355b3eb	-6.280161e-37
115	0x0358955a	6.364814e-37
116	0xbd270c18	-0.040783018
117	0xba04dd20	-0.00050683506
118	0xa946a3a5	-4.410677e-14
119	0x0351b353	6.1625434e-37
120	0xbc020b10	-0.007937208
121	0xbb417af0	-0.002952274
122	0xbb388f52	-0.0028161597
123	0xbb370ec2	-0.002793238
124	0xbd2d60f3	-0.042328786
125	0xbb1f3ac0	-0.0024296492
126	0xbbc1bb73	-0.0059122383
127	0x32f6565d	2.8677443e-08
128	0xbb451b57	-0.003007611
129	0xbb759fbf	-0.003747925
130	0x3c2ed360	0.010670513
131	0x3dcaa0c7	0.09893947
132	0x3d31c936	0.04340478
133	0xbb2e005e	-0.0026550512
134	0x3d42a91d	0.04752456
135	0xbcba21b6	-0.022721153
136	0x3ceef245	0.029168257
137	0x3c7fb125	0.015606199
138	0x3c829f4e	0.015945103
139	0x835d5f4a	-6.505545e-37
140	0xbd34ed79	-0.044171784
141	0x835d349c	-6.5006455e-37
142	0xbd099bcd	-0.03359585
143	0xbb592757	-0.003313502
144	0x83535d27	-6.211426e-37
145	0x8355c4e3	-6.282109e-37
146	0xbb43f095	-0.0029898037
147	0x3c801e5f	0.015639482
148	0x2e64f032	5.2054534e-11
149	0xbb1b0ef2	-0.002366003
150	0x3dcbb54c	0.09946689
151	0xbdea83c1	-0.11450911
152	0x3e09e97f	0.13467978
153	0xbdeb592b	-0.11491617
154	0x3e11c096	0.14233622
155	0x39738a28	0.00023225753
156	0x3bbb7a32	0.005721354
157	0x330ca787	3.2748655e-08
158	0x3d98ac1d	0.07454703
159	0xbd105495	-0.035236914
160	0xbb846360	-0.0040401667
161	0x3c432582	0.011910798
162	0x3e0a4a45	0.13504894
163	0xbb09c0e3	-0.002101951
164	0x3d35f1f8	0.044420213
165	0xbd9f8986	-0.077899024
166	0xbca739f6	-0.02041338
167	0xbcd85b70	-0.026410788
168	0xbc019665	-0.007909392
169	0x035140db	6.149403e-37
170	0xbdde5b4f	-0.108572595
171	0x83557f20	-6.2741007e-37
172	0x3bb6ffd5	0.005584697
173	0x3bfba6bf	0.00767979
174	0x8356c895	-6.3119205e-37
175	0x835c64a5	-6.4767724e-37
176	0x3d4f89b3	0.05066843
177	0xbd8a5794	-0.067549855
178	0xaf47e8e6	-1.8181687e-10
179	0xbcd35836	-0.025798898
180	0x83575d32	-6.3289804e-37
181	0x831e602d	-4.654243e-37
182	0x834eafd3	-6.0739795e-37
183	0x833ea2d3	-5.6022895e-37
184	0x832ee6b6	-5.1398847e-37
185	0x834e6259	-6.0650857e-37
186	0x835512ca	-6.2616643e-37
187	0x8358d88e	-6.3725288e-37
188	0x03544076	6.23752e-37
189	0x83482fbf	-5.8829527e-37
190	0x035a8fca	6.4229504e-37
191	0x834b5b5b	-5.976121e-37
192	0x8345d739	-5.814016e-37
193	0x035bc49a	6.4584003e-37
194	0x834e2bc3	-6.0588195e-37
195	0x834c4978	-6.003455e-37
196	0x035a9d7e	6.4245234e-37
197	0x835965fb	-6.3887636e-37
198	0x8359c87a	-6.4000704e-37
199	0x83593be9	-6.383934e-37
200	0x834910bd	-5.9087806e-37
201	0x034f8ddd	6.0994684e-37
202	0x832da159	-5.102535e-37
203	0x8346ce92	-5.84241e-37
204	0x8359dc79	-6.402366e-37
205	0x834f1826	-6.0859554e-37
206	0x834a5a4d	-5.9466125e-37
207	0x83471908	-5.850958e-37
208	0x034f46bd	6.0913036e-37
209	0x83407d52	-5.656759e-37
210	0xbc2b92fb	-0.010472055
211	0xbc06ef5c	-0.008235779
212	0xbc21b5d6	-0.009870013
213	0xbb805287	-0.003916088
214	0xbd0f942a	-0.03505341
215	0xbb1d70ef	-0.0024023612
216	0xbc689f9d	-0.014198211
217	0xb38206df	-6.0548466e-08
218	0x3bf13b8f	0.0073618363
219	0xbc60bae0	-0.0137164295
220	0x3b33498d	0.0027357072
221	0xbc09dacf	-0.008413984
222	0xbcb50669	-0.022097783
223	0x3a9b0b84	0.0011828993
224	0xbbda235f	-0.0066570486
225	0x3d49e3a8	0.049289376
226	0xbbafae28	-0.005361337
227	0xba03490f	-0.000500814
228	0x3b95b9b4	0.0045692567
229	0x83539e66	-6.218916e-37
230	0x3d3ad750	0.045615494
231	0x834b8f80	-5.982107e-37
232	0xbd009dcd	-0.03140049
233	0x3d0b3848	0.03398922
234	0x035b4d83	6.4447295e-37
235	0x835cfad4	-6.4940126e-37
236	0x3b27d248	0.0025607515
237	0x3baafcb1	0.0052181114
238	0xafb42116	-3.2765318e-10
239	0xbb14cd55	-0.0022705395
240	0xbbc881c0	-0.006118983
241	0x3de21388	0.110388815
242	0x3dd75ddb	0.105159484
243	0x3d2a0b9b	0.041514974
244	0x3dc72a76	0.09724896
245	0xbde2e915	-0.11079613
246	0x834f5985	-6.0934596e-37
247	0x835af5e7	-6.4346724e-37
248	0xbb584ca4	-0.0033004666
249	0xbdf7a238	-0.12091488
250	0x8358b744	-6.3687074e-37
251	0xbe18f279	-0.14936246
252	0xbc477e8a	-0.012176165
253	0x8352f0b6	-6.1989776e-37
254	0x0353cf56	6.2245337e-37
255	0xbdbb8639	-0.0915646

hidden2.bias f4 [30]
0	0x3cce6248	0.025193349
1	0x83513ff1	-6.149298e-37
2	0x3b6cf1db	0.00361549
3	0x3cb6b141	0.022301318
4	0xbd89dd99	-0.067317195
5	0x3d9be92c	0.076128334
6	0x83544dbb	-6.239043e-37
7	0x3d6207be	0.055183165
8	0xbda80bb1	-0.08205355
9	0x3d3bebf4	0.04587932
10	0x3e516b5a	0.20451108
11	0x3b04b93f	0.0020252017
12	0xbd7e7d68	-0.062131315
13	0xbc1850c9	-0.009296604
14	0xbc60802e	-0.013702435
15	0x3c8bc029	0.017059403
16	0xbc87aff5	-0.016563395
17	0xbc44a1d8	-0.012001477
18	0x834f0355	-6.0835658e-37
19	0xa41bad38	-3.375699e-17
20	0xb80581d2	-3.1830576e-05
21	0xbd33c427	-0.043888237
22	0x3d1f9a90	0.03896576
23	0x3d454258	0.048158973
24	0x035bb20d	6.456271e-37
25	0x3db9d0c9	0.09073026
26	0x8357a052	-6.336686e-37
27	0x83570b24	-6.319561e-37
28	0xb10ffa8c	-2.0951658e-09
29	0x3d46c763	0.048529994

out_mu0.weight f4 [8, 30]
0	0x3d00f61b	0.031484704
1	0x035c4723	6.473385e-37
2	0x3d9e6e28	0.077358544
3	0xbcf88eec	-0.030341588
4	0x3ae16f19	0.0017199247
5	0xbd59a9dd	-0.05314051
6	0x83534ed7	-6.209783e-37
7	0x3d2be72e	0.041968517
8	0xbcfe34f5	-0.031031111
9	0x3d36de4f	0.044645604
10	0xbe33d2cb	-0.1756088
11	0xb5c397a5	-1.4572767e-06
12	0x3c211b25	0.009833132
13	0x3bb7c247	0.0056078765
14	0xba5905ba	-0.00082787464
15	0xbc23eb54	-0.010004837
16	0xbcfac70f	-0.030612497
17	0xbd6bfcdc	-0.057614192
18	0x0359313d	6.382709e-37
19	0x94e9b96f	-2.3600128e-26
20	0x3864a99b	5.4517393e-05
21	0xbe2d7587	-0.16939364
22	0x3e0f5a2a	0.13999239
23	0xbcba8000	-0.022766113
24	0x0354cb0e	6.2534296e-37
25	0x3d3083ef	0.04309457
26	0x035364f1	6.21232e-37
27	0x0353f3a6	6.228702e-37
28	0xba745a09	-0.00093212776
29	0x3c727e22	0.01480058
30	0x3b0db931	0.0021625275
31	0x83588b7d	-6.363682e-37
32	0x3e1c71a4	0.15277725
33	0xbbdad0fa	-0.006677744
34	0x3c5cd093	0.013477462
35	0x3c6519f6	0.01398324
36	0x8314f598	-4.377522e-37
37	0xbcee9841	-0.029125335
38	0x3c3c8ffa	0.011508936
39	0x3d9fa2f4	0.07794753
40	0xbd0a091e	-0.0337001
41	0x309f40e0	1.1587211e-09
42	0x3c6e1b52	0.014532881
43	0xbc0f5ad0	-0.008749679
44	0x38764ca4	5.8722348e-05
45	0x39e629d5	0.00043900186
46	0x3c1978d9	0.009367191
47	0xbd9f75ce	-0.07786141
48	0x0356d7a6	6.31365e-37
49	0x906e3454	-4.6977536e-29
50	0x3aa55483	0.0012613687
51	0xbe0797fc	-0.13241571
52	0x3d807fb9	0.06274361
53	0xbd0f7a83	-0.035028946
54	0x03565954	6.299149e-37
55	0x3cf71635	0.030161956
56	0x0359e6c2	6.4035466e-37
57	0x035a9048	6.423007e-37
58	0x3a03d2fd	0.0005028693
59	0x3be0f7ee	0.006865493
60	0xb9a43bc1	-0.00031325038
61	0x03570c5b	6.3197005e-37
62	0x3d0a8217	0.03381547
63	0x3b264e24	0.0025376165
64	0xbbaff786	-0.0053700833
65	0xbddab2b7	-0.106786184
66	0x03421d7c	5.7045322e-37
67	0x3b9641c3	0.004585476
68	0x3d8bf7b1	0.06834353
69	0xbc20051f	-0.009766846
70	0xbe062b03	-0.13102345
71	0xb0125d0a	-5.3246707e-10
72	0xbc6fa266	-0.014626121
73	0x3ce3ff0d	0.027831579
74	0xb7a2828d	-1.9372697e-05
75	0xbbad90ec	-0.005296817
76	0xbbe3b71e	-0.0069493195
77	0x3e1ce3a5	0.15321214
78	0x035af010	6.434002e-37
79	0xaa7c873f	-2.2429019e-13
80	0xb95012f1	-0.00019843482
81	0x3de85778	0.11344808
82	0xbd8f96e2	-0.070112005
83	0xbcdb989e	-0.026806172
84	0x8353d156	-6.2247633e-37
85	0x3d0ceb86	0.0344043
86	0x03512368	6.1460224e-37
87	0x83510d06	-6.143453e-37
88	0x3a834e4e	0.0010017843
89	0x3da96f2a	0.08273156
90	0x3be6a1f1	0.007038348
91	0x8354b6f0	-6.2511203e-37
92	0xbe09dc62	-0.13462976
93	0xbc6edc34	-0.014578868
94	0x3b30a0fd	0.0026951425
95	0x3e2839b3	0.1642826
96	0x033d9b74	5.572056e-37
97	0x3c42a812	0.011880891
98	0xbc9de386	-0.01927353
99	0xbd893679	-0.06699843
100	0xbe2ddb48	-0.1697818
101	0x322a7d90	9.923852e-09
102	0xbc196e67	-0.009364701
103	0xbd6565dc	-0.056005344
104	0xb93c0410	-0.0001793059
105	0xba3677d4	-0.0006960605
106	0x3cc3fa76	0.02392314
107	0x3dbb424f	0.09143507
108	0x03521ebe	6.1748744e-37
109	0x31b010d7	5.1241886e-09
110	0x3ba75fde	0.005107864
111	0xbdcc10d2	-0.09964146
112	0xbdbff91f	-0.09373688
113	0x3d957469	0.07297594
114	0x034ff7f0	6.111645e-37
115	0x3c025806	0.007955557
116	0x83570e12	-6.3198973e-37
117	0x0351d6f2	6.1666325e-37
118	0xbb816e66	-0.003949928
119	0x3cd8f928	0.026485994
120	0x3ca2c637	0.019869907
121	0x0354b53f	6.250926e-37
122	0xbd0bf5ca	-0.03416995
123	0xbc21c48e	-0.009873522
124	0xbc79a17b	-0.015236254
125	0xbd97deff	-0.0741558
126	0x035956b2	6.387009e-37
127	0x3d46f08c	0.048569247
128	0x3c38f6e4	0.011289332
129	0x3d6aba25	0.057306428
130	0x3d80df57	0.06292599
131	0x38628c21	5.4013104e-05
132	0x3c2688d9	0.010164463
133	0xbd4f5b89	-0.050624404
134	0xb7bdc671	-2.2622962e-05
135	0x3c970e32	0.018439386
136	0xbd6a8a97	-0.057261076
137	0xbd9d2b74	-0.07674304
138	0x035d70e1	6.507564e-37
139	0x2fb087fb	3.2110833e-10
140	0xbb1de993	-0.002409552
141	0xbe0a6fc6	-0.135192
142	0x3c3535eb	0.011060218
143	0xbd41a884	-0.04727985
144	0x035a90f6	6.423085e-37
145	0xbd71d6b2	-0.05904264
146	0x035dc75c	6.5174916e-37
147	0x035047c2	6.120808e-37
148	0x3b0cd69a	0.0021490217
149	0xbc8c5257	-0.017129106
150	0xbca232cc	-0.019799612
151	0x835dbda1	-6.5163746e-37
152	0xbaf9b51a	-0.0019051165
153	0xbbedf47d	-0.0072618113
154	0x3c1b8aaf	0.009493514
155	0x3d9c0d7f	0.07619762
156	0x034a5fb6	5.9472335e-37
157	0xbcadeba9	-0.021230536
158	0xbde40717	-0.11134165
159	0xbd6b3d74	-0.057431653
160	0x3dc1ccec	0.09462914
161	0xb557124b	-8.012036e-07
162	0xbad27caa	-0.0016058881
163	0xbd07ec8e	-0.03318458
164	0xba1662cf	-0.00057367695
165	0xbc873c3e	-0.016508218
166	0xbd141a3c	-0.03615783
167	0x3cb4b18f	0.022057323
168	0x835c13ec	-6.467506e-37
169	0x1fbc2351	7.967952e-20
170	0xbba65c96	-0.005076955
171	0xbe078476	-0.13234124
172	0xbd8abb8c	-0.06774053
173	0xbcf25edb	-0.029586246
174	0x0359cc8d	6.400538e-37
175	0x3d856ef1	0.06515301
176	0x83542c3e	-6.235199e-37
177	0x835a6cc9	-6.418932e-37
178	0x3aa4f44e	0.0012585016
179	0x3d3d44ad	0.046208072
180	0x3bac7306	0.0052627353
181	0x034feaa4	6.1101187e-37
182	0xbd4705fc	-0.04858969
183	0x3c8a6204	0.01689244
184	0x3a880787	0.001037822
185	0x3cbebe3e	0.023284074
186	0x0340e8d7	5.6691016e-37
187	0x3cdadd1c	0.026716761
188	0x3dbd6ec7	0.09249645
189	0x3d5c137e	0.053729527
190	0x3d9d4815	0.07679764
191	0x31346af6	2.6254248e-09
192	0x3b310a6b	0.0027014266
193	0x3d055e8f	0.03256088
194	0x39dde9f3	0.0004232671
195	0x3c75bd62	0.014998766
196	0xbc9e427d	-0.019318813
197	0xbd3f3315	-0.046679575
198	0x035d80d8	6.509397e-37
199	0x280348c2	7.287738e-15
200	0x3b700569	0.0036624318
201	0xbe11b3ba	-0.14228716
202	0x3d1ef9a6	0.038812302
203	0x3dbe1fda	0.09283419
204	0x0355af75	6.279649e-37
205	0xbd8d0443	-0.068855785
206	0x8354299b	-6.234896e-37
207	0x035dc092	6.5167123e-37
208	0x3a8bf7a4	0.0010678661
209	0x3daeb0d2	0.085298195
210	0x3afdacfa	0.0019353919
211	0x03507643	6.1261464e-37
212	0x3dcb9cc9	0.09942014
213	0xbb16ac54	-0.00229909
214	0x3bb8a205	0.0056345486
215	0x3d7fe984	0.062478557
216	0x03502106	6.1163615e-37
217	0x39727376	0.00023121931
218	0xbe0fa31d	-0.14027067
219	0x3a2d751c	0.0006616877
220	0x3db11111	0.08645833
221	0xb31f1b84	-3.7045098e-08
222	0x3b420bd2	0.0029609096
223	0x3d3474ab	0.044056576
224	0xb69da360	-4.697984e-06
225	0xbbef51ff	-0.007303476
226	0xbbcbb125	-0.0062161856
227	0x3c166c16	0.009181043
228	0x834e20f8	-6.0575805e-37
229	0x1ee32d4b	2.4053293e-20
230	0xba83a8ac	-0.0010044775
231	0xbd8ad9bf	-0.06779813
232	0x3dd205a5	0.10254983
233	0xbd6c316a	-0.057664312
234	0x03506b35	6.1248774e-37
235	0x3d6966ed	0.056982923
236	0x035aa394	6.425222e-37
237	0x034c2723	5.999514e-37
238	0xbb4c069c	-0.003113187
239	0xbd81724a	-0.06320627

out_mu0.bias f4 [8]
0	0x3dd5dc88	0.104424536
1	0xbcc30ea7	-0.023810698
2	0x3cff0751	0.031131418
3	0x3d6f9b24	0.058497563
4	0x3e03bcc8	0.12864983
5	0x3d92a0dc	0.07159588
6	0xbe0e22f1	-0.13880517
7	0xbe03e753	-0.12881212

out_var0.weight f4 [8, 30]
0	0xbd02a546	-0.0318959
1	0x83535d73	-6.21146e-37
2	0xbd875de3	-0.06609704
3	0xbc68d761	-0.014211507
4	0x3cc2cd28	0.023779467
5	0xbdf27314	-0.11838356
6	0x831bcd5e	-4.5786156e-37
7	0x3d2eee45	0.0427077
8	0x3d99d595	0.07511441
9	0x3d988cef	0.07448756
10	0x3d667b54	0.05626996
11	0xb6785a22	-3.7007344e-06
12	0x3ce4912e	0.027901258
13	0x3c2a99cd	0.0104126455
14	0xb798a981	-1.8198743e-05
15	0xbc7bbf5c	-0.015365448
16	0xbc10e0a0	-0.008842617
17	0xbd7802e6	-0.06054964
18	0x83545c66	-6.240727e-37
19	0xacc202c6	-5.5141195e-12
20	0xbb8249ed	-0.003976098
21	0xbdc2da79	-0.095143266
22	0x3e50b3a1	0.20381023
23	0xbcf69b60	-0.030103385
24	0x83563c56	-6.295821e-37
25	0xbd9096c4	-0.07060006
26	0x83372ec3	-5.3832546e-37
27	0x835a77a5	-6.4201787e-37
28	0x3b8ec574	0.0043570343
29	0x3da5fd03	0.08104899
30	0xbb4af992	-0.003097151
31	0x0350e3a8	6.1387043e-37
32	0xbdcca31e	-0.0999205
33	0xba670463	-0.00088126044
34	0xbbb9926f	-0.005663208
35	0x3e143a43	0.1447535
36	0x034fffca	6.1125464e-37
37	0xbc7fa00e	-0.015602125
38	0x3de39a33	0.111133955
39	0xbce3cdcb	-0.02780809
40	0xbe20adda	-0.15691319
41	0xb22aba52	-9.937667e-09
42	0x3b7b2e3f	0.0038327125
43	0xbcf0c660	-0.029391468
44	0xb75d5d70	-1.3194382e-05
45	0x3b2268ab	0.0024781625
46	0x3bbd244a	0.0057721483
47	0xbc7c2e52	-0.015391903
48	0x0350d9a8	6.1375563e-37
49	0xa6904092	-1.0009509e-15
50	0xbb533f76	-0.003223387
51	0x3c9d42ea	0.019196946
52	0xbe3b947f	-0.18318366
53	0x3cd70f5c	0.026252441
54	0x035a67f2	6.4183765e-37
55	0xbb84d792	-0.0040540183
56	0x83583864	-6.354143e-37
57	0x0354839d	6.2452285e-37
58	0x3b4a8b24	0.0030905688
59	0x3d58a657	0.05289301
60	0x3a8e9eaa	0.0010881026
61	0x8349037c	-5.907259e-37
62	0xbd1de21f	-0.038545724
63	0xba5a62ed	-0.0008330781
64	0x3a9ada9d	0.0011814419
65	0xbe36e9c2	-0.17862609
66	0x832af0ec	-5.0235075e-37
67	0x3ca44842	0.020053986
68	0x3dabcfa6	0.08389215
69	0x3d7177df	0.05895221
70	0x3ca7bdfd	0.020476336
71	0xb0d735e1	-1.5658622e-09
72	0x3bbb9a69	0.0057251942
73	0xbb0132a7	-0.001971403
74	0x37124842	8.719102e-06
75	0xbc05c939	-0.008165651
76	0x3c81fb1d	0.01586681
77	0x3d8e8646	0.069592044
78	0x8351f88c	-6.1704898e-37
79	0x9dc1b34d	-5.1272067e-21
80	0x3af176a3	0.0018422197
81	0xbd6cdaea	-0.05782596
82	0x3dd871b4	0.10568562
83	0x3cf80ffc	0.03028106
84	0x83594fb6	-6.386207e-37
85	0xbcd27a06	-0.025692951
86	0x835ab90b	-6.427686e-37
87	0x83542228	-6.234041e-37
88	0xba5c2663	-0.0008398054
89	0xbd7fc3f9	-0.062442753
90	0xbb69e2c3	-0.003568814
91	0x834f3be0	-6.0900566e-37
92	0x3d7902d0	0.060793698
93	0x3b51cf83	0.0032014556
94	0xbbce5538	-0.00629678
95	0x3ccfa211	0.025345834
96	0x8330bb3d	-5.193669e-37
97	0x3ce6081f	0.028080044
98	0xbcf3432c	-0.029695116
99	0xbcad2542	-0.02113593
100	0x3d88541e	0.06656669
101	0xb0fc03fb	-1.8336545e-09
102	0x3bf9e7b4	0.007626498
103	0x3c89d252	0.016823921
104	0x360131d7	1.9251509e-06
105	0x3b9ee3cf	0.0048489342
106	0xbbff1397	-0.0077843177
107	0x3de490f9	0.11160464
108	0x035b3baa	6.4426807e-37
109	0x9a2fb3bb	-3.6334337e-23
110	0x3befc13a	0.0073167356
111	0xbca94fae	-0.020667877
112	0xbdfd0734	-0.123548895
113	0xbd2df5a9	-0.042470608
114	0x03589918	6.365244e-37
115	0xbd0fba63	-0.03508986
116	0x8350aa09	-6.1320897e-37
117	0x0357b3cc	6.338922e-37
118	0x3b102111	0.0021992365
119	0x3c727f26	0.014800822
120	0x39e7ecad	0.0004423609
121	0x835d7e9e	-6.5091412e-37
122	0xbde30be1	-0.1108625
123	0xbbf2590d	-0.0073958696
124	0x3b0cda41	0.0021492394
125	0xbdda6c3e	-0.10665177
126	0x83373b97	-5.3847272e-37
127	0xbcb712ce	-0.022347834
128	0xbce78760	-0.028262794
129	0xbdc98c7d	-0.09841249
130	0x3d2ccf97	0.04219016
131	0xad3a257b	-1.0581198e-11
132	0x3b821a38	0.0039704107
133	0x3cf99650	0.030467182
134	0x35191038	5.7020543e-07
135	0xbb39178c	-0.0028242795
136	0xbad7ea0d	-0.0016472951
137	0xbd42d327	-0.04756465
138	0x83578c89	-6.334415e-37
139	0xab4177e1	-6.873374e-13
140	0x3a0a248e	0.00052697293
141	0xbc40e2b5	-0.011772801
142	0x3d9c55c5	0.07633547
143	0xbd843894	-0.06456104
144	0x03532769	6.2052568e-37
145	0xbc8c7d68	-0.017149642
146	0x03549e29	6.248276e-37
147	0x034df36a	6.052351e-37
148	0x3af9d907	0.0019061872
149	0xbc73c09e	-0.0148774665
150	0x3c2a9e6a	0.010413745
151	0x035ddc0e	6.5198673e-37
152	0xbd850471	-0.06494988
153	0x3aa5bea6	0.0012645319
154	0x3a946959	0.00113229
155	0x3e0568b5	0.13028224
156	0x83499bca	-5.924743e-37
157	0xbbd78d0d	-0.006578094
158	0x3c1dfac6	0.009642309
159	0x3d3b025a	0.04565654
160	0xbe16f58b	-0.14742105
161	0xacc0e346	-5.4822006e-12
162	0xb825b334	-3.950596e-05
163	0xbbaaa806	-0.0052080182
164	0xb459687e	-2.0247714e-07
165	0xbb8079d8	-0.003920775
166	0xbc8cd925	-0.017193386
167	0x3a80e20d	0.0009832993
168	0x835918d6	-6.379908e-37
169	0xad3898ba	-1.0493101e-11
170	0xbba50a53	-0.005036631
171	0xbd3a279c	-0.04544793
172	0xbbf3f269	-0.007444669
173	0xbd95300f	-0.07284557
174	0x0354f4c9	6.25822e-37
175	0x39036275	0.00012529812
176	0x03523c3a	6.178259e-37
177	0x834dc742	-6.047282e-37
178	0xbaf3dba5	-0.0018604888
179	0x3bd875eb	0.006605854
180	0xbbe3506c	-0.0069370773
181	0x83565b55	-6.299379e-37
182	0x3cd8ea68	0.026478961
183	0x3b04d736	0.0020269877
184	0xba9090dd	-0.0011029501
185	0xbdcc6bd7	-0.09981506
186	0x033d8adb	5.5701506e-37
187	0xbcb8233e	-0.022477742
188	0x3da63f45	0.081175365
189	0x3cc31892	0.023815427
190	0x3df27cb6	0.11840193
191	0xae5e7d86	-5.0588443e-11
192	0x390d9011	0.00013500477
193	0x3c3ad97d	0.011404392
194	0x342677fb	1.5503603e-07
195	0x3b38bc18	0.0028188284
196	0xbc4c2149	-0.012459108
197	0xbcb73ea3	-0.022368735
198	0x8357d4fc	-6.3427315e-37
199	0xb085b30c	-9.727912e-10
200	0xb952382f	-0.0002004809
201	0x3dd62da4	0.10457924
202	0xbd2a0ed4	-0.041518047
203	0xbc978c5c	-0.018499546
204	0x8355e3c8	-6.2856554e-37
205	0xbd772388	-0.06033662
206	0x0353ee5a	6.228094e-37
207	0x835a9766	-6.423824e-37
208	0xbb31105f	-0.0027017815
209	0x3cf9147a	0.030405272
210	0x3b3728f3	0.0027947992
211	0x835d93bc	-6.5115654e-37
212	0xbc848c63	-0.016180223
213	0xbb980e3d	-0.004640369
214	0x3b848c1e	0.0040450236
215	0x3bac75c0	0.0052630603
216	0x833ea570	-5.6025895e-37
217	0x3a12eade	0.0005604456
218	0xbcd5dab8	-0.02610527
219	0xbd15d579	-0.036580537
220	0xbcf61a3b	-0.030041805
221	0xb0548a89	-7.732202e-10
222	0xbb8807a7	-0.004151303
223	0x3d22152d	0.039570976
224	0x380ce2f3	3.3589964e-05
225	0x3b252571	0.0025199319
226	0xbd26a140	-0.040681124
227	0x3e200b24	0.1562925
228	0x8355e6be	-6.2859953e-37
229	0xb1c87c0b	-5.834868e-09
230	0x3b04e669	0.0020278937
231	0xbd99e5ea	-0.07514556
232	0xbdebc534	-0.11512223
233	0x3ccefaa0	0.025265992
234	0x835d6c89	-6.5070655e-37
235	0x3d83fb6f	0.064444415
236	0x0357c7df	6.341226e-37
237	0x03535db6	6.21149e-37
238	0x3b66b4a3	0.0035202883
239	0xbd3c7eb1	-0.04601926

out_var0.bias f4 [8]
0	0xbe188c00	-0.14897156
1	0x3dd01fc3	0.10162308
2	0xbd8dbb72	-0.06920518
3	0x3cb1d528	0.021708086
4	0x3dddca94	0.10829654
5	0x3b54ce64	0.0032471651
6	0xbc6d7e94	-0.014495511
7	0x3dbbb6e4	0.09165743
