DR_Info_CFR/IHDP/Models/netQ0.pth (torch, 8895 bytes, 8 tensors)

hidden1.weight f4 [30, 2]
0	0xbf099abb	-0.53751725
1	0x3e648242	0.22315314
2	0xbd0c033e	-0.03418278
3	0xb906210e	-0.0001279155
4	0x9a023a95	-2.6930692e-23
5	0x8355036c	-6.2599002e-37
6	0x3ed8cef0	0.4234538
7	0x3e2b7cb7	0.16746794
8	0xba73b799	-0.00092970725
9	0x03547b0d	6.2442456e-37
10	0x3ef8fd46	0.48630732
11	0x3f14ba2a	0.58096564
12	0xbf22c905	-0.6358798
13	0x3ec8c137	0.3920991
14	0x3f08523a	0.5325047
15	0x3ea586b2	0.32329327
16	0x3f106173	0.56398696
17	0x3d788caa	0.060681023
18	0xbf0d61e1	-0.55227476
19	0x3e982adb	0.29720196
20	0x0357ff00	6.3475547e-37
21	0xaba32649	-1.1592473e-12
22	0x3e680599	0.22658385
23	0x3caa02c4	0.020753272
24	0x835e2ed1	-6.529368e-37
25	0x034ed6de	6.0784615e-37
26	0x37f3f6b5	2.908274e-05
27	0xba6a7f7b	-0.00089453877
28	0xb6847349	-3.9473275e-06
29	0x834fdbce	-6.1084156e-37
30	0xbd1a2008	-0.037628204
31	0xbc298a8d	-0.0103479745
32	0x3ec84650	0.39116144
33	0xbddf9f59	-0.10919065
34	0x3eeb513e	0.4596042
35	0x3f02c4cc	0.5108154
36	0x3bca1a32	0.0061676735
37	0x3d9f048d	0.0776454
38	0x977f7c78	-8.2552045e-25
39	0xa260425a	-3.0392787e-18
40	0xbed10010	-0.4082036
41	0x3f19d776	0.6009439
42	0xbecf0384	-0.4043237
43	0x3f07a770	0.52989864
44	0xbda23f3a	-0.07922216
45	0x3ecdf359	0.40224722
46	0x3f0946e8	0.5362382
47	0x3ec24e8d	0.37950554
48	0x3d2755f6	0.040853463
49	0x3e84cfae	0.25939697
50	0x3d500e6f	0.050795015
51	0x3e2120a0	0.15735102
52	0x83595f20	-6.3879767e-37
53	0x03550382	6.25991e-37
54	0x3d340615	0.043951113
55	0xbdcd6c19	-0.100303836
56	0x3f0f54fd	0.55989057
57	0x3cc38122	0.023865286
58	0x3f0aab6c	0.5416782
59	0x3ef6d777	0.48211262

hidden1.bias f4 [30]
0	0xbd2e18f7	-0.042504277
1	0x3cdca8b1	0.026935907
2	0x835cba5c	-6.486612e-37
3	0xbe6b94ba	-0.23005953
4	0xac83dca6	-3.747741e-12
5	0xbefaea44	-0.49006855
6	0x3ec03d86	0.3754694
7	0xbf15af8a	-0.58470976
8	0xbec44a42	-0.38337904
9	0xbd342931	-0.043984596
10	0x83592d7a	-6.3822773e-37
11	0xbf08f7aa	-0.53502905
12	0xba045946	-0.0005048703
13	0xbacf38c4	-0.0015809764
14	0xb9e2be9d	-0.00043248097
15	0x3e01cfe2	0.12676957
16	0xbbad5c7a	-0.005290565
17	0xbf154563	-0.58309
18	0x3e7aa5af	0.24477266
19	0x83594707	-6.3852104e-37
20	0x3ef2020e	0.47267193
21	0x3dd052a6	0.10172014
22	0x3e8432fb	0.25820145
23	0x3ec5216a	0.38502055
24	0x3effb002	0.4993897
25	0x3f1efaf1	0.62101656
26	0xa62a0357	-5.8985125e-16
27	0x3de652c5	0.11246256
28	0xbe86fa74	-0.26362956
29	0x3ee60578	0.44926047

hidden2.weight f4 [30, 30]
0	0xbe28e855	-0.16494878
1	0x0351594c	6.1522088e-37
2	0x0349d497	5.9312632e-37
3	0xbbcbb7a1	-0.0062169586
4	0x83553489	-6.265538e-37
5	0x3de5a4d9	0.11213083
6	0xbe4c5491	-0.19954135
7	0xbd5ae7c9	-0.053443704
8	0x3de1e306	0.110296294
9	0x3d9f49a5	0.077777185
10	0x8351f98f	-6.170606e-37
11	0x3e6d4f73	0.23174839
12	0x835c4ed3	-6.4742675e-37
13	0x035d54de	6.5043486e-37
14	0x034e8cd6	6.069963e-37
15	0xbb9146be	-0.004433482
16	0x3df10a6b	0.11769565
17	0x3d707978	0.05870959
18	0xbdca25c0	-0.098704815
19	0x03535dbd	6.2114933e-37
20	0xbd34e100	-0.04415989
21	0x3d8501b5	0.06494466
22	0xbd11ebb6	-0.035625182
23	0x3cd07890	0.025448114
24	0xbe2c184b	-0.16806142
25	0xbc8cd2fa	-0.017190445
26	0x83577580	-6.3317705e-37
27	0x3af4070a	0.001861782
28	0x3c81da2a	0.015851099
29	0x3dda1585	0.10648636
30	0xbc6e50d6	-0.01454564
31	0x313ee7bb	2.7780362e-09
32	0x8338c21d	-5.429557e-37
33	0xbb900933	-0.004395628
34	0x0358c42b	6.3701885e-37
35	0xbde8efb8	-0.11373848
36	0x3d38c798	0.045112222
37	0xbe0cdac5	-0.13755329
38	0x3d9c9c8c	0.076470464
39	0xbd861ebb	-0.0654883
40	0x8352d508	-6.1958e-37
41	0xbcf3a434	-0.029741384
42	0x0350421a	6.1201587e-37
43	0x246c87af	5.128927e-17
44	0x83503bf9	-6.119455e-37
45	0xba1ea8bf	-0.0006052367
46	0xbcb2688f	-0.021778373
47	0x3e368403	0.17823796
48	0x3c1ec7eb	0.009691219
49	0x83525203	-6.18076e-37
50	0x3dad06e6	0.084485814
51	0xbcf98895	-0.030460635
52	0x3dfcf2f3	0.123510264
53	0xbde7e4b2	-0.11322917
54	0x3de63250	0.11240065
55	0x3e492d10	0.19646096
56	0x835a4c33	-6.4151915e-37
57	0x3cabca3b	0.020970454
58	0x3e47d02a	0.19513002
59	0x3d1d09d9	0.03833947
60	0xbdb2c46b	-0.0872887
61	0x3312b3a9	3.4156674e-08
62	0x034f6398	6.094616e-37
63	0xbe361172	-0.17780092
64	0x03550d94	6.261066e-37
65	0xbca54469	-0.020174222
66	0x3df8ee06	0.12154774
67	0x3dc91f0b	0.09820374
68	0xbe0fc8f8	-0.14041507
69	0xbccd3635	-0.025050262
70	0x8350bf87	-6.134557e-37
71	0x3c4ad188	0.012379058
72	0x834b214a	-5.9694552e-37
73	0xa2ee8364	-6.4649144e-18
74	0x834f948a	-6.1002347e-37
75	0x3c8b5259	0.01700704
76	0x3daeaad9	0.0852868
77	0xbd44aeff	-0.04801845
78	0x3da0dde8	0.07854825
79	0x033a3d83	5.47311e-37
80	0x3e1c63b6	0.15272412
81	0x3ce9c95e	0.028538402
82	0x3e0f51a2	0.13995984
83	0x3e10153c	0.140706
84	0xbe08a4c0	-0.13344097
85	0xbdafd861	-0.08586193
86	0x034877a9	5.891208e-37
87	0xbafb58a4	-0.0019176197
88	0xbc9788c2	-0.018497828
89	0x3d0b8768	0.03406468
90	0x3e15d612	0.14632443
91	0x2f11c50b	1.3257677e-10
92	0x035880ab	6.36244e-37
93	0x3d2f0eee	0.042738847
94	0x835a145c	-6.4087814e-37
95	0x3c0fe6df	0.008783071
96	0x3d1afc0c	0.037838027
97	0xbdb53376	-0.08847706
98	0xbdc7229d	-0.09723399
99	0x3d3b783d	0.045768965
100	0x835ea7d7	-6.5432607e-37
101	0x3d91992f	0.071092956
102	0x0350ed51	6.139813e-37
103	0xa24fb257	-2.8148144e-18
104	0x835e2c39	-6.52907e-37
105	0x3c2d689f	0.010584026
106	0xbe0e3b99	-0.13889922
107	0xbd8c0fcf	-0.06838953
108	0x3e1fb5c7	0.15596686
109	0x835c8bc1	-6.481262e-37
110	0x3d67f597	0.056630697
111	0xbdaba2e7	-0.083806805
112	0xbe2fb6ff	-0.17159651
113	0x3e2a3caf	0.16624711
114	0x3d056e5f	0.03257596
115	0x3daaa49a	0.083321765
116	0x835dfea0	-6.523836e-37
117	0xbbfba3ba	-0.00767943
118	0x3d3d4c82	0.04621554
119	0x3dd888a1	0.10572935
120	0xbe1c27e7	-0.15249597
121	0xae857d29	-6.070373e-11
122	0x83569f98	-6.3072152e-37
123	0xbd2efbc6	-0.04272058
124	0x8352100a	-6.1731865e-37
125	0xbc27ff8f	-0.010253801
126	0x3e0a8bf9	0.13529958
127	0x3dc0178c	0.09379491
128	0xbe00eaef	-0.1258962
129	0xbd9072f7	-0.07053178
130	0x033f9184	5.62969e-37
131	0x3d4f6ee5	0.050642867
132	0x8352d307	-6.19557e-37
133	0x20e04431	3.7992201e-19
134	0x034cd73d	6.0197293e-37
135	0xbaa08c45	-0.0012248835
136	0xbb9db455	-0.004812757
137	0xbd8cc434	-0.0687336
138	0x3d34d188	0.044145137
139	0x035ae0ee	6.432265e-37
140	0xbb9f8c92	-0.004869052
141	0x3dd2e767	0.10298043
142	0x3df1da7a	0.11809249
143	0xb94acac6	-0.0001933976
144	0x3ca1ef5b	0.019767454
145	0xbc9aa6e0	-0.0188784
146	0x0353be69	6.2225907e-37
147	0x3c98701b	0.018608144
148	0xbe139a28	-0.14414275
149	0x3dd10c20	0.10207391
150	0x83561e89	-6.2924e-37
151	0x834f8310	-6.0982285e-37
152	0x035d8ebd	6.510992e-37
153	0x83546855	-6.242097e-37
154	0x8350c2bc	-6.134925e-37
155	0x835783d1	-6.333414e-37
156	0x0350fa5d	6.141311e-37
157	0x834fbebd	-6.105079e-37
158	0x835ae065	-6.4322034e-37
159	0x0350b0bc	6.1328587e-37
160	0x0359fe00	6.4062146e-37
161	0x83520842	-6.1722933e-37
162	0x035c94cb	6.4822995e-37
163	0x035b2a3a	6.440679e-37
164	0x8354f6a7	-6.2584344e-37
165	0x834120c0	-5.6755198e-37
166	0x03549f30	6.248394e-37
167	0x0353ee78	6.2281076e-37
168	0x83517cdd	-6.1562916e-37
169	0x03513891	6.1484515e-37
170	0x035e4067	6.5313867e-37
171	0x03558e18	6.275819e-37
172	0x03545e2c	6.2409305e-37
173	0x8356adab	-6.308831e-37
174	0x8359ae4c	-6.397065e-37
175	0x03578b07	6.3342417e-37
176	0x835b29fd	-6.4406516e-37
177	0x035672e9	6.302086e-37
178	0x035366c4	6.2125296e-37
179	0x83551fa4	-6.2631396e-37
180	0x3dc07af6	0.09398453
181	0x8356c0c0	-6.3110214e-37
182	0x0351a522	6.1609143e-37
183	0xbc21b107	-0.009868867
184	0x8353e890	-6.2274296e-37
185	0xbb83c7c0	-0.004021615
186	0x3d2a7d8e	0.041623645
187	0xbdcdb12b	-0.10043558
188	0x3da8fb89	0.082511015
189	0xbd307a68	-0.043085486
190	0x035a2915	6.41116e-37
191	0xbe487abf	-0.19578074
192	0x03500c05	6.1139504e-37
193	0x03502596	6.1168853e-37
194	0x835442e5	-6.237799e-37
195	0x39854215	0.00025416972
196	0x3d9fd052	0.07803406
197	0xbd398b06	-0.0452986
198	0x3beabc48	0.007163558
199	0x83548473	-6.2453245e-37
200	0x3c92bea8	0.017913178
201	0xbd771c1f	-0.060329553
202	0x3dbf6051	0.09344543
203	0x3dc01cb8	0.09380478
204	0x3da77357	0.08176296
205	0x3bf23abf	0.007392257
206	0x834bf624	-5.9938894e-37
207	0xbbda97db	-0.0066709346
208	0x3d92acbb	0.07161852
209	0x3e3f5653	0.18685274
210	0x3e395f93	0.18102865
211	0x03524c64	6.1801146e-37
212	0x03593970	6.3836504e-37
213	0x3d84ae53	0.06478562
214	0x8353ebd9	-6.2278067e-37
215	0x3e0bba0e	0.13645193
216	0xbdaa59c8	-0.08317906
217	0xbcde1ae6	-0.027112436
218	0xbdbf6805	-0.09346012
219	0x3ce0c7d0	0.027439028
220	0x035c18c8	6.4680637e-37
221	0xbd365884	-0.04451801
222	0x835e4d61	-6.5328763e-37
223	0x03550689	6.2602576e-37
224	0x035c52c6	6.474721e-37
225	0x3810eb05	3.4551154e-05
226	0xbe124f6f	-0.14288114
227	0x3e0de0cd	0.13855286
228	0xbd9641b5	-0.07336751
229	0x835a14e8	-6.408844e-37
230	0xbe088021	-0.13330127
231	0xba3e57fd	-0.0007261036
232	0x3e015051	0.12628295
233	0x3df4823a	0.11938901
234	0xbdcac1fb	-0.0990028
235	0xbd0d397b	-0.034478646
236	0x8354ad10	-6.2499867e-37
237	0xa329bc3a	-9.201367e-18
238	0xbdaf925d	-0.085728385
239	0xbe179c53	-0.14805727
240	0x035cdda1	6.4906607e-37
241	0xb2b03533	-2.0513289e-08
242	0x834d9fab	-6.0427375e-37
243	0x3bbfca17	0.0058529484
244	0x03474813	5.856358e-37
245	0xbc3bac27	-0.011454619
246	0x3b2ba8a1	0.002619304
247	0x3cc624b4	0.024187423
248	0xbb5d485b	-0.003376505
249	0x34134457	1.3715304e-07
250	0x835c5d14	-6.4759038e-37
251	0x30f720d7	1.7980949e-09
252	0x034e8488	6.0690097e-37
253	0x22a70b06	4.5277112e-18
254	0x835767f3	-6.330215e-37
255	0xba3a460c	-0.0007105775

hidden2.bias f4 [30]
0	0xbda36432	-0.07978095
1	0xbdd89c99	-0.10576744
2	0xbe0c2a32	-0.13687971
3	0xbe3aa983	-0.18228726
4	0xbe050c5f	-0.12993
5	0x834f0244	-6.0834433e-37
6	0xbdf91c7d	-0.12163637
7	0x3d15e1ab	0.036592167
8	0xbca18241	-0.01971543
9	0x3db72cbe	0.08944081
10	0x83429e3d	-5.7193125e-37
11	0x3d10af63	0.03532351
12	0x835c55e7	-6.47508e-37
13	0x035171f1	6.155038e-37
14	0xbd1e104b	-0.038589757
15	0xbdbb52c8	-0.09146649
16	0xb9fc069d	-0.00048070113
17	0x8355fc86	-6.2884957e-37
18	0x3d840540	0.06446314
19	0x3dde2bf5	0.10848228
20	0x3d7aa1dd	0.06118952
21	0x83503d5e	-6.1196152e-37
22	0x3bf0d21a	0.007349265
23	0x3df33f1a	0.1187727
24	0x8338e241	-5.4332467e-37
25	0x035a6d1f	6.4189707e-37
26	0x035487f9	6.245729e-37
27	0x8356185d	-6.2916915e-37
28	0x833bee6c	-5.5228056e-37
29	0x3bf2b3cc	0.0074066874

out_mu0.weight f4 [8, 30]
0	0xbdf7f2b0	-0.12106836
1	0x3da1fff3	0.079101466
2	0x3d8c8ecc	0.06863174
3	0x3da9b611	0.082866795
4	0xbe01a89f	-0.1266198
5	0x834cf2ce	-6.022894e-37
6	0x3d11b2e8	0.03557101
7	0xbc346e20	-0.011012584
8	0xacff8c57	-7.2631168e-12
9	0xbde71565	-0.112833776
10	0x832ecd86	-5.1369934e-37
11	0xbd791ed2	-0.06082041
12	0x035d6ffc	6.5074615e-37
13	0x834d55fe	-6.03428e-37
14	0xbb61d6f7	-0.0034460404
15	0x3d69fc10	0.05712515
16	0x3805367b	3.176041e-05
17	0x8334d57f	-5.3142327e-37
18	0xbe15e9e6	-0.14640006
19	0xbdc3126b	-0.09524997
20	0x39cfaa7e	0.00039609143
21	0x831cb696	-4.605388e-37
22	0x3d082bb6	0.03324481
23	0xbc115898	-0.00887122
24	0x834bb505	-5.986414e-37
25	0x83564c44	-6.2976496e-37
26	0x8352635d	-6.1827517e-37
27	0x035c3c15	6.472116e-37
28	0x834dc64f	-6.0471733e-37
29	0x3c9a88e5	0.018864105
30	0x3d00a38d	0.031405974
31	0x3e02817e	0.1274471
32	0x3d744f3c	0.059645876
33	0x3d3d1382	0.046161182
34	0x3ccafc1e	0.024778422
35	0x8357c79e	-6.341197e-37
36	0x3e3f8cce	0.18706056
37	0x3c984b41	0.018590571
38	0xb02ab247	-6.2098987e-10
39	0xbe3e8f23	-0.1860929
40	0x035d7476	6.5079753e-37
41	0xbd926eff	-0.07150077
42	0x03445bd2	5.7704628e-37
43	0x833f4b70	-5.6216453e-37
44	0xbc32365b	-0.010877217
45	0xbe13a8f9	-0.14419927
46	0x3ae54b71	0.0017493797
47	0x83421915	-5.704027e-37
48	0xbdcf3c69	-0.10118944
49	0x3bac295d	0.0052539543
50	0xba74163a	-0.00093111733
51	0x83306277	-5.1834784e-37
52	0xbd6143cd	-0.0549963
53	0xbe0bc167	-0.13647996
54	0x834c0b92	-5.9963494e-37
55	0x835927ba	-6.3816172e-37
56	0x83526928	-6.1834167e-37
57	0x83586959	-6.359763e-37
58	0x0349a045	5.925257e-37
59	0x3d1d0736	0.038336955
60	0x3e1a8240	0.15088749
61	0xbe3a3b6e	-0.18186733
62	0x3e137731	0.14400937
63	0xbdd6a3b9	-0.10480446
64	0x3e256677	0.16152368
65	0x03455965	5.7995717e-37
66	0x3da6eb47	0.08150344
67	0xbd69c16b	-0.057069223
68	0x9be30848	-3.7559351e-22
69	0xbd7f29e8	-0.062295824
70	0x832c956a	-5.0717776e-37
71	0x3dd491b2	0.10379352
72	0x0354462e	6.2381763e-37
73	0x8352475d	-6.1795374e-37
74	0xbc2f2999	-0.01069107
75	0xbe2d0605	-0.16896828
76	0x3b77b8c2	0.0037799333
77	0x832f95be	-5.1599773e-37
78	0xbe0e58bd	-0.13901038
79	0x3daa36ad	0.0831121
80	0x37c4ce44	2.346107e-05
81	0x832be9fe	-5.0520993e-37
82	0xbcb6e012	-0.022323642
83	0x3dbfe304	0.09369472
84	0x8331b374	-5.2221627e-37
85	0x835c998c	-6.4828452e-37
86	0x0352d41d	6.1956948e-37
87	0x83573d71	-6.3253353e-37
88	0x0341892e	5.6875077e-37
89	0xbd0e9eda	-0.03481946
90	0xbdda8e33	-0.106716536
91	0x3d26e51f	0.04074585
92	0x3e09385e	0.13400409
93	0xbe1c7bdb	-0.15281622
94	0xbd9f4590	-0.0777694
95	0x035706d0	6.319064e-37
96	0x3e0196c3	0.12655167
97	0xbde54023	-0.11193874
98	0xaf4f095e	-1.8829868e-10
99	0xbdd63603	-0.10459521
100	0x83458ace	-5.8052437e-37
101	0x3dbdfa13	0.092762135
102	0x03520906	6.172381e-37
103	0x835d7ab8	-6.5086937e-37
104	0xbb4b2468	-0.0030997042
105	0xbcee25f5	-0.029070834
106	0xbb794a47	-0.0038038658
107	0x034f3595	6.089334e-37
108	0xbc5ee051	-0.013603286
109	0xbd28563b	-0.04109786
110	0x38b62c2f	8.686666e-05
111	0x834b7670	-5.97923e-37
112	0x3bb9aa56	0.0056660576
113	0xbe132aba	-0.14371768
114	0x0351f944	6.1705723e-37
115	0x034bba13	5.986994e-37
116	0x03582906	6.3523788e-37
117	0x035292b7	6.1881874e-37
118	0x83449cdf	-5.7779302e-37
119	0x3d2eb3f6	0.042652093
120	0x3ca51dd7	0.02015583
121	0x3d51b278	0.05119559
122	0x3de99d58	0.11406964
123	0xbdcc6e85	-0.099820174
124	0x3ded1909	0.11577041
125	0x834575a9	-5.8028164e-37
126	0xbe3f98c9	-0.18710627
127	0xbc1e0e81	-0.009647013
128	0x9dde9ef4	-5.8927264e-21
129	0xbd45b763	-0.048270594
130	0x032d0d3a	5.0855314e-37
131	0x3db6b157	0.08920544
132	0x83508374	-6.1276607e-37
133	0x83506927	-6.1246415e-37
134	0x3a6360bd	0.0008673778
135	0x3dedcadc	0.11610958
136	0x3ba1f49d	0.0049424903
137	0x03260100	4.8784164e-37
138	0x3d29e7dd	0.041480888
139	0xbe179890	-0.14804292
140	0x39632b04	0.00021664432
141	0x034a430e	5.943944e-37
142	0x3c764227	0.01503042
143	0xbe56a9b0	-0.20963168
144	0x832a1047	-4.9977195e-37
145	0x834fcf28	-6.1069636e-37
146	0x03510031	6.14198e-37
147	0x835b5fee	-6.4468438e-37
148	0x833101d0	-5.2017706e-37
149	0x3c07fa03	0.0082993535
150	0xbd16b502	-0.036793716
151	0xbd01b5ff	-0.031667706
152	0x3c95823b	0.018250575
153	0xbde261c9	-0.11053807
154	0xbc10093c	-0.008791264
155	0x0353ef60	6.2282116e-37
156	0x3dd45e80	0.10369587
157	0xbda94886	-0.08265786
158	0x2554aaa4	1.8445884e-16
159	0x3d76a98c	0.060220286
160	0x8324e46f	-4.8457497e-37
161	0x3c4c604d	0.012474132
162	0x03387a46	5.4213103e-37
163	0x835aa1d2	-6.4250203e-37
164	0xbb55e01f	-0.0032634807
165	0x3cc9b65e	0.024623092
166	0x3b702e6b	0.003664876
167	0x8353fca4	-6.2297344e-37
168	0xbd432c21	-0.047649506
169	0xbd79ae1b	-0.060957056
170	0xb73782de	-1.093812e-05
171	0x03523552	6.177466e-37
172	0x3c87c02c	0.016571127
173	0x3e07190d	0.1319315
174	0x8359f497	-6.4051344e-37
175	0x0350beb2	6.1344614e-37
176	0x035aadc9	6.4263938e-37
177	0x035d882a	6.510237e-37
178	0x034e5e66	6.0646323e-37
179	0x3b0282c4	0.0019914368
180	0x3d5b4ef8	0.053542107
181	0x3e2f820f	0.17139457
182	0x3d5ef5d6	0.054433666
183	0x3c20d9f7	0.009817592
184	0x3dd3a8bf	0.1033492
185	0x835a41e6	-6.414009e-37
186	0xbd0f1be8	-0.034938723
187	0xbdc28e21	-0.09499765
188	0x2389d7da	1.4944986e-17
189	0x3e9aafca	0.3021224
190	0x83531c2a	-6.203966e-37
191	0xbe1139f6	-0.14182267
192	0x0356d6be	6.313546e-37
193	0x835631d8	-6.2946166e-37
194	0x3bd4b968	0.0064918287
195	0xbd902e13	-0.07040038
196	0xbb786da5	-0.003790715
197	0x833f5777	-5.623026e-37
198	0xbdb77314	-0.08957496
199	0xbe45bbc2	-0.19309905
200	0xb946019b	-0.0001888335
201	0x8336990f	-5.3660696e-37
202	0xbcc62255	-0.024186293
203	0x3d9c011e	0.076174006
204	0x03544c73	6.238896e-37
205	0x035ab625	6.4273534e-37
206	0x0353fe5e	6.2299326e-37
207	0x03591ffe	6.3807294e-37
208	0x033a1e00	5.4694926e-37
209	0x3bf77e59	0.0075529036
210	0xbe32b058	-0.17450082
211	0xbd0b3248	-0.0339835
212	0x3e0a5666	0.13509521
213	0xbcd2e177	-0.025742276
214	0x3deb01ba	0.11474939
215	0x835b7796	-6.4495594e-37
216	0x3d7e35bd	0.062062968
217	0x3adc0f0e	0.0016789155
218	0x25da1995	3.7834307e-16
219	0xbd45d4f9	-0.04829881
220	0x033e766e	5.5971932e-37
221	0xbddf53a1	-0.10904623
222	0x835585c6	-6.274864e-37
223	0x83507144	-6.125573e-37
224	0xbadfc099	-0.0017070948
225	0xbe0610f6	-0.13092408
226	0x3b3d463d	0.0028880977
227	0x034cb4db	6.0157824e-37
228	0x3e04776a	0.12936178
229	0xbd8cc86c	-0.06874165
230	0x39c80e1c	0.00038157485
231	0x835b0b93	-6.4371602e-37
232	0xbc9aec4d	-0.018911505
233	0xbe158fcd	-0.14605637
234	0x8352c8d6	-6.1944e-37
235	0x032fd2fa	5.1670067e-37
236	0x835ab119	-6.426774e-37
237	0x834f0ffa	-6.0850173e-37
238	0x83447e77	-5.7744398e-37
239	0x3caa59e2	0.020794813

out_mu0.bias f4 [8]
0	0x3cb9781f	0.022640286
1	0xbdff7cd7	-0.12474983
2	0xbd699026	-0.057022236
3	0x3cedd339	0.029031383
4	0x3dc97e73	0.098385714
5	0xbdafa887	-0.08577066
6	0xbdece19b	-0.11566468
7	0x3deabc5d	0.11461709

out_var0.weight f4 [8, 30]
0	0x3cb01007	0.021492017
1	0xbd4d974c	-0.050193116
2	0x3d4ddd8e	0.05026012
3	0x3e12289d	0.14273305
4	0x3d82114b	0.063509546
5	0x035bfcbb	6.4648436e-37
6	0x3d9be54f	0.076120965
7	0xbce4af1f	-0.027915535
8	0x8f932780	-1.4510534e-29
9	0xbd4125e7	-0.047155287
10	0x031db774	4.6348747e-37
11	0xbd2ff912	-0.04296214
12	0x0357af76	6.338424e-37
13	0x035a49fb	6.4149368e-37
14	0x3b314088	0.002704652
15	0xbd2ab03a	-0.04167197
16	0x3aec6120	0.0018034317
17	0x83436ce9	-5.7430372e-37
18	0x3e2b6b3b	0.16740124
19	0xbe16b5f6	-0.1471785
20	0x320449c2	7.700182e-09
21	0x03330a97	5.261553e-37
22	0x3c2d9d81	0.010596634
23	0xbd0c0566	-0.034184836
24	0x035187ba	6.1575386e-37
25	0x035319ca	6.203693e-37
26	0x035017f6	6.115321e-37
27	0x83519e1c	-6.160108e-37
28	0x031e2546	4.6474815e-37
29	0x3c1bbc7f	0.00950539
30	0x3d536b31	0.051615898
31	0xbdb1addc	-0.08675739
32	0x3e0351ac	0.12824124
33	0x3dcd4511	0.10022939
34	0xbb1f19d8	-0.0024276879
35	0x835a06ef	-6.40724e-37
36	0x3d88fa4b	0.066883646
37	0xbcb10622	-0.02160937
38	0x9aa37118	-6.759793e-23
39	0xbd08bf97	-0.03338584
40	0x035433b6	6.236056e-37
41	0x3a90899b	0.0011027338
42	0x834fe1f4	-6.1091214e-37
43	0x834503b4	-5.7897348e-37
44	0xbb2fe0d2	-0.0026836884
45	0x3d3754a3	0.04475845
46	0xbb65af30	-0.0035047047
47	0x0350dae7	6.1376994e-37
48	0x3d58538f	0.052814063
49	0xbe4db06c	-0.20086831
50	0x34fda396	4.7243947e-07
51	0x834df4d2	-6.0525125e-37
52	0x3bc13042	0.0058956454
53	0xbe45977b	-0.19296066
54	0x035654eb	6.298643e-37
55	0x83548a7e	-6.246018e-37
56	0x8350e40a	-6.1387482e-37
57	0x83537bc1	-6.214939e-37
58	0x8353025e	-6.2010044e-37
59	0xbc3a3fe0	-0.011367768
60	0x3e2cafd6	0.16863951
61	0x3d7903ae	0.060794525
62	0x3d9caa95	0.076497234
63	0xbe210e8d	-0.15728207
64	0x3e03e25f	0.12879322
65	0x034b02ae	5.9659414e-37
66	0xbd9c2d4b	-0.076258264
67	0xbbe10a4d	-0.006867683
68	0x1431439e	8.9495515e-27
69	0x3cb70139	0.02233945
70	0x034d8ed8	6.040806e-37
71	0xbd875aec	-0.06609139
72	0x0354f43a	6.258156e-37
73	0x8358d14f	-6.371697e-37
74	0xb932f559	-0.00017066802
75	0xbd5b92b5	-0.053606708
76	0xbb7a0eb7	-0.0038155743
77	0x8344da98	-5.7850157e-37
78	0x3db28f5a	0.087187484
79	0xbe2c75da	-0.16841832
80	0x323f8704	1.1148362e-08
81	0x034c08b9	5.9960225e-37
82	0x3ba91367	0.0051597836
83	0xbd817915	-0.06321923
84	0x0353c524	6.2233633e-37
85	0x03522278	6.175302e-37
86	0x0340c57a	5.665042e-37
87	0x035b46e7	6.4439708e-37
88	0x834ab322	-5.95681e-37
89	0x3bc90e3b	0.0061357296
90	0x3e12fc8a	0.14354149
91	0x3dd8c0c4	0.10583642
92	0xbd8a3d82	-0.06750013
93	0xbc8ec3ce	-0.017427351
94	0x3e292d0f	0.16521095
95	0x834e1234	-6.0558855e-37
96	0xbc8d1f40	-0.017226815
97	0x3c034fc6	0.008014625
98	0x24537e56	4.5860342e-17
99	0xbe723a40	-0.23655033
100	0x83470cb6	-5.8495435e-37
101	0x3de47009	0.111541815
102	0x835d8e21	-6.510922e-37
103	0x833b233d	-5.4994812e-37
104	0xba00d284	-0.0004914182
105	0xbe1f675d	-0.15566774
106	0xbb9463ba	-0.00452849
107	0x03381faa	5.410909e-37
108	0x3d9adfd3	0.07562222
109	0xbe2b643d	-0.16737457
110	0x37658207	1.3679738e-05
111	0x834e2443	-6.0579585e-37
112	0xbbc58458	-0.0060277395
113	0x3de630ab	0.112397514
114	0x8352912f	-6.1880116e-37
115	0x835e5940	-6.534239e-37
116	0x8347f515	-5.8762184e-37
117	0x835b6e6d	-6.448508e-37
118	0x83472061	-5.8518013e-37
119	0x3aec828c	0.0018044277
120	0x3dbde890	0.092728734
121	0xbe2cdd90	-0.16881394
122	0xbe01aea0	-0.1266427
123	0xbd7aebf8	-0.061260194
124	0x3bc28092	0.005935737
125	0x835d7213	-6.5077014e-37
126	0x3dc9e6f5	0.09858505
127	0xbb8555c3	-0.0040690615
128	0x113c653d	1.4861781e-28
129	0xbe4b69ff	-0.19864653
130	0x833e46f0	-5.5917414e-37
131	0x3dbff333	0.093725584
132	0x0351b87d	6.163136e-37
133	0x0321effa	4.7589127e-37
134	0x3b2640f0	0.0025368296
135	0x3d577de4	0.052610293
136	0xbacd5bf2	-0.0015667661
137	0x0346d9d0	5.8437007e-37
138	0x3d925bae	0.07146393
139	0x3df36bc2	0.118857875
140	0x3006928f	4.895719e-10
141	0x832bd986	-5.050209e-37
142	0x3b1e6c83	0.0024173565
143	0x3df22e79	0.1182527
144	0x8345a9c4	-5.808798e-37
145	0x834f127a	-6.0853043e-37
146	0x8353e86a	-6.2274125e-37
147	0x835bc6c7	-6.45865e-37
148	0x0335ba6e	5.340513e-37
149	0x3b40cb13	0.0029417917
150	0x3e04c395	0.12965234
151	0x3d95ce22	0.07314707
152	0xbe11c6fb	-0.14236061
153	0xbd5787ae	-0.05261963
154	0x3cceffc9	0.025268452
155	0x835c95d7	-6.4824197e-37
156	0xbe040d13	-0.12895612
157	0x3c576fa0	0.013149172
158	0x9dad7644	-4.5915003e-21
159	0xbd30c08c	-0.043152377
160	0x03544e9a	6.239143e-37
161	0xbdb4253f	-0.08796167
162	0x0359ace7	6.396905e-37
163	0x83529ad1	-6.1891174e-37
164	0xbb3342e4	-0.0027353102
165	0x3e35d131	0.17755581
166	0xbaaba384	-0.0013094996
167	0x834db642	-6.0453307e-37
168	0x3e126894	0.14297706
169	0x3d3cf85a	0.046135284
170	0x31d8c313	6.3086047e-09
171	0x03486b1b	5.889767e-37
172	0xbc1fcac5	-0.009752934
173	0xbbfe9e7a	-0.0077703567
174	0x832c9cd2	-5.072628e-37
175	0x834eb4f2	-6.0745674e-37
176	0x834ec3d4	-6.076276e-37
177	0x035aceaa	6.430168e-37
178	0x831f2705	-4.6770693e-37
179	0xbb61593a	-0.0034385459
180	0xbd1c598e	-0.038171344
181	0xbe2a9855	-0.16659673
182	0x3d3a067d	0.045416344
183	0x3d3bbd57	0.045834865
184	0xbd13de92	-0.03610093
185	0x8353bae9	-6.222189e-37
186	0x3ddd2391	0.107977994
187	0x3da40121	0.08008028
188	0xa4049407	-2.874832e-17
189	0xbe7cbde5	-0.24681814
190	0x834e33c6	-6.059739e-37
191	0x3e377ac2	0.17917922
192	0x035bddb1	6.4612805e-37
193	0x835ba290	-6.454493e-37
194	0xbc10950f	-0.008824601
195	0xbdeb4109	-0.11487014
196	0xbbc4c2ce	-0.006004668
197	0x8342f92a	-5.7297502e-37
198	0x3a9bccac	0.0011886558
199	0xbe3d0e80	-0.18462563
200	0xb391071d	-6.7533826e-08
201	0x833613b6	-5.350762e-37
202	0x3c2f977e	0.010717271
203	0x3e16c67e	0.14724156
204	0x835d34a5	-6.5006496e-37
205	0x83537ae3	-6.2148394e-37
206	0x835ae167	-6.432319e-37
207	0x035c22eb	6.4692273e-37
208	0x03491e62	5.910347e-37
209	0x3a82ac73	0.0009969607
210	0x3e477ad9	0.19480456
211	0xbdfc56b8	-0.12321228
212	0xbdb901ae	-0.090335235
213	0x3e073726	0.13204631
214	0xbb5896da	-0.00330489
215	0x834e0a72	-6.054995e-37
216	0xbdc6e0c6	-0.09710841
217	0xbd5963b4	-0.0530736
218	0x16b3dd5f	2.9058714e-25
219	0xbb899aa8	-0.0041993447
220	0x833348df	-5.2687024e-37
221	0x3d6c7b98	0.057735056
222	0x834ea4f8	-6.0727334e-37
223	0x035e5f4f	6.5349345e-37
224	0xbb7e57d6	-0.0038809679
225	0x3d75ce70	0.060011327
226	0xbba86546	-0.005139026
227	0x8339074a	-5.437498e-37
228	0x3cf4c0e7	0.02987714
229	0x3e24adf8	0.16081989
230	0x3514521d	5.5253787e-07
231	0x834904ff	-5.9074326e-37
232	0xbb887564	-0.0041643847
233	0x3e0a73ce	0.13520738
234	0x8352f572	-6.199521e-37
235	0x83585972	-6.3579373e-37
236	0x835d6a94	-6.506841e-37
237	0x0356ba89	6.310308e-37
238	0x83425e70	-5.7119885e-37
239	0xbbc6c821	-0.0060663377

out_var0.bias f4 [8]
0	0xbe304919	-0.17215385
1	0xbd71b850	-0.059013665
2	0x3c418a66	0.011812782
3	0xbde9bede	-0.11413358
4	0xbdc8a18a	-0.09796436
5	0xbd55c566	-0.052190207
6	0xbb695e09	-0.0035609028
7	0xbdaa97a7	-0.08329707
