DR_Info_CFR/IHDP/Models/netQ0.pth (torch, 72639 bytes, 8 tensors)

hidden1.weight f4 [100, 2]
0.173425 0.010161072 -0.058135062 0.012564423 -0.04221593 -0.0026141938 -0.024738517 0.11852965
-0.106973216 0.06270842 0.011104101 -0.012164928 0.14407727 0.028882058 -0.008006365 -0.0010020803
3.2273846e-15 -6.293482e-14 1.6182572e-09 -1.8579647e-11 0.13547765 0.15006155 0.123856045 0.16673037
2.2751051e-07 -2.8029615e-07 -0.08447642 0.07094234 -6.27206e-37 -6.2178007e-37 -0.027935414 -0.004175411
1.4749204e-13 -6.408986e-14 0.22217585 0.16345158 1.5988071e-07 -2.4182748e-06 -4.9898023e-05 -3.0158293e-10
0.12529016 0.0330703 0.041741464 0.0019581383 1.5389858e-13 -9.8935015e-15 5.456115e-06 -0.00015227967
-0.035054065 0.079997934 -0.074806534 -0.027745802 0.14657874 0.09904049 -0.014327947 -0.0036813128
-0.0012067761 -8.8270065e-11 0.097499475 -0.029358113 0.32852846 0.062262647 0.09801593 0.07169797
1.6503264e-17 -8.855809e-16 0.28540912 -0.07755067 -0.03539877 0.0052684667 -0.039813604 -0.0025656153
-0.008688023 -0.00047125152 0.06018448 0.053930055 0.0065431576 0.022167057 0.029573636 0.10093042
0.007320425 -0.005952637 0.16189975 0.23635893 -0.0025978843 -1.7166601e-06 -0.077842355 0.0065189013
0.10757975 0.10852832 0.16135798 0.00931173 4.6121066e-13 -6.1337792e-12 0.04924086 0.25406495
-0.14105177 0.2687326 -0.031197062 0.00010243895 -0.030572701 -0.0067754383 -0.013075878 -0.00554725
-0.017162368 -0.001848179 0.000336262 -0.0004417978 -0.07316379 -0.02335307 -0.065944284 0.08604675
-0.08494714 -0.006431256 -0.009836502 0.1574898 1.5433649e-05 -1.7093009e-05 -0.078197055 0.24345855
0.23511086 -0.02051997 -0.37044188 0.15780339 0.066240504 0.051640473 3.5364016e-13 -8.485257e-13
0.04301945 0.12832448 -0.0086602215 -0.0002942232 -0.009292318 -0.0003682994 -0.018655622 -0.004559283
0.18055554 0.13473338 0.025448976 0.053134605 0.101866156 0.057604242 -0.005989789 -0.0013741298
-0.028476385 -0.010797308 0.022329343 0.068775795 -0.01161934 0.19646153 -0.029221002 -0.003919729
-0.03868966 0.0021579452 0.02173544 0.045941863 6.169002e-37 -1.8607125e-17 0.06066118 0.092603974
6.3494237e-37 -6.099673e-37 0.06636038 0.020352546 4.1675827e-05 -0.0006755963 0.054067962 0.081957445
-0.0013679417 -2.395563e-08 -0.00020396944 -1.3181603e-12 0.14942749 0.07504328 0.18219772 -0.059940923
-0.03258605 0.006892052 -0.0023472963 -5.775499e-07 0.11376264 0.062249336 -0.050638046 0.0030151454
0.09300825 -0.07325875 0.0044342172 0.026236042 -0.04159592 0.15522063 0.18769927 0.12358121
0.26833943 0.01700804 0.0803741 0.034241594 -0.08803583 0.039147142 -0.03253582 -0.004822379
00000000: 5396 313e a07a 263c 081f 6ebd 02db 4d3c
00000010: 9cea 2cbd e552 2bbb 6ea8 cabc acbf f23d
00000020: c614 dbbd 466d 803d faed 353c 684f 47bc
00000030: fe88 133e 119a ec3c 212d 03bc 3c58 83ba
00000040: bd8e 6827 74b7 8da9 5d69 de30 a56d a3ad
00000050: a7ba 0a3e bca9 193e 3da8 fd3d 5ebb 2a3e
00000060: 9d49 7434 9c7b 96b4 f901 adbd 384a 913d
00000070: 596d 5583 af94 5383 cfd8 e4bc e3d1 88bb
00000080: b00f 262a 4a51 90a9 1182 633e da5f 273e
00000090: adab 2b34 a549 22b6 9849 51b8 06cc a5af
000000a0: 104c 003e b974 073d 19f9 2a3d 1c54 003b
000000b0: 3f46 2d2a b939 32a8 ac13 b736 43ad 1fb9
000000c0: da94 0fbd f5d5 a33d 2b34 99bd 2a4b e3bc
000000d0: bd18 163e bed5 ca3d c4bf 6abc 2e42 71bb
000000e0: b02c 9eba a11b c2ae cead c73d 6d80 f0bc
000000f0: e234 a83e 1e07 7f3d 93bc c83d 63d6 923d
00000100: 3b37 9823 5640 7fa6 2521 923e e3d2 9ebd
00000110: 4dfe 10bd 1aa3 ac3b 9713 23bd e223 28bb
00000120: 3658 0ebc 4f12 f7b9 0084 763d c3e5 5c3d
00000130: fc67 d63b b097 b53c 6944 f23c 9cb4 ce3d
00000140: 2de0 ef3b 570e c3bb 0cc9 253e 1308 723e
00000150: 4441 2abb fe67 e6b5 d06b 9fbd 829c d53b
00000160: c652 dc3d 1944 de3d 073b 253e 3a90 183c
00000170: bbd1 012b 2cd0 d7ac c9b0 493d cd14 823e
00000180: e06f 10be 5297 893e fb90 ffbc 7ed4 d638
00000190: 9a73 fabc 7f04 debb 353c 56bc b5c5 b5bb
000001a0: 1898 8cbc 993e f2ba 524c b039 19a1 e7b9
000001b0: e6d6 95bd f04e bfbc cc0d 87bd 4739 b03d
000001c0: c4f8 adbd 49bd d2bb 4829 21bc 0245 213e
000001d0: 8277 8137 f562 8fb7 c725 a0bd 334d 793e
000001e0: e7c0 703e 7f19 a8bc 8faa bdbe 3697 213e
000001f0: 1aa9 873d f684 533d eb14 c72a b8d6 6eab
00000200: 2a35 303d 7e67 033e 9ae3 0dbc f841 9ab9
00000210: ce3e 18bc 4f18 c1b9 add3 98bc 0a66 95bb
00000220: 8de3 383e 8cf7 093e 5f7a d03c aca3 593d
00000230: 349f d03d 6df2 6b3d fe45 c4bb 251c b4ba
00000240: 4f47 e9bc 31e7 30bc 07ec b63c 53da 8c3d
00000250: 0b5f 3ebc 362d 493e e260 efbc 1271 80bb
00000260: 0d79 1ebd 506c 0d3b 850e b23c 892d 3c3d
00000270: 96eb 5103 d59e aba3 dc77 783d 27a7 bd3d
00000280: 480f 5803 a58f 4f83 f3e7 873d 62ba a63c
00000290: 14cd 2e38 801a 31ba 5e76 5d3d 4ed9 a73d
000002a0: 824c b3ba fdc6 cdb2 a1e0 55b9 bb83 b9ab
000002b0: 8503 193e 4bb0 993d 0a92 3a3e 9d84 75bd
000002c0: f378 05bd b9d6 e13b 19d5 19bb ed08 1bb5
000002d0: 63fc e83d 29f9 7e3d d769 4fbd bf99 453b
000002e0: 1c7b be3d af08 96bd e94c 913b f8ec d63c
000002f0: 7c60 2abd 28f2 1e3e 3d34 403e 2518 fd3d
00000300: c963 893e 7254 8b3c 2d9b a43d ea40 0c3d
00000310: 214c b4bd c158 203d 4844 05bd 0c05 9ebb

hidden1.bias f4 [100]
-0.015034235 -0.0021846811 0.00072541804 0.009746379 -0.015105849 -0.00049118296 -0.03214221 -0.00010951651
5.568831e-18 -1.5908677e-08 -0.0027973398 0.008103829 -4.7892135e-09 -0.010337123 -1.122627e-31 -0.0003734246
-4.5012805e-15 -0.031550217 -3.8157486e-09 -2.8250754e-06 -0.039804243 0.0027021521 -2.7909968e-12 -4.7633034e-08
-0.0041433866 -1.9228553e-05 0.010481024 0.000119650256 -4.0056234e-06 0.027768211 -0.020082029 0.025405996
1.7793984e-16 -0.004591927 -0.0008458917 -0.0010523692 5.0337465e-05 0.009322707 0.0076382305 -0.012011505
1.2318561e-07 -0.016565483 1.8463117e-05 -0.0016448782 -0.030075157 -0.0063649677 -3.1923116e-13 -0.019996757
-0.019750176 -0.0008375242 -0.00015881806 1.557259e-05 -0.0007537247 -1.8699166e-07 -0.00058098865 0.019918585
-0.0007129647 -0.013625381 1.3920619e-11 -0.010301791 -0.021311725 -0.013913612 -0.011791522 -1.5897545e-13
-0.03808797 -4.9728314e-05 9.1624115e-06 0.00011861045 -0.004256381 -0.020166289 -0.007840034 -0.00014738139
-0.00013529502 -0.0014948527 -0.00670508 0.00013336427 -0.0009022947 -0.0052772616 1.6258068e-32 -0.010421333
-6.5604534e-37 -0.008439922 -0.0011007775 -0.024400696 -1.3112379e-05 -5.9172253e-06 -0.0021163202 -0.004352435
-3.906743e-05 2.7317652e-05 0.005110241 -0.0003013989 -9.3702954e-05 0.019166864 -0.014285409 0.013364948
-0.0036339723 0.010949872 -0.004350346 -0.0002337871
00000000: 2752 76bc de2c 0fbb fb29 3e3a 47af 1f3c
00000010: 867e 77bc bbc2 00ba 8da7 03bd 3bac e5b8
00000020: 1f74 cd22 8da7 88b2 9353 37bb ecc5 043c
00000030: 5e8e a4b1 095d 29bc aeb9 118c 34c8 c3b9
00000040: fc2c a2a7 cd3a 01bd ae1b 83b1 6d96 3db6
00000050: c609 23bd 9716 313b 2166 44ac 1395 4cb3
00000060: 3fc5 87bb 014d a1b7 9ab8 2b3c beec fa38
00000070: 0b68 86b6 297a e33c 1183 a4bc 3c20 d03c
00000080: 9226 4d25 e077 96bb d5be 5dba a7ef 89ba
00000090: 7121 5338 44be 183c 1f4a fa3b e7cb 44bc
000000a0: 0145 0434 56b4 87bc 3ee1 9a37 f498 d7ba
000000b0: 2d60 f6bc 3891 d0bb 0fb6 b3aa 3dd0 a3bc
000000c0: 1fcb a1bc 4c8d 5bba 6688 26b9 e2a1 8237
000000d0: 9c95 45ba e0c7 48b4 7d4d 18ba 4d2c a33c
000000e0: 40e6 3aba fd3c 5fbc e5e4 742d d8c8 28bc
000000f0: ed95 aebc ebf5 63bc 3a31 41bc 8efd 32aa
00000100: 2202 1cbd 5f93 50b8 42b8 1937 80be f838
00000110: 1d79 8bbb c633 a5bc 7c73 00bc 648a 1ab9
00000120: fbdd 0db9 efee c3ba 4ab6 dbbb b3d7 0b39
00000130: f987 6cba e1ec acbb 5cd5 a80a 3dbe 2abc
00000140: 9c3d 5f83 9947 0abc f747 90ba f8e3 c7bc
00000150: 3dfd 5bb7 948c c6b6 f6b1 0abb df9e 8ebb
00000160: 55dc 23b8 3628 e537 cf73 a73b 1305 9eb9
00000170: 6482 c4b8 d403 9d3c 590d 6abc a8f8 5a3c
00000180: f027 6ebb 1867 333c 598d 8ebb bf24 75b9

hidden2.weight f4 [100, 100]
-0.0030562016 6.098778e-37 -6.3498735e-37 -0.045365576 -0.1368397 7.241084e-36 -0.042500596 -6.524407e-37
6.375185e-37 -5.9765357e-37 -0.098033786 -0.0003669821 6.4684022e-37 -0.033560455 5.8949384e-37 6.089818e-37
2.6914453e-29 0.12198698 5.995071e-37 -6.483262e-37 -0.084320225 0.06702023 -5.421253e-37 -4.8553284e-07
0.15878865 6.354195e-37 0.033666696 -6.3183866e-37 6.1341125e-37 -0.041110408 -0.034667164 0.026972415
-6.2838057e-37 0.09816193 -6.1197063e-37 5.9668993e-37 -6.4269467e-37 0.10298953 -0.066625394 0.055000383
3.1189475e-29 0.09610161 -5.966309e-37 -5.987834e-37 0.019422576 0.19276427 2.7487128e-30 0.06826597
0.10171411 6.416533e-37 -6.1805746e-37 -6.345821e-37 6.4572865e-37 9.742579e-25 -5.8880248e-37 0.04953941
6.128302e-37 -0.09824436 6.243407e-37 0.029263029 0.06551404 -0.14223662 -0.027515069 -3.3450138e-34
-0.021351255 5.851039e-37 5.153261e-37 -4.753547e-37 -0.0063288645 -0.04653692 0.0056008645 -6.2053003e-37
6.1656016e-37 -0.04506771 -0.078987174 6.258391e-37 -6.25834e-37 -0.0058841077 -6.1941683e-37 0.06606927
6.2812018e-37 0.011629976 -0.0005765841 -0.07807541 -6.436602e-37 -6.4913485e-37 -0.04624056 0.0675185
-6.375237e-37 6.1833364e-37 -0.2000001 -6.152935e-37 -2.038474e-10 0.15688424 -0.23173863 0.06239629
-0.0896732 -0.10074823 0.12792571 -6.2316326e-37 -0.03729294 1.3199926e-05 -0.00012780583 0.070834324
-0.123605266 6.456771e-37 -0.037090726 -2.0198189e-15 6.129295e-37 -9.994478e-24 -0.10267741 -0.21421337
6.3359654e-37 -0.1903705 -5.645415e-37 -8.587517e-11 -3.5456029e-22 -0.054449268 6.017661e-37 7.2843608e-31
0.022376416 -0.019047806 5.2895286e-37 5.4496736e-09 -0.063728526 -0.0008161788 -0.0051556644 8.894396e-06
-1.205616e-32 -0.053457096 0.0017306098 0.23438792 6.535359e-37 -0.17934802 -0.00031445935 1.6415028e-07
7.613895e-22 -0.12782869 0.15694003 -0.038339674 3.150088e-32 0.13853598 -5.359777e-31 -6.097114e-05
-0.026268454 -0.07767802 -2.3126065e-31 -0.0070400545 -0.0534686 1.6738446e-06 1.6326537e-09 -3.83081e-06
-1.3961743e-13 6.5243474e-37 1.6845997e-06 0.13853632 0.00035582727 0.30247483 -6.187707e-37 0.051045634
-0.041245796 0.2698813 0.016697895 5.736061e-37 0.005713 -3.5520147e-14 -4.0158194e-12 -5.1391027e-12
0.044212725 -0.05781991 -0.09594256 2.1043657e-10 0.00010255554 0.083256885 0.061631057 -2.7133056e-09
-1.7746901e-05 0.041497014 6.2626544e-37 -0.12687217 -6.220591e-37 -0.12094386 0.0007369868 0.09684058
-7.078575e-30 6.09314e-37 0.13928527 0.14631389 -0.00041106815 -1.9488395e-28 0.036270857 0.00013513638
-1.3766738e-09 0.10168802 0.036937065 0.0013556877 0.013504515 -0.13889554 0.07512277 5.0782783e-05
-8.084502e-05 -6.2475567e-37 -6.2925736e-37 -0.00023068799 -3.4584023e-08 -5.979611e-37 -0.000101319994 -6.452146e-37
-6.1097268e-37 6.3014724e-37 -0.0008234274 -0.0016217337 6.413692e-37 -3.2062999e-06 -6.205877e-37 -6.5459292e-37
6.3283813e-37 -0.00089895434 6.141585e-37 6.400356e-37 -7.903275e-05 -7.3289517e-09 -6.444429e-37 6.4910495e-37
-5.330392e-05 1.609168e-20 -0.00049581483 6.1603323e-37 -6.3321557e-37 -1.1859799e-12 -0.00067023933 -0.00024448367
6.3238685e-37 -6.657178e-07 -6.1629295e-37 -6.373205e-37 6.49355e-37 -8.764035e-05 -2.4281792e-07 -0.00023027427
-6.2108907e-37 -0.001873931 -6.3956226e-37 -5.9119966e-26 -0.00044044742 -5.774978e-05 6.106629e-37 0.006652521
-0.0034004163 -6.3416258e-37 6.0953994e-37 -6.174807e-37 -6.2367248e-37 -6.2674237e-37 -3.1885162e-36 -4.446949e-05
00000000: 8e4a 48bb d987 4f03 3313 5883 41d1 39bd
00000010: b51f 0cbe 3600 1a05 1b15 2ebd 9a03 5e83
00000020: b2ef 5803 f85e 4b83 f0c5 c8bd 8167 c0b9
00000030: bb1b 5c03 b076 09bd 2898 4803 cc39 4f03
00000040: f578 0810 4fd4 f93d 6f00 4c03 2d9d 5c83
00000050: 15b0 acbd e741 893d c679 3883 9055 02b5
00000060: 7e99 223e d838 5803 17e6 093d e900 5783
00000070: a8bb 5003 6363 28bd 28ff 0dbd 41f5 dc3c
00000080: abd3 5583 1f09 c93d 293e 5083 060b 4b03
00000090: 9ab2 5a83 2dec d23d e572 88bd 1548 613d
000000a0: 4126 1e10 ecd0 c43d e205 4b83 64c1 4b83
000000b0: 181c 9f3c ff63 453e 8800 5f0e 07cf 8b3d
000000c0: 7d4f d03d e357 5a03 6650 5283 e6ef 5783
000000d0: e6ba 5b03 55c2 9617 ee5b 4883 d6e9 4a3d
000000e0: 0a89 5003 5734 c9bd bf73 5403 05b9 ef3c
000000f0: 3a2c 863d 7aa6 11be 4867 e1bc 7650 de87
00000100: d4e8 aebc bd19 4703 3c5b 2f03 3cc1 2183
00000110: 5d62 cfbb 7f9d 3ebd 7587 b73b ca27 5383
00000120: f7cd 5103 eb98 38bd 07c4 a1bd 46f6 5403
00000130: d5f5 5483 79cf c0bb d1c6 5283 534f 873d
00000140: fcbc 5503 a88b 3e3c e725 17ba 00e6 9fbd
00000150: b606 5b83 9fe3 5c83 be66 3dbd 2447 8a3d
00000160: 26f0 5883 7568 5203 d4cc 4cbe a05f 5183
00000170: f121 60af 43a6 203e e44c 6dbe 4193 7f3d
00000180: 95a6 b7bd 1755 cebd f5fe 023e 2d0d 5483
00000190: 7bc0 18bd 4075 5d37 9e03 06b9 9611 913d
000001a0: c224 fdbd 68b6 5b03 72ec 17bd 158b 11a7
000001b0: b191 5003 4252 4199 8948 d2bd c05a 5bbe
000001c0: 0b9a 5703 7cf0 42be 801a 4083 6cd7 bcae
000001d0: 8c51 d69b 3206 5fbd 38c5 4c03 1a64 6c0d
000001e0: bf4e b73c 250a 9cbc 4bfe 3303 d63f bb31
000001f0: 1a84 82bd d5f4 55ba d9f0 a8bb 2439 1537
00000200: 8b65 7a8a d4f5 5abd a1d5 e23a 6303 703e
00000210: 0263 5e03 02a7 37be 05de a4b9 4941 3034
00000220: a91d 661c 86e5 02be e3b4 203e 100a 1dbd
00000230: da8f 230b 60dc 0d3e 49ef 2d8d 43bb 7fb8
00000240: f130 d7bc a715 9fbd c418 968c 42b0 e6bb
00000250: e401 5bbd dda8 e035 e563 e030 688a 80b6
00000260: fc31 1daa 1503 5e03 681a e235 77dc 0d3e
00000270: 548e ba39 fbdd 9a3e 888e 5283 3a15 513d
00000280: 5af1 28bd e22d 8a3e 06ca 883c 2330 4303
00000290: 1e34 bb3b f1f7 1fa9 494b 8dac ecd0 b4ac
000002a0: 6718 353d 92d4 6cbd 887d c4bd a160 672f
000002b0: 1613 d738 9682 aa3d d970 7c3d fa74 3ab1
000002c0: 2edf 94b7 c6f8 293d 6a1b 5503 c7ea 01be
000002d0: fdac 5383 6ab1 f7bd 5932 413a 5b54 c63d
000002e0: 1092 0f8f bc56 4f03 cca0 0e3e 4fd3 153e
000002f0: a284 d7b9 750b 7791 c090 143d 65b3 0d39
00000300: 6735 bdb0 cf41 d03d 524b 173d 55b1 b13a
00000310: 0b42 5d3c a23a 0ebe f8d9 993d 99ff 5438
00000320: 578b a9b8 e597 5483 0c20 5683 d6e4 71b9
00000330: 8989 14b3 c279 4b83 c27b d4b8 1e8e 5b83
00000340: 3ae7 4f83 916d 5603 47db 57ba 5a90 d4ba
00000350: 233f 5a03 d02b 57b6 d02c 5383 16bf 5e83
00000360: fa57 5703 cea7 6bba c0fc 5003 f7ca 5903
00000370: 62be a5b8 24d2 fbb1 e54a 5b83 04e1 5c03
00000380: a692 5fb8 4bfb 971e 92f9 01ba 10a0 5103
00000390: db78 5783 6ee9 a6ab 00b3 2fba 0b2e 80b9
000003a0: aa30 5703 c7b3 32b5 b0b6 5183 72de 5883
000003b0: ccf6 5c03 8ecb b7b8 a45c 82b4 c775 71b9
000003c0: 7d58 5383 b19e f5ba bba1 5983 bb5f 9295
000003d0: daeb e6b9 5b38 72b8 3ecc 4f03 64fd d93b
000003e0: 85d9 5ebb 5acb 5783 6b6a 4f03 281e 5283
000003f0: 8939 5483 f644 5583 de9f 8784 c084 3ab8

hidden2.bias f4 [100]
0.02854115 0.002601047 -0.0005552193 -0.0017311837 -0.0026498628 -0.00021759428 0.0 -3.519205e-07
-0.023072109 -0.016839756 0.0024161506 -1.8500854e-05 0.0 -0.0015259295 -0.0046226634 -0.00040169936
-0.00014772831 -0.00057297485 -0.0018727346 0.006873093 -0.012009568 -0.012573834 -0.004248821 -0.028087463
-2.9480894e-05 -0.0021238627 -7.420938e-05 -0.0006349339 0.0 -0.0043300823 -0.0009837279 -0.008578005
-1.2123991e-10 0.0 0.0 -0.0014795589 -0.00037034857 -0.019910812 -6.4758835e-16 -0.00034786688
-0.0014420289 -0.016124722 -0.0067447387 -0.01813994 -0.0017106155 -0.00046832327 -0.019514102 -0.027391285
-7.285064e-07 0.013563844 -9.328283e-13 -0.0033960075 -0.00498297 -3.67518e-05 -0.01793576 -0.035289653
-0.016883263 -0.0032082025 -0.00527031 -0.011671481 -6.3266e-37 0.02271055 0.00014941706 -0.00043905736
-2.0321224e-05 -0.023413083 -0.0012433882 -0.0010732899 0.0026187492 -3.411922e-12 -0.00038667594 0.0048097568
-0.0034834302 -0.0015069824 -0.0009970352 -0.004167975 -0.002355573 0.02518606 -0.00019402152 0.0002086047
-0.0035868145 -0.01889743 0.0 -5.729396e-08 0.0 -0.0021540476 0.006767913 6.834872e-05
0.0 -0.0061278157 -1.9730517e-06 0.008630164 -0.020365085 -0.0015618731 -0.0012270319 -1.0362302e-13
-0.034951493 -0.003839457 -0.007014408 -0.008104424
00000000: 21cf e93c 5476 2a3b 238c 11ba e3e8 e2ba
00000010: 52a9 2dbb 052a 64b9 0000 0000 96ef bcb4
00000020: b801 bdbc 87f3 89bc 4858 1e3b 4832 9bb7
00000030: 0000 0000 b301 c8ba b679 97bb 2d9b d2b9
00000040: 84e7 1ab9 b133 16ba 8c76 f5ba af37 e13b
00000050: c7c3 44bc 7b02 4ebc b239 8bbb ae17 e6bc
00000060: bd4d f7b7 8130 0bbb dca0 9bb8 b171 26ba
00000070: 0000 0000 5de3 8dbb 6ef0 80ba c38a 0cbc
00000080: 004e 05af 0000 0000 0000 0000 c2ed c1ba
00000090: 582b c2b9 001c a3bc 96a7 3aa6 e761 b6b9
000000a0: 7602 bdba fe17 84bc f802 ddbb 369a 94bc
000000b0: bb36 e0ba 4989 f5b9 0adc 9fbc b063 e0bc
000000c0: 948e 43b5 e33a 5e3c ae48 83ab 8d8f 5ebb
000000d0: 2f48 a3bb f225 1ab8 04ee 92bc e28b 10bd
000000e0: c54e 8abc b540 52bb 91b2 acbb bd39 3fbc
000000f0: 7548 5783 7a0b ba3c d6ac 1c39 4831 e6b9
00000100: 7f77 aab7 cbcc bfbc 2ff9 a2ba a2ad 8cba
00000110: 529f 2b3b b917 70ac c4ba cab9 2a9b 9d3b
00000120: 434a 64bb f085 c5ba f3ae 82ba 8293 88bb
00000130: f55f 1abb ff52 ce3c 4172 4bb9 e6bc 5a39
00000140: c310 6bbb c8ce 9abc 0000 0000 6013 76b3
00000150: 0000 0000 ec2a 0dbb 5ec5 dd3b 7156 8f38
00000160: 0000 0000 d8cb c8bb c568 04b6 8865 0d3c
00000170: aed4 a6bc c4b7 ccba 5cd4 a0ba 9b56 e9a9
00000180: 4c29 0fbd 669f 7bbb 1ed9 e5bb 6bc8 04bc

out_mu0.weight f4 [35, 100]
-0.061680607 -0.00061243726 -8.8570676e-05 -5.1268508e-08 -0.23703405 -1.10951706e-10 -6.1317265e-37 6.4031277e-37
-0.11307397 0.071888335 -0.07823572 -6.6820794e-05 -6.124914e-37 5.616404e-22 -0.0039266148 -6.2653625e-09
-0.0004186878 -6.6339894e-06 0.0006371138 -0.09242488 -0.043698005 0.05030845 3.477469e-05 0.1205776
1.220469e-13 0.00015104984 -6.3089824e-37 6.8802497e-06 -5.9391975e-37 -0.020185543 -0.0026726583 -0.01736836
-6.0887477e-37 6.099415e-37 6.0904705e-37 0.002864717 -1.1122134e-07 0.033386502 6.259304e-37 -3.1987318e-10
-0.25648242 0.039149497 -0.041793294 -0.0088993 -0.0043853587 1.3027749e-05 0.12898827 -0.0827864
3.649007e-06 -0.18130548 -6.4814623e-37 -0.0022915513 -2.1936014e-06 -3.6304162e-26 -0.089551225 0.092258
0.09026851 -0.1387475 -0.16221908 0.023291355 -5.8025774e-37 0.28439206 8.0187914e-05 -0.0012516584
3.0597332e-26 -0.053773373 0.0031003375 -1.3723504e-23 -0.09726821 -6.1781514e-37 -0.00015233945 0.023496449
0.010632261 -0.00013936457 -2.8035056e-06 0.00301351 -0.0017502323 -0.15675706 6.130065e-37 0.0002992339
0.01484872 -0.19138154 5.478583e-37 -6.0090413e-37 -6.1677127e-37 -0.01297479 0.11277427 -1.7368e-06
-6.093155e-37 -0.16701002 1.15802675e-23 0.09823914 0.2607951 -1.4544698e-09 -0.034804426 6.364755e-37
-0.025741402 -2.4286033e-05 -0.0005755316 -0.021514747 -0.15120962 0.1250185 -9.065871e-05 -0.0064509683
0.06447409 3.3539022e-06 -6.102712e-37 -6.228906e-37 -0.015023207 -0.0102487905 0.096132025 0.0005751316
6.3110366e-37 2.1255834e-15 -0.04889092 -2.7327155e-07 0.001526067 0.011890781 0.00029973683 0.18260731
0.0079333875 0.055372622 -9.3605566e-05 0.06305187 -1.6053694e-10 0.00024030436 1.501764e-22 0.00015023767
-6.438675e-37 -0.33068028 0.0023779895 0.17401376 6.3637887e-37 -5.0597273e-37 6.298857e-37 0.0079456605
-3.5732577e-05 -0.07169001 6.5021213e-37 0.0034511946 0.09213272 -0.009695775 -0.019396748 -0.14218785
0.00889456 -0.002147018 -0.011218709 -0.13874933 -0.00036522766 -0.10864894 -6.0696205e-37 0.023404913
0.00024557923 2.85491e-11 -0.023968898 -0.042894263 0.07838151 0.07983853 -0.030751748 0.14843762
-6.354642e-37 -0.07970213 -0.00070953043 -0.0017138034 1.7517625e-11 0.17540951 -0.008118562 5.2944313e-16
0.04389119 6.189231e-37 0.0004640197 -0.012979419 0.018578578 -0.00016331853 4.4651315e-06 -0.0052999817
0.037306704 -0.015926482 6.3202413e-37 0.13787584 -0.012041698 -0.016498694 -6.323272e-37 -5.7947055e-37
6.336452e-37 -0.011224775 0.04115611 4.509177e-05 -6.3062933e-37 -0.09808449 6.975604e-23 -0.077777945
-0.020448755 -1.2256412e-06 -0.009907485 -6.34049e-37 -0.09035813 0.019003829 0.015937224 -0.18969578
-0.15929008 0.21483938 0.00034101665 0.0012366413 -0.03032186 -5.2620423e-15 -6.2590725e-37 -6.2142775e-37
0.08920884 0.08051619 0.010201274 -0.00017242182 -6.176102e-37 2.6453655e-19 -0.008547633 5.7132047e-07
-0.00028852015 -2.3131328e-05 0.0046483357 0.14167202 0.019337624 0.013365376 -1.297801e-05 0.09612796
3.1092804e-14 -3.457881e-09 5.6223325e-32 -4.5437984e-05 5.9590184e-37 0.14299324 0.001702709 -0.0024112486
-6.0454455e-37 -6.2341562e-37 -6.077357e-37 -4.229252e-05 -5.45337e-09 0.038995482 6.4127745e-37 1.464332e-11
0.26986942 0.010812314 -0.0020364902 0.0072094896 -0.0037496686 0.0035539854 -0.22820054 -0.02519013
-6.4183274e-05 -0.15511602 -6.100459e-37 -0.005079349 2.2287168e-06 -1.9781474e-23 0.03877938 0.071891084
00000000: cea4 7cbd f88b 20ba 05bf b9b8 5232 5cb3
00000010: 0eb9 72be 42fc f3ae dfa6 5083 1ce3 5903
00000020: 5393 e7bd 313a 933d 0d3a a0bd 2422 8cb8
00000030: 876b 5083 d2be 291c d5aa 80bb b646 d7b1
00000040: 5383 dbb9 8999 deb6 fc03 273a 4149 bdbd
00000050: aefc 32bd 3c10 4e3d 0adb 1138 64f1 f63d
00000060: a069 092a 2263 1e39 fdae 5683 e5dc e636
00000070: b519 4a83 275c a5bc c427 2fbb 1748 8ebc
00000080: 7930 4f83 668d 4f03 7b3f 4f03 fabd 3b3b
00000090: 94d8 eeb3 49c0 083d 3afe 5403 26da afaf
000000a0: aa51 83be 395b 203d 722f 2bbd 5fce 11bc
000000b0: 0eb3 8fbb c291 5a37 8015 043e eb8b a9bd
000000c0: 77e1 7436 25a8 39be 808d 5c83 da2d 16bb
000000d0: c935 13b6 fec4 3395 a266 b7bd c3f1 bc3d
000000e0: b2de b83d d313 0ebe c21c 26be 83cd be3c
000000f0: 9473 4583 d69b 913e 8f2a a838 b00e a4ba
00000100: ba82 1715 7841 5cbd 082f 4b3b c0b9 8499
00000110: 8e34 c7bd 4a3b 5283 4fbd 1fb9 a07b c03c
00000120: ef32 2e3c 6422 12b9 dc23 3cb6 4f7e 453b
00000130: 0d68 e5ba ec84 20be 6698 5003 7fe2 9c39
00000140: 0c48 733c 86f9 43be 306d 3a03 227a 4c83
00000150: 5be0 5183 3794 54bc 32f6 e63d fe1b e9b5
00000160: de56 4f83 ad04 2bbe b5fe 5f19 9a31 c93d
00000170: ef86 853e 9be6 c7b0 168f 0ebd d694 5803
00000180: a2df d2bc dcb9 cbb7 46df 16ba b23f b0bc
00000190: b2d6 1abe da04 003e 0620 beb8 a562 d3bb
000001a0: fe0a 843d 9a13 6136 1faa 4f83 6df5 5383
000001b0: e623 76bc 8bea 27bc dee0 c43d 6ec4 163a
000001c0: e2c0 5603 182a 1927 d841 48bd 28b6 92b4
000001d0: 5006 c83a 8dd1 423c ff25 9d39 69fd 3a3e
000001e0: 0afb 013c 67ce 623d 1b4e c4b8 5721 813d
000001f0: 2283 30af 36fa 7b39 588d 351b 1e89 1d39
00000200: c518 5b83 ed4e a9be 0bd8 1b3b aa30 323e
00000210: 6b8c 5803 712c 2c83 c856 5603 842e 023c
00000220: 90df 15b8 36d2 92bd 7741 5d03 702d 623b
00000230: 14b0 bc3d 07db 1ebc eee5 9ebc b199 11be
00000240: 7dba 113c fcb4 0cbb adce 37bc 4e14 0ebe
00000250: 077c bfb9 5683 debd da89 4e83 a9bb bf3c
00000260: 16c1 8039 dc1e fb2d 6c5a c4bc e5b1 2fbd
00000270: 7c86 a03d 6282 a33d 17eb fbbc 0800 183e
00000280: bd3c 5883 df3a a3bd c8ff 39ba b3a1 e0ba
00000290: 2f16 9a2d 8d9e 333e b803 05bc 029a 1826
000002a0: 40c7 333d ce9b 5203 ab47 f339 a1a7 54bc
000002b0: 1a32 983c 7c40 2bb9 30d3 9536 78ab adbb
000002c0: eace 183d 4178 82bc 1111 5703 532f 0d3e
000002d0: 8b4a 45bc 4528 87bc 782b 5783 012f 4583
000002e0: 489e 5703 1ee8 37bc 4f93 283d eb20 3d38
000002f0: 9097 5683 85e0 c8bd e6a8 a81a 0b4a 9fbd
00000300: 2684 a7bc b680 a4b5 0153 22bc 75c1 5783
00000310: af0d b9bd ebad 9b3c c88e 823c 9c3f 42be
00000320: f01c 23be dbfe 5b3e 7bca b239 cc16 a23a
00000330: 8d65 f8bc c695 bda7 36fc 5483 fe75 5383
00000340: 20b3 b63d ace5 a43d 3f23 273c 21cc 34b9
00000350: 7029 5283 a227 9c20 5f0b 0cbc d85c 1935
00000360: 8544 97b9 260a c2b7 1151 983b 7812 113e
00000370: f069 9e3c 73fa 5a3c 21bc 59b7 bcde c43d
00000380: 9007 0c29 b09f 6db1 cff6 910b aa94 3eb8
00000390: 5fc6 4a03 d26c 123e 6f2d df3a 0a06 1ebb
000003a0: 42b7 4d83 2923 5483 3fcd 4e83 3f63 31b8
000003b0: 5a60 bbb1 bab9 1f3d 2537 5a03 d3cd 802d
000003c0: 532c 8a3e 2226 313c a376 05bb 953d ec3b
000003d0: 00bd 75bb fbe9 683b 67ad 69be 885b cebc
000003e0: 229a 86b8 bcd6 1ebe 7e96 4f83 ab70 a6bb
000003f0: 1091 1536 8f50 bf99 21d7 1e3d a23b 933d

out_mu0.bias f4 [35]
-0.0047662654 -0.00564277 -0.021143492 0.010589284 -0.007815215 0.010733531 0.007544763 -0.0034271944
-0.00052932085 -0.0120664695 -0.016075615 0.0024144135 -0.010254893 0.009992319 -0.010587218 -0.006476745
-0.01828362 -0.011028272 0.0221206 -0.0007369614 -0.010088706 0.0069464385 0.009003507 -0.0059926016
-0.0045396737 0.01759921 0.0013221675 -0.0030729668 0.016207483 -0.0017288652 0.00041122542 -0.009463804
0.014183225 -0.010117762 -0.006788224
00000000: 552e 9cbb fce6 b8bb 1e35 adbc ad7e 2d3c
00000010: 630b 00bc b1db 2f3c 0f3a f73b c89a 60bb
00000020: 1fc2 0aba 71b2 45bc 02b1 83bc 233b 1e3b
00000030: 2404 28bc d3b6 233c 0376 2dbc e03a d4bb
00000040: 88c7 95bc edaf 34bc 4336 b53c a430 41ba
00000050: 1a4b 25bc f39e e33b 7283 133c 965d c4bb
00000060: 8bc1 94bb 382c 903c 944c ad3a d463 49bb
00000070: 8ec5 843c 179b e2ba be99 d739 120e 1bbc
00000080: c260 683c f8c4 25bc c06f debb

out_var0.weight f4 [35, 100]
-0.05452238 -0.16109994 -0.0001924222 -0.00050400523 -0.16469026 -1.3059334e-13 -6.191129e-37 -6.127468e-37
0.02829491 0.05396824 -0.12738717 -2.8567765e-06 6.0476275e-37 6.8462832e-28 0.009567033 -1.1917247e-14
3.943149e-06 9.2911256e-07 0.0031870164 0.007881322 0.018531047 -0.012488688 -4.3103827e-07 0.050637454
-4.353899e-14 9.3638635e-09 -2.79057e-23 5.9243062e-05 5.9905604e-37 0.09059173 -0.0023774805 0.03931265
6.208859e-37 -5.699476e-37 5.7495567e-37 1.3402087e-05 -7.964713e-09 -0.12604848 -6.5367627e-37 -3.6196979e-13
0.123862825 -0.11743951 -0.005967508 -0.087733686 0.0013058803 -0.002258254 -0.07092195 0.23328477
1.10494646e-07 -0.0974634 -6.4205218e-37 0.0037079493 1.9786834e-11 9.207976e-18 0.079425156 0.037090454
0.03831989 0.17800619 -0.10818019 -0.019775406 -5.779545e-37 -0.0031645026 -0.00020768652 -0.0008300233
-7.788522e-27 0.21793576 -0.00063773576 4.3750083e-21 0.013393655 6.1111707e-37 -3.9710183e-05 0.004640798
8.1148275e-05 0.00019909935 -1.3985115e-07 1.08612e-05 0.00067109254 -0.0944219 -6.319899e-37 0.09221311
-0.00063858985 0.10586504 -6.525424e-37 -6.028787e-37 6.0958384e-37 -0.013064753 0.06203049 -1.5002394e-07
-6.4789682e-37 -0.0701118 2.793712e-26 -0.05938483 0.107854165 -1.3027499e-15 -0.0022239378 -4.8376357e-37
-0.08516314 1.8077544e-06 -0.001348163 -0.0028289836 -0.24455924 0.21715182 -7.2984594e-06 -0.00017823825
-0.07288867 5.7601394e-08 6.175383e-37 -6.28986e-37 0.0154925315 -0.012179328 0.01669296 -0.000117998774
6.429169e-37 -1.8993194e-19 -0.09630738 3.1912087e-10 -0.007720788 0.0010111398 -0.0022441836 -0.21260194
0.016781492 0.056337483 -6.8011204e-06 -0.15588838 -8.178719e-08 -0.00023351464 -9.704905e-22 0.00016357675
-6.281269e-37 -0.039156415 0.00070129015 -0.0838912 6.3229797e-37 -6.0546134e-37 6.4243728e-37 -0.0068333726
-6.171193e-06 0.19630736 6.397214e-37 1.422923e-06 -0.11628014 -0.022104079 0.0007847427 0.018655587
0.0011383235 0.0024221118 0.10627442 0.047932062 6.4272027e-37 0.037984412 6.1522742e-37 0.0064943284
-1.3799766e-08 -6.9623194e-15 0.024952037 0.054191634 0.15985689 -0.071737446 -0.3104283 0.15181711
6.3573006e-37 -0.12692264 -0.00034488365 -0.0031985657 5.3464044e-10 0.034181327 0.0033732478 1.4460921e-19
0.106451094 6.4362885e-37 -2.3827291e-05 0.059817318 0.01559883 -0.0004436057 1.5226954e-07 2.0701095e-06
-0.03601234 0.03219073 6.30421e-37 0.0060844426 0.014946004 -0.103538185 -6.1049103e-37 -6.090482e-37
6.234679e-37 -0.05942104 -0.05114822 -0.00012915218 6.3758493e-37 -0.030041121 -6.682759e-27 -0.28777817
-0.110353634 4.9115597e-11 -0.053361796 -5.996283e-37 0.14693822 -0.00051731255 4.922466e-06 0.09003522
-0.18415019 0.07946697 -0.00013118269 -9.639098e-08 -0.24717556 -2.420161e-18 -6.1069726e-37 6.155801e-37
-0.0713617 0.0010524984 -0.18833047 1.15276094e-07 -6.5058086e-37 -3.0353403e-19 0.033848733 -7.881751e-14
1.5224116e-09 -4.6258054e-07 -0.00016539382 0.0075338376 0.008399569 0.04056889 -1.0101359e-05 -0.0008965175
-2.4879098e-25 -1.2313825e-08 -6.4910252e-37 -0.00012685751 6.364105e-37 0.049491942 0.0017553129 0.017087622
-6.3921604e-37 -6.487835e-37 -6.1551566e-37 2.1694484e-07 6.074844e-11 0.07163036 5.7296435e-37 -1.6591031e-17
-0.020841692 0.119609095 0.0030631227 0.017625287 0.005042 -0.00026690718 0.16148928 0.1524129
-1.6394993e-07 -0.16424789 6.5184176e-37 -0.0059242477 3.4734296e-10 -2.5362515e-30 0.020593492 0.032514974
00000000: dc52 5fbd 62f7 24be f1c4 49b9 381f 04ba
00000010: 90a4 28be f808 13aa 57ac 5283 c681 5083
00000020: baca e73c cd0d 5d3d c871 02be 0cb7 3fb6
00000030: 44ca 4d03 a6f7 5812 0bbf 1c3c 9aae 56a8
00000040: 644f 8436 2168 7935 43dd 503b a920 013c
00000050: 6cce 973c 5b9d 4cbc 7369 e7b4 3869 4f3d
00000060: 0a15 44a9 b5de 2032 95f1 069a c17b 7838
00000070: 24d9 4b03 2888 b93d 81cf 1bbb 4d06 213d
00000080: ca46 5303 70f1 4183 b4a5 4303 86d9 6037
00000090: 2ed5 08b2 da12 01be 3c6f 5e83 58c5 cbaa
000000a0: cbab fd3d 2084 f0bd 168b c3bb b8ad b3bd
000000b0: 122a ab3a 37ff 13bb 873f 91bd 34e2 6e3e
000000c0: 1349 ed33 e49a c7bd a27a 5a83 1101 733b
000000d0: fd0b ae2d 70db 2923 a8a9 a23d 29ec 173d
000000e0: 51f5 1c3d 4147 363e 938d ddbd 0800 a2bc
000000f0: f0aa 4483 8b63 4fbb 6dc6 59b9 ec95 59ba
00000100: 8044 1a94 8d2a 5f3e b92d 27ba 7c48 a51d
00000110: 1071 5b3c cef3 4f03 7c8e 26b8 d611 983b
00000120: 262e aa38 53c5 5039 fe29 16b4 8038 3637
00000130: 42ec 2f3a 4560 c1bd 160e 5783 3ada bc3d
00000140: 0a67 27ba c5cf d83d 760c 5e83 2426 4d83
00000150: 3e6e 4f03 8c0d 56bc af13 7e3d 4416 21b4
00000160: c677 5c83 c796 8fbd 8256 0a15 823d 73bd
00000170: a5e2 dc3d fdbe bba6 7cbf 11bb c09d 2483
00000180: 036a aebd f8a1 f235 d8b4 b0ba 7866 39bb
00000190: bd6d 7abe 0c5d 5e3e 4ae5 f4b6 77e5 3ab9
000001a0: a846 95bd 6765 7733 2c23 5203 6908 5683
000001b0: 63d4 7d3c ce8b 47bc adbf 883c 1c76 f7b8
000001c0: f6c5 5a03 683b 60a0 ce3c c5bd 4570 af2f
000001d0: aafe fcbb 3988 843a 2713 13bb 53b4 59be
000001e0: 5779 893c 22c2 663d 2e35 e4b6 34a1 1fbe
000001f0: fca2 afb3 9cdb 74b9 08a8 929c cd85 2b39
00000200: 92bd 5583 7a62 20bd c9d6 373a 26cf abbd
00000210: ec28 5703 1f07 4e83 2e9c 5a03 7cea dfbb
00000220: 2512 cfb6 cc04 493e 98af 5903 43fb be35
00000230: 4824 eebd 9d13 b5bc 31b7 4d3a 9ad3 983c
00000240: cc33 953a 4bbc 1e3b 67a6 d93d 6954 443d
00000250: d5b4 5a03 8b95 1b3d de59 5103 60ce d43b
00000260: 0314 6db2 10d8 faa7 3768 cc3c 0cf8 5d3d
00000270: 86b1 233e 15eb 92bd 75f0 9ebe f275 1b3e
00000280: e653 5803 02f8 01be 80d1 b4b9 079f 51bb
00000290: faf5 1230 b801 0c3d b511 5d3b 74b9 2a20
000002a0: 0803 da3d fb03 5b03 b8e0 c7b7 0103 753d
000002b0: 3c92 7f3c c093 e8b9 887f 2334 36ec 0a36
000002c0: ad81 13bd 6dda 033d 6a85 5603 0160 c73b
000002d0: 16e0 743c d40b d4bd 45bd 4f83 953f 4f83
000002e0: b727 5403 7a63 73bd cc80 51bd 066d 07b9
000002f0: 7bf5 5803 cc18 f6bc 9d5d 0494 a957 93be
00000300: 1601 e2bd 3f03 582e e691 5abd fe0a 4c83
00000310: f976 163e 429c 07ba a92b a536 6364 b83d
00000320: de91 3cbe 94bf a23d 168e 09b9 80ff ceb3
00000330: 971b 7dbe 8c93 32a2 3ccf 4f83 9778 5103
00000340: 1526 92bd fcf3 893a b4d9 40be b48d f733
00000350: 9661 5d83 c42c b3a0 f8a4 0a3d 337b b1a9
00000360: 193d d130 9658 f8b4 916d 2db9 69de f63b
00000370: 599e 093c 902b 263d 0279 29b7 4504 6bba
00000380: 81fe 9996 c68c 53b2 cee0 5c83 0e05 05b9
00000390: 2c8f 5803 10b8 4a3d 8712 e63a 57fb 8b3c
000003a0: 9283 5983 04c5 5c83 fa72 5183 58f1 6834
000003b0: 5596 852e f0b2 923d 3cf8 4203 7706 99a3
000003c0: 32bc aabc 9df5 f43d acbe 483b e862 903c
000003d0: 5d37 a53b adef 8bb9 725d 253e 2112 1c3e
000003e0: 370a 30b4 9930 28be 6dcf 5d03 3120 c2bb
000003f0: 2df4 be2f e2c3 4d8e afb3 a83c 6c2e 053d

out_var0.bias f4 [35]
-0.016241737 -0.0137898205 -0.027672322 -0.022037022 -0.03813758 -0.020568887 -0.001102728 -0.028257713
-0.02610421 -0.033271365 -0.014357195 -0.034917623 -0.02802936 -0.038556 -0.015290378 -0.025826773
-0.02955698 -0.026997978 -0.02234555 -0.028154783 -0.016359204 -0.016846806 -0.016250435 -0.015914096
-0.024732288 -0.034836087 -0.016461138 -0.03313473 0.0018111868 -0.02812035 -0.02201336 -0.025422104
-0.04012178 -0.009506022 -0.009109862
00000000: 640d 85bc b3ee 61bc 11b1 e2bc fc86 b4bc
00000010: 2736 1cbd 1580 a8bc 6989 90ba b87c e7bc
00000020: 7fd8 d5bc 8e47 08bd 713a 6bbc c805 0fbd
00000030: d49d e5bc e5ec 1dbd 7e84 7abc ab92 d3bc
00000040: 7b21 f2bc dd2a ddbc 040e b7bc dca4 e6bc
00000050: bd03 86bc 5002 8abc a21f 85bc 475e 82bc
00000060: 5e9b cabc 49b0 0ebd 82d9 86bc 48b8 07bd
00000070: 5865 ed3a a65c e6bc 5d55 b4bc 0442 d0bc
00000080: bc56 24bd 25bf 1bbc 8841 15bc
