DR_Info_CFR/IHDP/Models/netQ0.pth (torch, 8895 bytes, 8 tensors)

hidden1.weight f4 [30, 2]
000000 bd 5e 85 3e 6f f3 8b be 62 fd ee b0 56 47 53 03
       0.26048842 -0.27334163 -1.7388795e-09 6.2089217e-37
000010 87 dd 62 3e 05 2a b7 3e e5 a8 91 bd 9b 3c ea b4
       0.22154818 0.35774246 -0.07112292 -4.3629993e-07
000020 4c d3 cb be ce db 9c 3e 92 e3 cf 1d 9e 6d 44 b6
       -0.39809644 0.30636448 5.5027746e-21 -2.9270082e-06
000030 aa 66 0f 3f 23 db 20 3f a7 49 05 3f 91 ee 54 3e
       0.5601603 0.62834376 0.5206551 0.20794131
000040 57 cd 1e bf 5d 4f 08 3f d9 03 45 bd 80 a0 9c bc
       -0.62032074 0.532461 -0.048099373 -0.019119501
000050 91 c0 b5 3d 23 a2 9f 3e f6 61 16 be 93 cf 51 3b
       0.0887462 0.31178388 -0.14685807 0.0032014593
000060 af 51 b0 3e 50 29 c5 bd e7 bd 5f bd ac 98 a1 bc
       0.3443732 -0.0962702 -0.054624464 -0.01972612
000070 c7 15 4d 3d 69 de d4 bd 50 1f 8d ba e6 03 55 83
       0.050069597 -0.10393984 -0.0010766778 -6.259955e-37
000080 6d 96 c9 be 68 44 fa 3e 17 74 f1 3e 1a 87 5b 3e
       -0.39372578 0.48880315 0.47158882 0.21438256
000090 de 15 87 be 04 5d 64 3e 96 18 0b 3e dd 8f c4 3e
       -0.2638387 0.22301108 0.13583598 0.3839101
0000a0 78 cf 5c 83 c9 2a 36 96 4b 39 53 83 a0 23 cd b3
       -6.489035e-37 -1.4715344e-25 -6.2073096e-37 -9.5525365e-08
0000b0 1b 13 45 03 69 5e 1e 98 4c 28 88 3e 7a 0c d8 bd
       5.791503e-37 -2.0468686e-24 0.26593244 -0.10549255
0000c0 d2 b4 87 ab 29 52 81 b0 fb 25 5c 83 9e 39 4e 03
       -9.642515e-13 -9.409337e-10 -6.469579e-37 6.06041e-37
0000d0 74 ee 51 3e 48 0d 3c 3e 7d 7e 7f 3e 3d e9 26 3f
       0.20501119 0.18364441 0.24950595 0.65199643
0000e0 cf b2 b6 be 17 53 00 3f 6c de f0 bc 1e ab 53 bc
       -0.35683295 0.50126785 -0.029402934 -0.0129192155

hidden1.bias f4 [30]
000000 5e d6 7d 3e a8 b7 de b5 47 88 75 3e ca 05 fb 3d
       0.24788806 -1.659374e-06 0.23977767 0.122569636
000010 45 e3 2e be f8 36 aa b0 61 07 d1 be d7 b4 11 bf
       -0.17078884 -1.2384751e-09 -0.40825942 -0.56916565
000020 38 65 d9 be 68 90 4b 3e 48 dc aa 3e f8 12 bf 3e
       -0.42460036 0.19879305 0.33371186 0.3731916
000030 4b 74 b6 bd 02 f5 52 3e c7 8a 4d 3c be bd b1 b3
       -0.089089 0.20601276 0.012545294 -8.276719e-08
000040 09 6a b8 be d2 7b fd 3e 36 d4 1d bf b9 77 03 bf
       -0.36018398 0.4950853 -0.61651933 -0.5135456
000050 bc 7e f0 b3 e5 0f 2e aa 2c d0 bc a1 10 60 5e 3e
       -1.1198924e-07 -1.5459819e-13 -1.2794478e-18 0.21716332
000060 0b af 4b 83 fe 29 dc 94 cf f6 f6 3e 4f 0f 3d be
       -5.985728e-37 -2.2230886e-26 0.48235175 -0.18462871
000070 5c ea 03 3f fa 81 fc 3d
       0.5152948 0.123294786

hidden2.weight f4 [30, 30]
000000 9c d6 79 3c 01 bb 5d 03 84 e0 3d 3d c5 af d3 bb
       0.015248921 6.5160733e-37 0.046356693 -0.0064601623
000010 ce 6a 53 03 aa 4b 4c 83 82 28 99 bc d6 41 49 37
       6.2129933e-37 -6.003707e-37 -0.018696073 1.1995862e-05
000020 8b 3c 56 83 a5 8c 16 3d b1 06 6e 3c 1c 7f 92 bc
       -6.2958448e-37 0.036755223 0.014527963 -0.017882876
000030 3d b9 cb 38 d0 ab 86 3c 2b 78 4d 3a 12 87 53 83
       9.7142976e-05 0.016439348 0.0007838036 -6.216238e-37
000040 5b 8a 5a 03 fd c7 28 bd 3c 1a 50 03 0f 82 99 25
       6.4223266e-37 -0.04120635 6.115582e-37 2.66294e-16
000050 36 9d 59 83 d7 13 5e 83 d2 6d 3b 83 d7 e2 66 bb
       -6.395104e-37 -6.526271e-37 -5.508043e-37 -0.0035230422
000060 cb e1 51 83 19 dd 5c 03 9b 75 6f 3d 65 b2 3d bb
       -6.1678777e-37 6.4905997e-37 0.058461767 -0.0028945443
000070 84 59 b4 bc ad 5e 97 3c 6a 96 ce 84 e3 51 41 83
       -0.02201534 0.018477762 -4.85685e-36 -5.6811604e-37
000080 97 17 b9 a2 dc f3 4c 83 bc b5 52 03 1f 55 59 83
       -5.0169327e-18 -6.023015e-37 6.1922074e-37 -6.3868283e-37
000090 a2 c9 2a a8 c7 4b 6e 89 b0 55 5b 83 f7 53 52 83
       -9.480618e-15 -2.8683838e-33 -6.445668e-37 -6.180984e-37
0000a0 04 e0 96 a2 e0 a0 59 03 5b 7c 57 83 9d 22 48 83
       -4.0894767e-18 6.3955244e-37 -6.3325574e-37 -5.881445e-37
0000b0 b3 24 50 03 ee 6d 5d 83 64 c8 51 83 f3 79 cc aa
       6.1167835e-37 -6.5072256e-37 -6.1649617e-37 -3.63223e-13
0000c0 0e fe 51 83 e7 99 51 83 9e e5 4d 83 a3 da 58 03
       -6.171122e-37 -6.159625e-37 -6.0507673e-37 6.3727678e-37
0000d0 68 56 53 03 7c 4d df 0a e2 e8 5d 83 ab d9 5b 83
       6.2106517e-37 2.1503265e-32 -6.52134e-37 -6.4608186e-37
0000e0 34 ed 47 23 ef 67 2b 27 ee 0c fa 9d e9 1b 53 83
       1.0838041e-17 2.378736e-15 -6.618782e-21 -6.2039366e-37
0000f0 75 f1 68 3c 3a cf 4a 03 b7 10 18 3e 88 76 13 bb
       0.014217724 5.960035e-37 0.14850126 -0.002250107
000100 52 29 d3 bd 35 de 57 83 42 4d a5 bb b2 15 bc 3d
       -0.103106156 -6.3437903e-37 -0.0050446102 0.091838256
000110 70 99 eb 3b 1b 06 2e 3d d3 e3 cc 3a 79 01 df bd
       0.007189922 0.04248629 0.0015631862 -0.10888953
000120 94 23 9a 3d 5e ec 90 bb 34 3f 9f 3a 18 1c 5c 03
       0.07526317 -0.0044227084 0.0012149573 6.468444e-37
000130 43 87 b3 3c f7 28 c4 3d 32 ee 0b bd 73 88 d0 bd
       0.021915084 0.09578126 -0.034162708 -0.101822756
000140 08 5a 53 03 86 d5 57 03 e0 dc 57 83 57 53 cd 3d
       6.211068e-37 6.3427934e-37 -6.3436373e-37 0.100256614
000150 a6 10 59 83 1c 3a 52 83 d6 ce 03 3d 0a 94 49 3d
       -6.378968e-37 -6.178016e-37 0.032179676 0.049213447
000160 10 4c f6 3d 75 20 92 bc 7a 8b 54 83 30 1c 4d 83
       0.120262265 -0.017837742 -6.246131e-37 -6.0276443e-37
000170 14 a2 50 03 a4 4c 5c 83 b0 b7 5a 03 98 9a 50 83
       6.1311763e-37 -6.474017e-37 6.4275305e-37 -6.130317e-37
000180 d2 88 50 83 d9 97 5c 03 2d 42 5d 83 ac 97 54 03
       -6.128277e-37 6.48265e-37 -6.502203e-37 6.247531e-37
000190 59 37 4d 03 29 c0 46 03 96 95 4f 83 41 1b 57 03
       6.030762e-37 5.840756e-37 -6.100355e-37 6.3214107e-37
0001a0 81 33 5c 83 c2 bb 53 83 8a 29 4f 83 6c ee 54 83
       -6.4711313e-37 -6.2222862e-37 -6.0879517e-37 -6.2574895e-37
0001b0 46 a7 4b 83 82 0d 54 03 20 a3 55 03 e4 2b 52 03
       -5.984836e-37 6.2316707e-37 6.2782332e-37 6.1763837e-37
0001c0 71 61 57 03 d0 a7 58 83 8d 01 4d 83 6e ad 5b 03
       6.329468e-37 -6.3669334e-37 -6.0245866e-37 6.4557403e-37
0001d0 8d 65 38 03 35 f3 51 83 53 82 46 03 d8 e8 54 83
       5.4189315e-37 -6.169877e-37 5.8336575e-37 -6.256849e-37
0001e0 67 17 f1 bc 05 0b 53 03 46 e2 fc 3b 66 fc fa 39
       -0.029430104 6.2019977e-37 0.0077174036 0.00047871767
0001f0 4f 44 0a bc 9b 3d 52 03 7b fe 3a 3d bd cb 3c 3d
       -0.008439138 6.1784173e-37 0.045652848 0.046092737
000200 29 22 76 bd 88 81 ce 3c a7 0e 2c be 32 ce 8b 3c
       -0.06009117 0.02520825 -0.16802464 0.017066095
000210 6d 13 d6 bd d0 13 7d bc 5f a2 14 b8 21 84 55 03
       -0.10452924 -0.015446618 -3.543717e-05 6.274675e-37
000220 b5 f2 d3 bd 9e 10 04 3e cf c5 ab 3d 2e c0 e5 3d
       -0.10349027 0.12896964 0.08387338 0.11218296
000230 29 06 56 03 61 4a 5e 03 a2 43 58 03 23 ef 6d bd
       6.289602e-37 6.532532e-37 6.3554334e-37 -0.058089387
000240 b0 3c 58 83 ed 81 51 83 09 c6 18 3e eb 3b 78 3c
       -6.354636e-37 -6.1568727e-37 0.14919294 0.015151004
000250 03 e1 d6 3d ec 46 48 bc 47 14 54 83 ab a4 51 83
       0.10492136 -0.01222394 -6.232448e-37 -6.160861e-37
000260 d3 b1 53 bc 93 77 56 83 9c 26 02 b5 4c 84 53 03
       -0.012920815 -6.302621e-37 -4.848496e-07 6.2159196e-37
000270 92 58 ef bc 8e d0 06 bb 42 83 ce 39 aa eb 5a 83
       -0.029217038 -0.0020571086 0.00039389177 -6.433497e-37
000280 f6 ab 9b 3b 8a e6 5a 83 db 26 2e 35 0d 97 5d 83
       0.004750724 -6.432909e-37 6.4876593e-07 -6.511946e-37
000290 7e 2f 33 03 95 8f 4c 83 0e f1 8d b9 7d 3e 05 bc
       5.265789e-37 -6.0115036e-37 -0.00027073215 -0.008132574
0002a0 86 d7 9a 20 8b 8f a9 bb fe c6 5c 83 d6 5d 52 83
       2.6231236e-19 -0.0051745824 -6.488062e-37 -6.182117e-37
0002b0 5b 48 5d 03 69 eb 24 36 17 09 5b 83 29 e2 57 03
       6.5029123e-37 2.457493e-06 -6.436875e-37 6.344244e-37
0002c0 45 d7 47 3c c1 0c 1d 3d d2 45 c4 ba 5e 2c 59 03
       0.01219732 0.03834224 -0.0014974421 6.38215e-37
0002d0 29 50 7c bb d5 e2 5c 83 ae cb fe 3c bf ed 10 3b
       -0.0038499928 -6.491258e-37 0.031102981 0.0022114364
0002e0 2f 34 51 03 f6 dd 55 03 0e 8a 3a bd 71 d8 af 3c
       6.1479484e-37 6.2849873e-37 -0.045541815 0.021465512
0002f0 0a d5 4f 83 49 a4 0b bb 5f 45 a2 bc 73 0e 96 ba
       -6.107639e-37 -0.0021307638 -0.01980847 -0.0011448398
000300 86 fe 5f 3b 92 90 ae 38 11 28 63 38 74 c8 5a 03
       0.0034178807 8.323895e-05 5.4158332e-05 6.429455e-37
000310 dc 04 5a 03 b3 74 6d 3d e8 7e 54 03 e7 98 ee bb
       6.407002e-37 0.05797262 6.244688e-37 -0.007281411
000320 04 49 54 83 e8 56 50 83 9e dc 56 83 1a 96 bf 3c
       -6.238502e-37 -6.122547e-37 -6.3142204e-37 0.023387004
000330 08 55 5a 83 00 ef 51 83 6a f6 bc 3b c3 26 02 bd
       -6.4162053e-37 -6.169394e-37 0.0057666795 -0.031775247
000340 b4 0b 92 bc 99 cf 85 3a c3 48 5b 83 72 2e 55 03
       -0.017827846 0.0010208964 -6.444184e-37 6.264839e-37
000350 03 e7 52 83 e6 e5 56 83 81 78 53 83 4f 8d 5b 83
       -6.197864e-37 -6.315286e-37 -6.214566e-37 -6.452053e-37
000360 4d e5 4f 83 1c 8f 4a 83 26 07 4f 83 27 ec 4d 03
       -6.1095057e-37 -5.9526746e-37 -6.084004e-37 6.0515175e-37
000370 df af 50 83 47 7c 57 83 14 c3 4a 83 9a 7d 57 03
       -6.1327596e-37 -6.3325485e-37 -5.9586403e-37 6.3327005e-37
000380 9d db 55 83 6a f2 4e 03 6a e1 51 03 7c 09 4c 83
       -6.284718e-37 6.0816237e-37 6.1678342e-37 -5.99611e-37
000390 a4 4f 44 83 73 95 4a 83 75 45 48 83 28 f7 5b 03
       -5.7690646e-37 -5.9534024e-37 -5.885445e-37 6.4642037e-37
0003a0 9d ef 59 83 d8 33 51 83 f8 d0 56 83 06 c5 59 03
       -6.404563e-37 -6.1479094e-37 -6.312883e-37 6.399674e-37
0003b0 d7 e9 50 83 9f d7 57 83 42 fc 56 83 43 4d 58 03
       -6.139414e-37 -6.343034e-37 -6.3178526e-37 6.3565387e-37
0003c0 dd bb 80 3d ab 30 51 03 8e 3a 7f 3d 8a 19 0b ba
       0.06285832 6.147545e-37 0.0623117 -0.0005306235
0003d0 56 e8 d7 3d e6 61 56 03 5c 1f 46 bd e8 a3 a9 3d
       0.105423614 6.300133e-37 -0.04836975 0.08283216
0003e0 8e af f4 3d 51 b2 c3 bb e6 b0 1c 3e 88 84 5c 3c
       0.11947547 -0.0059721847 0.15301856 0.013459332
0003f0 92 31 92 3d f2 82 a4 bb 50 ed e0 b7 4b c2 51 03
       0.07138361 -0.0050204927 -2.6813388e-05 6.1642617e-37

hidden2.bias f4 [30]
000000 46 1d f7 bc d4 f1 83 25 de 53 5b 3d fc 08 38 83
       -0.030165326 2.2888747e-16 0.05354678 -5.4083054e-37
000010 ad 23 fa 3c 6f 47 42 ba 30 24 61 3c 67 d6 57 83
       0.03053459 -0.0007411157 0.013741538 -6.3428943e-37
000020 90 1d 39 be 5b 1a 8a bd 79 d7 45 bc 35 08 8d bc
       -0.18077683 -0.06743308 -0.0120752985 -0.017215827
000030 31 21 d3 3d e1 a5 c6 3d 25 af 10 3d fd a6 52 03
       0.10309065 0.09699608 0.03532328 6.1905147e-37
000040 c8 05 39 3c 2c cb b6 bd a3 51 75 3d 89 b9 50 03
       0.011292882 -0.08925471 0.059892308 6.133869e-37
000050 f4 2b 37 bd ff f9 2f 3e 82 88 9a 30 25 07 cb bc
       -0.04471965 0.1718521 1.1243773e-09 -0.02478368
000060 3f aa 28 bd c9 48 f7 3c 4a 57 00 3e 1c 5f 56 83
       -0.041177984 0.030186074 0.12533298 -6.299813e-37
000070 65 44 1c 3e 5d 2f 5c 83
       0.15260465 -6.470656e-37

out_mu0.weight f4 [8, 30]
000000 d3 52 ce 39 e1 27 5b 03 00 98 0e 3e ae 29 52 03
       0.0003935309 6.4404094e-37 0.13925171 6.17613e-37
000010 a1 f0 0a 3e 0b b6 1e a9 16 63 ba bc 31 06 2d 83
       0.13568355 -3.5240945e-14 -0.022752326 -5.084724e-37
000020 bc aa 18 be a7 58 63 bd a5 86 05 be 20 ca ce bd
       -0.1490888 -0.055504467 -0.13039644 -0.10097146
000030 4a 2e a5 3d 97 2f b6 bc 64 1e 4a 3e c4 5e 5a 83
       0.080654696 -0.02223949 0.19738156 -6.4173228e-37
000040 97 a0 58 83 e8 3f e5 bc c3 f1 95 bc 8c 76 5a 03
       -6.3661043e-37 -0.027984574 -0.018303758 6.4200527e-37
000050 45 2b 21 3d 70 3d 87 bc 3a 34 56 03 47 4e d6 36
       0.039347906 -0.016508788 6.29489e-37 6.3868097e-06
000060 ec 9f de bd 99 c5 4f 3e 72 9d be bb 64 12 53 03
       -0.108703464 0.20290221 -0.005817109 6.202844e-37
000070 1c 8e 31 bd 7e b4 57 03 9c 9a c9 3b cd c2 4f 83
       -0.043348417 6.3390016e-37 0.006152464 -6.1055453e-37
000080 b8 e1 c3 bd e0 3a 5c 83 4e d6 4a 3d 49 24 2b a1
       -0.09564537 -6.4719774e-37 0.049520783 -5.7985077e-19
000090 8b 45 28 3c 45 4b 5e 83 5d c0 d8 bb d4 ae d0 3d
       0.010270487 -6.532634e-37 -0.0066147284 0.10189596
0000a0 74 2a 1d 3c 0b 89 bc 3d 15 51 0b 3d 7e 25 d4 bc
       0.009592641 0.09205826 0.034012873 -0.025896784
0000b0 1d 49 1b be 78 e9 5a 03 f5 02 0f 0a cb 97 88 3d
       -0.15164609 6.433245e-37 6.885756e-33 0.06669577
0000c0 3b bc 8d bc 24 af 5d 03 d5 e0 5d bd b7 c9 ee 3d
       -0.01730167 6.5147114e-37 -0.054169495 0.11659568
0000d0 65 70 56 03 7f 77 27 38 23 7c bc 3d 17 30 26 bd
       6.301797e-37 3.9927192e-05 0.09203365 -0.040573206
0000e0 4d d0 c0 bd 4a 47 51 03 d7 bc f2 bd 23 0d 5e 83
       -0.0941473 6.1501416e-37 -0.118524246 -6.5255017e-37
0000f0 44 1d 5d bb b5 0b 56 83 dd 7e 0c be 7e c6 58 83
       -0.0033739367 -6.2902387e-37 -0.1372027 -6.3704553e-37
000100 49 fa 02 3d a4 39 1c 22 42 b5 9e 3b 30 16 53 03
       0.03197697 2.1172457e-18 0.004843385 6.2032797e-37
000110 25 46 c6 3d a7 55 e5 bc 11 fa 1e 3e b3 18 f1 3d
       0.09681348 -0.027994944 0.1552508 0.11772289
000120 51 a3 07 3e 98 8b 9b bc 24 81 c4 bd e9 97 53 83
       0.13245894 -0.018987462 -0.09594944 -6.218171e-37
000130 f0 a2 b6 a0 43 c0 dd bc 8d fd 55 3d ff 39 3c 83
       -3.0939822e-19 -0.027069217 0.052243758 -5.531481e-37
000140 24 81 fb 3d 3e 59 04 3e dd e9 54 83 e4 c0 78 b9
       0.12280491 0.12924668 -6.2569662e-37 -0.0002372298
000150 e7 a3 15 3d 38 57 a5 bd de 3c c7 bd cb 1a 58 83
       0.036533263 -0.08073276 -0.09728406 -6.350745e-37
000160 a2 a1 32 bd ac c5 50 83 93 3b 76 bb d9 a7 5a 03
       -0.043611176 -6.1352622e-37 -0.003757213 6.425712e-37
000170 f1 cf cb bd 67 4c 4c 83 c6 b6 c4 bd 61 5f dd 20
       -0.09951771 -6.0037917e-37 -0.09605174 3.7501973e-19
000180 c6 a4 7b bb 59 15 54 03 32 5b af 3c 50 da a3 3d
       -0.0038397773 6.2325707e-37 0.02140579 0.08000624
000190 c3 32 80 bd 80 5f 8f bd 50 86 cd bd 29 b7 03 3d
       -0.06259682 -0.07000637 -0.10035384 0.032157097
0001a0 b6 d4 4d 3e 64 18 50 03 6c d8 6d 85 a8 7e bd bc
       0.20100674 6.1153705e-37 -1.1183437e-35 -0.023131683
0001b0 50 d1 83 bb f9 84 51 03 da ba 39 3d 59 42 8f 3d
       -0.0040227547 6.1572225e-37 0.04534421 0.06995077
0001c0 28 0d 50 03 f0 d5 26 b8 fc 47 6f bd 25 90 41 3e
       6.114081e-37 -3.977673e-05 -0.05841826 0.18902643
0001d0 78 9d d2 3d e0 73 52 83 34 fc ff bd 6f 92 53 83
       0.10283941 -6.184647e-37 -0.12499276 -6.2175425e-37
0001e0 b7 7c b4 3b a9 a7 55 03 f1 e2 0f 3e 78 b6 5c 03
       0.005508031 6.278754e-37 0.14051415 6.4861653e-37
0001f0 57 00 f6 3d 32 ce 5d 1a 50 a0 b2 3b 6d 4c 52 83
       0.120117836 4.5868292e-23 0.0054512396 -6.1801186e-37
000200 9a 01 e3 3d d7 be 24 bc 0f c6 32 bc 1c 47 a4 bd
       0.1108429 -0.010055265 -0.010911479 -0.080213755
000210 61 f2 3c be 04 72 83 3d 63 70 a7 bd b5 d3 48 83
       -0.18451835 0.06418231 -0.08175733 -5.9017745e-37
000220 fb 69 ea 87 78 00 da bd 0b a8 58 bd b2 28 5d 83
       -3.5270697e-34 -0.10644621 -0.052894633 -6.499278e-37
000230 ff 26 fb bb d7 18 db bd 21 41 4f 03 81 66 ba b8
       -0.007664561 -0.10698097 6.0906597e-37 -8.888264e-05
000240 25 b3 c3 bd 34 17 bd bd 73 07 97 bd 08 df 49 83
       -0.095556535 -0.09232941 -0.07374468 -5.932462e-37
000250 50 70 4f be cc 22 4f 03 54 ee bc 3b 68 f6 59 83
       -0.20257688 6.0871778e-37 0.0057657156 -6.405343e-37
000260 39 c6 b5 3d 1a 7b 5e 83 4c f1 1a be 84 ca 05 26
       0.088756986 -6.538125e-37 -0.1513111 4.6418104e-16
000270 22 d4 7a 3c a2 6c 54 03 a7 4e 81 3d d3 93 62 3d
       0.0153093655 6.2425905e-37 0.0631383 0.055316757
000280 56 81 01 be 1b b9 21 bd 83 16 3d 3e e6 d1 29 bc
       -0.12646994 -0.03948317 0.18465619 -0.010364985
000290 d0 32 96 3d ea 22 5b 03 5f 6e 5d 8f 2f a7 fe 3d
       0.073339105 6.4398395e-37 -1.0917398e-29 0.124342315
0002a0 84 6d ea 3c c5 46 34 83 ba b6 fb 3c 57 67 1c 3e
       0.028616674 -5.2978485e-37 0.03072678 0.15273796
0002b0 16 1f 58 83 6c 15 36 b7 bf f0 84 bc 64 f3 6b bd
       -6.351238e-37 -1.0853033e-05 -0.016228078 -0.057605162
0002c0 66 e5 d7 bd a8 9b 4e 03 f4 68 06 3e 79 65 52 83
       -0.10541801 6.0716644e-37 0.13125974 -6.182994e-37
0002d0 1a e4 64 bb 11 2d 52 03 a6 8d 12 3e 94 ac 4f 03
       -0.0034925998 6.1765187e-37 0.14311847 6.1029943e-37
0002e0 39 20 e9 bd 22 72 89 22 ca 4d 19 bd 33 52 52 83
       -0.11383099 3.7254767e-18 -0.0374277 -6.1807813e-37
0002f0 15 e5 05 3e f9 c0 29 be 1c bf 06 be 2d fb b2 3d
       0.13075669 -0.1657752 -0.1315884 0.08739314
000300 d8 35 cb bd 8b 81 3f 3d dd 2b 27 be b1 e5 3d 03
       -0.09922379 0.0467544 -0.16325326 5.580578e-37
000310 96 41 e9 08 6e 90 83 3d 5c 2c a9 bc 43 f4 50 03
       1.4038597e-33 0.06424032 -0.020651035 6.1406105e-37
000320 03 df 05 be c1 4b b6 3d 6d 62 53 03 18 07 3d b8
       -0.13073353 0.08901168 6.2120314e-37 -4.5067718e-05
000330 28 9d ca 3d f6 ff 8f bd 0a af 14 3e 5e 0d 52 03
       0.098932564 -0.070312425 0.14519897 6.17288e-37
000340 21 84 77 3d 26 7a 59 03 e9 c9 1e bd 82 17 59 03
       0.060428742 6.391079e-37 -0.038766775 6.3797554e-37
000350 72 6b ed bd 8a 26 4e 83 11 0a da 3c c0 b5 68 24
       -0.11592759 -6.05822e-37 0.026616128 5.046093e-17
000360 27 f0 34 bd 30 e3 56 03 27 1c f9 3c 47 17 1e be
       -0.04417434 6.3149746e-37 0.030408932 -0.15438567
000370 54 18 48 be be b4 29 3e ff 46 00 3e 1a 5f ab 3d
       -0.1954053 0.16572854 0.12527083 0.083677486
000380 15 d8 17 be 3a 89 4d 83 59 0b 82 28 28 50 9f bb
       -0.14828523 -6.0401614e-37 1.443782e-14 -0.0048618503
000390 e6 0f 66 bb 31 ef 5c 83 cb 82 68 bd 67 76 0c be
       -0.003510469 -6.4926768e-37 -0.05676536 -0.13717042
0003a0 4d 0e 54 03 29 58 dc 3a 54 6e 22 3e 98 c3 d0 3d
       6.2317617e-37 0.0016810942 0.158624 0.101935565
0003b0 79 1e 20 3e 39 f9 50 83 44 02 fb 3d 69 d7 5b 03
       0.15636624 -6.14118e-37 0.122562915 6.4605594e-37

out_mu0.bias f4 [8]
000000 ff 92 c2 bd 1a 37 40 3d 0b 27 20 be 4b eb d1 3d
       -0.095006935 0.04692755 -0.15639894 0.10249957
000010 f6 9a fe 3d de fc 25 be b9 69 f0 bd 16 26 ef 3d
       0.124319 -0.16209742 -0.11738915 0.11677186

out_var0.weight f4 [8, 30]
000000 ea 94 b5 b9 ca 38 5d 03 0c 58 ce 3d 2c 4d 4d 03
       -0.0003463396 6.5011254e-37 0.10075387 6.0332674e-37
000010 a8 09 9f bd 0e fd 5c 96 86 83 47 3c 52 10 5e 03
       -0.07765514 -1.7851308e-25 0.012177354 6.525867e-37
000020 7e 68 79 3d 33 99 fc bd 47 b0 95 bd 01 7c 5c 3d
       0.060890667 -0.12333908 -0.07309013 0.053829197
000030 f3 1c 70 3c 6b 62 f6 bb 8c b9 a3 3c 21 ff 54 03
       0.0146553395 -0.0075190566 0.019985937 6.2594074e-37
000040 92 fa 7d 84 48 35 70 bd e8 db 50 bc 62 99 50 83
       -2.9855063e-36 -0.058644563 -0.012747742 -6.130178e-37
000050 80 a2 03 bc 5f 35 e8 bd 0b db 55 83 54 12 2c b4
       -0.0080343485 -0.11338305 -6.2846523e-37 -1.6025416e-07
000060 e9 5b dc 3c e7 05 3d 3d d1 cc 1e bd cd 3f 57 83
       0.026899295 0.046148207 -0.038769547 -6.325606e-37
000070 1c f8 65 3d 2a 3f 51 83 32 42 0e 3b 53 2f 53 83
       0.05614482 -6.149209e-37 0.0021706936 -6.2061653e-37
000080 08 77 91 3d d7 fa 4e 03 75 fb 43 3e e8 3f 00 93
       0.071027815 6.082591e-37 0.19138892 -1.618738e-27
000090 8a f5 0d bb 07 b9 55 83 30 53 ab bd 77 74 2f 3e
       -0.0021661245 -6.2807475e-37 -0.08365476 0.17134272
0000a0 f1 18 49 bd d6 d3 96 3d 7f 9e 13 3d 18 9e 1a bb
       -0.04909605 0.07364623 0.036039826 -0.0023592766
0000b0 3b 93 6f bb cf fd 50 83 e8 d6 59 83 6f 1c d0 bd
       -0.0036556262 -6.1417064e-37 -6.401727e-37 -0.10161673
0000c0 f5 6f bd bc 29 dd 58 03 fb 84 be 3b 17 59 4c bd
       -0.023124674 6.3730574e-37 0.0058141924 -0.04988965
0000d0 97 da 5d 03 d2 2a fb 34 b3 76 31 bd e5 d3 8f bd
       6.519699e-37 4.678355e-07 -0.04332609 -0.070228375
0000e0 ca 5f 0e bd c2 97 4f 03 6f 76 1c be af 91 4d 03
       -0.03475932 6.100604e-37 -0.15279554 6.041132e-37
0000f0 c6 63 82 3b a5 2d 53 83 a2 09 04 3e 3a 39 28 83
       0.003979179 -6.2059724e-37 0.128943 -4.9436456e-37
000100 9a e4 5b 3d 7b 42 3b 16 77 05 08 bb 9f 57 3c 03
       0.05368481 1.5126717e-25 -0.002075521 5.534882e-37
000110 6b b5 b2 3d c7 5a 21 be b7 0b f8 3d c5 d7 9e bc
       0.08726009 -0.15757285 0.121116094 -0.019389996
000120 1c 22 7b bd 72 32 04 bc 6d 47 b8 3b 69 92 58 83
       -0.061311826 -0.008068668 0.005623749 -6.3644766e-37
000130 b5 c1 08 8b d9 4d 6a bd 11 7c 63 3c b9 fa 59 03
       -2.6338376e-32 -0.057203148 0.01388456 6.4058384e-37
000140 90 5c 01 be 1e 99 fa bd b8 8d 4e 83 cb 9f 45 37
       -0.12632966 -0.12236236 -6.0700644e-37 1.177932e-05
000150 6f a7 56 3d 23 4c 99 bd 20 0b ce 3d ba fc 57 03
       0.05240577 -0.07485225 0.10060716 6.3472937e-37
000160 a8 11 14 be 43 48 52 03 77 a2 e3 ba f8 e4 5a 83
       -0.1445986 6.1796406e-37 -0.0017367144 -6.4327285e-37
000170 b4 c6 1b 3d 4e b6 53 03 04 51 cb bd a2 06 51 03
       0.038031295 6.2216603e-37 -0.09927562 6.1427194e-37
000180 23 d5 1e 3b a1 3e 54 83 c6 bf fd 3c 13 36 88 3d
       0.0024235926 -6.2373095e-37 0.030975234 0.06650939
000190 0a 12 3b be 7e e1 4f 3d aa c5 e2 bd 29 80 11 bd
       -0.182686 0.050752155 -0.11072858 -0.035522614
0001a0 66 c0 48 bd ea f1 4f 03 a1 17 59 03 e9 45 94 bd
       -0.04901161 6.1109536e-37 6.3797693e-37 -0.07239897
0001b0 eb 96 97 bc bb 7e 5d 03 3f 25 41 bd 7c db 24 3d
       -0.01850458 6.5091542e-37 -0.04715466 0.04024838
0001c0 c3 b7 5a 83 c7 6a 06 36 2f 73 09 3e 00 ec 01 bd
       -6.427539e-37 2.0029709e-06 0.13422845 -0.031719208
0001d0 b3 30 c9 3d 9a 58 53 83 a0 0f d3 bd 09 fb 58 03
       0.09823742 -6.2109037e-37 -0.103057146 6.376487e-37
0001e0 b3 6c 3d 3a 6c 75 58 83 37 db ac 3d 9c e6 53 83
       0.0007225975 -6.361149e-37 0.084402494 -6.2272054e-37
0001f0 12 72 dd 3c 7e 39 05 8d 3e 84 98 3b 9d 92 59 83
       0.027031932 -4.1052993e-31 0.0046544364 -6.3938872e-37
000200 02 02 27 3e e8 5b 06 3d a8 f6 51 bd 26 26 e6 3d
       0.1630936 0.032802492 -0.05126062 0.11237745
000210 ef e8 6e be 4e f9 c8 bc 5c 86 f9 bd 55 3e 4e 03
       -0.23331045 -0.02453294 -0.1218383 6.0609513e-37
000220 7a eb 55 03 9d 75 2c be 87 c6 b3 bc c2 cc 49 03
       6.286539e-37 -0.16841741 -0.021945251 5.930364e-37
000230 c4 ae 7c bd 10 76 17 be 00 15 59 03 aa 65 45 32
       -0.061690107 -0.14791131 6.3794675e-37 1.1490025e-08
000240 85 43 aa 3c b3 b7 50 3c c5 c4 d3 bc 75 d9 55 83
       0.020784149 0.01273911 -0.025850663 -6.2844703e-37
000250 cc c2 ac bd 7d de 5b 83 0b 43 3e bb 30 d4 51 83
       -0.08435592 -6.461372e-37 -0.002903166 -6.166316e-37
000260 84 9d ff 3a 5d d8 55 03 3f 47 22 be f5 c3 3b 1e
       0.0019501899 6.2843447e-37 -0.1584749 9.9402205e-21
000270 19 60 15 3a 22 16 5d 03 d7 9e d6 3d ee e8 ce bb
       0.00056982186 6.497147e-37 0.10479515 -0.0063143885
000280 b9 bd d2 3d 9e 32 20 3e 5c 27 25 be 7a f8 50 3c
       0.10290093 0.15644309 -0.16128296 0.012754554
000290 2c 8b 1f bd 6a 9b 53 83 9f 05 57 03 28 42 f6 3d
       -0.038951084 -6.2185734e-37 6.3189274e-37 0.12024337
0002a0 3e 62 94 bc f2 73 57 03 81 3b 00 3e e3 34 f0 bd
       -0.018113252 6.331592e-37 0.12522699 -0.11728837
0002b0 c2 c1 5a 83 00 0f bc 33 97 7a 80 bd c1 28 98 3d
       -6.4286865e-37 8.757161e-08 -0.06273382 0.07429648
0002c0 87 44 f0 bd c2 14 52 03 6d b7 41 bc af b2 54 03
       -0.117318206 6.173728e-37 -0.011823517 6.250632e-37
0002d0 c6 0b 34 3c 9b 3c 46 03 bd 27 24 3e 10 6f 5a 03
       0.010989135 5.825654e-37 0.16030784 6.4191936e-37
0002e0 ab 80 2f 3e 62 76 d1 9b 15 e7 20 3c cc b0 55 03
       0.17138927 -3.4652653e-22 0.009820719 6.2798027e-37
0002f0 80 54 14 bc 22 94 b8 bd 21 1f b2 3d 7a 81 54 3d
       -0.0090533495 -0.09012629 0.086973436 0.05188129
000300 13 df 3a be 20 49 92 bd b4 8c 6a 3d 04 a0 4c 83
       -0.18249159 -0.07142854 0.05726309 -6.01339e-37
000310 37 90 e8 92 7b 5a ef bc 0b 84 97 3c 33 f4 59 03
       -1.467681e-27 -0.02921795 0.01849558 6.4050895e-37
000320 a5 cd d1 bd 5b 31 27 be dc 00 5e 03 c1 7c 98 b9
       -0.10244302 -0.16327421 6.5240923e-37 -0.00029084648
000330 41 f6 ed 3b 7f 43 16 bd 73 b0 0a be 2a af 5c 03
       0.007262022 -0.036685463 -0.13543873 6.485327e-37
000340 bb 65 67 bd bd 5b 5b 83 24 c6 02 bc 18 21 54 83
       -0.056493502 -6.4463626e-37 -0.007981811 -6.233919e-37
000350 97 64 77 bd 16 65 59 03 8b c6 8a 3d b2 4c 75 96
       -0.060398664 6.388661e-37 0.0677615 -1.9815143e-25
000360 6f 29 1f 3c 23 53 4e 83 94 da 50 3e 6f 1b dd ba
       0.009714468 -6.0633395e-37 0.20395881 -0.0016869138
000370 a5 83 a2 bd c0 60 f1 3d ba 2b 20 bc a0 64 a9 bd
       -0.079352655 0.11786032 -0.00977605 -0.08271146
000380 0a 66 ed bd 9a 22 57 03 d6 a1 00 96 7f a6 01 be
       -0.11591728 6.322254e-37 -1.0390824e-25 -0.1266117
000390 af 06 67 3a f2 32 52 83 98 9a b9 3d fe cc ab bd
       0.00088129466 -6.1771936e-37 0.090626895 -0.083887085
0003a0 44 83 5b 83 56 75 04 39 a2 e4 b0 3d 7c c6 02 3d
       -6.4509e-37 0.00012632212 0.08637358 0.03192757
0003b0 17 75 8f 3d 10 4d 4c 03 2d 1a f6 bd 85 5d 5d 03
       0.07004755 6.0038675e-37 -0.120167114 6.505342e-37

out_var0.bias f4 [8]
000000 ea ae 5e ba d8 e2 42 bd 42 83 f4 bd 05 6f 0d 3c
       -0.0008494692 -0.047579616 -0.11939098 0.008632426
000010 5a a1 c7 3d e3 26 a8 3d f6 37 d3 bd 0d 03 e8 bd
       0.09747572 0.08210542 -0.10313408 -0.11328707
